results/_edu_fptra_0.9_1000_VAE_model.pt (torch, 201744 bytes, 61 tensors)

encoder.conv1.weight f4 [16, 1, 2]
000000 dd 7c eb be 3b 8c 17 bf e5 dd cb be a7 ee b7 bd
       -0.459937 -0.5919835 -0.3981773 -0.08981066
000010 a1 d1 d0 3e c0 dd e6 3e fa c0 e0 3e 9e cc 29 3f
       0.40784934 0.45091057 0.4389723 0.66327846
000020 46 d9 a8 3d 5a 3b 1d 3f 52 a3 1c 3f 2e 32 52 3e
       0.082445666 0.6141869 0.6118671 0.20526955
000030 73 4a 3b 3e b1 2f ac 3d bb b3 c3 3e b3 7a 77 3e
       0.18290119 0.08407534 0.3822306 0.241679
000040 9e b3 34 3f 36 73 fb be 90 6a db bd 46 00 d7 be
       0.70586574 -0.49111336 -0.107136846 -0.41992396
000050 4a 90 1d bf a8 51 58 3e 88 0b d8 3e e3 08 0d 3f
       -0.6154829 0.211249 0.42196298 0.55091685
000060 1f c8 0e bf fd 4f e4 be 45 ae de 3e 83 f9 85 3d
       -0.5577411 -0.44592276 0.43492332 0.06541731
000070 0e 8f b5 be a0 4c 8a bc 98 ba cf be 37 b4 2b bf
       -0.35460705 -0.01688224 -0.40572047 -0.6707186

encoder.conv1.bias f4 [16]
000000 50 55 ea be b2 26 3a 3e d4 5c f3 be f3 b1 ce be
       -0.45768213 0.18178824 -0.4753176 -0.4037014
000010 ee 86 db 3e d4 39 10 3f 26 be e8 bd 94 9a 1c bf
       0.4287638 0.5633824 -0.11364393 -0.6117337
000020 97 88 b1 3e 79 be c6 3c 9a 5c 9d be 9f e8 17 3f
       0.34674522 0.024260746 -0.30734712 0.59339327
000030 56 8d f8 be fe 7a 5e be 40 96 bd bc 3c d1 2d 3f
       -0.4854533 -0.21726605 -0.023142934 0.6789739

encoder.conv2.weight f4 [16, 16, 2]
000000 7c 80 0b 3e f9 d7 db bc 2f d9 28 3d 80 77 6f 3d
       0.13623232 -0.026836382 0.041222747 0.058463573
000010 e2 48 c1 bd d8 66 09 3e 7b 57 14 bc ea f4 14 be
       -0.094377294 0.13418138 -0.00905406 -0.14546552
000020 e5 34 7b bd d6 a4 a5 bc d1 1f 78 bd 7b ec 08 be
       -0.06132974 -0.020220201 -0.060577217 -0.1337146
000030 dd 7c 03 3d a3 63 e4 bd 94 e0 88 3d d6 d4 4f 3b
       0.0321015 -0.11151817 0.0668346 0.0031712553
000040 76 4f c6 3d c9 04 49 3d 4e 16 ec 3b 34 52 3c 3d
       0.09683125 0.04907683 0.0072048074 0.045976833
000050 54 b9 bc bd 6c f7 58 bc 95 30 29 3a e6 71 ce bd
       -0.09215036 -0.013242584 0.00064540777 -0.10080318
000060 6a 3c d7 3b d8 55 26 3e 94 84 5b bd 9b 5b 2e 3e
       0.006568481 0.16243684 -0.053593233 0.17027132
000070 e9 e0 bb 3c 4c af 31 bd 90 b1 0d 3c 16 97 05 be
       0.022934394 -0.043380067 0.008648291 -0.13045916
000080 6c df 64 bd 40 db cf bd 77 f0 9e bd b1 48 a4 bd
       -0.055877134 -0.101492405 -0.07760709 -0.08021677
000090 c1 69 28 3e 11 82 31 3e 48 c9 2f 3e ee 87 cd 3d
       0.16446592 0.17334773 0.17166626 0.10035692
0000a0 25 0a 2e bc 76 22 e7 3d db 62 82 3d 2d 82 39 3e
       -0.010622536 0.1128587 0.063665114 0.18116064
0000b0 fb 36 cc 3d e1 d6 02 3e 0e e8 96 3d 13 c1 23 be
       0.09971424 0.12777282 0.0736848 -0.1599162
0000c0 38 3b 2a be 09 93 0e 3e bb b2 28 3e d0 42 1a be
       -0.16624153 0.13923277 0.1647443 -0.1506455
0000d0 e0 c6 16 bd ab 98 e6 bd 6a 82 a6 3c 4f 8c 07 3e
       -0.036810756 -0.11259588 0.020325858 0.13237117
0000e0 55 00 0c 3e 34 cf 00 3e 40 82 0c be ab 49 e1 bd
       0.13672002 0.12579042 -0.13721561 -0.11000379
0000f0 64 c3 31 3d 46 58 be 3c f8 dd 30 3e b7 f5 2a bc
       0.04339923 0.023235451 0.17272174 -0.01043456
000100 91 7e 28 bb 01 d6 f4 3d d6 81 d4 3c 8d 72 a5 3d
       -0.0025710205 0.119548805 0.025940817 0.080784895
000110 a3 98 7e bd 57 84 dd 3d 95 82 b5 3d ba 1a 84 3d
       -0.062157284 0.108162574 0.08862797 0.0645041
000120 03 00 dc 3d 66 10 aa 3d 85 a6 94 3d 06 52 90 3d
       0.1074219 0.08303909 0.072583236 0.07046895
000130 c2 28 d8 3d 90 2e d2 bd f8 ac 13 be 10 ae c5 bd
       0.10554649 -0.10262787 -0.14421451 -0.096523404
000140 c1 1f ba 3d 0e 06 b7 bd d8 5f 9c 3c 19 66 dc bd
       0.09088088 -0.08936702 0.01908867 -0.10761661
000150 32 7b 33 be b6 64 ce bd a7 b5 c7 3c 94 a3 77 bd
       -0.17527464 -0.10077803 0.02437861 -0.060458735
000160 e6 13 d5 3c ea b3 1a 3d f0 6f 8e bd 22 99 aa 3d
       0.026010465 0.037769236 -0.06954944 0.08329989
000170 7c 6f 22 3e a1 3b 9b 3d 4b b0 c9 3d 8e 4e ba bd
       0.1586284 0.07579733 0.09848078 -0.09097014
000180 ff b5 03 3e a5 db e5 bc 94 0e f4 3c 64 1b 1d 3e
       0.12862395 -0.028058836 0.029792108 0.1534248
000190 88 8a 84 bc 61 ba 81 bb 81 47 c4 3c ed 33 2c 3c
       -0.016179338 -0.0039589857 0.023959877 0.010510427
0001a0 cd d5 31 bd f4 48 de bc bc 98 87 bd 2b 57 ec bd
       -0.043416787 -0.027134396 -0.06620929 -0.115400635
0001b0 f4 c2 f0 bc 6a 0c 0d 3e 7e f1 26 bd 61 29 1d bd
       -0.029389836 0.13774267 -0.04075765 -0.03836954
0001c0 7a 41 7b bd 5a ef af 3d 74 af 04 be 9c 52 80 bd
       -0.06134174 0.085905746 -0.12957555 -0.062657565
0001d0 96 df 99 bd 89 43 a8 bd 8b 8f 04 3e 27 e7 01 be
       -0.07513349 -0.08216006 0.12945382 -0.12685834
0001e0 8c bc 53 3c d0 a6 eb bd 25 8a 32 3c 59 92 b1 bb
       0.012923371 -0.11506426 0.010897194 -0.0054190573
0001f0 e3 a7 26 3e 72 b4 0a 3e 1d 56 e0 3d b8 15 6b bc
       0.16274981 0.13545397 0.10953925 -0.01434844
000200 3f 17 ac bc 43 0c 0c 3e aa 7e 17 3e db 59 f0 3d
       -0.021007178 0.13676552 0.14794412 0.117358886
000210 0b 02 47 bd 97 7e 3b be bf 8d e9 bd 5a 8f 24 3e
       -0.048585933 -0.18310009 -0.11403989 0.1607031
000220 d5 6f 00 be ab 70 e9 bd ae 2e 84 3d 62 5d 0d 3e
       -0.1254266 -0.11398443 0.06454216 0.13805154
000230 9e a7 96 3d 2e 3d 15 3e 90 0f 16 be 26 4a f8 3c
       0.07356189 0.1457412 -0.14654374 0.030308794
000240 58 b3 1b 3e 80 aa 10 3d 3f d8 42 bc 4f 4f c0 3d
       0.15205133 0.03531885 -0.011892377 0.09390127
000250 f5 3f 87 3d 96 28 6b bd 68 7e d5 3d e6 b8 2a 3e
       0.06603996 -0.057411753 0.10424501 0.16672096
000260 bb 2f 0d 3a 41 ac ae bd a6 0c 09 3e d1 b5 03 bd
       0.00053858355 -0.085289486 0.13383731 -0.032155816
000270 11 82 e3 bb 6a e7 4b bd a8 15 c2 3d 1b 9e 05 bd
       -0.0069429954 -0.04978124 0.09476787 -0.032621484
000280 f9 1a 45 bd 1c 33 00 be 90 a7 ae bd b2 10 e4 bd
       -0.048121426 -0.12519497 -0.08528054 -0.11135997
000290 7a 8f 19 bd 3a 8b cd bd 3b 07 c5 bd 30 c9 65 3d
       -0.037490346 -0.10036321 -0.0962052 0.05610007
0002a0 e8 52 1e 3e 3d c9 ba bd b3 ed ab 3d 92 b1 2f 3d
       0.15461314 -0.091204144 0.08394947 0.042893954
0002b0 e7 09 48 bc 01 70 20 be 0f 3a 08 bc 7e 79 c8 bc
       -0.012209392 -0.15667726 -0.0083146235 -0.024471994
0002c0 cf 19 a1 3b 74 89 51 bc 47 32 12 3e 09 9d 0e 3e
       0.0049164067 -0.012789119 0.14276992 0.13927092
0002d0 96 18 73 bd 77 c8 a2 3b 2a 18 45 3d 96 e9 ec 3d
       -0.05934962 0.004967745 0.048118748 0.115679905
0002e0 ca 25 9b 3d 8d 04 a6 3c 11 2e 3d 3d 34 5a 7d 3d
       0.07575567 0.020265842 0.04618651 0.061853603
0002f0 cc 3e c5 3d ee 29 08 3b 71 c0 bf 3d 6b dc 12 be
       0.09631118 0.0020776945 0.09362877 -0.14341895
000300 65 84 43 bb ec 1e 29 be b7 61 e1 3c 77 1b 1d 3d
       -0.0029833552 -0.16515702 0.027512414 0.03835627
000310 2d 4f 82 bd 03 33 de bd a2 0c 99 bd a5 71 7e 3d
       -0.06362758 -0.108495735 -0.07473113 0.0621201
000320 fe ac 6f bc 28 d8 82 3c 16 03 1a 3e 20 8a 9e bd
       -0.014628647 0.015972212 0.1504024 -0.07741189
000330 95 49 9f bd 0d 4e 8a 3c 80 2b 08 be 0d f3 3b be
       -0.077777065 0.01688292 -0.13297844 -0.18354435
000340 60 ba dd 3d 21 2f 9b 3d 9c 13 4f 3d 56 10 26 3d
       0.10826564 0.075773485 0.05055581 0.040542923
000350 84 57 d0 bd 3c 31 56 3c 86 e0 0e be ac 3b aa 3d
       -0.10172942 0.013073262 -0.13952836 0.08312163
000360 49 75 75 3d a5 da dd bd 1c 01 96 3c fe 73 0f 3e
       0.059926305 -0.10832719 0.018311076 0.14009091
000370 cd d8 e7 bd 31 06 d3 bd 90 e7 0d 3d 42 15 07 3d
       -0.11320648 -0.10303915 0.034644663 0.032979257
000380 d9 dd 0b be 66 fd 12 be f3 36 fa bd ca f6 24 bc
       -0.13658847 -0.14354476 -0.12217512 -0.010068605
000390 52 58 0e be 8b fc f6 3c d2 51 fa bd 20 63 10 bd
       -0.13900879 0.030149719 -0.12222637 -0.035250783
0003a0 de ce a3 3a 81 57 62 bd aa d7 29 3e 01 a5 5c bd
       0.0012497564 -0.05525923 0.16586176 -0.053868297
0003b0 2a f4 0e bd e3 b4 9f 3c 8d 7e 02 3e 1a 51 37 bd
       -0.03490082 0.019495433 0.12743588 -0.04475508
0003c0 bc 50 97 bd c9 4c 01 be 18 19 0b 3e e8 36 f3 3d
       -0.07388446 -0.12626947 0.13583791 0.11875707
0003d0 51 2b 6c bd 00 1b 15 be a8 68 2d bd a7 02 8e 3d
       -0.057658497 -0.14561081 -0.042336136 0.069341
0003e0 a3 e9 f7 3d 0e d8 08 bd cc 81 21 3e 68 ad 2a 3e
       0.121051095 -0.03340917 0.1577217 0.16667712
0003f0 24 b3 05 be 8a d4 a5 bd 36 2d 3b 3e 51 cc 11 3e
       -0.13056618 -0.08097179 0.18278965 0.14238097

encoder.conv2.bias f4 [16]
000000 af bb 0e 3e 12 fb 18 bc 34 40 36 be 49 51 a9 3d
       0.13938783 -0.009337204 -0.17797929 0.08267457
000010 2f 66 1b 3e fd 9c 99 bb de 61 ee 3d f2 08 0c 3e
       0.15175699 -0.004687904 0.116397604 0.13675287
000020 05 19 95 bd d2 7b 1a be 62 47 ec bc 0a 8c 38 bd
       -0.07280163 -0.15086296 -0.028842632 -0.045055427
000030 8d 46 9f 3d 12 0c 84 bd cc 4c 9a 3d 50 d2 25 3e
       0.07777128 -0.06447615 0.07534179 0.16193509

encoder.conv3.weight f4 [32, 16, 2]
000000 df 3e 86 bd 21 b0 30 be 7b 01 e1 3d 17 90 1c be
       -0.065549605 -0.17254688 0.109866105 -0.15289341
000010 f7 24 a1 bc 58 cf d5 3c 5d c9 a3 bc 6e 78 b0 3d
       -0.019670947 0.026099846 -0.019993478 0.0861672
000020 f3 ec 24 be bf 7b 78 3d 5a ce 6d bc f8 b2 07 be
       -0.16106014 0.06066489 -0.01451453 -0.13251865
000030 74 4d df 3d 14 b3 97 3a c5 43 90 bd 84 52 e7 3c
       0.10903445 0.0011573755 -0.07044176 0.028237589
000040 5c a7 31 be 51 fd 18 3e fc a5 80 bd e7 54 62 bc
       -0.17348999 0.14940383 -0.06281659 -0.013814188
000050 4f 8c b4 3c 09 3e ee bd e8 ce cb bd 55 9b 43 3d
       0.02203956 -0.11632926 -0.099515736 0.047755558
000060 01 a5 27 be fb a5 fa 3d 0d a6 6b 3d 65 88 7f bd
       -0.16371538 0.122386895 0.057531405 -0.062385935
000070 88 40 16 be 25 b4 01 bd 82 4c ef bd dd c7 90 3d
       -0.14673054 -0.03166594 -0.116845146 0.07069371
000080 c5 26 74 bd 3f 54 54 3c 67 b4 0f be b7 12 08 be
       -0.059607286 0.012959539 -0.14033662 -0.13288389
000090 3b d9 be bd ab 4f 93 3d c4 c6 92 bd 09 8a e4 bd
       -0.09318777 0.0719293 -0.07166818 -0.111591406
0000a0 89 ad 24 be e7 21 33 bb 0a 1d 84 3d 5e 8b 2f bd
       -0.16081823 -0.002733344 0.06450851 -0.04285752
0000b0 78 91 af 3d 0d 38 0a 3b 51 29 e3 3c ec c2 16 3e
       0.08572668 0.0021090538 0.027729662 0.14722794
0000c0 f5 17 ea bd 21 97 84 3d 9b 30 b8 bd 06 e9 0b be
       -0.11430351 0.06474138 -0.08993646 -0.1366311
0000d0 60 01 17 be b4 0a 09 3e d2 42 d7 3d 96 e1 d0 bd
       -0.14746618 0.13382989 0.10510792 -0.10199277
0000e0 5d b8 36 3e 18 19 29 bd 5c c2 ce 3c 9b f1 0c bd
       0.17843767 -0.041283697 0.025239162 -0.0344101
0000f0 08 30 df 3b 00 a9 05 3e b8 26 31 3e 7f 22 12 3d
       0.0068111457 0.1305275 0.17299926 0.03567743
000100 01 1d a4 3d 0a 25 2b be 90 5c fc 3d 3e f9 35 bc
       0.080133446 -0.16713348 0.123223424 -0.011106787
000110 bf d1 a0 bd 6b 00 79 3d be 64 3b be 8e 0a 67 bd
       -0.07852506 0.060791414 -0.18300149 -0.05640655
000120 1f 3f b7 3d 90 ff 2d 3e 64 05 ef 3d 34 93 10 be
       0.08947586 0.1699202 0.1167095 -0.14118654
000130 e8 44 31 3e 16 27 8f bd a3 75 22 3e 5d c7 d0 bd
       0.17311442 -0.06989877 0.15865187 -0.101942755
000140 05 a9 ed 3d ed 67 80 bd 4d 07 eb bd dd e6 51 bd
       0.116045035 -0.06269822 -0.11476002 -0.05124556
000150 e7 75 af 3d 8d d4 24 bd 3c c7 06 be 26 e5 01 3e
       0.0856741 -0.040241767 -0.1316194 0.1268507
000160 20 49 29 3e e1 e2 b7 bd 04 74 f2 3b d1 21 1e be
       0.16531801 -0.089788206 0.007399084 -0.15442587
000170 46 6e a5 3d a3 5a d8 3a b6 04 0d 3e 6e 69 88 bd
       0.080776736 0.0016506504 0.13771328 -0.06660734
000180 c4 d0 03 be d2 b4 15 be d1 66 1f 3d 0f 9d 5b 3d
       -0.12872607 -0.14619759 0.038916413 0.05361658
000190 eb be d4 bd fc 3b 11 3d 87 f6 9f 3b bc fb b7 3d
       -0.10387977 0.035457596 0.0048816833 0.089835614
0001a0 50 e6 78 3d 16 1f 0a 3e 8b de 7b bd 5d 74 29 be
       0.060766518 0.13488421 -0.06149153 -0.16548295
0001b0 91 95 b1 bd fd e3 03 bd e8 76 74 ba aa 86 bd 3c
       -0.08671106 -0.03219985 -0.000932558 0.023135502
0001c0 c0 a7 31 3e 65 60 0c 3e 3f b4 26 3e 3a bb c4 bd
       0.17349148 0.13708647 0.16279696 -0.09606023
0001d0 7c c4 12 3b 2f 8f 03 3d 29 9f 58 3d e4 46 e0 bd
       0.0022394946 0.032118972 0.052886162 -0.10951021
0001e0 ec 04 ea 3d 51 55 00 be bb 51 99 3d d0 4b 94 3c
       0.1142672 -0.12532546 0.07486292 0.018102556
0001f0 4c 46 0e 3e 4c a9 c4 3d 42 41 7c bd 6d a5 55 3d
       0.13894004 0.09602603 -0.061585672 0.052159715
000200 6f 9a ef 3d 0e 40 ea bd 5c 80 8c 3d e6 60 3e 3d
       0.11699378 -0.11437999 0.0686042 0.04647913
000210 a4 25 e2 3c c4 23 4e 3d 7e 09 d9 3c 1a 10 b8 3d
       0.02760584 0.050327078 0.026493784 0.08987446
000220 04 ff 8f bd c1 8c e8 3d 91 54 15 3e 2c 7a 07 be
       -0.07031062 0.11354972 0.14583041 -0.13230199
000230 46 a0 33 3d cb 94 2c be 67 2b 83 bc 58 d1 96 3d
       0.04385402 -0.16853635 -0.016011907 0.07364148
000240 40 01 21 be fd 51 0f 3e 14 21 99 3c 90 43 0a 3e
       -0.15723133 0.1399612 0.01869253 0.13502336
000250 0e 0f 23 be a9 41 c8 bc da 43 25 3e 0e 0d 24 3e
       -0.15923712 -0.024445372 0.16139165 0.16020605
000260 ce 34 b1 3d f2 26 88 bd b2 d1 1c 3e 5a 4b 97 3d
       0.0865265 -0.06648053 0.15314367 0.07387419
000270 02 83 ae bd b6 79 27 be c6 ca e4 3c 6c 62 ec 3d
       -0.085210815 -0.16355023 0.027928721 0.1154221
000280 7b 5b 9d bd 99 8a 2a bd 16 57 10 be 0b 9c 00 3e
       -0.07683464 -0.041636083 -0.1409572 0.12559526
000290 e1 60 45 bd f4 c4 41 3d 4e a5 84 3d 3d 69 0f 3e
       -0.048188094 0.04730697 0.06476842 0.14004989
0002a0 b1 72 08 be a9 8c 9b bd 48 d1 24 bd 6a 4c 42 bd
       -0.13325001 -0.07595188 -0.04023865 -0.047436155
0002b0 3c 94 35 3e 77 e0 72 3b fe 14 14 be 91 4f 9c bd
       0.17732328 0.003706006 -0.14461133 -0.076323636
0002c0 6e f9 1c be 31 21 20 3e 14 ae be 3d 77 b3 c5 3d
       -0.15329525 0.15637662 0.093105465 0.09653371
0002d0 f5 6a 94 3b 7d c2 18 be a0 53 05 3e f0 c5 db bc
       0.004529352 -0.14917941 0.13020182 -0.026827782
0002e0 8b 44 f6 3d 7b dd 11 be 15 a7 10 bd 7e 5e 16 be
       0.12024792 -0.14244644 -0.03531559 -0.14684483
0002f0 05 c5 01 3e 49 71 0b be e1 cb 29 3c d4 c2 07 bd
       0.12672813 -0.13617434 0.01036355 -0.033144787
000300 d2 26 f4 3d 44 b0 f6 bd 8a 25 13 3c 2c 3a d7 3d
       0.11921467 -0.12045339 0.008981118 0.10509142
000310 38 b4 a2 bd 4c bc 9f bd 05 59 03 3d 40 54 11 bd
       -0.0794453 -0.07799587 0.032067318 -0.035480738
000320 af 67 f8 3d 64 a9 0e 3e c5 37 16 be c0 28 9f 3d
       0.12129151 0.13931805 -0.14669712 0.07771444
000330 61 9a 14 3d a1 b7 33 bd ca 57 4b bb 5a 93 d1 bd
       0.03628004 -0.043876294 -0.0031027668 -0.10233183
000340 e1 26 23 bd fd 7c a0 3d 8f 1a 78 3c ed a7 34 be
       -0.039832 0.078363396 0.015143051 -0.17642184
000350 50 18 c1 bd e2 2a 15 be 0b 25 db 3d 7b 8f da bc
       -0.09428465 -0.1456714 0.10700425 -0.026679745
000360 7d 08 a6 bc 31 3d 49 3d 65 6b 19 be 1c 82 42 be
       -0.02026772 0.049130622 -0.14982374 -0.18994945
000370 3f a5 a5 3d eb 7b 2f be 13 46 25 be 89 ca 23 bd
       0.08088159 -0.17137115 -0.16140012 -0.039988074
000380 6c cc 27 3d 0d 9d e5 3d c5 d1 19 3e 8b d8 6c bd
       0.040966436 0.11211596 0.15021427 -0.0578237
000390 22 ba 09 3d 5e 08 1f be da b5 17 be 49 3a 17 3e
       0.033624776 -0.15530536 -0.14815465 0.14768328
0003a0 19 8f e6 3d db 3e d1 bd 16 eb 11 3e c3 91 dd 3c
       0.112577625 -0.10217067 0.14249834 0.027047044
0003b0 a6 ce 9a bc 9e fd 89 bd a2 02 11 bd a2 5c 29 be
       -0.018897366 -0.06737827 -0.0354029 -0.16539243
0003c0 8e c8 86 3c 57 8c d3 3d 15 30 81 3d 51 e0 15 be
       0.016453054 0.10329502 0.06307999 -0.14636351
0003d0 62 7f 28 3e 7a ef 2e 3d 60 0c 8b bc 60 58 2b 3e
       0.16454843 0.04270885 -0.016973674 0.16732931
0003e0 80 6f ba 3d db 09 e5 bb a7 84 21 be ec 56 07 bd
       0.09103298 -0.0069897003 -0.15773259 -0.03304188
0003f0 ad 6a c8 bb 2a 02 3b 3d e8 f7 5e bd 6d f6 12 3e
       -0.0061162324 0.04565636 -0.05443564 0.14351816

encoder.conv3.bias f4 [32]
000000 ac c5 13 be 18 76 01 be cb 41 08 be 5a 04 21 3e
       -0.14430875 -0.12642705 -0.13306348 0.15724316
000010 56 66 d9 bd a2 31 fe bd 1b 27 95 3d e5 f0 c9 3b
       -0.10615222 -0.124118105 0.072828494 0.00616275
000020 4f 12 c1 bc 2c 15 2b be 4e 4f 30 3e 07 c6 a9 bd
       -0.0235683 -0.16707295 0.17217752 -0.08289724
000030 42 aa d5 bd 17 4d 1f 3d 70 bd c3 3d e5 f2 28 3e
       -0.10432865 0.038891878 0.09557617 0.16498907
000040 10 fc df bd 4c 0c c1 3c e8 0d 70 bd df 7d 3a be
       -0.10936749 0.023565434 -0.058607012 -0.18212079
000050 bc 5c ef bd 6d ea 4e be ec 91 88 3d 96 fc e2 3d
       -0.116876096 -0.20206614 0.066684574 0.11083333
000060 37 11 a4 3b 52 ac 13 bd aa 5d 81 bc 04 da ef bd
       0.005006935 -0.03605301 -0.015791733 -0.11711505
000070 47 e7 ad 3d e7 ce f5 3d d4 a5 86 bd 6d 1a 27 3d
       0.08491378 0.12002354 -0.06574598 0.040796686

encoder.conv4.weight f4 [32, 32, 2]
000000 7f c6 a8 3d 68 cf e5 3d d8 22 2a bd 06 6c 16 bd
       0.08240985 0.112212 -0.041537136 -0.036724113
000010 fa a1 0e bd 76 89 10 bd cb 9a ed bd 2b 20 da bd
       -0.03482244 -0.035287343 -0.1160179 -0.10650667
000020 09 c4 cc 3d 3f 4d 54 3d 4d a2 af 3d bc 39 04 3d
       0.09998328 0.05183148 0.08575878 0.032281622
000030 28 03 0b bd 75 fc a4 bd cd 17 79 3d ec 51 5c 3d
       -0.033938557 -0.08055965 0.060813714 0.053789064
000040 db 10 d8 bb 17 fd b1 bd 30 e2 9f 3d 54 db b3 3d
       -0.006593806 -0.08690851 0.07806814 0.08782068
000050 8e c5 c1 3d 4a 49 2c 3d 03 98 a4 bc 4f f9 8a 3d
       0.09461509 0.04206208 -0.020092016 0.06785833
000060 fe 83 1a 3d 23 96 88 bd cb d4 89 3b 32 51 2f 3d
       0.037723534 -0.06669261 0.004206275 0.042802043
000070 bc 9a be 3d b0 d5 77 3c 10 e5 80 bd 92 be f9 3c
       0.09306857 0.015126631 -0.0629369 0.030486379
000080 25 01 dc bd b0 8d 62 bb 4f 90 db bc 17 5b b4 bd
       -0.10742406 -0.0034569316 -0.02680221 -0.088064365
000090 e0 33 c7 3d 92 8e 37 bd cb ad ea bd 84 03 14 bd
       0.09726691 -0.0448137 -0.1145893 -0.036136165
0000a0 1b 53 f0 39 49 e4 df bd 6a 97 bc 3d 68 35 2c 3c
       0.00045838286 -0.10932214 0.092085674 0.01051078
0000b0 b5 9b ac bd 3f 04 9a 3c 8a 23 e8 bd 52 29 aa 3d
       -0.08428136 0.018800853 -0.113349035 0.083086625
0000c0 f3 f3 13 3c 76 3c 7c 3d 9e dc ab bd 04 ff a5 bd
       0.00903033 0.061581098 -0.08391689 -0.08105281
0000d0 79 6e 07 bc dd 25 99 3d f2 ce a5 3c 6a 07 e0 bd
       -0.008266085 0.07477925 0.02024028 -0.10938914
0000e0 83 64 a8 3d cc 7e e4 3a af d8 bb 3d 47 de a9 bc
       0.08222296 0.0017432808 0.091721885 -0.020735873
0000f0 68 b8 1e 3d 4e eb c9 bd 29 ca b5 bc 0e 9e 58 bd
       0.038750082 -0.09859334 -0.022191124 -0.052885108
000100 8b 2b 93 bd 79 e7 96 bd 92 5d f0 bc 18 3e f8 3d
       -0.071860395 -0.07368369 -0.029341493 0.121212184
000110 a1 71 f5 3d 81 e4 6a ba 8c 19 85 3d 70 c0 31 3d
       0.119845636 -0.00089604413 0.06499013 0.043396413
000120 37 76 70 3d 5d 7b dd bd d4 82 bc bd 82 8f 87 bd
       0.05870649 -0.10814545 -0.09204641 -0.06619169
000130 07 ee 55 3d db 36 7b 3d 7e 6b c4 3c 09 27 a5 bc
       0.052228954 0.06133161 0.023977038 -0.020160215
000140 90 75 18 bd d8 fd 04 3c 6d 7d 76 bb 56 18 ac bd
       -0.03722149 0.008117162 -0.003761138 -0.08403079
000150 fa 18 db bd 62 de b4 3d 39 53 88 3d 0c 07 ab 3d
       -0.10698123 0.08831479 0.066564985 0.083509535
000160 12 da 04 bd 98 7e 2d 3a 03 27 d1 3d aa 80 d1 bd
       -0.03243453 0.000661829 0.10212519 -0.10229619
000170 16 18 6a bd 78 9e 90 bd f3 25 fe bd a1 8f 84 bd
       -0.057151876 -0.070614755 -0.12409582 -0.064727075
000180 39 ff 6b bc 4e db 46 3c dc c4 fd bb 74 db 1a bb
       -0.014404112 0.012137247 -0.0077444147 -0.002362934
000190 83 c1 72 3d b8 6a 87 3d 79 4f 58 3d f4 ec b8 bd
       0.05926658 0.06612152 0.052810166 -0.0902957
0001a0 66 64 99 bd d3 7c a2 3c f0 75 97 bd 54 8b 52 3d
       -0.074898526 0.019834911 -0.07395542 0.051402405
0001b0 f9 32 f0 bd df 8f de bd 72 01 f6 3d 40 ab f7 3c
       -0.11728472 -0.10867285 0.120119944 0.030233026
0001c0 9c 64 a5 bc 7a 73 d6 bd 99 cc b3 3d 95 dd 43 bb
       -0.020189576 -0.10471244 0.08779258 -0.0029886712
0001d0 49 40 f4 3d c5 ae de bd 05 18 e0 3d 73 f1 a6 3c
       0.11926324 -0.108731784 0.10942081 0.020378804
0001e0 b2 2c a8 bd 80 f8 06 bd 92 92 1b 3a b2 c9 7c 3d
       -0.0821165 -0.03295183 0.00059346214 0.06171579
0001f0 69 17 e2 3d ad b8 04 3d bd 65 a7 3d 26 04 e6 bd
       0.110396214 0.032402683 0.08173702 -0.1123126
000200 8b 5b b3 bd b3 db 92 bd b5 83 69 3d c0 8a 09 bd
       -0.08757695 -0.071708106 0.05701037 -0.033579588
000210 40 eb e6 bc df 5d 1d bd 44 fa fa bd 46 55 3f bd
       -0.028188348 -0.0384196 -0.12254766 -0.046712182
000220 db 22 ae bd fb 3d 1d bd c5 02 46 3d 47 57 fe bd
       -0.08502742 -0.038389187 0.048342485 -0.124189906
000230 77 56 6f bc 75 1e f5 3d ff 06 e3 3d a6 40 96 3d
       -0.014608017 0.119687 0.11085319 0.073365495
000240 91 b7 54 3d 33 f9 c4 3d 5f cf fb bd 54 8a 90 bd
       0.051932875 0.096178435 -0.12295412 -0.07057634
000250 b3 b8 d4 3d ec 2b e7 bd ad ed da bd 01 e0 f0 bc
       0.10386791 -0.11287674 -0.10689864 -0.029403688
000260 df 01 ca bd 15 e9 eb 3d f3 13 ed 3d 68 6f ba 3d
       -0.09863638 0.11519066 0.11576071 0.0910328
000270 48 8d d7 3d b1 9d 95 3d 7a a8 ea 3d 4e 04 a1 bc
       0.10524994 0.07305468 0.114579156 -0.019655373
000280 9a 9d 8f 3c 42 86 36 3c fb ad f3 bd 61 cc 9e 3d
       0.017531205 0.011140408 -0.118984185 0.07753826
000290 aa 5b a5 3d b2 cb c0 bd c0 e3 aa 3d 8e 72 bc bd
       0.08074124 -0.09413852 0.08344221 -0.09201537
0002a0 2b 1d 8e 3d d2 3c 99 3d 3e 4a 11 bd 8f 36 06 be
       0.06939157 0.07482304 -0.035471193 -0.1310675
0002b0 a4 fa a5 bd d8 1c fa 3c ef d6 0a bd 37 67 51 3c
       -0.081044465 0.030531332 -0.033896383 0.012780956
0002c0 42 5b d2 bd 05 0f b4 bd 6f f7 a6 bc 23 dc 97 bd
       -0.10271312 -0.08791927 -0.020381657 -0.074150346
0002d0 2f c3 52 3d 44 05 e5 bd 5e 51 20 3c e6 26 e7 3d
       0.051455673 -0.11182645 0.009785024 0.11286716
0002e0 ed f9 a6 3d 59 ab d9 bb 45 1b 00 3d 0e 1d b8 3d
       0.08153138 -0.0066427407 0.031276006 0.08989917
0002f0 54 b8 81 3d bd e1 5a bd 73 e3 3b bd 83 c7 df 3d
       0.06333986 -0.053437937 -0.04587121 0.10926726
000300 34 f7 4a bd 77 42 b5 3d 0c a1 d3 3d 3d 0e 87 3d
       -0.049552158 0.08850568 0.10333452 0.065945126
000310 70 23 e7 bc 26 69 30 bd 72 e6 36 3a e2 c2 b1 bd
       -0.02821514 -0.043069027 0.0006977088 -0.08679749
000320 74 5f 3c bd 65 5c 07 3d 79 8f ab bd f9 49 b5 bd
       -0.04598947 0.0330471 -0.083769746 -0.08852
000330 88 6e fc 3c 92 d5 34 bd 8c 5c c1 3c 78 36 8c bd
       0.030814424 -0.04414899 0.0236037 -0.068463266
000340 72 fa d2 bd c1 95 8b 3d f7 8f a4 3d fb 75 95 3c
       -0.10301675 0.06815673 0.080352716 0.018244734
000350 d6 ff b1 3d 2c d4 30 bd ae 85 3d 3c 0d d5 ac 3d
       0.08691375 -0.043171093 0.011567516 0.08439074
000360 8c eb 58 3d ee 90 75 3c 78 ea 81 3d 44 24 d4 bd
       0.05295901 0.014988167 0.063435495 -0.103584796
000370 54 e4 9d bc ec bc f3 bd 9c 40 77 bd ca cd f9 bd
       -0.019273914 -0.11901268 -0.06036435 -0.12197454
000380 f9 98 5a 39 98 a3 b1 3d bc 9f ff ba 88 e9 8d 3c
       0.00020847087 0.08673781 -0.0019502561 0.01732327
000390 dd f8 5c 3d b9 47 dc 3d 5c 0e e2 3d 2f 05 4c bd
       0.053948272 0.107558675 0.11037895 -0.04980963
0003a0 0d b1 ce bd 25 35 27 3c ea 62 fc 3d 3e b0 51 3d
       -0.100923635 0.010205542 0.12323554 0.05119347
0003b0 13 d7 9c bd 6a 73 74 bd f7 67 d6 bd c3 90 a6 bc
       -0.0765821 -0.05968038 -0.104690485 -0.0203327
0003c0 de 61 62 3d 31 02 34 bd 47 55 76 3d 9b 23 a0 bc
       0.055269115 -0.043947402 0.06013992 -0.019548228
0003d0 79 d3 de bd c9 76 a9 bc 9d 7d 90 3d 74 6c 94 3b
       -0.10880179 -0.020686524 0.07055209 0.00452953
0003e0 11 ec cf bd f3 1f 1b bd df f8 7d bd 5b 93 b0 3c
       -0.10152448 -0.037872266 -0.06200492 0.02155464
0003f0 8e 72 c9 bc 1d 61 a6 bd e3 7b e7 3d 97 78 cd bd
       -0.024590757 -0.08123992 0.113029264 -0.10032766

encoder.conv4.bias f4 [32]
000000 08 ff 90 3d 60 49 30 bd 52 15 3e 3d 32 09 38 3b
       0.07079893 -0.043038726 0.04640705 0.0028081653
000010 6d 45 8a 3b 58 80 68 3d ba 38 98 bd 59 98 95 bc
       0.004219702 0.056763023 -0.07432695 -0.018261122
000020 43 e0 1f bd 00 ca 34 bb 93 2c da bc cb af b6 bd
       -0.039032232 -0.0027586222 -0.026632583 -0.089202486
000030 58 1e bc 3d 87 54 3d bd 66 43 91 bd 6d 48 b8 3d
       0.09185475 -0.04622319 -0.07092933 0.08998189
000040 11 08 3c 3d c9 cf 82 3d 2d 7f 81 3d b8 25 a1 3d
       0.04590613 0.06387288 0.06323085 0.078685224
000050 2c e2 b5 bc 99 09 07 bc 4f f9 21 bd 38 35 62 3d
       -0.022202574 -0.008242034 -0.0395444 0.055226535
000060 18 e3 08 3d 35 1e f6 bd 01 e0 8a 3d d0 42 b3 3d
       0.0334197 -0.1201748 0.067810066 0.08752978
000070 b4 f9 b3 3d d0 ee 70 bd be 21 9d 3d e0 87 a7 3d
       0.087878615 -0.0588215 0.076724514 0.08180213

encoder.fc1.weight f4 [64, 512]
000000 b1 9f 68 bc d3 33 16 3d 4d ce 31 bd d7 c6 2e bc
       -0.01419823 0.036670517 -0.043409634 -0.010667524
000010 6b 75 f7 bc b1 5a 65 bc f5 3f 9a 3a 3a 56 1e bc
       -0.030207356 -0.013998673 0.0011768328 -0.009664113
000020 70 06 16 3d 48 14 04 3b 17 63 26 bc d3 d3 8d 3c
       0.036627233 0.002015369 -0.010155461 0.01731292
000030 e5 f9 9a 3c 08 9e 62 3c af b5 d5 3c 9a 83 af 3c
       0.018917987 0.013831623 0.02608761 0.021425057
000040 65 c6 ce bc b5 39 4e bd 43 61 1e bb a6 d8 ab 3b
       -0.025241086 -0.050348002 -0.002416686 0.0052443324
000050 89 08 10 bd 82 9c 4b bc 0a c4 cf 3c 9e c5 d3 bc
       -0.03516439 -0.012427451 0.025362033 -0.025851067
000060 62 98 b9 3c 72 b2 87 3c 64 ba cf 3c 58 02 2b 3d
       0.02265567 0.016564582 0.025357433 0.041750282
000070 ba 18 af bc dd 09 e4 bc 15 98 46 3c fc 8f 93 bc
       -0.021374095 -0.027836734 0.01212122 -0.018012993
000080 36 13 0f 3d 99 2f 07 3d 56 aa 27 3b 80 8e 92 bb
       0.03493043 0.033004377 0.0025583706 -0.0044725537
000090 e9 9a 00 3c f9 3d ca 3b 7a a7 37 3d d1 20 6a 3c
       0.007849433 0.0061719385 0.044837452 0.014290051
0000a0 5c 9e 90 3a 8a d6 f3 bc 95 cb 2e 3d c6 c8 de 3a
       0.0011033523 -0.029765386 0.04267462 0.0016997091
0000b0 d7 93 1d 3d 69 e3 8f bc 50 97 ba b9 d5 f3 aa bc
       0.03847107 -0.017564492 -0.0003558942 -0.020868221
0000c0 dc 59 a4 bc 88 3f 9c 3c dc d1 03 3d ff 3f 14 bd
       -0.02006238 0.019073263 0.03218256 -0.036193844
0000d0 fe f3 aa 3c 85 7c 60 bb 65 a6 2f bd 98 eb ba bc
       0.020868298 -0.0034253907 -0.042883296 -0.022817418
0000e0 54 43 0a bd db 42 f2 3c e4 69 3f 3d 82 0b 06 bd
       -0.033755615 0.029572895 0.046731845 -0.03272582
0000f0 64 4e 14 3d 06 35 1b 3d d3 cb 2c bd ba 91 2b 3d
       0.03620757 0.037892364 -0.04218657 0.041887023
000100 b5 cd e8 3b 07 76 6c bc 28 38 8c 3a 9a 8e b8 3c
       0.0071046003 -0.014432437 0.0010697888 0.022528935
000110 10 15 d1 3c 2d 22 eb 3c 27 3a 5b bc 1c 85 1e 3d
       0.025522739 0.02870282 -0.013380564 0.03870116
000120 40 ae 89 3c 21 78 75 3c d0 18 89 3c 60 dd 0c bd
       0.016806722 0.014982254 0.016735464 -0.034390807
000130 ff 5e 2b 3d 08 47 6f bb 6d 7d 1e bd 4d 1c e2 3c
       0.041838642 -0.0036510844 -0.038693834 0.027601385
000140 e3 fb f9 3c 5f 89 cf bc 47 41 78 3c 8e 3d 4e bd
       0.030515617 -0.025334058 0.015152282 -0.050351672
000150 e0 24 be 3c 5b a3 fc 3c 7a 70 ef bc 7e c8 46 3d
       0.023210943 0.030839613 -0.029228438 0.048531048
000160 1b d3 b3 bb c4 09 2d 3c 1b 48 c6 bb c4 cb 00 3b
       -0.005487812 0.01056141 -0.006051076 0.0019652704
000170 bd ee 39 3d ed 4d 3e bd 66 39 1f bd 85 ff a7 bc
       0.045393694 -0.046461035 -0.0388731 -0.020507583
000180 07 d2 a5 3c 9f 7e a5 bc 68 e9 8c bc 28 82 48 3d
       0.02024175 -0.02020198 -0.01720114 0.04895225
000190 c5 fa b3 3b d1 aa 9b 3b 7c f4 cd bc 58 d6 ad bc
       0.0054925405 0.0047505875 -0.025140993 -0.021220371
0001a0 79 9f 4d 3d 47 39 29 bc 32 ed 40 bd 4c 55 f1 bc
       0.050200913 -0.010328597 -0.047101207 -0.029459618
0001b0 b5 df 8f 3c bd 69 1b ba 5f cb 06 3c a8 0c 96 bc
       0.017562727 -0.0005928537 0.008227198 -0.018316582
0001c0 e6 3a 21 3d 14 90 59 bc 87 c8 07 bd c9 aa c1 bb
       0.03936281 -0.01327898 -0.033150222 -0.0059102518
0001d0 15 3c e8 bb a6 96 33 bd 50 e9 2a bc c0 2f 5d 3b
       -0.0070872405 -0.04384484 -0.010431603 0.0033750385
0001e0 86 65 1c bd 14 ef a0 bc 41 e6 ee 3c 5e 67 54 bc
       -0.038182758 -0.019645251 0.029162528 -0.012964098
0001f0 e2 b8 cd 3c 7e ac 77 3c 5a 51 80 3c 0d 81 8c bc
       0.025112573 0.015116809 0.015663791 -0.01715138
000200 80 eb 17 3a 70 cc 51 3d 60 42 d5 3b f6 b6 2c 3c
       0.0005795285 0.051220357 0.0065081567 0.010541668
000210 da 05 09 bd 7e 9a 60 3d 2a 8f fb bc c9 3f 2a bd
       -0.033452846 0.054834835 -0.030707914 -0.041564737
000220 3b 1c 4e 3c df 37 04 3d 66 9f d3 3c 5a 1d 5d bd
       0.012579973 0.032279845 0.025832843 -0.05398307
000230 43 c6 c0 3b 80 94 96 3c 24 b3 aa 3c a7 e7 59 bc
       0.0058830096 0.018381357 0.020837374 -0.013299859
000240 f5 79 51 3c ca 8e d3 3b 4a 2b c8 3a c8 41 b0 bb
       0.0127854245 0.0064562308 0.001527169 -0.0053789355
000250 6b 2d 44 bd a5 cc c1 3b 04 2c b3 3c a3 11 d6 bc
       -0.047894876 0.005914288 0.021871574 -0.026131457
000260 51 56 18 bc 20 df 1c bd 8e 07 0c bd 93 62 a4 3c
       -0.009297923 -0.038298726 -0.034186892 0.020066535
000270 11 c0 0c 3d a1 73 94 bc c9 28 78 b9 97 45 f9 3b
       0.034362856 -0.018121542 -0.00023666317 0.0076071727
000280 83 a0 5c bc 97 31 ca 3b 54 dc 84 3c 97 b2 29 3d
       -0.013466003 0.0061704624 0.016218342 0.041430082
000290 b5 1a 1a 3d 4d 5f 2a bd f4 7c 03 3c 22 6c 2a 3d
       0.037623126 -0.041594792 0.008025397 0.04160703
0002a0 5b 2b 8f 3c 3b 69 13 3c d3 d6 0d 3c 4b c5 81 3c
       0.017476728 0.008997257 0.008657175 0.015841147
0002b0 91 27 fe 3c 03 a8 46 bc 28 da a9 3b 69 e8 1a 3d
       0.031024726 -0.012125018 0.005183477 0.0378193
0002c0 9f a0 30 3b ce ac 9c 3c f4 82 03 3d bd 3c 44 bd
       0.0026951206 0.019125368 0.03210731 -0.047909487
0002d0 72 b9 33 bc e0 8b 15 3d b1 00 39 bc 55 93 09 ba
       -0.010969507 0.03651035 -0.011291669 -0.00052480894
0002e0 1b e4 33 3c d0 2c 63 3b 1e da 2d bd 40 a8 1e 3d
       0.010979678 0.0034664162 -0.04244434 0.038734674
0002f0 a9 19 82 3c e7 1f 99 3b ee bd 08 bd 7f 56 71 bc
       0.015881376 0.0046729925 -0.033384256 -0.014730095
000300 2b 51 17 bc 65 fc 9e 3c 81 2f 88 bc 15 c1 38 bd
       -0.009235661 0.01940746 -0.016624214 -0.045106012
000310 34 38 ea bb 06 16 12 3d 2e b8 9d 3c 81 80 a8 3c
       -0.007147813 0.035665534 0.019252863 0.020569088
000320 a4 6e c7 3c 08 f0 6c 3c 0c 7c 9a 3b 4c bb c5 3b
       0.02434475 0.014461525 0.0047144946 0.0060342904
000330 b4 31 61 3b 02 d0 81 bc 23 80 d9 3c 83 43 e2 bc
       0.00343619 -0.015846256 0.026550358 -0.027620083
000340 74 a4 9d 3c 7c ad dc bc 3a 3f 89 bc 1d 3f f4 3c
       0.019243456 -0.026938193 -0.016753782 0.029815251
000350 26 5f 20 3c 89 f6 a1 3c ef f4 0f 3d ee 36 d5 bb
       0.00978831 0.019770877 0.035145696 -0.0065067923
000360 e9 30 85 3c 05 84 fc bc 8b f8 71 3b 10 7f 78 3c
       0.016258674 -0.03082467 0.0036921825 0.015167013
000370 74 35 12 bd 06 b5 b5 3c c3 9d 13 3b 43 f1 4f bc
       -0.035695508 0.022181045 0.0022524453 -0.012691799
000380 11 3d 1c bd 7d e2 3d 3b a3 ce fc bc 6f 87 a4 bc
       -0.038144175 0.002897411 -0.03086025 -0.020084111
000390 ee b0 9b bc 32 e6 16 3d 0e 93 b9 3c 98 21 85 3a
       -0.019005265 0.036840625 0.022653129 0.0010157106
0003a0 9a 9e 97 bc fc c1 97 3c f8 d9 c9 bc d5 1a 9e bc
       -0.018508244 0.018525116 -0.024640068 -0.019299904
0003b0 bd d3 18 bd a2 dd 43 3d 67 d4 19 3d bd 54 a8 bc
       -0.037311304 0.047818787 0.03755608 -0.020548219
0003c0 27 fb 81 3b c3 6f 8a 3b ec 44 c6 bc 51 0c cd 3c
       0.0039667073 0.004224749 -0.024202786 0.025030287
0003d0 34 c1 70 bc d9 f3 cb 3c 85 dc e2 3b d4 9e a5 bc
       -0.014694501 0.024896549 0.0069232606 -0.020217337
0003e0 6c a6 39 bd c1 fa 07 3c 02 4f 17 bd 86 b6 08 bd
       -0.045324728 0.0082995305 -0.036940582 -0.033377193
0003f0 c5 25 c1 3c f2 d7 06 3d 8a dc ac bc 4b a5 d2 3b
       0.02357758 0.032920785 -0.021101255 0.006428396

encoder.fc1.bias f4 [64]
000000 2c 30 97 bc e1 1f 0b bc 29 c0 2a bd eb 1d 8b 3c
       -0.018455587 -0.008491487 -0.041687164 0.01698204
000010 d3 d6 42 bc 03 b0 29 3d ea b0 9f 3c 35 1c 84 bc
       -0.011892038 0.041427623 0.019493539 -0.016126731
000020 72 23 f5 3b d1 f2 32 bd 77 a2 c5 3c 16 7a 94 3d
       0.007481032 -0.0436886 0.02412532 0.072498485
000030 3c 09 0d 3d 8a 37 91 3c 77 8f e8 bb 10 66 5e bd
       0.034432635 0.017726678 -0.0070971805 -0.054296553
000040 00 de 3d bd bc 07 ad bc c7 f1 db bc 3d 15 50 3d
       -0.046354294 -0.021121852 -0.026848687 0.050801504
000050 2e 36 70 3c 23 58 3d bb 14 ef dd bc 00 5e 13 3d
       0.014661355 -0.0028891645 -0.02709154 0.035978317
000060 b3 45 5a bd f5 63 88 3d 25 ba c7 bc dd 06 85 bd
       -0.053289127 0.0665969 -0.024380753 -0.0649545
000070 4e b0 91 bc 26 0e 9e bc 83 04 8d bd a0 85 83 bd
       -0.017784264 -0.019293856 -0.06885626 -0.06421971
000080 53 3e 3a 3b 1d 38 68 3c d0 a9 20 bc e0 32 46 bd
       0.0028418496 0.014173535 -0.009806111 -0.048388362
000090 62 67 3b bc 43 6a 8f bc 41 2f ce 3c 26 83 ee bc
       -0.011438223 -0.017506724 0.025169017 -0.02911527
0000a0 c4 da 80 bd 66 96 59 3d ee c3 1a 3c d3 6c ee 3c
       -0.06291726 0.053121947 0.009446127 0.029104626
0000b0 09 f6 41 3d 93 07 95 bd e6 b7 70 3d 89 6a 26 bd
       0.047353778 -0.07276835 0.05876913 -0.040628944
0000c0 6b 35 ae bc 93 99 ed 3c 1e 64 cf bc cd c7 5b 3d
       -0.021265706 0.029003894 -0.025316294 0.05365734
0000d0 54 d3 07 3d 6f 58 9e 3c 17 f1 10 3d ca fd 6a bc
       0.033160523 0.019329278 0.03538617 -0.014342735
0000e0 76 4d 2d bd 31 ed 51 bd ba 90 2d bd e2 ff 0c 3d
       -0.0423102 -0.051251594 -0.04237435 0.034423716
0000f0 04 fc 1b 3b b4 a0 1b 3d 9e 86 3a 3d c0 8c 0d bd
       0.0023801336 0.037995055 0.045538537 -0.034558058

encoder.fc2.weight f4 [16, 64]
000000 94 f9 89 3d 65 f4 e9 bd dc d0 25 3a 3a 63 2f bc
       0.067370564 -0.11423568 0.0006325373 -0.01070481
000010 20 c8 e6 bd 20 e7 e0 bc 20 43 9c 3d 40 bf 12 bd
       -0.112686396 -0.027453959 0.076299906 -0.03582692
000020 90 21 bf bd a1 8f 44 bd 93 a7 ae 3d a9 97 59 3d
       -0.093325734 -0.047988538 0.08528056 0.05312315
000030 aa 55 a1 3d d7 87 7d bd 6d 23 36 3d 2d 2f 55 bc
       0.07877667 -0.061897125 0.04446738 -0.013011736
000040 51 72 cd 3d cf 82 8f 3d f4 34 45 bd a7 72 af 3d
       0.1003157 0.07007372 -0.048146203 0.0856679
000050 9a d8 57 bd ee 95 ab bd 4f 58 46 3d d6 3b 8c bc
       -0.0526968 -0.08378206 0.04842406 -0.017118376
000060 2e 61 25 3a 93 83 aa bd 95 f1 aa 3d 2e 8b e3 3c
       0.00063087314 -0.08325877 0.08346859 0.027776327
000070 b4 91 38 bd fa 57 ce 3d 46 9d df bd 74 4e 98 bd
       -0.04506083 0.10075374 -0.109186694 -0.07436839
000080 dc 2c c0 3d a1 ad d2 bd 84 56 91 bd 11 7e bd 3c
       0.09383556 -0.10287023 -0.0709658 0.023131402
000090 2a 86 c5 bd 5b 44 e7 3d 58 c8 cf 3d c6 2c 2d 3d
       -0.096447304 0.11292335 0.101456344 0.042279027
0000a0 48 bd 79 bc 23 8a 91 bd 1f 93 af 3d 0d e9 6c 3d
       -0.015242882 -0.071064256 0.08572983 0.057839442
0000b0 f5 70 27 3d e9 8f 09 bd 69 1c 9e 3c 55 86 50 3d
       0.04087921 -0.03358451 0.019300656 0.05090936
0000c0 cf d5 f6 bd 0f dc 7e 3d 08 dd c5 bd 56 f1 08 3c
       -0.120524995 0.062221583 -0.09661299 0.00835832
0000d0 fc b0 4e 3d a6 bd a3 bd c4 a1 02 3c bb 5a 66 bb
       0.050461754 -0.07995157 0.007973138 -0.0035149294
0000e0 fe b4 3a 3c 9f 13 8e bd 0f 09 c0 3d 4d 40 6c bd
       0.011395691 -0.06937336 0.09376728 -0.05767851
0000f0 a7 c7 bb bd 85 13 06 3d fe df 1b bd e9 fb af 3d
       -0.0916894 0.03273346 -0.038055412 0.0859297
000100 e0 15 f2 3d 32 c2 b8 bd fa 78 d2 bd fa 5d 9c 3c
       0.118205786 -0.09021415 -0.10276981 0.01908778
000110 01 e8 f2 bc 1f 5a e3 bd d3 eb 91 3d 35 55 ab 3d
       -0.029651644 -0.111011736 0.07125058 0.08365861
000120 a9 24 65 3d a7 68 d3 3b 15 b4 8a bc dd 82 09 3e
       0.055943165 0.0064516845 -0.016931573 0.13428827
000130 24 2b 5d 3d 75 a7 5a bd 1e 1b b3 3d 40 1c 4e 3d
       0.05399622 -0.053382356 0.087454066 0.05031991
000140 9a 24 91 bc d1 b9 9b 3c 2c 78 b5 3d df 19 9d 3d
       -0.017717648 0.019009503 0.088608116 0.0767095
000150 6a 6e 72 bb 2d 5d 25 bd 72 0d 84 3d 21 31 25 3d
       -0.0036992081 -0.040372062 0.06447877 0.040330056
000160 c4 d1 b8 b9 00 95 9b 3c ef 36 40 3c 00 41 19 3d
       -0.00035251502 0.018991947 0.011731847 0.037415504
000170 d8 94 a1 3d 13 23 c3 bd 36 f8 c9 bd 3e 3c eb 3d
       0.07889718 -0.09528174 -0.098617956 0.114861
000180 bb 1b ca bd a3 93 94 3d b1 2b ff 3d 21 d0 16 bd
       -0.098685704 0.07254722 0.12459505 -0.03681958
000190 8b 72 f2 3c 78 d9 c9 bd 80 a2 aa bd 1a eb c2 3c
       0.029595634 -0.09855932 -0.08331776 0.023793746
0001a0 de d3 b1 bd ad c9 72 bd 38 12 c7 3d e2 e0 73 3c
       -0.086829886 -0.059274364 0.09720272 0.014885159
0001b0 f3 bd 9b 3d f5 89 a1 bd 0a 5b ae bd 52 6e 1a bd
       0.07604589 -0.07887641 -0.08513458 -0.037702866
0001c0 74 1d 92 bd c9 b5 11 3d a1 98 6e 3d cb 52 34 3d
       -0.07134524 0.035573754 0.058251027 0.04402427
0001d0 83 66 84 bd 12 55 a2 bd 8f 33 df bc 63 e8 99 bd
       -0.06464865 -0.07926382 -0.027246265 -0.075150274
0001e0 c0 ee cf 3d b1 95 b2 3d 4b 4b ef bc f2 24 4e 3d
       0.1015296 0.087199576 -0.029210707 0.050328203
0001f0 93 79 6a 3d 6f fe 40 3d d0 76 9e 3d d9 05 b3 bd
       0.05724485 0.047117647 0.077375054 -0.0874135
000200 ef e0 da bd 31 8e c0 3d 56 c8 f0 bd 76 8c 93 bd
       -0.10687434 0.09402121 -0.11756961 -0.07204525
000210 3c 22 3f bd b1 a9 b2 bd 87 f9 8b 3d 2c 14 01 3c
       -0.046663508 -0.08723772 0.06834703 0.0078783445
000220 93 68 af bc af c1 a9 bd c7 45 bc 3d b6 4d e8 3c
       -0.02141217 -0.08288895 0.091929965 0.028357368
000230 f0 50 25 3d 7f ca cf 3d cd 51 b5 bd b3 b6 e9 3d
       0.04036039 0.10146045 -0.08853493 0.114118
000240 b9 da dd 3d 1c 32 8a 3c 35 88 f7 3c 96 75 9e bd
       0.10832734 0.016869597 0.030216316 -0.077372715
000250 34 d6 89 bd 19 ce ff 3d 69 de e1 bd 2a 5a 62 3d
       -0.06730309 0.12490482 -0.110287495 0.05526177
000260 80 90 28 3d 60 03 dd 3d a6 50 bc 3d 95 69 09 3b
       0.04115343 0.10791659 0.0919507 0.0020967473
000270 c3 d3 db 3c 48 b5 a5 3d d9 0a fb bd 9e 6f e0 3d
       0.026834374 0.08091217 -0.122579284 0.10958789
000280 43 13 0d bc fc e3 9d bd 4d c7 34 3d a3 4e aa 3d
       -0.008610549 -0.077095 0.04413538 0.0831578
000290 be 5b 00 be b1 66 59 3d 72 2a fc bc 89 cf f9 3d
       -0.12534997 0.05307645 -0.030781958 0.12197787
0002a0 27 a7 23 3d 1f 6e b0 bb 91 96 9a bd 87 23 9c 3d
       0.03995433 -0.005384221 -0.075482495 0.07623964
0002b0 db 9b 86 bc bd 1c 6b 3d 06 66 e7 bc ff e0 d0 bd
       -0.01643174 0.057400454 -0.02824689 -0.101991646
0002c0 d2 10 a5 bd b7 20 8c bd 6a 4f ad bc 72 8e cf bd
       -0.08059849 -0.06842177 -0.021156032 -0.10134591
0002d0 76 eb 1b bd dd d7 f4 3d 38 a6 9f bd 5c 5c 30 3d
       -0.03806635 0.11955235 -0.077953756 0.04305683
0002e0 8f 48 a6 bd 20 fc 91 3d db 92 c9 bd f4 c7 3e 3d
       -0.08119308 0.07128167 -0.098424636 0.04657741
0002f0 56 b3 0d 3d 73 c6 96 3d e8 f0 b9 3d bf fa 90 bd
       0.034594856 0.0736207 0.09079152 -0.07079076
000300 38 62 a0 3d 64 9a 92 3d aa ad de bd 05 99 7f 3d
       0.07831234 0.07158354 -0.108729675 0.06240179
000310 84 19 41 bd 1a 08 55 3d dc fa 27 bd af 56 a5 bc
       -0.047143474 0.05200968 -0.041010723 -0.020182936
000320 88 15 83 3c b1 93 a2 3d d5 5a 9c 3d 60 15 e6 3d
       0.016001478 0.07938326 0.07634512 0.11234546
000330 fa 45 3f bd dd de e6 3d 47 59 43 bd f8 7d 33 bd
       -0.046697594 0.112729765 -0.047692563 -0.043821305
000340 53 e6 5f bd 3a bd 29 3d bd 8b 83 bd ef 43 af bd
       -0.054663014 0.041440226 -0.06423137 -0.08557879
000350 4a fe c6 bd 0c 2b 54 3d 4c fd d5 3c 86 e4 94 3d
       -0.097164705 0.051798865 0.026121758 0.0727015
000360 de 3c 1f 3d 48 3b 26 3c 4f 1c 81 3c 3b d8 53 bd
       0.038876407 0.01014597 0.015760569 -0.051719885
000370 2c dc 74 bd 61 fb 03 3e 50 55 9f 3c a1 61 c7 bd
       -0.059780285 0.12888862 0.01944986 -0.09735418
000380 f5 85 b2 bc 80 e3 69 3d de d1 91 bd 3c a0 8c bc
       -0.021792391 0.057101727 -0.07120107 -0.01716625
000390 74 95 02 3d 0e 4b 90 bd 93 52 ce 3d 89 3e e9 bb
       0.03188081 -0.070455655 0.100743435 -0.0071180505
0003a0 68 0d 94 bd 4d b6 1a 3d 5a 8c 43 3d f6 1b 06 3d
       -0.072291195 0.03777151 0.04774127 0.03274151
0003b0 ef 38 ec ba ee 69 e6 bd 3d 70 52 3c 30 93 bd bd
       -0.0018022339 -0.11250673 0.0128441425 -0.092565894
0003c0 05 ce d6 3d b0 42 08 be 35 2c bb bd da 35 76 3d
       0.10488514 -0.1330669 -0.09139291 0.06010995
0003d0 2a 32 87 3d fd 8f ae 3d ae 8d 8b 3d 7a 20 02 3e
       0.06601365 0.08523557 0.06814133 0.12707701
0003e0 7a 17 8d bc aa 5f 84 bd 24 78 e6 ba 39 c8 c4 3c
       -0.017223109 -0.06463559 -0.0017583412 0.024021255
0003f0 c0 97 d6 bc 0c a6 b6 bd 19 48 00 3d f8 26 e5 bb
       -0.026195407 -0.0891839 0.031318758 -0.006993171

encoder.fc2.bias f4 [16]
000000 76 b4 ae 3c ba ea 5c bc 42 69 ed bd 62 e5 7d 3c
       0.021326285 -0.013483698 -0.11592342 0.015496584
000010 cc 3a 07 be dc 20 93 bd ff 91 55 bd 10 37 af bd
       -0.13206023 -0.07184002 -0.052141186 -0.08555424
000020 0f f3 ec 3d a3 d0 dd bd 31 7a e6 bd d1 a2 58 bd
       0.11569797 -0.1083081 -0.11253775 -0.05288965
000030 12 33 3c 3d d1 61 95 3d 8c c3 8d bd 37 c6 09 bd
       0.045947142 0.072940476 -0.06922063 -0.033636298

encoder.fc21.weight f4 [4, 16]
000000 93 c0 0a be 49 32 e3 3d 1d 01 51 be 2c c5 0c be
       -0.13550024 0.110935755 -0.20410581 -0.1374709
000010 c7 82 18 3d 43 7b e2 3d 8c 6f 61 be 45 e1 19 3d
       0.037234094 0.110586666 -0.22015208 0.03756835
000020 22 28 ef 3d 6e 60 47 3b df 5a 58 be 45 4e 13 be
       0.116775766 0.0030422467 -0.21128415 -0.14385326
000030 42 2b 13 be 57 e3 10 3e b3 b1 34 3e ae 49 d2 3b
       -0.1437197 0.14149223 0.17645912 0.0064174747
000040 e9 65 31 3e 69 c6 3b be 73 90 77 be df 81 81 bd
       0.17324032 -0.18337406 -0.24176197 -0.06323599
000050 27 22 a7 3c 9a 89 d1 bd 73 17 87 bd 5a 7c 7a 3e
       0.020402027 -0.102313235 -0.065962695 0.24461499
000060 33 db f4 3d 88 01 f1 bd 2e 6d b6 3d 3a 62 7e 3d
       0.119558714 -0.1176787 0.08907543 0.062105395
000070 67 bc 08 bd c5 c4 d8 3b c6 46 05 3e e5 94 7e 3c
       -0.0333828 0.0066152536 0.13015279 0.015538429
000080 28 44 20 be fa 2a 17 3e f5 f7 33 3e 2d 43 df 3c
       -0.15651 0.14762488 0.17575057 0.027253712
000090 32 b4 53 3e ee 29 04 3e 01 c0 df bd c5 8c 5d 3d
       0.20674208 0.1290662 -0.10925294 0.054089326
0000a0 4f 1a 10 be d6 d4 14 3e 3e 1b c1 bd b9 ad 93 3d
       -0.14072536 0.14534315 -0.09429024 0.07210869
0000b0 7f 22 bc bc 7a 16 12 be e7 79 31 be c7 ca 0b be
       -0.022965668 -0.14266387 -0.17331658 -0.13651572
0000c0 3e d1 1f bd 03 24 2a bc d9 84 85 3d 76 b0 0c 3e
       -0.03901791 -0.010384562 0.06519479 0.1373919
0000d0 e1 0c af bd a0 29 32 bd 9a c8 0d 3e be 54 39 be
       -0.08547378 -0.043496728 0.13846055 -0.18098733
0000e0 4c 86 68 3e 29 f2 b3 bd 8f 99 30 be 3b c5 52 bd
       0.2270748 -0.08786423 -0.17246078 -0.051457625
0000f0 3a 29 64 3d ff 55 34 3e ee c6 c7 3d ea 06 3f be
       0.05570338 0.1761093 0.0975474 -0.18654981

encoder.fc21.bias f4 [4]
000000 56 e3 fb 3d cd 74 8f bd ee 91 55 be 91 7a 4a 3e
       0.1229922 -0.070047 -0.20856449 0.19773318

encoder.fc22.weight f4 [4, 16]
000000 72 5a 2c be e0 29 88 be 67 e9 6b be 10 02 52 be
       -0.16831377 -0.26594448 -0.23038255 -0.205086
000010 53 7a 49 3e a5 46 b0 bb 25 b0 ef bd 6c 36 d6 3d
       0.19675569 -0.0053795152 -0.11703519 0.10459599
000020 70 51 a4 bd 8e 09 98 bd 5e f1 ef 3d 90 30 0d 3d
       -0.080233455 -0.074236974 0.11715959 0.03447014
000030 78 7e 0d be 5d 7b cf 3d 66 4d a5 3d 70 d1 1a be
       -0.13817775 0.101309516 0.08071403 -0.15118957
000040 e6 86 7b be 11 8b 9f bd 86 cc 92 bd ef ec 59 bd
       -0.24563178 -0.07790197 -0.07167916 -0.053204473
000050 e7 34 3a 3e ac f0 4b 3e 5a 1e c7 3d 72 ae 39 be
       0.18184243 0.19916028 0.09722586 -0.18132952
000060 dd df 20 be ed f0 3c 3d 57 a9 0d 3e 7d e7 38 bd
       -0.15710397 0.046128202 0.1383413 -0.04514264
000070 7a de 14 3e 29 26 43 be 0f 32 45 bd 56 16 8c bd
       0.14537993 -0.19057526 -0.048143443 -0.06840198
000080 b0 75 05 3e 7b fe 73 be 0b 44 83 be 0f d1 2f be
       0.13033175 -0.23827545 -0.2563785 -0.17169593
000090 34 b7 64 3e 5b b3 a0 bd 31 08 43 3d d1 8f 59 3e
       0.22335511 -0.07846709 0.047615234 0.21246268
0000a0 9e b2 34 be 9a 82 08 bd 25 d2 a6 bd 6f fc 3c bd
       -0.17646262 -0.033327676 -0.08145551 -0.046139177
0000b0 18 a0 23 3e 08 e9 76 3d 2a dd ef 3d 16 16 71 be
       0.1597904 0.06028083 0.117121056 -0.23543581
0000c0 9f 73 0d 3e c3 08 17 bc 93 ba 3e be 26 69 51 be
       0.13813637 -0.009218398 -0.1862586 -0.20450267
0000d0 b7 cf 20 bd 80 02 c7 3d 25 20 0b be 04 ff fa 3c
       -0.039260592 0.09717274 -0.13586481 0.030639179
0000e0 eb 08 97 be f5 49 76 be ac 6c fd 3d 69 63 fc bc
       -0.2949899 -0.2405165 0.12374243 -0.030809121
0000f0 9d 22 4c be 2d 64 48 bd 58 f7 0c be ea c3 08 be
       -0.19935079 -0.04892366 -0.13766229 -0.13355985

encoder.fc22.bias f4 [4]
000000 b4 41 8c be 2a 81 24 3e bc 30 97 be 27 4d 69 be
       -0.27393878 0.16064897 -0.2952937 -0.22783338

encoder.bn1.weight f4 [16]
000000 00 00 80 3f 0d 4c 7e 3f 68 01 7f 3f 2d fd 7e 3f
       1.0 0.99334794 0.9961152 0.99605066
000010 18 8d 80 3f a7 26 7e 3f 2f f9 7c 3f de 7e 80 3f
       1.0043058 0.9927773 0.98817724 1.0038717
000020 1b 56 80 3f f1 d6 7f 3f 00 00 80 3f 26 6d 7f 3f
       1.0026277 0.9993735 1.0 0.9977592
000030 00 00 80 3f 93 02 7d 3f 00 00 80 3f fe 36 7f 3f
       1.0 0.9883205 1.0 0.99693286

encoder.bn1.bias f4 [16]
000000 5f 15 ee bb fe 7d a2 3b d0 83 1b bc dd d8 a6 3b
       -0.007265731 0.004958867 -0.009491876 0.00509177
000010 02 59 14 bc 22 55 27 3c 0f e6 d0 3b 1d f6 b8 b9
       -0.009054424 0.010213168 0.0063750814 -0.00035278584
000020 80 46 88 3c 1c 7b 55 3c 95 8f b7 3b d8 8d 98 3c
       0.01663518 0.01302984 0.005601833 0.018622324
000030 80 2b 29 bc 27 7e 0b bb 07 e2 cb bc bd 5c 92 3b
       -0.010325313 -0.002128491 -0.024888052 0.0044666217

encoder.bn1.running_mean f4 [16]
000000 00 00 00 00 ab 31 99 3d 23 22 ce 3d 15 61 6b 3e
       0.0 0.074801765 0.10065105 0.22986253
000010 a2 70 46 3f e0 d4 71 3f e5 6c 74 3d 9e c3 92 3a
       0.77515614 0.94465446 0.059674162 0.0011197214
000020 e0 c6 f0 3e eb 86 a1 3b 00 00 00 00 3c 16 83 3f
       0.4702673 0.0049294136 0.0 1.024116
000030 00 00 00 00 42 98 08 3e 00 00 00 00 59 2c 7a 3e
       0.0 0.13339332 0.0 0.2443098

encoder.bn1.running_var f4 [16]
000000 37 91 0c 2a b7 37 c6 3b 8e f4 02 3d b0 7f 94 3d
       1.248488e-13 0.006049122 0.031971507 0.07250917
000010 da 4e c7 3d c7 89 d3 3d 95 ab 9d 3b fd 32 8d 36
       0.097318366 0.10329013 0.004811714 4.2080633e-06
000020 44 e0 0d 3e 20 c9 87 38 37 91 0c 2a 80 e3 ea 3d
       0.13855082 6.474764e-05 1.248488e-13 0.114691734
000030 37 91 0c 2a 0b be a1 3c 37 91 0c 2a 95 b5 9e 3d
       1.248488e-13 0.01974394 1.248488e-13 0.07749478

encoder.bn2.weight f4 [16]
000000 3c 11 7e 3f b6 9e 7f 3f fe 71 7f 3f f8 51 80 3f
       0.9924505 0.9985155 0.99783313 1.0025015
000010 d8 31 80 3f f6 6e 7c 3f 75 63 80 3f dd cb 80 3f
       1.0015211 0.9860681 1.0030352 1.0062214
000020 dc 68 7c 3f 9d 81 7e 3f d3 53 80 3f 19 14 80 3f
       0.985975 0.99416524 1.0025581 1.0006133
000030 3b aa 7f 3f 55 d9 7e 3f 59 0a 7c 3f 07 27 80 3f
       0.99869126 0.9955037 0.9845329 1.001191

encoder.bn2.bias f4 [16]
000000 7b 75 f7 bb b5 bc 63 3c 4b e0 13 bd 0e b6 7a bc
       -0.0075518466 0.013899972 -0.036102574 -0.015302194
000010 15 12 29 3c b7 78 2d 3c 23 20 9c 3c 08 ab fe 3a
       0.0103192525 0.010587863 0.019058293 0.0019429633
000020 1d 6b c3 3c f9 b8 c9 bc e4 2e c2 3c cd da 2a bc
       0.023854787 -0.024624335 0.023704 -0.010428143
000030 bb 22 da 3b c4 1e 9e bc 56 ab 00 3b 96 11 80 ba
       0.006656972 -0.01930178 0.0019633374 -0.0009770866

encoder.bn2.running_mean f4 [16]
000000 13 51 76 3e bc c5 cf 3e 33 d2 10 3e 16 af 3b 3e
       0.24054365 0.40580547 0.14142685 0.18328509
000010 06 35 74 3e e4 13 f0 3d b1 26 3e 3e 3e be 96 3e
       0.23848352 0.11722544 0.18569447 0.29442018
000020 d2 82 0c 3e 2b 5b a6 3d be 3d 97 3e bc 2d 64 3e
       0.13721779 0.08122858 0.29539293 0.22283071
000030 61 6c 90 3e ce c7 94 3e 43 b7 c7 3e bc 3b d3 3e
       0.28207687 0.2905869 0.39007005 0.4125651

encoder.bn2.running_var f4 [16]
000000 b6 8f 8d 3d 10 f0 b0 3e 92 59 49 3d 20 35 56 3d
       0.06912176 0.34558153 0.049157687 0.052296758
000010 eb 24 a1 3d 39 ee f5 3c ee ee 22 3d cf 17 0d 3e
       0.0786837 0.03002082 0.039778642 0.13778614
000020 ba 36 5a 3d d4 1e bd 3c b4 48 4c 3e 8d e4 bd 3d
       0.053274848 0.023085989 0.19949609 0.09272108
000030 0c 69 2e 3e db 74 36 3e cb c4 3f 3e 96 9e 8e 3e
       0.1703226 0.17818014 0.18727414 0.27855366

encoder.bn3.weight f4 [32]
000000 65 c6 7d 3f 14 d8 7f 3f 13 d5 81 3f 61 93 7f 3f
       0.9913085 0.99939084 1.014315 0.9983426
000010 67 3e 7b 3f 7a 8b 7d 3f 87 64 7b 3f 89 1f 7e 3f
       0.98142093 0.9904095 0.9820027 0.9926687
000020 74 d6 7c 3f 02 a1 80 3f 09 1d 80 3f f7 03 81 3f
       0.9876473 1.0049136 1.0008861 1.0079335
000030 69 b6 7f 3f 75 5a 7d 3f 9b a6 7b 3f a9 4d 7f 3f
       0.9988771 0.9896615 0.98301095 0.99727875
000040 e4 b0 7f 3f c8 62 80 3f ed 1b 81 3f 75 d0 7e 3f
       0.9987929 1.0030146 1.0086647 0.9953683
000050 bf 49 80 3f ff ad 7f 3f 44 05 7d 3f 6d fc 81 3f
       1.0022506 0.9987487 0.9883616 1.0155159
000060 cf 0d 7f 3f 18 4e 7c 3f 2a e5 7c 3f 8c 7d 80 3f
       0.99630445 0.9855666 0.98787177 1.0038314
000070 ef 23 7c 3f 21 5a 7c 3f 84 7e 7d 3f 9b 4e 7d 3f
       0.9849233 0.98575026 0.9902117 0.9894807

encoder.bn3.bias f4 [32]
000000 f5 69 a0 3c ec 88 81 bc 2a 55 eb 3c fe 39 f9 bb
       0.019581774 -0.01581236 0.028727133 -0.00760579
000010 06 10 7f bc 14 91 21 bc f0 e5 c5 3c 33 53 0a 3d
       -0.015567785 -0.0098612495 0.024157494 0.03377075
000020 57 f0 b0 3a f3 2c 02 bd 14 4e 9d 3c 39 6b 49 bd
       0.0013499361 -0.03178115 0.01920227 -0.04917452
000030 0e 55 48 3c 68 ec 88 3c 98 cc f1 3c 9e 0e e1 3c
       0.01222731 0.01671429 0.029516503 0.02747279
000040 d7 0e 78 bb c6 d2 b4 3c cb a3 14 bd 90 be 5f bc
       -0.0037850642 0.02207316 -0.036289018 -0.0136562735
000050 c8 15 6a bc c6 e1 f6 bc 06 a4 f3 3c 77 e6 a5 bc
       -0.01428742 -0.030136954 0.029741298 -0.020251496
000060 66 b5 b9 bc c7 73 52 bc 48 4e da 3b 3c d4 f1 3c
       -0.022669505 -0.012844986 0.006662164 0.029520147
000070 fd 0a f0 3c 78 9f 13 3d bb 58 13 bb 80 0f 3e 3c
       0.029302115 0.036040753 -0.0022483307 0.011600375
