results/_edu_fptra_0.7_1000_VAE_model.pt (torch, 201744 bytes, 61 tensors)

encoder.conv1.weight f4 [16, 1, 2]
000000 2a d5 db 3e 48 a3 84 be 4a f7 16 be a1 5a 53 3e
       0.4293607 -0.25905824 -0.14742771 0.20640041
000010 df 9d 0c bf c6 2f 93 3e f4 a9 28 3f 40 43 db 3c
       -0.5492839 0.28747386 0.6588433 0.026765466
000020 9a 51 85 3d c7 29 2e 3f 7d 5c c6 3e 95 70 da bd
       0.06509705 0.680325 0.38742438 -0.106660046
000030 0e da 81 3e 23 92 69 3e 29 df 01 be 7b 1e 03 be
       0.25361675 0.22809653 -0.12682785 -0.12804596
000040 23 e3 11 bf 34 87 09 be 78 bf 2c 3f da b1 c7 3d
       -0.5698721 -0.13430482 0.6747966 0.09750719
000050 8a 80 a0 3e c8 e3 c3 3d ba aa 00 be 7b bf 58 3e
       0.31348068 0.0956493 -0.12565127 0.21166794
000060 22 59 f9 3d 18 cb 0b 3e bd 9d 2e bf b6 50 04 bf
       0.12175204 0.13651693 -0.6820944 -0.51685655
000070 05 64 bc be 80 04 0f bd bc 62 13 be de 5b ba 3e
       -0.3679506 -0.0349164 -0.14393133 0.36398214

encoder.conv1.bias f4 [16]
000000 28 ba 30 3f 22 d5 f9 3e f2 33 1d bf 4d f5 61 3e
       0.6903405 0.4879542 -0.6140739 0.22066231
000010 cd 77 f4 bd 12 3c a1 be 16 87 b4 3e 5b 69 d7 3e
       -0.11936913 -0.31491143 0.35259312 0.42072567
000020 90 08 9d bd 7e e1 07 bf 17 62 24 bf 4b 1f 6c 3d
       -0.07667649 -0.5307845 -0.64212173 0.05764703
000030 72 95 5a be 32 6e 60 3e c0 8b 1a be 98 d0 c6 be
       -0.21346071 0.21917036 -0.15092373 -0.3883102

encoder.conv2.weight f4 [16, 16, 2]
000000 c6 b1 b1 bc 59 9b cb 3d 08 2b 33 3e d0 8e b8 3b
       -0.021691214 0.099417396 0.17496884 0.005632259
000010 59 32 87 3d d6 11 b1 3c 56 16 9f 3d 64 fa 87 3d
       0.066014 0.02161495 0.07767932 0.06639555
000020 cc b7 80 3c 9a 78 a6 bd c6 1c 1a be 44 76 01 3e
       0.015712641 -0.08128472 -0.15050039 0.12642771
000030 93 96 55 3d af 74 98 bd c2 41 bf bd 21 15 9b bd
       0.052145552 -0.07444131 -0.09338714 -0.075723894
000040 62 9b 2c 3e 1a 4c a4 3d eb 06 13 3e c0 81 15 bd
       0.16856149 0.08022328 0.14358108 -0.036500692
000050 f6 2d 50 bd 19 d9 cc 3c 4c 91 ab bb 54 24 da 3d
       -0.05082508 0.025005864 -0.0052358266 0.1065146
000060 4e 44 08 3e 0d d1 45 3d 8b a1 82 3d 85 83 8f 3b
       0.13307306 0.04829507 0.06378468 0.004379692
000070 be 4c c4 bd d5 54 0c 3e 13 58 22 bc 7b 53 8d bd
       -0.0958495 0.13704236 -0.009908694 -0.06900688
000080 81 53 ff 3d 77 b9 df 3d e4 44 86 3d 76 b2 cf 3d
       0.12467099 0.109240465 0.065561086 0.101414606
000090 5a 7b 9a bd 44 84 a8 3d 99 fa 0f 3e be fd 27 3e
       -0.07543059 0.08228353 0.14060439 0.16405389
0000a0 7f 71 9f bc 4e 5b 89 3c e5 2b 0f be 2d 49 9b 3d
       -0.019463299 0.01676717 -0.13981588 0.075823165
0000b0 a2 a7 26 be 53 4e f2 bd 5c 1c 26 be 16 92 fb ba
       -0.16274884 -0.118313454 -0.16221756 -0.0019193317
0000c0 e4 53 b0 bd 95 26 9a bc b4 b0 dc 3d f9 5f d7 bd
       -0.08609751 -0.018817225 0.10775891 -0.10516352
0000d0 a8 14 18 be 50 f4 e4 3d 48 4b 88 bd 13 ab 27 3d
       -0.1485163 0.111794114 -0.06654984 0.040934633
0000e0 89 ef 01 3e 6e 9e df bd cf 80 05 3e b9 3b 30 be
       0.12689032 -0.1091889 0.13037418 -0.17210282
0000f0 80 04 0a 3e c6 d0 02 be 97 56 f0 3d 28 fd ef bd
       0.13478279 -0.12774953 0.11735266 -0.117182076
000100 8e ae 0e 3d 9a a4 b7 3d 07 da a9 3d e4 d8 bb bd
       0.034834437 0.08966942 0.082935385 -0.09172228
000110 1e 92 0d be 49 ec 27 be ae 2d 0b 3e 53 54 2c 3d
       -0.1382527 -0.1639873 0.13591644 0.042072605
000120 35 ff 20 3e db 85 f2 3d 3f ae 97 bd c4 ec b4 3d
       0.15722354 0.11841937 -0.07406282 0.08834222
000130 66 dd 81 bd 49 7e 60 3d 31 d3 eb 3d 63 1a d1 bd
       -0.063410565 0.054807935 0.11514891 -0.10210111
000140 3b be 5f 3d 36 13 2c 3d 16 c4 a9 bd 8c 9d 24 3e
       0.054624777 0.04201051 -0.082893535 0.16075724
000150 a9 de 17 be 16 6e f4 bd 89 01 53 bd a5 56 fb 3d
       -0.14831032 -0.1193506 -0.051515136 0.122723855
000160 e4 09 b0 bd 3d e7 3f 3e d1 7b e6 bb 7d 3b d3 3d
       -0.085956365 0.18740554 -0.007033803 0.10314081
000170 01 82 22 be 14 a0 ab 3d f8 ed 87 bd f3 82 0f be
       -0.15869905 0.08380142 -0.06637186 -0.14014797
000180 3d 85 cd ba 6f 56 66 3d 06 2a b5 bc 75 12 b5 bd
       -0.0015679967 0.056234773 -0.022114765 -0.08841411
000190 d1 d1 35 3e c2 f6 f3 3c 85 a5 ac bd ed ee dd bd
       0.1775582 0.02978075 -0.08430008 -0.10836587
0001a0 9d 48 6e bd 84 06 d6 3c a1 35 1c be 99 57 2f 3e
       -0.05817472 0.026126154 -0.15254833 0.1712326
0001b0 ec 86 4d bd f2 71 51 bb b4 83 23 3d 25 ef f7 3d
       -0.0501775 -0.0031958786 0.039920524 0.1210616
0001c0 2b ef 1a 3c cd 97 d7 bd 6a d6 17 bc cf d9 90 3d
       0.009456436 -0.105270006 -0.009267429 0.07072794
0001d0 b9 ab dc bd 1c 63 15 3e 9c ad d3 3a 07 e3 e0 bd
       -0.10774941 0.14588588 0.0016149762 -0.10980802
0001e0 ca 26 27 3d 96 62 08 3e d5 55 ba bd 44 07 59 bc
       0.040808477 0.13318858 -0.090984024 -0.013246361
0001f0 8f 6a 88 bb 34 64 c1 3c 0d 7b fa bd af bf 9d bd
       -0.0041630934 0.02360735 -0.12230501 -0.07702576
000200 cd 03 8b 3d 42 50 23 3d c2 1c 1b 3e ed 19 3c 3e
       0.06787834 0.03987146 0.15147689 0.18369265
000210 e8 e8 f9 3d 08 25 5a 3d 89 a2 c6 bd 20 18 05 be
       0.122026265 0.053257972 -0.0969897 -0.12997484
000220 39 99 63 bd 11 ea 12 3e bd 72 d5 bd 0a f5 49 be
       -0.055566046 0.14347102 -0.10422275 -0.19722381
000230 1f 90 ce bd 4e b8 8b 3c 50 88 13 3e c4 c6 de bd
       -0.10086083 0.017055657 0.14407468 -0.10877755
000240 2e 36 87 bd b4 67 a0 bd 7c ac bf 3d 07 25 97 3d
       -0.06602131 -0.0783228 0.09359071 0.07380109
000250 14 30 e2 3d 43 31 3c 3d a3 36 79 bd c8 d8 16 3e
       0.110443264 0.045945417 -0.06084312 0.14731133
000260 32 f1 6c 3d 30 22 81 bd 9a 7b 15 be 46 7d 39 be
       0.05784721 -0.06305349 -0.14597932 -0.18114194
000270 05 b0 06 bc e2 be 22 be 76 98 56 3d c8 75 12 be
       -0.008220677 -0.15893129 0.05239149 -0.14302742
000280 ee a2 13 be 6a 8d 90 bd db f8 ee 3a 49 5c 0b 3e
       -0.14417621 -0.070582226 0.0018232124 0.13609423
000290 72 25 e6 bd 64 2c 54 bd c2 34 98 3d 73 26 29 be
       -0.11237611 -0.051800147 0.07431938 -0.16518573
0002a0 e9 df f5 3d 65 01 bd bd f9 82 46 3d 25 6a 12 bd
       0.12005598 -0.092287816 0.04846475 -0.03574576
0002b0 08 77 3f bd 49 82 b7 bd d2 25 ed 3d 51 b7 33 3e
       -0.046744376 -0.08960397 0.11579479 0.17550398
0002c0 32 69 08 bb 01 dd 1c bd 5a 09 b2 3d 03 d7 dc bc
       -0.0020814654 -0.038296703 0.0869319 -0.026957994
0002d0 3f ff 97 3d fa 58 d9 bd 42 af f6 3d 80 e9 86 bd
       0.07421731 -0.10612674 0.120451465 -0.06587505
0002e0 da 92 05 3e 95 7e 14 3e d9 12 a7 3c df 36 af 3c
       0.130443 0.14501412 0.02039473 0.02138847
0002f0 44 f3 2b 3e d0 2d 93 bc d5 a4 4d 3d 93 84 b4 bd
       0.16792017 -0.017966181 0.050206024 -0.08814349
000300 95 5e 19 3d b4 a2 a6 bd c6 ef 09 be e6 0d 0a 3e
       0.037443716 -0.08136502 -0.13470373 0.13481864
000310 34 17 be 3d 18 90 20 3e f4 81 94 bd e6 9d 1d 3c
       0.092817694 0.15679967 -0.07251349 0.009620165
000320 77 64 87 3d 3d 09 f9 3c f3 b4 83 3d 05 b7 a8 bc
       0.06610959 0.030399913 0.06430998 -0.020595083
000330 17 4c c7 3d a8 6b b9 bc f9 a7 4c 3d 63 dc ca bc
       0.0973131 -0.022634342 0.04996488 -0.024763292
000340 66 19 8e bd 23 15 ba 3d 1b fb 72 bd 6d 10 4b bc
       -0.06938438 0.09086063 -0.059321504 -0.012394053
000350 2e 76 b4 3c e7 53 39 bd ec 53 dc bd 75 22 cc 3c
       0.022029009 -0.04524603 -0.10758194 0.024918774
000360 fc 0c 3c bc 0d 05 54 bd 05 25 a5 3c b2 96 d3 bd
       -0.011477705 -0.05176263 0.020159254 -0.10331477
000370 bb 2a f5 3d 39 35 fa bc bc 03 c5 bd 5c 59 a4 3d
       0.11971041 -0.030542957 -0.09619853 0.080248564
000380 5d 68 8c 3c c7 f4 a1 3d f7 e0 cb 3d 4c d8 10 bd
       0.017139608 0.07908016 0.09955018 -0.035362527
000390 15 da c4 bd c6 66 75 bd eb fc 87 3c f5 b3 27 3e
       -0.09611908 -0.059912466 0.016600093 0.16377242
0003a0 ed c7 83 3d 04 d5 3c 3d f6 e9 ff bc dc b5 f2 bc
       0.06434617 0.046101585 -0.031239491 -0.029627733
0003b0 40 81 3a bd 50 31 98 3d 07 e8 35 bd 4e 8c 9c bb
       -0.04553342 0.074312806 -0.04441073 -0.004777468
0003c0 6d 58 3b 3e c6 08 b9 bd 4a 2c 05 be f7 37 ff 3d
       0.1829545 -0.090348765 -0.13005176 0.12461846
0003d0 1e 30 e4 3d 3f ed 56 bd 42 fc dc 3d 67 34 ec bd
       0.1114199 -0.05247235 0.10790302 -0.115334325
0003e0 6b c7 86 3d 3b ba 85 3d f5 f8 23 3d bd f3 09 be
       0.06581005 0.06529661 0.040032346 -0.13471885
0003f0 81 02 a7 3d b8 99 42 3d 3d b8 25 be e5 3b b3 3d
       0.081547745 0.04750988 -0.16183563 0.08751658

encoder.conv2.bias f4 [16]
000000 6c df 07 3c b2 e6 fe 3d da 4e 98 bc 23 db fd 3d
       0.008293014 0.124463454 -0.018592287 0.12395313
000010 cf 1a 41 3e b5 ee 4f be 1b f4 bb bd 1a f5 71 3d
       0.18857883 -0.20305903 -0.09177419 0.059071638
000020 08 05 1a be 31 60 ca bc f5 a9 13 bd d0 32 74 3d
       -0.15040982 -0.02470407 -0.036050756 0.05961877
000030 0c 9b f5 3d 65 b1 04 3e e4 a7 c4 bd bb d6 17 3e
       0.119924635 0.12958296 -0.09602335 0.14828007

encoder.conv3.weight f4 [32, 16, 2]
000000 41 17 0f 3e a4 66 40 3e 4b 6b 13 be e7 af be 3c
       0.13973714 0.18789154 -0.14396398 0.023277236
000010 9b 1f 5e 3d 74 46 e9 3d 99 eb 65 bc 60 78 ed 3d
       0.05422936 0.11390391 -0.014033222 0.11595225
000020 ef 92 04 be 3a cd fb 3b d1 a5 05 be 54 78 9b bd
       -0.12946676 0.007684377 -0.13051535 -0.0759131
000030 f6 82 ed bd e1 9c 8d bd 4b 30 bc 3d 0b 09 dc bc
       -0.115972444 -0.06914688 0.09188899 -0.02685978
000040 92 98 d8 3b 3b 87 29 3d 4e ca 9e bc e9 f0 b3 3d
       0.0066099847 0.04138873 -0.019383576 0.08786184
000050 56 21 50 3b ce 43 2a 3e bc 4a 07 be 2b df 9e bd
       0.003175815 0.16627428 -0.13212103 -0.0775741
000060 35 5a 25 bd b7 ea 4a 3d b7 42 3e 3d d5 42 07 3e
       -0.04036923 0.049540248 0.046450343 0.13209088
000070 8d f1 a2 3d 88 f0 5e 3d 59 ab cb 3d d9 ee 3a be
       0.079562284 0.054428607 0.09944791 -0.18255176
000080 02 54 07 3e ae 7e 3e 3d e7 57 b3 3d 0f 7a 22 be
       0.1321564 0.04650753 0.087570004 -0.15866874
000090 67 9b 2d bd a5 f7 6f 3d 4e b1 df 3d 74 bc ab 3d
       -0.04238453 0.05858578 0.1092249 0.08385554
0000a0 95 53 be bc 3c c2 41 3d 7b 78 d9 3d e3 44 b4 3d
       -0.023233214 0.047304377 0.10618683 0.088022016
0000b0 07 c1 92 bd 0c fd 0b be 1b 9a 35 3c 8f f1 91 3d
       -0.07165723 -0.13670748 0.011084105 0.07126152
0000c0 c3 f9 04 3e d4 d9 13 bc 79 d7 5f bd c5 37 24 be
       0.12985902 -0.009024102 -0.05464885 -0.160369
0000d0 6e 5d f2 bd 01 27 80 bd 7d 27 bb bd f3 41 0e 3e
       -0.118342265 -0.062574394 -0.09138391 0.13892345
0000e0 32 91 f1 bd d5 1d 1c be 7f cc 1c 3e 48 3d 5c 3d
       -0.11795272 -0.15245755 0.15312384 0.05376938
0000f0 bb 41 fc bd 84 ee 04 be f6 9d d6 3d 05 ea a5 3c
       -0.123172246 -0.12981611 0.104793474 0.02025319
000100 27 0b c8 bd eb 03 20 3d 69 d1 96 3d 61 49 9d bd
       -0.09767752 0.039066236 0.073641606 -0.076800115
000110 7d 3f 3e 3d 35 f0 20 3e b9 2e 2d 3d 02 dc ce 3c
       0.046447266 0.15716632 0.042280886 0.025251392
000120 30 d0 95 3d 44 5a 26 bd 36 3c e9 3d 5e 62 8b bd
       0.07315099 -0.040613428 0.113884374 -0.068058714
000130 bb d5 66 bd 47 15 4b 3d cf c8 44 3d fb 75 bb bd
       -0.056356173 0.04958084 0.04804307 -0.09153362
000140 46 55 b8 3d f5 44 a7 3d 2a 72 48 bc 91 1b d5 bc
       0.090006396 0.081674494 -0.01223425 -0.026014121
000150 46 84 8f 3d b9 4e 97 3d 1a f0 ab bc 73 96 e6 bc
       0.07007651 0.07388062 -0.020988513 -0.028147912
000160 43 60 1a 3d 1d 60 30 be d3 33 14 be 73 8b 8e 3d
       0.03768946 -0.17224164 -0.14472894 0.069601916
000170 4c 6e eb 3d 6c b1 8e 3d 45 92 08 3e 61 40 98 3c
       0.11495647 0.06967434 0.13337047 0.018585386
000180 a1 47 76 3d db 0c db 3d 27 9e 9e bc ba ad a2 3d
       0.060126904 0.10695811 -0.019362522 0.07943292
000190 ff 27 26 be fc f8 06 be bf 37 ae 3d 22 b9 82 3d
       -0.16226195 -0.13180918 0.085067265 0.063829675
0001a0 91 77 c9 bd 39 7d ee 3d 33 e4 cb 3d 17 ba 1c 3d
       -0.098372586 0.11644978 0.09955635 0.038263407
0001b0 96 3d f7 bd aa 32 14 bd e9 2f 22 bb 9b cc 3f be
       -0.120722935 -0.03618113 -0.0024747795 -0.18730395
0001c0 1c 21 0e 3e 51 a8 c0 bd 65 1d 3b be 99 0a 57 bc
       0.13879818 -0.09407104 -0.18272932 -0.013125085
0001d0 05 2c d7 3d 7a 30 78 3d 4f 7a eb bd c5 a1 f0 bd
       0.10506443 0.060593106 -0.11497938 -0.11749605
0001e0 c3 23 73 3d 1c 70 39 bd 6d 7b 6e bd 8c 63 10 be
       0.059360277 -0.04527293 -0.058223177 -0.14100474
0001f0 36 a6 25 3d bb f0 d8 bd 5a f1 31 3d 0b 11 1f 3d
       0.040441714 -0.10592791 0.04344306 0.038834613
000200 aa 94 82 bd fd 39 d1 3d fd 0f d6 bd cb 5b 12 be
       -0.06376012 0.102161385 -0.10452268 -0.14292829
000210 ea fd 4c 3c a9 ad ba 3d 24 b9 bd 3d a4 ae f7 3d
       0.01251171 0.09115154 0.092638284 0.12093857
000220 ce 93 5b bd 9d bc 36 bb 33 fa ae 3c 64 02 29 bd
       -0.053607754 -0.0027883418 0.021359539 -0.041262046
000230 37 7c 80 3d ca 40 02 be d4 d8 b5 bd ec 8b a1 3d
       0.06273692 -0.12720028 -0.08879247 0.07888016
000240 03 e7 b9 bd 01 fc 9a bb 1c a2 cf bd 07 97 42 bd
       -0.09077265 -0.0047297482 -0.10138342 -0.047507312
000250 53 80 cd bd 49 6e 93 3d 29 be 6e bd 2c 8a 68 bb
       -0.100342415 0.071987696 -0.05828682 -0.0035482747
000260 11 44 31 be 19 27 ba 3d 45 fe 9d 3d d1 96 46 3d
       -0.17311122 0.090894885 0.07714514 0.048483673
000270 6a df 0a 3d 52 59 07 be 2b b6 1f be fb cd c2 3c
       0.03390447 -0.13217667 -0.15596835 0.02377986
000280 fa 75 fe 3d 8f bd 21 be aa f4 0a 3e 7e 6a d2 3d
       0.12424846 -0.15794967 0.13569894 0.10274218
000290 e1 bd 0a 3e 6b 5f d7 bc c1 e1 0b be b5 da f8 3d
       0.13548996 -0.026290616 -0.13660337 0.1215109
0002a0 f7 03 8d 3d 14 b7 93 3c 48 71 43 3c fc d4 14 3e
       0.06885522 0.018031634 0.011928864 0.14534372
0002b0 cf f2 af 3d 91 34 d3 3d c0 db c8 bd 80 f6 72 3c
       0.08591234 0.103127606 -0.09807539 0.014829278
0002c0 fe 49 12 3e c8 97 02 bd 90 c2 01 bd da c9 04 3e
       0.14286038 -0.03188303 -0.03167969 0.12967625
0002d0 12 69 24 3e b8 b2 d2 bd af 48 51 bc 5b fd 85 bd
       0.16055706 -0.10287994 -0.012773677 -0.06542464
0002e0 7c c3 db 3d e8 f3 01 3e b8 48 df 3b e0 59 a8 3d
       0.10730645 0.12690699 0.0068140887 0.08220267
0002f0 30 fc 25 be 17 f1 fe bd 7e 03 64 3d 45 15 e9 3d
       -0.16209483 -0.12448328 0.055667393 0.1138101
000300 9c 12 67 bb 20 93 35 be 5b 3d 5b bd 0a 3d bd 3d
       -0.0035258895 -0.17731905 -0.05352531 0.09240158
000310 75 5b f3 3d 4a 01 8d bd ab f4 97 bd 60 83 e5 bd
       0.118826784 -0.068850115 -0.074197136 -0.112066984
000320 fc 9e 52 be bf 38 c5 3c 43 67 7e 3b 55 ad 4f bd
       -0.2056846 0.02407491 0.0038818873 -0.05070241
000330 92 60 0c 3e 9a b2 c1 bd 3e 55 83 3d 42 4e 3b be
       0.13708714 -0.09457894 0.06412743 -0.18291572
000340 ad 0c 0a be 97 b8 1f 3d f7 a5 d7 bc 31 d3 b3 3d
       -0.13481398 0.038994398 -0.026324255 0.08780516
000350 46 a3 5e 3d d2 f6 55 bc f5 eb b1 bd 41 1b da bd
       0.05435493 -0.013059335 -0.08687583 -0.106497295
000360 c7 26 9e 3a 56 3f 68 3d d1 45 11 be 61 8e 8c 3d
       0.0012066 0.056701027 -0.14186789 0.06863094
000370 7c 73 b8 3d fd d5 62 3d 04 a0 ea bc e5 38 a9 3d
       0.09006402 0.055379856 -0.028640755 0.08262805
000380 12 80 2f 3e 45 77 a9 3d 23 38 0f bd c6 55 76 bd
       0.17138699 0.08274702 -0.034965646 -0.060140394
000390 5d ca 27 be 9a 95 d5 bd 2d bd fb bd 02 4b f1 3d
       -0.16385789 -0.10428925 -0.12291942 0.11781885
0003a0 53 e8 02 be 10 2f ad bc fe f3 85 bc b3 34 c0 3c
       -0.12783937 -0.021140605 -0.016351696 0.023462629
0003b0 c1 97 94 3c 9a db 2d be dd 0c 4c bd f6 a6 15 be
       0.018138768 -0.16978303 -0.049816955 -0.14614472
0003c0 98 83 80 bc 8c 2d 62 3d f1 6b c6 3d 5d 67 16 3e
       -0.015687749 0.055219218 0.09688557 0.14687867
0003d0 8b a1 aa 3d a4 b2 ec 3c 89 cf 93 3d 54 2a 85 bd
       0.08331593 0.028893776 0.072173186 -0.06502214
0003e0 85 5b c7 3d db 5d 02 bc 71 ca f2 bd b2 e8 0a 3d
       0.09734253 -0.007956947 -0.11855019 0.03391332
0003f0 04 f0 b7 3c 92 ef 54 bd 4b a2 e5 bd e9 7b a3 3d
       0.022453316 -0.051986285 -0.112125956 0.07982618

encoder.conv3.bias f4 [32]
000000 0c 74 5d 3d f1 d9 fc bd 46 4f f5 bd 5c 7f 9d bd
       0.05406575 -0.123462565 -0.11978011 -0.076903075
000010 b6 a7 0c 3d 53 ed 3c be 83 0f ec bd bb 4b 20 be
       0.03433963 -0.18449907 -0.11526396 -0.15653889
000020 69 78 85 3d 15 59 8d 3a e0 a5 2d 3e 7c 05 b1 bd
       0.06517107 0.0010783995 0.16957808 -0.08643624
000030 44 ad 41 3d ab cf c5 bd 24 51 24 3d 27 57 18 be
       0.04728438 -0.0965875 0.040116444 -0.14876996
000040 8a 30 26 be 88 2e 05 bd ee b6 9e 3c f0 44 d8 3d
       -0.16229454 -0.03251508 0.019374337 0.10560024
000050 7d 07 1c 3e 80 fe 19 3e 9f 81 f5 3b 87 e0 57 3d
       0.15237232 0.1503849 0.0074922587 0.05270436
000060 81 70 1c 3e 58 5f 7a bd 2b 01 fe bc 4e b2 ef 3d
       0.15277292 -0.061126083 -0.031006416 0.11703931
000070 3f d5 b6 bd 55 4f 49 bd 40 aa 2b 3e b0 ed 9c bc
       -0.08927392 -0.049147923 0.16764164 -0.019156307

encoder.conv4.weight f4 [32, 32, 2]
000000 11 a5 5b 3d fb cb c7 3d 9e fa 36 bd 68 72 46 3d
       0.053624216 0.09755703 -0.0446726 0.04844895
000010 7f 7f 04 bc a2 87 fd 3c de 18 60 3c 65 8e d2 bc
       -0.008087038 0.030948464 0.013677804 -0.025702665
000020 3c 83 0f 3d f1 0d 38 bd 94 23 57 bd 41 ae ee 3c
       0.035037264 -0.04493517 -0.052524164 0.029135825
000030 14 d0 f7 bc b6 6e 08 be 4a 0e ba bd e8 dd 4c 3d
       -0.030250587 -0.13323483 -0.09084757 0.050016314
000040 8a 78 a0 3d 30 c5 cf 3c 58 06 c7 3d c7 12 9b bd
       0.07835491 0.025362581 0.09718007 -0.07571941
000050 5f ca f1 bd 43 d9 21 be 37 2f f8 3c b5 1e 00 be
       -0.11806177 -0.15805535 0.030295951 -0.12511714
000060 f3 73 c5 bd 1f a7 b7 bd 47 84 bf 3d 9f e1 33 be
       -0.09641256 -0.08967423 0.09351402 -0.17566536
000070 0c 16 00 bc 99 6c e9 bd 34 22 71 bc 40 59 8e 3b
       -0.007817756 -0.113976665 -0.014717627 0.0043441355
000080 5a 97 27 bc 16 dd 9e bd b0 cc 5b 3d 00 71 1b bd
       -0.010228956 -0.077570125 0.053662002 -0.037949562
000090 ec 9f 9c 3c 70 c8 cd 3d 40 c1 28 bd 9b 04 95 3d
       0.019119225 0.10047996 -0.041199923 0.07276269
0000a0 12 7c be 3d 2d 1d 49 3d 31 f1 d8 3d f8 79 45 3d
       0.09301008 0.04910009 0.105928786 0.04821202
0000b0 ef 11 1d bc f5 1f 72 3c b1 3e 79 bd a7 04 d0 3d
       -0.009586795 0.014778127 -0.060850803 0.10157137
0000c0 45 21 88 3d 97 8d 35 bc 2d 9c bc 3c 14 01 a8 bd
       0.06646971 -0.011081121 0.02302369 -0.08203331
0000d0 5d f2 92 bc 2f 6c a4 39 af 7d 69 bd e1 c0 ed bd
       -0.017937833 0.0003136112 -0.057004627 -0.11609054
0000e0 17 5f e8 bd 44 ee ba bd c1 46 e1 bd b5 1f 8e bc
       -0.11346262 -0.09127477 -0.10999823 -0.017349103
0000f0 8f d5 29 bc 86 70 26 bc 8c 0a 89 3d e6 27 20 be
       -0.010365858 -0.010158664 0.06691465 -0.1564022
000100 4e 98 79 bd 0b 80 6a bd 9e 11 87 bd 8a 43 4e 3d
       -0.060936265 -0.057251018 -0.06595157 0.05035738
000110 da 2b d3 3d 89 5e 01 bc 48 d6 0c 3d e6 5a 1b bd
       0.103110984 -0.007896074 0.034384042 -0.037928484
000120 98 96 8a bc 75 32 b5 3a 7b 95 df 3c f3 78 52 bd
       -0.016917512 0.0013824241 0.027292958 -0.051384877
000130 90 74 f3 3c ae e6 a1 bc e8 33 9c bd a0 e9 08 3d
       0.029718667 -0.019763317 -0.07627088 0.033425927
000140 24 bf 72 bd e6 71 6f 3d 44 22 a3 bd 91 ae bd bd
       -0.059264317 0.05845823 -0.0796552 -0.092618115
000150 1e 40 42 bd f3 90 00 be ea f9 06 3e 94 14 66 3a
       -0.04742443 -0.12555294 0.13181272 0.000877687
000160 b9 39 e2 bc 89 40 33 3d 1e d2 c0 3d a7 32 9d 3d
       -0.027615415 0.043762717 0.09415077 0.07675677
000170 17 e2 8a 3d 82 e1 59 3d 54 09 d7 bd c2 c2 be 3c
       0.067814045 0.053193577 -0.10499826 0.023286227
000180 66 d2 40 bd 73 2d b1 3d 80 69 7c 3d db c8 00 be
       -0.04707565 0.08651247 0.06162405 -0.1257662
000190 6e c6 0c 3d 0a c5 d2 ba 58 a9 a9 bd 98 ca 89 bd
       0.034368925 -0.0016080451 -0.08284253 -0.06728095
0001a0 7c 5c b2 3d 1b 35 73 3d fa e4 55 3d 98 8b a4 bb
       0.08709046 0.059376817 0.052220322 -0.0050215237
0001b0 d1 98 71 3d f7 9a 9c 3d ed 77 5a bc 69 f5 a0 bd
       0.058983628 0.07646745 -0.013334257 -0.07859308
0001c0 92 85 8f bc 6b 1c a0 bb 81 20 ee 3d 08 c5 8f bb
       -0.017519746 -0.0048862 0.116272934 -0.0043875016
0001d0 d6 e1 da bd 96 50 e3 bd 8f 06 a8 bc 45 8a ac bb
       -0.10687606 -0.11099355 -0.02051094 -0.0052655065
0001e0 ea 25 6a bc 28 b2 0d 3d 44 f6 cc bd 09 6e 54 3d
       -0.014291266 0.03459373 -0.10007909 0.05186275
0001f0 da b4 90 3c ad d0 f2 bd 22 77 e1 3c 5b 02 f0 bd
       0.017664362 -0.11856208 0.027522627 -0.11719199
000200 34 02 ec bd ef 46 e1 bb 9e f8 97 bd f0 f4 3a bd
       -0.11523858 -0.006874911 -0.07420467 -0.045643747
000210 cd 4b da bd 2e f3 08 be b9 70 18 3d 81 ca 2b 3d
       -0.10658989 -0.13374016 0.037216876 0.04194117
000220 40 7d 5b 3d 7d 62 d4 bd 39 91 ab bb 16 7b b9 bd
       0.053586245 -0.10370348 -0.0052358177 -0.0905668
000230 57 5f 8b 3d b5 82 c6 bc e0 aa 54 3d f0 e8 c5 bd
       0.06805294 -0.024232248 0.05192077 -0.0966357
000240 95 22 1e 3d 29 d8 a6 bd 4e 13 e1 bd 45 4d 8a bd
       0.0386072 -0.08146698 -0.1099001 -0.06753019
000250 86 ef c6 bd cf b6 ab ba bc a0 d0 bb 4e c5 b8 3d
       -0.09713654 -0.0013100746 -0.0063668173 0.09022008
000260 d2 b0 b7 bd 36 8d 07 3c 0a c1 19 bd ae 97 52 3d
       -0.08969273 0.008273413 -0.037537612 0.051414184
000270 b2 7b c7 3d 90 ba 97 3d 0e 6a 6c 3d 71 f9 4a bd
       0.0974039 0.07408631 0.05771833 -0.049554292
000280 5f 9d 08 3d 76 9f b5 3d 44 4a 4b 3d 73 6d 9c bd
       0.033353206 0.088683054 0.049631372 -0.07638063
000290 98 09 c4 3b 8f 74 65 bd 3f 7d 97 3d 92 b1 18 3c
       0.005982589 -0.056019362 0.07396936 0.00931968
0002a0 ee 31 b9 3d 0b c3 1a 3a 55 e5 ae bc 73 9c b0 bd
       0.090427265 0.00059036975 -0.021349588 -0.0862359
0002b0 6d 81 08 be 94 86 44 3d 1e 55 44 bd 32 55 ff bd
       -0.13330622 0.047979906 -0.047932737 -0.124674216
0002c0 e2 b4 f3 3d 6e a6 19 bb 25 34 bb bc db 99 d5 bb
       0.11899735 -0.0023445147 -0.022852013 -0.006518585
0002d0 3e 21 8d 3c 21 26 11 be b0 62 f2 bd e9 e9 fc 3d
       0.017227765 -0.14174701 -0.118352294 0.12349302
0002e0 6a 69 08 3d fb 83 05 be 10 6e c3 3b 38 da 92 3d
       0.033303656 -0.13038628 0.005964048 0.07170528
0002f0 d5 90 1f 3d f8 cf 85 bd 5d 4a 27 3c 1d 98 c3 3d
       0.038956482 -0.065338075 0.010210601 0.09550498
000300 0d e4 8b 3d 11 83 73 bb a3 e4 65 bd 79 35 13 bd
       0.068306066 -0.003715698 -0.056126248 -0.035939667
000310 e5 41 3f 3c 0b 72 9a 3d be 07 87 bd a0 36 93 3d
       0.011673425 0.07541283 -0.065932736 0.07188153
000320 c3 d5 b5 bd 40 2c ca bd 62 71 65 3d 51 2d 6f bc
       -0.088786624 -0.09871721 0.056016333 -0.014598207
000330 0a e2 81 3d 43 71 a5 3d 4d 94 99 3c 1f 9d bb 3d
       0.06341942 0.080782436 0.018747473 0.09160828
000340 e6 09 92 bd 07 26 c1 3d de e1 d1 bc 60 c4 d2 bc
       -0.07130794 0.09431081 -0.025620397 -0.025728405
000350 18 90 bc 3d fb 4e a8 bd 1b 51 55 3d 27 43 c7 3d
       0.09207171 -0.08218189 0.0520793 0.09729605
000360 90 d6 f6 3d 40 b9 94 bd a0 3a 93 bd c7 b7 03 be
       0.12052643 -0.07261896 -0.07188916 -0.12863074
000370 33 52 1c bd 0f a3 8c bd 7a 1b 18 3d 39 79 a0 bc
       -0.03816433 -0.068670385 0.03713558 -0.019589053
000380 ad f8 c0 bd be 95 23 bd 62 2e 29 bd dd 05 a6 bd
       -0.09422431 -0.039937727 -0.041304 -0.08106587
000390 d7 2b ec 3d b2 46 9a 3c fa c0 22 bd 78 c7 4f 3d
       0.11531799 0.018832538 -0.039734818 0.050727338
0003a0 5e fc 9d 3d 03 d2 9c 3c be b9 ca bd 82 17 08 bc
       0.07714151 0.01914311 -0.09898709 -0.008306386
0003b0 65 8e 71 bd 01 f3 73 3d a6 60 c3 3d 82 06 d0 3d
       -0.05897369 0.05955792 0.095399186 0.10157491
0003c0 e0 3a d9 bd f4 5b 96 bc e7 55 2d bd 94 71 85 bd
       -0.10606933 -0.018354394 -0.04231825 -0.06515804
0003d0 25 72 49 3d f8 03 27 3c 0f 64 f0 bc 99 63 dc bc
       0.049181122 0.010193817 -0.029344587 -0.02690296
0003e0 33 7c 78 3d 73 0a 75 3d 30 20 a5 bd 62 1d cd bd
       0.06066532 0.05982442 -0.0806278 -0.1001537
0003f0 52 e1 0a 3d 5b c6 2f 3d c7 ab 46 bd 06 0f ea bc
       0.03390629 0.042913776 -0.048503663 -0.028571617

encoder.conv4.bias f4 [32]
000000 4e b3 05 3e 28 40 dc bd 26 bc 5d 3d d7 48 6c 3c
       0.1305668 -0.10754424 0.05413451 0.014421663
000010 ee 3a ed bd d1 05 12 be b0 ef 93 bd 8c 29 48 bd
       -0.115835056 -0.14260031 -0.07223451 -0.048867747
000020 53 56 92 bd 3c 87 59 bd 4d c2 98 bd 9c db af 3b
       -0.07145371 -0.053107485 -0.07458935 0.0053667556
000030 bb 60 1e 3d 00 4a ae bd 2d 8f 7b 3d ba 94 64 3d
       0.038666468 -0.08510208 0.06141584 0.0558059
000040 50 37 4b bd f0 b4 00 be 9d 54 43 bd f0 40 78 3d
       -0.049613297 -0.12569022 -0.047688115 0.060608804
000050 1a 8f d8 bc bb 2d ee bc a2 28 9f bd 9b 00 3f be
       -0.026435424 -0.02907454 -0.07771422 -0.18652575
000060 a5 79 30 3b ba 5a c9 3b f9 7c 1e bd 60 9b 78 bd
       0.0026927975 0.0061448487 -0.038693402 -0.060695052
000070 4f a2 b7 bc c6 2b dd bd 8b d2 99 3d 07 1d 22 bd
       -0.022416262 -0.10799365 0.07510861 -0.039578464

encoder.fc1.weight f4 [64, 512]
000000 18 ab 78 bc 13 4a fa bc 86 75 c3 bc 63 bf 88 3c
       -0.015177511 -0.0305529 -0.02385975 0.016692823
000010 f1 3c 1b bd 1f 19 32 3d ca 6b 34 bb ba b8 eb 3b
       -0.037899915 0.04348099 -0.0027530068 0.007193652
000020 df 16 69 bd cc c3 9c bc 8d a0 d6 bb 29 7a 1a bd
       -0.056906577 -0.019136332 -0.006549901 -0.037714157
000030 c2 e7 b7 3c 1d 33 6a 3d af ee 11 3d 78 a9 b4 bc
       0.022449378 0.05717765 0.035628017 -0.022053465
000040 44 26 3e bd 7b ce a8 bc 4e 1c b9 bc 0b 47 e8 bc
       -0.04642321 -0.02060627 -0.022596505 -0.028354188
000050 d6 a4 d9 bc 21 da 20 bd a9 e6 0a bd e3 13 4b 3c
       -0.026567858 -0.039270524 -0.03391138 0.012394878
000060 96 de 3b 3c 28 cc 46 3d d1 35 05 3d e8 6f 21 3d
       0.011466643 0.048534542 0.032522026 0.039413363
000070 a7 2b 31 bb 48 35 b1 bc fb 6c 19 3c f9 7b ee 3a
       -0.0027034075 -0.021631852 0.009364362 0.0018194906
000080 f2 1b 02 bd 33 a7 b4 3c 8c 53 d2 3c a1 ef 75 3c
       -0.031764932 0.022052383 0.025674604 0.015010745
000090 e2 ce 39 3d 97 6b 01 bc 55 51 0f 3b 7a d5 3b bd
       0.045363314 -0.007899187 0.0021868546 -0.045857884
0000a0 12 ff 77 bb 19 78 08 3d e2 9e 3d bc 8b f9 8c bc
       -0.0037841243 0.03331766 -0.011573525 -0.017208835
0000b0 8c a6 48 bc 4f 74 19 bd aa 2a 28 3d 46 e1 da ba
       -0.012246739 -0.037464436 0.041056313 -0.0016699217
0000c0 5c 34 f4 3c f3 70 91 3c 9b 23 73 3c 2b d7 ba 3c
       0.029810123 0.017754054 0.014840032 0.022807678
0000d0 14 27 5b bb e3 79 20 bd 02 24 ea ba ae c0 9e bc
       -0.003344004 -0.03917874 -0.0017863514 -0.019378986
0000e0 ba 34 e8 3c 2b d2 4d 3a 16 bd 95 3c a9 57 a7 bc
       0.028345454 0.0007851447 0.01827864 -0.020427542
0000f0 7c b6 a6 3c 66 df 1b bd b6 f8 d0 3c 74 56 81 3c
       0.020350687 -0.038054846 0.02550922 0.015788294
000100 3f de 4a bd 8c c2 00 3d 1c df 0a 3d f0 38 60 bb
       -0.049528357 0.031435534 0.03390418 -0.0034213625
000110 6e 28 c7 3b a5 c5 8b bb 00 16 21 bd c8 88 ff 3c
       0.0060778176 -0.0042655044 -0.03932762 0.031193152
000120 43 71 d5 3c 68 f0 17 bd 1c 8d ff 3c c7 d3 a6 bc
       0.026054984 -0.037094504 0.031195216 -0.020364655
000130 0f 3e c3 bb 4e ed bb 3c bc 2c f1 bc c6 ed c0 bb
       -0.0059583257 0.022940304 -0.029440276 -0.00588772
000140 be 97 82 bc 31 5e eb bc 3f 16 57 bc c7 ae c8 bc
       -0.015941497 -0.028731437 -0.0131278625 -0.024497403
000150 a1 6c 95 bc 47 45 54 bc af 94 17 3b 08 88 c5 bc
       -0.018240275 -0.01295597 0.0023129394 -0.024112716
000160 48 23 b8 bb 02 1e 11 bd 9f 58 85 bb bc b9 1b bc
       -0.00561944 -0.03542901 -0.0040694023 -0.009504732
000170 8a 84 56 3c 9f e3 22 3c 65 39 41 3d 73 0b e4 3c
       0.013093123 0.009941964 0.047173876 0.02783749
000180 3e d6 05 bc ee d4 f5 ba ad ea 38 bc d2 55 f5 3b
       -0.008168755 -0.0018755475 -0.01128642 0.007487037
000190 25 15 9b 3c 5a 59 06 3d e3 7e 35 3c 21 97 d9 bc
       0.018930981 0.032800056 0.011077615 -0.026561322
0001a0 d8 99 a3 bc da db 1a bd 6f 64 a9 3c 80 b5 09 bd
       -0.01997082 -0.037807323 0.020677773 -0.033620358
0001b0 4f 42 27 3d 39 65 a7 3c 08 2e 0b 3c b8 87 84 bc
       0.04083472 0.020434009 0.008494861 -0.016177997
0001c0 aa 06 6e bd b1 8f e7 bc c8 0b 3e bd cb 62 b1 bc
       -0.058111824 -0.02826676 -0.046397954 -0.021653553
0001d0 67 0a 22 bc 81 fa ee bc 98 df 16 3d 75 85 cd 3c
       -0.009890175 -0.029172184 0.03683433 0.025088051
0001e0 87 e1 8a bc 86 85 44 3c dc 23 d0 3c ae f3 b8 bb
       -0.016953243 0.011994725 0.025407724 -0.0056442833
0001f0 e5 7f 9f bc 6f 4d bf bc 03 0a c8 bc da 8e 9f bc
       -0.019470165 -0.023352353 -0.024418836 -0.019477297
000200 67 a8 b1 bd cb 03 a7 bb db 86 e9 bc bf 02 b3 3b
       -0.08674698 -0.0050968877 -0.028506687 0.005462974
000210 ef 2d fa bb 3c fa 20 3c 84 04 04 3c 2d 1f ac bc
       -0.0076348702 0.0098252855 0.008057717 -0.02101096
000220 ba d2 25 3d de 8f 1f 3c a6 ca 7c bc 04 ef 30 3d
       0.040484168 0.00973889 -0.0154291745 0.043196693
000230 81 1a 6c bc 94 62 9d bb 0c 25 36 3d 55 4b 99 3c
       -0.014410616 -0.004803011 0.044468924 0.018712679
000240 6c cb f7 3b a0 50 e2 3c 28 70 f6 3c 55 9c 0a bc
       0.0075620916 0.027626336 0.030082777 -0.008460124
000250 ee 53 3c bd c7 49 a4 bc 3e dd a9 3b e2 8c f4 3c
       -0.04597848 -0.020054711 0.005183845 0.029852334
000260 76 ef 9b bc 1b b4 32 bd 54 8c 0c bd 6d e5 ee 3c
       -0.019035082 -0.043628793 -0.034313515 0.029162133
000270 41 4d 45 bd a2 78 cf 3c c1 13 ed 3c bf d7 66 3c
       -0.04816938 0.025326077 0.028940083 0.014089524
000280 36 58 0a bd 98 7e 39 bc e5 01 63 3c f9 f7 2d 3c
       -0.03377553 -0.011321686 0.013855432 0.010618203
000290 73 07 7c bc f9 5e 1b 3c 8a 32 39 bd ce 92 c5 bc
       -0.015382635 0.009483092 -0.045214213 -0.024117853
0002a0 0a 8a 5d 3c 1a 5f 4d bd c0 c9 49 3d fc fd 20 3c
       0.013521681 -0.050139524 0.04926467 0.00982618
0002b0 a5 b8 17 bc 8c 51 22 bc 86 3c 2d 3d a6 b1 01 3c
       -0.009260331 -0.009907138 0.042294048 0.00791589
0002c0 76 68 87 bc c0 ad 91 3c 0e 3b 34 bd 27 a6 05 bd
       -0.016529303 0.017783046 -0.04400163 -0.03262916
0002d0 ec e8 45 b9 3b 82 5c 3c 82 e4 78 bc f1 99 12 3d
       -0.00018874154 0.013458784 -0.015191199 0.03579134
0002e0 8d d8 93 3c 46 96 29 bd 93 95 fa bb 67 4c 10 bc
       0.018047595 -0.041403078 -0.007647225 -0.008807278
0002f0 76 41 b0 b9 84 95 d9 3c e8 7d a6 3c 43 da a6 bc
       -0.00033618108 0.026560552 0.020323709 -0.020367747
000300 b0 a8 09 bd 8c a0 6e bc 27 05 a3 3b 1a 6b 13 bc
       -0.03360814 -0.014564645 0.0049749794 -0.008997703
000310 93 74 1d 3d 46 06 86 3c ac b5 a5 bc 41 d2 d3 3b
       0.038441252 0.016360413 -0.02022823 0.006464273
000320 2c 73 27 3d 22 7e e2 3c ae c1 91 bc 2a b2 4c 3d
       0.04088132 0.027648035 -0.017792549 0.049974598
000330 be 36 93 3b bd a2 0f bd bf 20 5f 3d 85 fb 54 bb
       0.0044926098 -0.03506731 0.05447459 -0.003249855
000340 ba 8d 5a bd ec 76 51 3d aa 77 e2 ba 77 ad 69 3c
       -0.053357817 0.051138803 -0.0017278094 0.014262549
000350 9d cb a6 bc c6 03 9d 3c 2f 77 0c bd a9 cd e2 bc
       -0.020360762 0.019166838 -0.03429335 -0.027685957
000360 46 ee 9d bc 21 44 8f 3c 6f ba dd 3c de 0e df bb
       -0.019278657 0.017488541 0.027066438 -0.006807192
000370 1f e3 e3 3a 91 fc e6 3c d8 b2 a8 3c ac 8a 77 bd
       0.0017386413 0.028196605 0.020593092 -0.060434982
000380 5c 57 38 bd 8e 75 0e bd 34 9a 3b 3c 0c d0 f5 3c
       -0.045005187 -0.034780078 0.011450339 0.030006431
000390 4c dd 8e 3c 02 93 54 bd 38 5f 6d bd 21 d1 ba bc
       0.017439507 -0.05189801 -0.057952136 -0.022804799
0003a0 a7 a8 f3 bb 42 db c1 bc aa 2c e0 bb c1 f0 59 3c
       -0.0074358764 -0.02366412 -0.006841262 0.013302029
0003b0 95 f5 65 ba 8e d5 2e bc 1f 9b a5 3c b9 77 1e bd
       -0.00087722513 -0.010671033 0.020215569 -0.038688395
0003c0 56 1d 66 3c 1f 3f 82 bd 85 50 83 bc bb c1 61 3c
       0.01404508 -0.06359696 -0.016029606 0.013779099
0003d0 e7 bd ce bc fc b5 04 bc 6a 1c 54 3c 4b 18 a6 3c
       -0.025237037 -0.008100029 0.012946228 0.020275256
0003e0 62 88 1f 3c 49 96 27 3d ed 20 04 3d 29 a3 49 bc
       0.009737106 0.040914807 0.032257963 -0.012306967
0003f0 c5 f4 e8 bb da 13 84 3d 4d 37 da bc e0 14 39 3c
       -0.007109257 0.06449099 -0.026637698 0.011296481

encoder.fc1.bias f4 [64]
000000 99 ac 50 3d ff 92 3f 3d ca 15 24 bc c9 83 ae 3c
       0.050945852 0.046771046 -0.010014961 0.021303074
000010 98 bb d3 39 fb 27 38 3c e0 18 9f bc 17 19 31 3d
       0.00040384824 0.011240001 -0.019421041 0.04323682
000020 ed eb 4e 3d a8 aa fa bc 10 e4 91 39 ce fa b8 3b
       0.050517965 -0.030598953 0.00027826475 0.0056451326
000030 09 cd 54 3d 56 1e 30 bd e8 9e 06 3d b9 56 88 3c
       0.05195335 -0.04299768 0.03286639 0.016642915
000040 ce ab 29 bd 74 6a b2 3c 36 04 98 bc cd f3 4a 3c
       -0.04142361 0.021779276 -0.018556695 0.012387228
000050 4e 8a b9 3d 00 70 ea 3c b6 81 d4 3c 96 7b 9b bd
       0.09059583 0.028617859 0.025940757 -0.075919315
000060 71 9e 2c bb 02 14 1f bd 25 32 19 3b 95 49 26 3c
       -0.0026339556 -0.03883744 0.0023375836 0.010149379
000070 c9 4e 8b bd 63 f4 05 3d 7f ad c9 bc 7f 9f ab 3c
       -0.068021365 0.03270377 -0.024618862 0.020950077
000080 37 6b 2d 3d a0 e9 12 3c 69 ef 63 bc 95 9c 94 3b
       0.042338576 0.008966833 -0.01391206 0.0045352676
000090 eb 77 ae bc e4 71 78 bd 94 e3 c8 bc 90 7d 49 3c
       -0.021297416 -0.06065549 -0.02452258 0.012298003
0000a0 0e b9 72 3d 81 42 ed 3c e8 73 f4 bc 40 e7 86 3c
       0.059258513 0.028962376 -0.029840425 0.01646769
0000b0 1e 3d 46 3d be 05 81 3d cc 0c 41 bc f0 9f 46 bd
       0.04839813 0.06299923 -0.011782836 -0.048492372
0000c0 5d 3f 4e 3c ab 97 29 bc 26 4b ed ba 33 a7 69 bc
       0.012588349 -0.010351102 -0.0018104061 -0.014261055
0000d0 1a 9d 6e 3d 35 3a 5f 3d 85 d7 3a bd fc 9b c4 bc
       0.058255292 0.05449887 -0.04561569 -0.02400016
0000e0 dc 0a cc 3b 51 b5 1b 3d e8 3f 90 3d aa bc 51 3b
       0.0062268805 0.038014714 0.07043439 0.0032003322
0000f0 2b ba 85 bd cb 32 83 bd 5c dc 05 bd 25 63 75 bc
       -0.06529649 -0.06406172 -0.032680854 -0.014977251

encoder.fc2.weight f4 [16, 64]
000000 a4 78 90 3c 38 59 20 3d bb 2f 51 3b e1 cc a6 3d
       0.017635651 0.039147586 0.0031919319 0.08144546
000010 56 c7 4c 3d 1d d5 7a 3d 57 09 0b be 94 0a 77 3c
       0.04999479 0.061238397 -0.13577782 0.015078206
000020 6f ea e4 bd e3 a5 04 3d f0 3c b3 3d 59 3c bd bd
       -0.11177527 0.032384764 0.08751857 -0.09240026
000030 c1 b8 a4 3c ea c4 22 3d 4a fc 1c 3d db 4e ca bd
       0.020107629 0.039738573 0.03832654 -0.09878322
000040 6c 5d d3 3d 9b b8 af 3d 5b b5 c3 bd 9f 2b 59 3c
       0.10320553 0.085801326 -0.09556075 0.013255029
000050 bf 64 ba 3d 63 b9 69 3c 7b db 89 bd 42 e4 80 bd
       0.09101247 0.014265391 -0.06731316 -0.06293537
000060 18 2f b3 3d 98 52 b6 bd 13 fd 85 3c c8 2e 5b bd
       0.08749217 -0.08902472 0.016356027 -0.05351141
000070 9e 53 a4 3d dc 34 2c 3c 20 af 98 3c 85 bc 5f bd
       0.08023761 0.0105106495 0.018638194 -0.054623146
000080 e0 5b c7 bd 77 d1 e2 bd 7c ad c4 bc 58 7e 01 be
       -0.09734321 -0.110751085 -0.024008505 -0.12645853
000090 73 fe 4a 3d 99 fa da bd 1e 72 83 bd 10 ce 7d 3d
       0.049559068 -0.10692329 -0.064182505 0.061964095
0000a0 45 9a 77 39 8e d3 ca bd 6b c8 bd 3d a6 d9 e5 bd
       0.00023613225 -0.09903632 0.09266742 -0.11223154
0000b0 c8 12 01 be 40 86 dc bc a6 d8 74 bd cd 07 41 3d
       -0.1260482 -0.026919484 -0.059776925 0.04712658
0000c0 6c ff 08 3e 21 a3 8e bd 95 dc 94 bd 78 0f 8b bd
       0.13378686 -0.06964708 -0.07268635 -0.0679006
0000d0 18 94 d0 bd 8f eb c4 3d 17 7a ae 3d 92 c5 13 3d
       -0.10184497 0.09615242 0.085193805 0.03607709
0000e0 c8 c5 e7 3d 0c 23 84 3d d2 db 75 bd e7 b3 21 bd
       0.11317021 0.06451997 -0.06002409 -0.03947821
0000f0 19 26 da 3d 97 43 10 be 1c 54 9f 3c 3c 3e 09 be
       0.10651798 -0.14088283 0.019449286 -0.13402647
000100 87 32 a1 bd 8b 18 82 3d 64 8d 34 bc b6 d1 78 3b
       -0.078709655 0.063523374 -0.011020038 0.0037966794
000110 72 3e 50 bc 75 89 97 bd c0 fa 30 3d a5 18 59 bd
       -0.012710201 -0.07399265 0.043207884 -0.05300202
000120 5e 06 e9 3d c2 6e d1 3c a5 93 ea 3c 41 12 cf bd
       0.113781676 0.025565509 0.028634856 -0.101109035
000130 35 54 92 3d 16 5b f2 bd 0c 33 d7 3c c2 33 6d 3c
       0.071449675 -0.118337795 0.026269458 0.014477672
000140 af f7 03 be b4 81 9a 3b 06 aa 3e bd 83 45 88 3c
       -0.12887453 0.004715169 -0.046548866 0.016634708
000150 e3 84 83 3d ba c5 b0 3d 34 67 e5 3d 1a 6e ac bd
       0.064218305 0.08631463 0.11201325 -0.08419438
000160 3e c8 6e bd e2 88 eb bd 15 46 1e bd 08 cb a5 3d
       -0.058296435 -0.11500718 -0.038641054 0.08095366
000170 c0 41 fd bd 82 ad 8e bd 25 8c 03 be 15 38 be 3d
       -0.123660564 -0.06966688 -0.1284643 0.092880405
000180 64 1e a8 3d 6e 17 16 bd 24 2a cd bd 01 09 b9 3d
       0.082089216 -0.036643438 -0.10017803 0.090349205
000190 fb 67 65 bc 68 0a ea bd f7 84 18 be 1f 83 b9 3c
       -0.014001842 -0.11427766 -0.14894472 0.022645531
0001a0 b9 06 bb 3d d2 2f f8 3c 70 34 6b 3d 3d b6 53 3d
       0.091321416 0.03029624 0.057423055 0.051687468
0001b0 1e 94 cf bd fe 57 c0 3d fe 60 bd 3d cb d5 77 bd
       -0.10135673 0.09391783 0.092470154 -0.060506623
0001c0 c6 0a 9a 3d e6 54 06 3e bf 52 ca bd 4f 97 24 bd
       0.07521586 0.13118324 -0.09879064 -0.04018336
0001d0 64 1a a2 3d 0c 58 7f 3c a5 2c ad 3d 5a 62 ad 3d
       0.0791519 0.015584957 0.08455781 0.08466025
0001e0 01 af b2 3d c7 1c 4c bd f4 b9 d9 3d d8 95 0b be
       0.087247856 -0.04983213 0.10631171 -0.1363138
0001f0 9d af cb bd 0b 35 d7 bd f3 55 da 3b 65 90 71 bc
       -0.09945605 -0.10508164 0.006663078 -0.014743899
000200 b9 7d 0a 3e 4f 1a 2e bd 9e ed b4 3c 9f 29 6e 3d
       0.13524522 -0.04250556 0.022085961 0.05814516
000210 47 49 dc 3d 60 8b 38 bb 83 51 9d 3d 9b 96 d7 3c
       0.10756164 -0.0028159246 0.07681563 0.026316931
000220 d9 b7 f7 bc 3f 25 4a 3b 87 1d 85 bd 24 f3 1a bc
       -0.030239033 0.0030844954 -0.064997725 -0.009457383
000230 17 35 36 bd 2e d3 fa bd 22 ef 8e 3d 9f 57 ed bb
       -0.044484224 -0.122473106 0.06979205 -0.0072431113
000240 dd a7 b7 bc 0a 42 a7 bd e8 d1 dc 3d f4 11 b0 bd
       -0.02241891 -0.08166893 0.10782224 -0.08597174
000250 63 2c d4 bd 9d cf 08 bd 93 e1 8e 3d 0c 58 7d bd
       -0.103600286 -0.03340112 0.069766186 -0.061851546
000260 57 de a8 3c 5f 95 c2 bd cf 19 e0 3d 83 bc 6f 3d
       0.020613832 -0.095011465 0.109424226 0.05852939
000270 1f ca 1a 3d a1 09 e9 bc f7 e2 86 3d 97 af 5d bd
       0.037790414 -0.028446974 0.06586259 -0.054122534
000280 b0 34 06 be f3 c1 a4 bb 33 7d a6 bd 53 18 9d 3d
       -0.13106036 -0.0050280034 -0.081293486 0.07670655
000290 35 91 95 3d ac 25 a8 3a c5 70 58 bd c1 9a 8e 3b
       0.07303087 0.001282861 -0.05284192 0.004351944
0002a0 c8 8b d6 bd e6 d6 d6 3d f3 79 07 3e d3 67 74 3d
       -0.1047588 0.104902074 0.13230114 0.059669327
0002b0 9f 71 ed ba 9d ce 19 bd 2a aa 74 3d 22 2b c9 3d
       -0.0018115527 -0.037550557 0.059732594 0.0982268
0002c0 46 1a d2 3c c3 f0 95 bd b9 96 e6 bd f7 24 15 3d
       0.025647294 -0.07321312 -0.11259217 0.036412206
0002d0 38 fa 78 3d b8 04 c0 bb 44 1a 7b 3d 3e 2c 55 3d
       0.060785502 -0.0058599375 0.061304346 0.052044146
0002e0 7e db 56 3c 25 8f ec bc e1 a1 0b 3d cb 07 8e 3d
       0.013113854 -0.02887685 0.034089927 0.0693508
0002f0 20 e2 42 b9 da e8 4a 3d 25 8c a1 bd c9 51 7d 3d
       -0.0001858552 0.04953847 -0.078880586 0.061845575
000300 ee 9a c6 3d c4 7d 01 bd f0 28 ce bc 5c 55 23 3e
       0.09697519 -0.03161408 -0.025166005 0.15950531
000310 9a c7 eb 3d 14 de a5 bd dd fb 11 bd 60 2b ef 3d
       0.1151268 -0.08098999 -0.035640586 0.11678195
000320 cb bc b7 bb ed 62 b5 bc 7c 51 cd 3c 61 b1 f1 bc
       -0.0056072227 -0.022141898 0.025063269 -0.029503526
000330 52 fb 09 be bd fe eb bd 6c 30 65 bd e3 b5 08 3e
       -0.13474777 -0.11523197 -0.05595438 0.13350634
000340 a1 fe d3 3c 81 bc 8f 3d 99 00 c8 bd 33 51 6c bd
       0.025878252 0.07018376 -0.09765739 -0.057694625
000350 e6 97 b3 bb 6b 14 a2 3d 16 b9 af 3c 92 cc 02 3d
       -0.005480754 0.07914051 0.02145056 0.031933375
000360 76 cb ee 3d 87 b8 c6 ba be fe 98 bd f8 d6 82 3c
       0.11659901 -0.0015161195 -0.07470463 0.015971646
000370 6e 53 e0 bc 2b fa 02 bc fb 48 1a bb fc 5e e0 3d
       -0.027383532 -0.007994215 -0.0023542035 0.10955617
000380 a3 d6 fb bc 52 f8 a4 3d e1 8d 90 3d 0e 09 68 bd
       -0.030741995 0.08055176 0.07058311 -0.05664926
000390 04 82 ee 3d 9c f1 8d bd b6 96 a2 bd b2 3c c3 bd
       0.11645892 -0.06930849 -0.07938902 -0.09533061
0003a0 a1 c4 ac 3d 6c 03 16 bd e2 b6 d8 3c d8 9d d1 bd
       0.084359415 -0.036624357 0.026454393 -0.102351844
0003b0 b2 1f db 3d 66 18 a7 3c 9b 83 1c 3d 7e 42 c1 bd
       0.10699405 0.020397376 0.038211446 -0.094365105
0003c0 60 1d 04 be 59 81 a4 3d 48 05 a7 3d 6d cf cc bc
       -0.1290183 0.080324836 0.08155304 -0.025001252
0003d0 b5 df 9e 3d 5f 77 e1 3d 5a dd 73 bd 47 5d a2 3c
       0.077575125 0.11009096 -0.05953727 0.019819869
0003e0 2d 3f 4c 3d 5b 63 be bd f7 2a 07 3e e0 fa 44 3d
       0.049864937 -0.09296294 0.13199984 0.048090816
0003f0 05 16 40 3d bd cc 5d bd 83 d1 2c bc a5 19 bc 3d
       0.046896 -0.05415033 -0.010547998 0.09184579

encoder.fc2.bias f4 [16]
000000 63 98 26 3e e7 7a ac 3b db 77 c3 bb 8d 2b 2a 3e
       0.16269068 0.0052636745 -0.0059652156 0.16618176
000010 56 2c c5 3d cd 02 c3 3d 32 17 9b 3d 46 a1 79 bd
       0.09627597 0.095220186 0.075727835 -0.060944818
000020 ef ca bc bd f3 93 dd bd 90 63 dc 3d fc 63 a4 3c
       -0.09218394 -0.10819235 0.107611775 0.020067208
000030 e5 06 84 bd e9 b8 cc 3d a1 da d6 3a 53 af 62 3d
       -0.064466275 0.09996206 0.0016392061 0.055342983

encoder.fc21.weight f4 [4, 16]
000000 50 a2 0b 3e b5 65 46 3e e1 ae 54 3e 34 f2 be bd
       0.13636136 0.19374736 0.20769836 -0.0932354
000010 a4 c2 33 be 47 fb 3e 3e 2e 73 08 3b f7 f4 72 3e
       -0.17554718 0.18650542 0.0020820606 0.23726259
000020 98 d4 40 be cb 72 2e 3e 97 6a 00 3e a9 48 16 3d
       -0.18831098 0.17035978 0.12540661 0.036690388
000030 d9 87 53 bd 7f c5 00 3e 04 cc 37 3e fa 5b 6c 3d
       -0.051643226 0.12575339 0.1794892 0.057704903
000040 bf 56 bc bd f9 b3 3a 3e 2f d8 0b be 0b b5 a8 3c
       -0.09196233 0.18232717 -0.13656686 0.02059414
000050 33 98 6c be a8 db 17 3e 96 8c 87 bd 9c 2c 29 3e
       -0.23104934 0.14829886 -0.066186115 0.16520923
000060 30 1b b8 bd 3b 1a b4 3d 1f 42 bf bd b9 97 2a be
       -0.089895606 0.087940656 -0.093387835 -0.1665944
000070 a0 bb 9b bd da bf e6 bc a3 7f 07 bd a6 2e 22 be
       -0.07604146 -0.028167654 -0.03308071 -0.15838107
000080 0b 86 31 3e f4 5e 72 3e 62 78 29 3e f1 bb 5a 3e
       0.1733629 0.23669034 0.16549829 0.21360756
000090 60 81 4d be e2 fa 2c be 90 61 3a 3e 4c b5 04 3d
       -0.20068884 -0.16892579 0.1820128 0.03239946
0000a0 86 e2 37 3e ee ae 65 be d7 4f 36 3e 66 82 43 3e
       0.17957506 -0.22430012 0.17803894 0.19092712
0000b0 14 a2 02 be 0d ba 6c 3e 6f 63 46 be 73 ce 77 bd
       -0.1275714 0.23117848 -0.19373868 -0.06049962
0000c0 3d 4e 02 be 80 6b 02 be dd 5b c0 3c 80 24 89 bb
       -0.12725158 -0.1273632 0.023481304 -0.0041852593
0000d0 ff dd 39 3b c9 56 95 bd f6 fb 32 bd f7 83 e4 3d
       0.002836108 -0.072919436 -0.04369732 0.11157983
0000e0 5c 21 d1 3b 0b b4 0d be 0d 8d 09 3e c4 1d e1 bd
       0.0063821506 -0.13838212 0.13432713 -0.109920055
0000f0 3d fe 6f be 20 e7 18 be e8 ca 69 bd 9a eb 15 3e
       -0.23436828 -0.14931917 -0.057078272 0.14640656

encoder.fc21.bias f4 [4]
000000 1b d0 6d bd 9e c9 08 be 39 44 f0 bd 49 b8 97 bd
       -0.058059793 -0.13358161 -0.117317624 -0.074081965

encoder.fc22.weight f4 [4, 16]
000000 f4 41 92 bc 50 f8 03 be b5 42 02 3d d4 21 96 be
       -0.017853715 -0.12887692 0.031801898 -0.29322684
000010 8d 46 88 3d a3 ba 50 be 9e cc e2 bd c2 1d 4c be
       0.066540815 -0.20383696 -0.11074184 -0.19933227
000020 4e c4 46 3e 9d 9c d3 3d bc 22 5e bd d8 55 14 3e
       0.19410822 0.10332606 -0.054232344 0.14485872
000030 d1 11 b7 bd ee 8c c6 bd e1 75 0c 3e e1 f2 18 3d
       -0.08938945 -0.09694849 0.13716842 0.037341002
000040 ff 9d 54 be 99 9f 59 be 56 18 28 be 07 bb 59 be
       -0.20763396 -0.21252288 -0.16415533 -0.21262752
000050 1b 69 9c be 76 dd 18 be 02 cf 1f be 5f 69 8d be
       -0.3054894 -0.1492823 -0.15606311 -0.27619454
000060 44 ba 27 3e e4 83 53 bd 65 c9 ea 3c 76 46 51 be
       0.16379648 -0.051639453 0.028660486 -0.20437035
000070 d2 8c fd 3d 54 65 15 be 9f 38 99 be dc ef 73 be
       0.12380375 -0.14589435 -0.2992601 -0.23821968
000080 f4 a5 37 be 87 b3 b9 be 8e 57 92 be 14 5e 53 3d
       -0.179344 -0.3626978 -0.28582424 0.05160339
000090 99 0b 0c be 15 a1 64 be 16 1b b2 be 8e 99 a5 3d
       -0.13676299 -0.22327073 -0.3478629 0.08085929
0000a0 c9 3c c5 bc 0e d0 59 bd d8 17 4a be 92 5f 0e bc
       -0.024076836 -0.053176932 -0.19735658 -0.008689778
0000b0 25 99 01 3e ac 04 cf 3d b4 8c b1 3d 5a 6c f1 bd
       0.12656076 0.10108313 0.08669415 -0.117882445
0000c0 8c 39 c4 3d 9d 88 c9 bd f9 d4 46 3d d2 b8 74 be
       0.09581289 -0.0984051 0.04854295 -0.23898628
0000d0 c2 6e 0a be cd 2a c8 bc c0 1d 85 be bc fc 65 be
       -0.13518813 -0.024434472 -0.2599926 -0.22459692
0000e0 0f ec 16 3e 52 d9 53 be 71 98 5c 3d 98 d0 50 3e
       0.14738487 -0.2068837 0.053856317 0.20392072
0000f0 41 34 7e be 92 f1 d7 bb 72 61 93 3c 53 ed 50 be
       -0.24824621 -0.0065900767 0.017990801 -0.20403032

encoder.fc22.bias f4 [4]
000000 06 22 06 bd 59 a7 6b be 96 76 91 be 44 ff 96 be
       -0.03274729 -0.23013057 -0.28410786 -0.29491627

encoder.bn1.weight f4 [16]
000000 be 94 75 3f f8 fb 76 3f 00 00 80 3f 3b f7 6f 3f
       0.9593009 0.96478224 1.0 0.9373662
000010 fa 02 79 3f 20 c0 74 3f 62 43 76 3f 20 a2 76 3f
       0.97270167 0.9560566 0.9619657 0.96341133
000020 00 00 80 3f ea 56 74 3f 00 00 80 3f d6 7e 73 3f
       1.0 0.9544512 1.0 0.9511541
000030 5c c5 7a 3f e7 72 74 3f 00 00 80 3f 00 00 80 3f
       0.97957397 0.9548783 1.0 1.0

encoder.bn1.bias f4 [16]
000000 91 84 2b bc cd aa 1d 3a dd fc c0 bc 53 26 92 3c
       -0.010468618 0.0006014526 -0.023558075 0.01784054
000010 ef 8d 8f 3a cc f4 d7 3c fa 49 b3 bb c4 42 a3 bc
       0.0010952334 0.026361845 -0.005471465 -0.019929297
000020 c2 e6 52 3d 88 b8 5e 3c 01 58 63 3c 28 13 ec 3a
       0.0514896 0.0135938 0.013875962 0.001801108
000030 f6 d4 88 bb 04 1d f7 3b 5f 6c 9b bb f2 54 2f bc
       -0.0041757775 0.0075413007 -0.0047431435 -0.010701405

encoder.bn1.running_mean f4 [16]
000000 f4 23 41 3f 12 96 02 3f 00 00 00 00 98 90 f4 3e
       0.75445485 0.5101024 0.0 0.47766566
000010 b6 a6 85 3e 96 a9 e9 3c d2 51 13 3f a3 07 a8 3e
       0.26103753 0.028523248 0.5754672 0.32818326
000020 00 00 00 00 e7 c9 cd 3d 00 00 00 00 7f e4 05 3e
       0.0 0.100482754 0.0 0.13075446
000030 5b 86 af 3c e5 b4 b6 3d 00 00 00 00 00 00 00 00
       0.02142637 0.08921222 0.0 0.0

encoder.bn1.running_var f4 [16]
000000 b1 7d 8b 3d 81 7c 95 3c 37 91 0c 2a 1d b4 f0 3d
       0.06811083 0.018247845 1.248488e-13 0.11753104
000010 fd 20 c9 3d cf 0f 1a 3b d2 af 0f 3d 0b 43 1e 3c
       0.09820745 0.0023507958 0.035079785 0.009659539
000020 37 91 0c 2a 13 ff 87 3c 37 91 0c 2a f1 14 63 3c
       1.248488e-13 0.016601121 1.248488e-13 0.013859973
000030 d9 5e 0c 3b e5 34 6c 3c 37 91 0c 2a 37 91 0c 2a
       0.0021418838 0.014416908 1.248488e-13 1.248488e-13

encoder.bn2.weight f4 [16]
000000 c3 e9 7e 3f 76 cc 6c 3f 7a 87 76 3f 47 9e 6f 3f
       0.9957544 0.9249948 0.9630047 0.9360089
000010 98 f7 7b 3f 93 52 70 3f 13 52 76 3f b6 c3 83 3f
       0.98424673 0.93876 0.96218985 1.0294101
000020 1b 01 69 3f b7 8a 6f 3f 5a 34 7b 3f c7 37 74 3f
       0.9101731 0.9357104 0.9812676 0.9539761
000030 39 59 72 3f 6f 66 7f 3f b3 a7 6b 3f e7 23 7f 3f
       0.9466739 0.99765676 0.92052764 0.9966416

encoder.bn2.bias f4 [16]
000000 15 1d ab bb 87 bc 48 3c 73 2c b0 ba 73 46 83 3b
       -0.0052219727 0.01225198 -0.0013440981 0.004006201
000010 74 33 bf 3c d8 89 88 bc 76 b4 ba b9 aa f9 18 bd
       0.023339964 -0.016667292 -0.00035611138 -0.037347473
000020 a6 d6 81 3c 14 f2 23 3c f4 e0 ef bc f0 23 28 bc
       0.015849423 0.010006446 -0.02928207 -0.010262474
000030 68 2a b5 bb 9a 9f 88 3c e8 48 af bb da 36 05 bd
       -0.005528737 0.016677666 -0.0053492673 -0.032523014

encoder.bn2.running_mean f4 [16]
000000 81 1f 54 3e 2e cc 98 3e 8e 63 3b 3e be c3 8c 3e
       0.20715143 0.29843277 0.18299696 0.2749309
000010 f9 71 c3 3e 01 d6 a9 3d 86 9e 1c 3e c7 28 99 3e
       0.38172892 0.08292771 0.15294847 0.29913923
000020 6b d4 e3 3d 12 30 80 3e 7e f5 96 3e a3 31 82 3e
       0.111245 0.25036675 0.2948417 0.25428495
000030 14 c2 84 3e d8 af 99 3e 79 c5 2f 3e 94 a9 b0 3e
       0.2592932 0.3001697 0.17165174 0.34504378

encoder.bn2.running_var f4 [16]
000000 64 d9 16 3e 83 24 43 3e 14 e8 e9 3d aa 81 cb 3d
       0.14731365 0.19056897 0.114212185 0.09936841
000010 c8 5a 83 3e cc 34 c4 3c 4f d5 99 3d 71 29 37 3e
       0.25655198 0.023950957 0.075113885 0.17886902
000020 56 f7 13 3d 98 a3 0e 3e 1d ec 38 3e 8e 4e f7 3d
       0.03612455 0.13929594 0.1805882 0.1207553
000030 ae 0f 98 3d c4 04 25 3e 66 2d 5f 3d 9b cc 02 3e
       0.07424866 0.16115099 0.054486655 0.12773363

encoder.bn3.weight f4 [32]
000000 fd 00 7c 3f 1a 8e 7a 3f 81 cf 6f 3f 7a 3e 7c 3f
       0.9843901 0.9787308 0.93676 0.9853283
000010 88 3b 75 3f 85 46 75 3f f7 e9 7b 3f d0 d8 78 3f
       0.9579396 0.9581073 0.9840388 0.9720583
000020 93 fe 6a 3f f6 ad 76 3f 37 e4 84 3f eb 75 77 3f
       0.917947 0.96359193 1.0382146 0.96664304
000030 15 f4 73 3f ed 8c 80 3f 15 58 81 3f 1e 9e 7d 3f
       0.95294315 1.0043007 1.0105006 0.9906939
000040 78 dc 72 3f e8 de 6e 3f 32 b3 79 3f 12 eb 7b 3f
       0.9486766 0.9330888 0.97539055 0.98405564
000050 64 06 73 3f 10 e9 80 3f 5a fc 76 3f b3 12 7a 3f
       0.94931626 1.0071125 0.9647881 0.9768478
000060 68 a5 74 3f 25 1d 76 3f 46 9e 7f 3f 96 69 82 3f
       0.9556489 0.9613822 0.9985088 1.0188472
000070 e1 f3 7b 3f ca 66 78 3f 69 11 80 3f 7c d7 7c 3f
       0.98419005 0.97031844 1.0005313 0.98766303

encoder.bn3.bias f4 [32]
000000 22 1f 68 bc ab 57 30 bd 5c 4c 9e 3a 48 c0 20 bd
       -0.014167579 -0.043052357 0.00120772 -0.039245874
000010 5b 1b 1b bd c7 c8 2d bc 9d b4 4a bc c6 4e 3b bc
       -0.037867885 -0.010606951 -0.012372163 -0.011432355
000020 98 75 58 3b df 2e 88 bc ab 33 4a b6 36 76 15 bd
       0.0033029076 -0.016623912 -3.013042e-06 -0.036489688
000030 3a c4 fc bc b0 69 87 bb ca 05 99 bc e6 6b b4 bc
       -0.030855287 -0.004132472 -0.018679518 -0.022024106
000040 73 ee ab 3c 5d ed 3c 3c f5 ab 5b bc 58 cc d7 3c
       0.020987725 0.011531201 -0.013407697 0.026342556
000050 85 7a 22 bc df 13 96 bc 0e 68 41 bd ce 6c b6 bc
       -0.009916906 -0.018320022 -0.047218375 -0.022268679
000060 6b ae 39 3d 4a 14 a2 bc dc 20 b1 3c bb 61 3d bd
       0.045332354 -0.019785065 0.021622114 -0.04623578
000070 bd 9d 5b bd 3a 0a 1f bc 21 4f e9 bc 87 4b c8 bb
       -0.053617228 -0.009707028 -0.028480114 -0.006112519
