results/_edu_fptra_0.3_1000_VAE_model.pt (torch, 201744 bytes, 61 tensors)

encoder.conv1.weight f4 [16, 1, 2]
0.2590952 0.5371563 0.33409303 -0.64155823 -0.54503274 -0.31973594 -0.17958657 -0.0082071135
0.5810617 -0.37172616 0.6091632 0.12638885 -0.4176241 0.17730418 -0.700533 -0.2985365
0.34814712 0.1696351 -0.56295687 -0.7008749 -0.40891024 -0.6969289 0.42097265 0.20227922
-0.109999314 0.5541535 -0.41242006 -0.20259398 0.11615349 0.023526782 0.6884183 -0.18217298
00000000: 20a8 843e 1383 093f 3e0e ab3e 293d 24bf
00000010: 4487 0bbf 6eb4 a3be 8be5 37be 2177 06bc
00000020: 76c0 143f e452 bebe 1ff2 1b3f 146c 013e
00000030: d3d2 d5be 3a8f 353e 2156 33bf c7d9 98be
00000040: 5740 b23e d3b4 2d3e f11d 10bf 8a6c 33bf
00000050: af5c d1be ef69 32bf ba89 d73e 4922 4f3e
00000060: 5247 e1bd 01dd 0d3f b928 d3be cc74 4fbe
00000070: e2e1 ed3d 3dbb c03c 2f3c 303f 8e8b 3abe

encoder.conv1.bias f4 [16]
0.5867535 -0.54298365 -0.21303985 0.41640308 0.15129852 -0.17559837 -0.14987433 0.39838004
-0.38930455 0.34480193 -0.066872776 -0.54235864 0.2999605 0.07404066 0.31426919 0.45102245
00000000: 7a35 163f fa00 0bbf 1e27 5abe c932 d53e
00000010: 00ee 1a3e 0fd0 33be a878 19be 78f8 cb3e
00000020: ed52 c7be e189 b03e 98f4 88bd 04d8 0abf
00000030: 6c94 993e a1a2 973d e4e7 a03e 6aec e63e

encoder.conv2.weight f4 [16, 16, 2]
0.00031758109 0.05326715 0.16632625 -0.05831073 -0.02242157 -0.13472012 -0.12699938 -0.07743997
0.121155486 0.047102615 -0.15499707 -0.12488692 0.16512048 -0.080114484 0.079242475 -0.075785235
-0.14655416 0.16614543 -0.12239425 0.11478169 0.14137296 0.1265748 -0.022095049 0.17700705
-0.11568273 0.1376679 -0.018160256 0.018660594 -0.082196616 0.029555058 -0.15122855 0.08343777
0.114811726 0.030488675 0.1095868 -0.0146552455 -0.07105591 -0.079530574 0.028519478 0.09450378
-0.115474 0.14981955 0.080378026 -0.03034018 0.0773327 -0.11508213 0.10433354 -0.10151094
-0.03935425 -0.102703854 -0.18331826 -0.14446971 0.03436098 0.0175395 0.11645885 0.13987526
-0.020292053 -0.1487536 -0.13910526 -0.1569522 -0.0838627 0.12066129 -0.13061859 0.09796881
0.19291537 -0.07634019 -0.058331326 -0.17571874 0.15884373 -0.011251592 0.074401654 -0.11888787
-0.06937569 -0.07081716 0.039280996 0.1655494 0.13921957 -0.18009421 -0.033851173 -0.07557681
0.08626535 0.09160834 -0.045552798 0.12228212 0.10964066 0.102899194 -0.0715079 -0.07942375
0.15869904 -0.05331218 -0.11834622 -0.18514946 0.16190103 0.09452122 -0.12152071 -0.05087808
-0.0124068 0.0110992985 -0.10668557 -0.10683686 -0.19673605 -0.055279225 0.1494759 0.077372596
-0.049572628 0.10215937 -0.17029203 0.07138957 0.11110935 -0.078104936 0.022541706 -0.008291427
-0.121618725 0.10340311 -0.04640159 -0.1518387 0.07598952 -0.10631203 0.04295908 0.123652436
0.022551449 0.056473162 0.09823479 -0.14408058 -0.14575249 -0.017691378 0.09555618 0.061565146
0.13449813 0.0062601995 0.108927876 -0.151063 -0.0055448944 -0.089579515 0.13577425 -0.07781894
0.092184 -0.0045160535 -0.027066072 0.038911298 0.13140501 -0.14661881 -0.13156898 -0.084380254
-0.0059729363 -0.06600865 0.12975448 -0.08664819 -0.14492768 -0.17835747 -0.015933797 -0.17201836
-0.01947222 0.024177 0.009731978 -0.0873379 -0.073314466 -0.01949358 -0.05030852 0.16627347
0.10698454 0.029168334 0.06575305 -0.13578455 0.10241709 -0.08846809 -0.005044318 0.009590808
-0.060570277 -0.039356545 -0.099235035 0.10319818 -0.092974134 0.09604337 0.048801206 0.10134112
0.1699509 0.10666931 0.14651737 -0.06729656 -0.15035777 0.070145525 -0.050340496 -0.09220809
0.005407569 0.060240407 -0.13084741 -0.03523217 0.013239915 -0.0368021 -0.060756296 -0.16126555
0.045228977 0.055006173 0.14640236 0.14504611 -0.055814955 0.1732141 -0.16713458 -0.12793913
0.13517863 -0.13575064 0.08264674 0.03532115 -0.008953102 -0.077799164 -0.16622195 -0.12039864
0.1867216 0.10548333 -0.01984432 0.07452844 0.056676198 -0.04617265 -0.019013077 0.00084730715
-0.029355496 -0.1350523 0.111865364 0.11088129 0.15218689 0.07454649 -0.11958342 0.17773198
-0.035788007 0.1302663 0.132039 -0.11734064 -0.00705433 -0.11256382 -0.09466377 0.025383636
0.0941363 -0.06324296 -0.1453625 0.16484125 0.15470473 0.07319357 -0.09419184 -0.003573296
-0.16065057 -0.043078847 0.07802132 0.004275086 -0.01375399 0.18331972 -0.08697273 0.12435013
0.1033725 0.055518497 0.07237883 0.080859706 -0.15701613 0.028316611 -0.11722268 0.14600234
00000000: 0381 a639 a82e 5a3d 6e51 2a3e 3bd7 6ebd
00000010: 71ad b7bc 12f4 09be 200c 02be d998 9ebd
00000020: 5e20 f83d acee 403d 8db7 1ebe b7c4 ffbd
00000030: 5815 293e 1013 a4bd e149 a23d 4a35 9bbd
00000040: 4b12 16be 0722 2a3e d6a9 fabd aa12 eb3d
00000050: 13c4 103e d39c 013e ad00 b5bc 5641 353e
00000060: 11eb ecbd d0f8 0c3e d1c4 94bc 1ade 983c
00000070: b356 a8bd 731d f23c a8db 1abe 6ce1 aa3d
00000080: 6922 eb3d 63c3 f93c 0b6f e03d 8e1c 70bc
00000090: c385 91bd ede0 a2bd aea1 e93c 338b c13d
000000a0: a27d ecbd 4c6a 193e 3c9d a43d f88b f8bc
000000b0: 9b60 9e3d 2eb0 ebbd d3ac d53d f8e4 cfbd
000000c0: ec31 21bd 6656 d2bd c8b7 3bbe deef 13be
000000d0: 19be 0c3d ffae 8f3c fa81 ee3d 763b 0f3e
000000e0: 853b a6bc dd52 18be 9c71 0ebe 14b8 20be
000000f0: 35c0 abbd 441d f73d e1c0 05be dfa3 c83d
00000100: 9b8b 453e 3f58 9cbd d4ec 6ebd 9def 33be
00000110: eea7 223e 9958 38bc e55f 983d 7c7b f3bd
00000120: d714 8ebd 9608 91bd 1ce5 203d c885 293e
00000130: 938f 0e3e 9e6a 38be 87a7 0abd 04c8 9abd
00000140: e3ab b03d 279d bb3d 9295 3abd 0c6f fa3d
00000150: 488b e03d d0bc d23d bc72 92bd eba8 a2bd
00000160: 0082 223e df5d 5abd 815f f2bd d297 3dbe
00000170: 62c9 253e 5794 c13d dadf f8bd 8965 50bd
00000180: e445 4bbc d5d9 353c f77d dabd 49cd dabd
00000190: 2d75 49be 786c 62bd 3610 193e 8675 9e3d
000001a0: ab0c 4bbd ef38 d13d 0961 2ebe b234 923d
000001b0: 4d8d e33d 7bf5 9fbd 62a9 b83c c4d8 07bc
000001c0: 3d13 f9bd 02c5 d33d 980f 3ebd 9b7b 1bbe
000001d0: 65a0 9b3d 1fba d9bd dcf5 2f3d 7d3d fd3d
000001e0: d1bd b83c 6750 673d 522f c93d dc89 13be
000001f0: 2440 15be 82ed 90bc f5b2 c33d bc2b 7c3d
00000200: e1b9 093e 5c22 cd3b 9415 df3d 42b0 1abe
00000210: f2b1 b5bb 7775 b7bd 6808 0b3e 895f 9fbd
00000220: f7ca bc3d 67fb 93bb abb9 ddbc 7461 1f3d
00000230: 098f 063e 3e23 16be 05ba 06be 8ecf acbd
00000240: 9fb8 c3bb 8b2f 87bd 5cde 043e 9b74 b1bd
00000250: ec67 14be 57a3 36be 9887 82bc 9525 30be
00000260: 3584 9fbc d80e c63c e072 1f3c 37de b2bd
00000270: e525 96bd 00b1 9fbc 4f10 4ebd 9843 2a3e
00000280: b61a db3d 6ef2 ee3c 89a9 863d 1b0b 0bbe
00000290: 0dc0 d13d c22e b5bd ce4a a5bb c422 1d3c
000002a0: 8a18 78bd 5434 21bd bd3b cbbd 9159 d33d
000002b0: 3969 bebd 63b2 c43d c6e3 473d ef8b cf3d
000002c0: 9c07 2e3e 7075 da3d a608 163e c7d2 89bd
000002d0: 63f7 19be 75a8 8f3d d631 4ebd 98d7 bcbd
000002e0: fa31 b13b a5be 763d ddfc 05be 9c4f 10bd
000002f0: 3aec 583c ccbd 16bd 98db 78bd cc22 25be
00000300: 0542 393d 274e 613d 80ea 153e f886 143e
00000310: 399e 64bd 095f 313e 5425 2bbe 7a02 03be
00000320: 446c 0a3e 3702 0bbe b242 a93d e9ac 103d
00000330: 08b0 12bc 2b55 9fbd 1636 2abe 9093 f6bd
00000340: f233 3f3e a507 d83d 8e90 a2bc 5ea2 983d
00000350: 4d25 683d 881f 3dbd 50c1 9bbc d21d 5e3a
00000360: f07a f0bc 264b 0abe ab19 e53d bb15 e33d
00000370: e1d6 1b3e d5ab 983d 27e8 f4bd 5fff 353e
00000380: 7296 12bd 8764 053e 3b35 073e 4a50 f0bd
00000390: 0228 e7bb dc87 e6bd 14df c1bd 58f1 cf3c
000003a0: 88ca c03d 8685 81bd e8d9 14be 25cc 283e
000003b0: eb6a 1e3e 83e6 953d a7e7 c0bd f52d 6abb
000003c0: 9581 24be 7273 30bd a4c9 9f3d 0516 8c3b
000003d0: 6a58 61bc 2ab8 3b3e c21e b2bd 48ab fe3d
000003e0: f6b4 d33d 5d67 633d 5a3b 943d c699 a53d
000003f0: d6c8 20be 3df8 e73c 7212 f0bd a381 153e

encoder.conv2.bias f4 [16]
-0.17577277 0.05818812 0.048617613 -0.032805935 0.011450991 -0.05066719 0.16778572 -0.130898
0.09882215 0.12012501 -0.11726544 -0.14371306 -0.07752351 0.035868406 0.019056832 -0.009503496
00000000: c7fd 33be ab56 6e3d 4323 473d 845f 06bd
00000010: f09c 3b3c 6688 4fbd 05d0 2b3e 200a 06be
00000020: 4463 ca3d 1a04 f63d dd28 f0bd 8429 13be
00000030: a5c4 9ebd c0ea 123d 131d 9c3c 8db4 1bbc

encoder.conv3.weight f4 [32, 16, 2]
-0.0052424213 -0.11835695 0.00044045458 0.06777349 0.14747812 0.04112204 0.13734208 -0.09919655
0.16096933 0.077758916 -0.13135311 0.13469025 -0.050684534 0.096255906 -0.11185643 -0.15725917
-0.047892645 -0.094616205 -0.118563466 0.01719182 0.04377107 0.07990677 0.05541015 0.14549392
-0.12566009 0.08885878 0.18377346 -0.12286756 0.05866679 0.028798658 0.06554779 0.080698535
0.05963524 -0.091203414 0.062379025 -0.09070284 0.027814213 0.15519328 -0.033307057 -0.09906456
0.117459655 -0.1378283 0.11706777 0.071910374 0.15693422 -0.038256794 0.08197093 -0.015356552
0.12772766 -0.1103147 0.080465674 0.05787991 -0.1427378 -0.0829743 0.051573623 0.0059920526
-0.17515898 0.104444355 0.074409 -0.14301059 0.06549228 0.13590516 0.17787467 -0.15818071
0.029495677 0.03767888 -0.20706114 0.06518485 -0.055345368 0.07702344 -0.13090028 0.05446491
0.09318075 -0.15613782 0.13013422 0.07061961 -0.0033900137 -0.028184388 -0.09752291 0.09704342
0.042556122 -0.09478965 -0.103017144 0.037202448 0.07300311 0.044441823 0.06140928 0.10479778
0.13040832 0.15931174 0.14308813 0.013591357 0.19135232 -0.17132582 -0.05293492 0.16241278
-0.13290858 0.12621891 0.019562945 0.060124118 -0.10465308 0.05079605 -0.1269758 0.037328705
0.09082989 0.024271134 0.038679853 -0.13850263 0.089172885 0.07885869 -0.14803848 -0.05748345
0.08925886 0.16473924 -0.07583584 0.056736525 -0.06395088 0.032218274 0.04951686 -0.08790164
-0.049114577 -0.012111004 -0.009986359 0.03538632 -0.10803295 0.027183512 0.14992478 0.12890507
0.014552528 0.08226546 0.08494711 -0.09577445 -0.14174666 -0.10157636 0.14086898 0.012645126
0.07778785 -0.09329876 -0.0005213154 -0.080086194 -0.13014218 0.10604028 0.08986652 0.09475957
-0.158997 -0.09812864 0.048064247 -0.034381196 -0.04491117 -0.051452003 0.13497087 0.16348946
0.06494065 0.034703806 -0.1753999 0.13432169 0.030134287 0.0051845377 0.015840204 -0.14199504
0.12205242 0.07748611 -0.04818939 0.13613036 -0.008687905 -0.14696196 -0.036836196 0.09346106
0.042997554 0.029346919 0.048705462 0.016133605 -0.027773881 0.09370252 -0.10046777 -0.05363676
-0.123804204 -0.16210729 -0.12913062 0.05383318 -0.08785643 -0.12968464 -0.026555102 -0.08008991
0.14200102 -0.057830833 -0.14867002 -0.05397663 -0.12907444 0.13264215 0.15103626 0.13653396
0.10624713 -0.024374567 0.020190835 0.050774984 0.085859254 -0.08225519 0.15067206 -0.039356075
-0.03895001 0.115387596 0.018399566 -0.1048408 -0.13312146 -0.0063716103 0.16644776 -0.1490829
0.12526247 0.045387074 0.04659215 -0.15063849 -0.11452198 -0.12191041 0.17286071 0.022335628
-0.13658579 -0.074864276 0.016450202 0.052914336 0.070593365 0.026888039 -0.124124534 -0.15679476
0.032552592 -0.088771254 0.17224233 -0.06238052 0.044324268 -0.047380876 -0.056040075 -0.11901088
-0.12862219 -0.019953901 -0.15489164 -0.1217871 -0.048328023 -0.14453663 0.12639071 -0.04053002
0.1323442 0.013058098 0.10080027 0.07643833 0.061618485 -0.09859275 0.17024735 -0.005601797
0.10792239 -0.12944247 0.056206297 -0.013527483 0.056021493 0.1056076 0.056196105 0.013117077
00000000: 9ec8 abbb 2165 f2bd d0ec e639 d4cc 8a3d
00000010: 8104 173e 966f 283d 67a3 0c3e 9027 cbbd
00000020: 25d5 243e 1140 9f3d 6e81 06be 3eec 093e
00000030: 969a 4fbd d121 c53d fc14 e5bd 8c08 21be
00000040: 142b 44bd 24c6 c1bd 67d1 f2bd dcd5 8c3c
00000050: 4b49 333d 29a6 a33d c1f5 623d 5cfc 143e
00000060: 0aad 00be 98fb b53d 1c2f 3c3e fda1 fbbd
00000070: 974c 703d 2aeb eb3c eb3d 863d 4645 a53d
00000080: 1544 743d dbc8 babd 2681 7f3d 69c2 b9bd
00000090: a2da e33c fdea 1e3e fb6c 08bd 5ce2 cabd
000000a0: b08e f03d dd22 0dbe 3ac1 ef3d bf45 933d
000000b0: 5db3 203e 28b3 1cbd 60e0 a73d 0c9a 7bbc
000000c0: 0acb 023e acec e1bd 30cb a43d 7c13 6d3d
000000d0: dc29 12be 6eee a9bd dd3e 533d fb58 c43b
000000e0: e05c 33be ece6 d53d bf63 983d 5e71 12be
000000f0: d120 863d b92a 0b3e c724 363e 20fa 21be
00000100: eba0 f13c 2b55 1a3d d607 54be a27f 853d
00000110: d3b1 62bd 77be 9d3d b90a 06be 9916 5f3d
00000120: 8dd5 be3d 98e2 1fbe e841 053e 04a1 903d
00000130: fe2a 5ebb f2e2 e6bc 17ba c7bd b3be c63d
00000140: 544f 2e3d 1321 c2bd a7fa d2bd 9861 183d
00000150: a882 953d a108 363d 4c88 7b3d 38a0 d63d
00000160: c289 053e 9e22 233e b285 123e 48ae 5e3c
00000170: ddf1 433e 0970 2fbe 49d2 58bd 894f 263e
00000180: 3019 08be 883f 013e 7842 a03c b544 763d
00000190: 5b54 d6bd 850f 503d f205 02be fce5 183d
000001a0: 0505 ba3d 42d4 c63c c46e 1e3d a2d3 0dbe
000001b0: 46a0 b63d aa80 a13d 6697 17be c473 6bbd
000001c0: 59cd b63d 67b1 283e d24f 9bbd 8f64 683d
000001d0: aef8 82bd 4ff7 033d 31d2 4a3d c605 b4bd
000001e0: 5e2c 49bd 3c6d 46bc d39d 23bc 3ff1 103d
000001f0: 6140 ddbd f5af de3c e285 193e b1ff 033e
00000200: ba6d 6e3c cb7a a83d c0f8 ad3d 6525 c4bd
00000210: 0926 11be 4407 d0bd f53f 103e 812d 4f3c
00000220: 3c4f 9f3d 6c13 bfbd e2a8 08ba 3b04 a4bd
00000230: fe43 05be a52b d93d f00b b83d 4e11 c23d
00000240: 1cd0 22be abf7 c8bd 04df 443d 4cd3 0cbd
00000250: c6f4 37bd 56bf 52bd ce35 0a3e c869 273e
00000260: 9aff 843d 9425 0e3d 089c 33be a08b 093e
00000270: 2edc f63c 0ee3 a93b 51c3 813c 2667 11be
00000280: 9ff6 f93d 0ab1 9e3d 3d62 45bd c265 0b3e
00000290: b757 0ebc 327d 16be 8de1 16bd 8368 bf3d
000002a0: 341e 303d f368 f03c 617f 473d 9f2a 843c
000002b0: 0d86 e3bc 1be7 bf3d 0cc2 cdbd 38b2 5bbd
000002c0: 0f8d fdbd 74ff 25be d13a 04be 2e80 5c3d
000002d0: 12ee b3bd 0dcc 04be 168a d9bc 2e06 a4bd
000002e0: b768 113e 06e0 6cbd f43c 18be 9916 5dbd
000002f0: 172c 04be 58d3 073e 40a9 1a3e 8fcf 0b3e
00000300: 1898 d93d 2cad c7bc 4067 a53c 6ef9 4f3d
00000310: fad6 af3d 6975 a8bd c749 1a3e d633 21bd
00000320: 0c8a 1fbd 5550 ec3d b0ba 963c c6b6 d6bd
00000330: fe50 08be f1c8 d0bb 4871 2a3e 30a9 18be
00000340: ce44 003e cce7 393d 69d7 3e3d fa40 1abe
00000350: 808a eabd 2aac f9bd 6602 313e 35f9 b63c
00000360: 25dd 0bbe 7152 99bd 93c2 863c b4bc 583d
00000370: 4193 903d 4e44 dc3c 0135 febd ce8e 20be
00000380: de55 053d b4cd b5bd 4b60 303e b782 7fbd
00000390: 5d8d 353d 7312 42bd 478a 65bd fabb f3bd
000003a0: 89b5 03be 5d76 a3bc ea9b 1ebe 846b f9bd
000003b0: 9bf3 45bd 6901 14be 916c 013e ce02 26bd
000003c0: 3d85 073e a2f1 553c 5f70 ce3d b38b 9c3d
000003d0: aa63 7c3d ffea c9bd 5255 2e3e 478f b7bb
000003e0: 6a06 dd3d 918c 04be 9338 663d 60a2 5dbc
000003f0: cb76 653d cc48 d83d e32d 663d 02e9 563c

encoder.conv3.bias f4 [32]
-0.12298294 0.073230855 -0.10173419 -0.13698982 -0.0022699726 0.13238947 0.08610973 -0.052149788
0.18905686 -0.12061042 0.045477204 0.10916778 0.2551021 -0.042918462 -0.08656785 0.107986666
-0.036002222 0.11738063 0.15960968 0.075107284 0.10886258 -0.031304717 -0.024694683 -0.045253668
-0.051740814 -0.1736884 -0.090292156 0.058894224 0.21492316 -0.06706906 -0.04213748 -0.1461031
00000000: 7bde fbbd 0ffa 953d 045a d0bd 0f47 0cbe
00000010: d2c3 14bb 1b91 073e 4c5a b03d 049b 55bd
00000020: 1f98 413e 9902 f7bd 4e46 3a3d 5b93 df3d
00000030: be9c 823e 45cb 2fbd 7c4a b1bd 1d28 dd3d
00000040: 1177 13bd 4165 f03d b870 233e d9d1 993d
00000050: 58f3 de3d 6039 00bd 814c cabc e95b 39bd
00000060: 2dee 53bd 5fdb 31be 18eb b8bd 123b 713d
00000070: d114 5c3e 815b 89bd 5a98 2cbd 0d9c 15be

encoder.conv4.weight f4 [32, 32, 2]
-0.01723907 0.0110705085 0.072605945 -0.027916377 -0.09415377 0.067871995 -0.12088212 0.06762217
-0.014105294 0.0466586 0.054686263 0.05897269 -0.12624474 0.07805057 -0.12066248 0.024390554
-0.031056367 -0.00922165 -0.050244864 -0.13551195 -0.12050985 0.0524034 -0.037166573 -0.05088427
-0.006348595 -0.015089054 -0.0733222 -0.10117722 -0.0498897 0.050191365 0.051301267 -0.11535338
0.038224805 0.013571977 0.015930546 0.030991504 -0.08613891 -0.064937495 0.050394155 -0.07440457
-0.044770632 -0.024096603 -0.08868617 0.013344854 -0.038345683 0.09163255 0.12558904 0.08281832
0.03481038 0.035142023 0.028501172 0.0045594196 -0.020897387 0.09612751 -0.05677157 -0.031055123
0.08315109 -0.05929954 0.060133155 -0.0676177 -0.0093234815 0.025313953 -0.13502201 0.054518905
0.017629039 0.008758005 -0.05914139 0.00017591943 -0.096318826 -0.04815689 0.021783147 0.0058334013
0.11706656 -0.08775048 -0.011563388 -0.035531465 -0.04913861 -0.022520091 0.09893014 0.078127004
0.059543397 -0.12184494 0.036713894 -0.07083235 -0.03339236 0.077529326 -0.061823696 0.00227554
-0.12436642 -0.031700283 0.015043764 -0.05656695 0.021458529 0.093460865 0.08154195 -0.0017164814
0.059638545 -0.072912194 0.093890645 0.029544614 -0.13236926 -0.012808983 -0.07152935 0.04471948
0.017332872 -0.041770246 -0.12159096 -0.054594263 -0.08927345 -0.037465416 -0.041144542 -0.025047945
-0.1420228 0.01867045 0.09629378 0.11839175 0.07702793 0.025459243 -0.0289778 0.118271455
-0.16398938 0.11090325 0.06796198 0.016712435 0.08563151 0.03203664 -0.08884433 -0.0066408506
-0.027263142 0.005072064 -0.088815846 -0.062432896 -0.08808354 -0.07650466 -0.0063787727 -0.03301513
-0.117817245 -0.03227749 0.010814626 0.0035096596 0.048061706 -0.05252992 -0.13655302 0.07454689
-0.0777334 -0.08778083 -0.04932519 0.06991867 -0.024678035 -0.09197047 0.060178638 0.023578594
-0.09912532 -0.094425835 0.088676564 0.05267945 -0.0066937557 0.10198383 -0.025805732 0.13061526
-0.12188503 0.07895491 -0.076169565 -0.050049715 -0.082948744 0.030228404 0.0536161 0.11370366
-0.061128236 -0.016095443 0.10441425 -0.02529975 0.010316717 -0.09042516 -0.07538861 -0.042410254
-0.029082844 -0.08635221 0.07998452 0.009157463 0.044398718 -0.023948861 0.03461207 -0.100653425
0.062722415 -0.12365607 -0.09445953 0.04573573 -0.058672544 -0.057246808 -0.12594925 -0.02970878
-0.027039647 -0.11594532 0.0033799587 0.03435866 -0.034959253 0.047901966 -0.024732186 -0.12031726
-0.0040390044 -0.12649442 0.05235681 0.019377468 0.006796667 -0.08970092 0.0046893344 0.021129828
-0.05939354 -0.051199887 0.07374971 -0.11119889 0.06227953 0.08977425 -0.0974554 0.09210901
0.09356435 -0.0026826172 -0.034515955 -0.12383925 0.009134615 0.075679556 0.04284388 -0.13580741
-0.046810176 -0.0012177957 -0.021343352 0.04576642 -0.09555959 -0.04793031 -0.10196247 0.09370488
-0.090033285 0.028134456 0.035998907 0.03422945 -0.01415874 0.06367462 -0.06115978 -0.051349375
0.063641086 -0.024905326 0.08563206 0.10132425 -0.058605332 0.028402856 -0.07299524 -0.108871184
-0.14193307 -0.02463412 -0.03228364 0.015349791 -0.10397402 -0.06841622 -0.014870188 0.021462213
00000000: f338 8dbc 1461 353c 6db2 943d e3b0 e4bc
00000010: b1d3 c0bd 7900 8b3d 0c91 f7bd 7e7d 8a3d
00000020: e419 67bc 171d 3f3d b4fe 5f3d 598d 713d
00000030: 4d46 01be fad8 9f3d e41d f7bd b3ce c73c
00000040: ec69 febc 6716 17bc 8fcd 4dbd a5c3 0abe
00000050: decd f6bd f3a4 563d fa3b 18bd 066c 50bd
00000060: e007 d0bb 1438 77bc f329 96bd 0136 cfbd
00000070: 2459 4cbd 7695 4d3d 4721 523d 653e ecbd
00000080: 9d91 1c3d ff5c 5e3c c780 823c e5e1 fd3c
00000090: 9969 b0bd f3fd 84bd 1a6a 4e3d 6c61 98bd
000000a0: 6961 37bd 3d66 c5bc 18a1 b5bd 60a4 5a3c
000000b0: 5d10 1dbd d9a9 bb3d 6a9a 003e a79c a93d
000000c0: 5495 0e3d 15f1 0f3d 4a7b e93c 2f67 953b
000000d0: ff30 abbc 80de c43d 4e89 68bd 5067 febc
000000e0: 1e4b aa3d 13e4 72bd 2f4e 763d 267b 8abd
000000f0: 84c1 18bc 355f cf3c 3643 0abe 374f 5f3d
00000100: c66a 903c bc7d 0f3c 3e3e 72bd 0377 3839
00000110: ce42 c5bd 2940 45bd 9272 b23c 1e26 bf3b
00000120: 98c0 ef3d 86b6 b3bd 5d74 3dbc 7189 11bd
00000130: 9145 49bd 0e7c b8bc e39b ca3d 0d01 a03d
00000140: c7e3 733d d789 f9bd 4f61 163d 8d10 91bd
00000150: 6dc6 08bd b2c7 9e3d d83a 7dbd 3a21 153b
00000160: d2b3 febd 28d8 01bd 1f7a 763c bfb2 67bd
00000170: ccc9 af3c 6968 bf3d 77ff a63d 8ffb e0ba
00000180: 8c47 743d fd52 95bd bd49 c03d 8c07 f23c
00000190: cf8b 07be c5dc 51bc fb7d 92bd c62b 373d
000001a0: abfd 8d3c 4717 2bbd ae04 f9bd 3c9e 5fbd
000001b0: 00d5 b6bd 5675 19bd 2e87 28bd 5931 cdbc
000001c0: 6d6e 11be c6f2 983c ac35 c53d 6077 f23d
000001d0: d2c0 9d3d e78f d03c da62 edbc 4e38 f23d
000001e0: d5ec 27be 3e21 e33d a72f 8b3d 84e8 883c
000001f0: 935f af3d da38 033d 04f4 b5bd 7e9b d9bb
00000200: f456 dfbc 8f33 a63b 15e5 b5bd a3b9 7fbd
00000210: 2565 b4bd 7aae 9cbd 0605 d1bb df3a 07bd
00000220: 2b4a f1bd 6735 04bd d42f 313c 5102 663b
00000230: 5adc 443d 9d29 57bd 8ed4 0bbe 0aac 983d
00000240: b032 9fbd 70c6 b3bd 3609 4abd 8531 8f3d
00000250: 9729 cabc 045b bcbd e07d 763d e527 c13c
00000260: 3702 cbbd 5562 c1bd 0f9c b53d 68c6 573d
00000270: 4b57 dbbb e6dc d03d 8b66 d3bc 02c0 053e
00000280: dc9e f9bd 1db3 a13d cafe 9bbd ee00 4dbd
00000290: 08e1 a9bd 8fa1 f73c 8e9c 5b3d 77dd e83d
000002a0: 9a61 7abd 97da 83bc 23d7 d53d 6c41 cfbc
000002b0: 7307 293c d430 b9bd 5865 9abd 60b6 2dbd
000002c0: 253f eebc 6dd9 b0bd edce a33d 2f09 163c
000002d0: 6edb 353d 6730 c4bc 63c5 0d3d 6223 cebd
000002e0: 9c74 803d 653f fdbd 0074 c1bd 6455 3b3d
000002f0: 9f52 70bd a17b 6abd d7f8 00be d45f f3bc
00000300: 4082 ddbc bd74 edbd 4c82 5d3b abbb 0c3d
00000310: 6f31 0fbd da34 443d 279b cabc e568 f6bd
00000320: a059 84bb c187 01be 1874 563d 7fbd 9e3c
00000330: 93b6 de3b 1eb5 b7bd fda8 993b 7618 ad3c
00000340: a446 73bd f9b6 51bd 170a 973d 3ebc e3bd
00000350: d218 7f3d 90db b73d b296 c7bd a6a3 bc3d
00000360: aa9e bf3d d9ce 2fbb 9a60 0dbd 6f9f fdbd
00000370: 5aa9 153c e2fd 9a3d 107d 2f3d 1911 0bbe
00000380: 07bc 3fbd 719e 9fba 41d8 aebc 9275 3b3d
00000390: bfb4 c3bd 9352 44bd b3d1 d0bd 58e8 bf3d
000003a0: 5f63 b8bd 3b7a e63c 9773 133d 2e34 0c3d
000003b0: 0ffa 67bc d767 823d ad82 7abd b953 52bd
000003c0: 4256 823d 4106 ccbc dd5f af3d 1783 cf3d
000003d0: 250c 70bd 1bad e83c 877e 95bd dbf7 debd
000003e0: e756 11be 7ecd c9bc da3b 04bd b17d 7b3c
000003f0: 55f0 d4bd ce1d 8cbd 17a2 73bc 86d1 af3c

encoder.conv4.bias f4 [32]
-0.038851675 -0.079433404 0.08510365 0.01273809 -0.07018923 0.13834226 0.12734182 0.04339239
-0.054701455 0.0541675 -0.059866585 0.11594035 -0.05278146 0.18316609 0.13449572 0.047764406
-0.03596759 -0.05320858 0.032099776 0.0621618 -0.040621202 0.056095984 0.12816384 -0.0005113579
0.028022757 0.1495354 -0.11954197 0.15859532 0.08751073 0.03938371 0.019490616 0.15922104
00000000: ef22 1fbd fbad a2bd d34a ae3d 6cb3 503c
00000010: 5fbf 8fbd 98a9 0d3e e565 023e 38bc 313d
00000020: a20e 60bd bede 5d3d aa36 75bd 2272 ed3d
00000030: 5f31 58bd e48f 3b3e 3fb9 093e 9ca4 433d
00000040: c052 13bd 3df1 59bd 0e7b 033d 5f9d 7e3d
00000050: 6b62 26bd e7c4 653d 623d 033e a60c 06ba
00000060: fb8f e53c cf1f 193e 6cd2 f4bd d066 223e
00000070: d338 b33d d050 213d c9aa 9f3c d70a 233e

encoder.fc1.weight f4 [64, 512]
0.03451369 0.024870107 0.035102423 0.026399136 0.023310669 0.032136418 0.027789162 -0.0003130482
0.0258038 0.04266815 0.024164023 0.036340978 0.04804655 0.014669001 0.03788743 -0.017251046
-0.00827399 -0.04964796 0.0074040922 -0.007149991 0.0016123191 0.044863317 0.0054205563 -0.030643348
-0.04337077 -0.02051855 -0.024360087 0.02919599 -0.01483418 0.018979872 0.029641245 0.00018790818
-0.042995464 0.046713606 0.03090856 -0.008183385 -0.025364058 -0.037204064 -0.02118141 -0.011813083
0.011399138 -0.023935722 -0.020793792 -0.011790761 0.009189429 0.030782629 -0.036368858 -0.022514874
0.029266331 0.01858764 0.044280164 0.0018010582 -0.016573707 -0.0048038694 0.004469604 -0.03642046
-0.00038799524 -0.024342494 -0.0066643027 0.0051165707 -0.01892266 0.027298762 0.0078320345 0.02023332
0.036384605 0.0019602787 0.010128258 0.024509232 0.04792842 0.040536433 -0.02720376 0.022827143
-0.026477806 0.025518166 0.008249859 0.035110198 0.00045199846 0.036059372 -0.0028814021 0.04023574
0.006324047 -0.041874077 0.064616986 -0.03127581 0.025899632 0.0057349764 -0.037099987 -0.012191245
0.00010306671 0.045204848 0.010182024 0.016284648 0.036479987 -0.02108996 -0.025013339 -0.023734363
0.0025548344 0.033268392 -0.03261669 -0.008392712 0.030525543 0.012847126 -0.02376025 -0.0066904505
0.046352837 0.01579768 -0.008072584 0.038266767 0.024287878 0.032575034 -0.0029010966 -0.018665658
0.018354826 0.0233284 0.022624584 -0.021857725 0.03519786 -0.020951439 0.0021055674 -0.007085321
0.009289449 -0.017675672 0.021478776 -0.030158175 0.058186743 0.0021635592 0.017107079 -0.0058330335
-0.009223217 0.017449208 -0.015900817 -0.015349994 -0.013723271 -0.031014904 0.028375385 -0.023042962
-0.04334127 0.011895647 -0.044118002 -0.02800424 -0.046777483 -0.016414111 0.014948608 -0.023982244
-0.03205587 0.014935655 0.015150524 0.04396004 -0.012335275 -0.03233198 0.04818824 0.037226364
-0.0035378984 0.0066296733 0.039167576 0.0031575996 -0.032020215 0.02051547 -0.0024933282 -0.0042997156
-0.012788973 0.0022370792 0.020648697 0.022779081 0.027719434 0.035953335 0.01624008 0.027483491
-0.018928729 0.024734408 0.009973002 -0.020968078 -0.017343553 -0.010990045 -0.0022254158 -0.0294882
-0.03535804 -0.016478943 0.013753269 0.017654603 0.051207118 -0.0052513196 0.026636396 0.00039499145
0.028821018 0.024439551 0.020118408 0.021848256 -0.051214196 0.007917639 0.043842997 -0.0150890015
0.052742053 0.040646262 -0.031448927 -0.014996627 0.020447675 0.04084569 -0.0033114594 0.0033917266
-0.03609535 0.029328987 0.03729623 0.040573608 -0.01243465 -0.0093591185 0.036330335 -0.010606764
-0.023213807 -0.010910533 -0.02724243 0.009897869 0.013906152 0.008403888 0.0375227 0.012719828
0.020226352 0.026571369 0.024596702 0.028587466 -0.007428623 0.022371218 0.04768109 0.058152754
-0.013897312 -0.0315117 0.031242602 0.020998895 -0.017787741 -0.011361353 0.035960987 -0.0006329134
-0.050099485 -0.025229946 0.044572458 -0.018985625 0.036041334 0.03531422 0.032103043 0.04612329
0.04488728 0.005247455 -0.0024487253 -0.0388097 -0.028658729 -0.03003551 0.02879532 0.03184912
-0.0036044265 -0.01064667 -0.0041406075 0.024687149 -0.05183294 -0.00097521 -0.0144019555 -0.026585938
00000000: 3a5e 0d3d 65bc cb3c 8fc7 0f3d 0043 d83c
00000010: 04f6 be3c 7aa1 033d 19a6 e33c 9e20 a4b9
00000020: 7e62 d33c ccc4 2e3d a1f3 c53c 47da 143d
00000030: 76cc 443d 4056 703c da2f 1b3d 1152 8dbc
00000040: a18f 07bc a95b 4bbd 079e f23b 794a eabb
00000050: 7454 d33a 99c2 373d ec9e b13b c207 fbbc
00000060: 8ca5 31bd 8516 a8bc ce8e c7bc 6e2c ef3c
00000070: 0f0b 73bc ad7b 9b3c 32d2 f23c 3809 4539
00000080: 031c 30bd c456 3f3d f333 fd3c 9b13 06bc
00000090: 49c8 cfbc 4a63 18bd a384 adbc a98b 41bc
000000a0: 73c3 3a3c d914 c4bc be57 aabc 092e 41bc
000000b0: 428f 163c da2b fc3c 83f7 14bd 1d71 b8bc
000000c0: f2bf ef3c 1b45 983c 1e5f 353d 7c11 ec3a
000000d0: 95c5 87bc c769 9dbb c275 923b 9f2d 15bd
000000e0: d76b cbb9 e969 c7bc 3960 dabb e8a8 a73b
000000f0: b203 9bbc a7a1 df3c ef51 003c 59c0 a53c
00000100: 0608 153d 0578 003b fef0 253c 96c7 c83c
00000110: 9750 443d 8809 263d 6bda debc fdff ba3c
00000120: fce7 d8bc 790b d13c 6b2a 073c b6cf 0f3d
00000130: 35fa ec39 feb2 133d e8d5 3cbb 3bce 243d
00000140: f439 cf3b 2784 2bbd e955 843d 101b 00bd
00000150: 772b d43c 78ec bb3b 28f6 17bd cabd 47bc
00000160: 8525 d838 b828 393d 81d2 263c 6267 853c
00000170: 0a6c 153d dac4 acbc c6e8 ccbc 916e c2bc
00000180: 026f 273b 7044 083d 1499 05bd 9681 09bc
00000190: b410 fa3c c17c 523c dba4 c2bc 913b dbbb
000001a0: 79dc 3d3d 236a 813c df42 04bc 9dbd 1c3d
000001b0: 5ff7 c63c 666d 053d 5320 3ebb b9e8 98bc
000001c0: dc5c 963c 331b bf3c 3157 b93c f90e b3bc
000001d0: a22b 103d 5aa2 abbc 8ffd 093b fb2b e8bb
000001e0: c632 183c 92cc 90bc 42f4 af3c 470e f7bc
000001f0: 3955 6e3d 80ca 0d3b 2524 8c3c 0823 bfbb
00000200: fa1c 17bc a4f1 8e3c 6e42 82bc 8b7e 7bbc
00000210: 92d7 60bc f812 febc 7f73 e83c 98c4 bcbc
00000220: 9e86 31bd f6e5 423c 14b5 34bd 2669 e5bc
00000230: bf99 3fbd e376 86bc 02eb 743c 6976 c4bc
00000240: 044d 03bd adb4 743c e739 783c 710f 343d
00000250: e519 4abc 8a6e 04bd 0861 453d ac7a 183d
00000260: 16dc 67bb bb3d d93b 2e6e 203d bbef 4e3b
00000270: a127 03bd 0f10 a83c 1b67 23bb a1e4 8cbb
00000280: d788 51bc f69b 123b 7527 a93c 329b ba3c
00000290: de13 e33c ce43 133d eb09 853c 0f25 e13c
000002a0: 6c10 9bbc d09f ca3c cd65 233c 3fc5 abbc
000002b0: 1114 8ebc 970f 34bc 48d8 11bb 3d91 f1bc
000002c0: 98d3 10bd d9fe 86bc 6455 613c 63a0 903c
000002d0: 8ebe 513d 4313 acbb 9234 da3c db16 cf39
000002e0: 0e1a ec3c 7435 c83c 5ccf a43c 1dfb b23c
000002f0: fac5 51bd fcb8 013c b794 333d dc37 77bc
00000300: 0d08 583d b27c 263d 97d0 00bd 6ab4 75bc
00000310: e281 a73c cf4d 273d 1205 59bb bb47 5e3b
00000320: b8d8 13bd 5843 f03c efc3 183d 8330 263d
00000330: b4ba 4bbc fd56 19bc 1ecf 143d fec7 2dbc
00000340: e22a bebc 18c2 32bc 842b dfbc ac2a 223c
00000350: a1d6 633c 76b0 093c 67b1 193d d366 503c
00000360: bcb1 a53c 33ac d93c 067f c93c 4330 ea3c
00000370: ce6b f3bb d843 b73c 3f4d 433d 9531 6e3d
00000380: 8db1 63bc 6a12 01bd 7cf0 ff3c e005 ac3c
00000390: 99b7 91bc f824 3abc d44b 133d 19ea 25ba
000003a0: 1e35 4dbd 08af cebc 9c91 363d be87 9bbc
000003b0: 14a0 133d a5a5 103d 7b7e 033d c6eb 3c3d
000003c0: b9db 373d d8f2 ab3b cb7a 20bb ecf6 1ebd
000003d0: b6c5 eabc 080d f6bc 2ae4 eb3c 3974 023d
000003e0: 3e38 6cbb 5f6f 2ebc efad 87bb b43c ca3c
000003f0: c74e 54bd 3ca5 7fba 2ef6 6bbc c1ca d9bc

encoder.fc1.bias f4 [64]
0.08680685 0.05859502 -0.012402176 -0.06832151 0.0019339394 0.004286335 0.02415475 0.035341855
0.022606298 0.0015827285 0.0069317864 -0.0010186755 0.007284001 0.025296971 -0.02221522 -0.0023416711
0.073626466 0.008943124 0.012237536 -0.017745446 -0.011075276 0.0035629743 -0.008515016 -0.037851557
-0.0660721 -0.0024613312 0.03439163 -0.052567337 -0.045811772 0.06731285 -0.022113236 0.048927046
0.025438271 -0.039993364 -0.05081455 -0.04387427 -0.005134351 0.035482436 -0.058280636 0.01139779
0.008331472 0.018945185 0.025523184 -0.0072028968 0.06253732 -0.00014248866 0.058008313 -0.019999627
0.025055408 0.014811072 -0.041243847 0.0015426832 -0.011459662 -0.023057511 0.0416887 0.015279339
-0.028240576 0.0476743 0.015728751 -0.041164704 0.011601913 0.0801937 0.062382836 -0.05245002
00000000: cac7 b13d 5501 703d 7f32 4bbc 26ec 8bbd
00000010: 3d7c fd3a 6274 8c3b 2fe0 c53c 9fc2 103d
00000020: d830 b93c 8e73 cf3a 0a24 e33b 1485 85ba
00000030: a1ae ee3b 983b cf3c b1fc b5bc b976 19bb
00000040: 79c9 963d 2e86 123c f27f 483c e65e 91bc
00000050: 1375 35bc ca80 693b 9182 0bbc 3c0a 1bbd
00000060: cf50 87bd 494e 21bb 3dde 0c3d d950 57bd
00000070: 20a5 3bbd 52db 893d d126 b5bc ba67 483d
00000080: ec63 d03c 15d0 23bd eb22 50bd 82b5 33bd
00000090: 0f3e a8bb 0856 113d adb7 6ebd ccbd 3a3c
000000a0: ba80 083c ef32 9b3c ff15 d13c 4706 ecbb
000000b0: 9113 803d 0269 15b9 209a 6d3d 42d6 a3bc
000000c0: 0041 cd3c 23aa 723c 4fef 28bd dc33 ca3a
000000d0: 4ec1 3bbc 1be3 bcbc c5c1 2a3d 3156 7a3c
000000e0: c858 e7bc 2046 433d 95d9 803c 529c 28bd
000000f0: f315 3e3c 983c a43d 2585 7f3d d5d5 56bd

encoder.fc2.weight f4 [16, 64]
-0.09381486 -0.10773265 0.010994432 -0.061457988 0.10156941 -0.0985461 -0.06452903 0.10302728
0.057858285 -0.054549485 -0.08211002 -0.13795313 -0.0033454266 -0.07275896 0.06632074 0.105220914
-0.07866562 -0.06119558 0.06326203 0.06660762 -0.002449949 -0.086384706 -0.097008966 0.02188456
-0.100843206 0.041781146 -0.11025778 0.057348326 -0.028592767 0.019042388 0.073826835 -0.005837845
-0.072449274 -0.047052745 0.08528897 0.110058896 0.04272105 -0.017855542 0.11320022 -0.011129216
-0.012808334 8.529369e-05 0.09681903 -0.114650644 -0.03460822 -0.01095352 -0.009977211 0.052920062
0.0049492153 -0.020805046 -0.11422434 -0.034711506 -0.077927686 0.022909218 0.09398234 0.0333447
-0.005621971 -0.0700782 -0.043545015 0.048903797 0.10340527 0.02050139 -0.05951679 0.054626733
0.013058276 -0.06376707 -0.059060164 0.03092525 0.05905522 -0.10692066 0.015423541 -0.11814895
0.056991007 0.047443554 -0.102415144 0.08131682 -0.07841607 0.032479588 0.107560985 0.009689906
-0.06421125 -0.12474536 -0.04055193 0.026396258 0.13953196 -0.10069044 -0.062979944 -0.09468527
0.031338688 -0.023007343 0.12993331 -0.10653305 0.06635461 -0.031256873 -0.0685742 -0.061723
-0.06830459 0.0069664195 -0.037926234 0.013510522 -0.030710546 -0.09694264 -0.06801154 0.026492653
0.073760025 0.124959 0.021413468 -0.052655715 0.075118 -0.033157628 0.11355555 -0.09468287
-0.008474071 -0.05478108 0.09300644 0.010077771 0.06664523 0.1476566 -0.00743373 0.09428287
0.01707759 0.024322916 -0.09795047 -0.022088738 -0.14140902 -0.01998646 -0.044454806 -0.10635971
0.11342376 -0.12041597 -0.067880124 -0.087103486 0.08238532 -0.051494103 0.08723865 0.040523868
0.048563965 0.069540426 -0.09343775 -0.10332568 0.08167263 0.10575691 0.0121548 -0.06378453
0.1126242 -0.10030132 -0.05121017 -0.045521326 -0.09402075 0.061566055 -0.020605344 -0.090799935
0.08521 0.026839666 0.054122947 0.023158522 0.021659842 0.014943527 -0.086205736 -0.034388464
-0.08438154 -0.084197946 -0.017189678 0.029897003 -0.013903805 0.02375492 -0.077849925 0.106984206
-0.014219893 -0.031755403 0.13400376 -0.12817703 0.004326625 0.038261596 -0.008248904 0.09661131
-0.026497545 0.015539544 0.11649945 -0.004005091 -0.10722024 -0.058505088 -0.082312934 -0.09630079
0.056166425 0.05354587 -0.008393891 -0.065658726 0.09422357 -0.01069135 0.1282842 -0.10931991
-0.00075515563 0.0134918885 -0.07119274 -0.055444233 -0.11777707 -0.10959773 -0.119619906 -0.06296733
0.10403456 -0.0877264 -0.032786623 -0.05021504 -0.11860223 0.02245439 -0.080103025 -0.023461547
0.07097253 -0.05189805 -0.07336858 0.050232675 -0.046335723 -0.119053386 0.0009424466 -0.10637305
-0.05417726 0.041648477 -0.09923573 0.1012164 0.021785432 -0.01160937 -0.09607098 0.022723144
-0.030988244 0.0128833605 0.06763953 0.09277055 -0.07306772 0.04631569 -0.008748626 -0.0048784507
0.017389782 0.10658384 0.063787796 -0.05891385 -0.09039952 0.07527876 -0.09095646 -0.11966731
0.08700064 -0.069491014 0.09684463 0.054291934 0.100201264 -0.06051582 -0.04835107 0.034980036
-0.12344526 -0.016656253 0.022290137 0.056949414 -0.09235257 0.015720282 0.11155847 0.081264876
00000000: 0122 c0bd f0a2 dcbd fd21 343c 5fbb 7bbd
00000010: 9f03 d03d 8ad2 c9bd cc27 84bd f7ff d23d
00000020: cffc 6c3d 486f 5fbd 4c29 a8bd 9643 0dbe
00000030: f23e 5bbb a602 95bd 2bd3 873d 107e d73d
00000040: 711b a1bd 37a8 7abd 868f 813d 9369 883d
00000050: 538f 20bb 77ea b0bd a3ac c6bd 4047 b33c
00000060: e286 cebd b522 2b3d d5ce e1bd 14e6 6a3d
00000070: 613b eabc c8fe 9b3c 8632 973d 654b bfbb
00000080: 4960 94bd 61ba 40bd fcab ae3d 8f66 e13d
00000090: 45fc 2e3d c945 92bc 84d5 e73d 5157 36bc
000000a0: 0cda 51bc b3df b238 0e49 c63d f5cd eabd
000000b0: 59c1 0dbd 6576 33bc 7577 23bc b5c2 583d
000000c0: 072d a23b 586f aabc 73ee e9bd a72d 0ebd
000000d0: 8d98 9fbd 1dac bb3c d079 c03d 7494 083d
000000e0: 8338 b8bb 2985 8fbd 425c 32bd 594f 483d
000000f0: 24c6 d33d 88f2 a73c e1c7 73bd 48c0 5f3d
00000100: 61f2 553c 4f98 82bd 12e9 71bd f356 fd3c
00000110: e3e3 713d 38f9 dabd 05b3 7c3c 14f8 f1bd
00000120: 676f 693d 2c54 423d 08bf d1bd 6f89 a63d
00000130: 9b98 a0bd 5109 053d ef48 dc3d 69c2 1e3c
00000140: 3081 83bd 7f7a ffbd c819 26bd f73c d83c
00000150: 77e1 0e3e ca36 cebd a1fb 80bd 5aea c1bd
00000160: ff5c 003d e579 bcbc 3d0d 053e 002e dabd
00000170: ede4 873d 3507 00bd a170 8cbd 42d1 7cbd
00000180: 47e3 8bbd 9046 e43b 8a58 1bbd 3d5b 5d3c
00000190: af94 fbbc dd89 c6bd a249 8bbd 1f07 d93c
000001a0: 7f0f 973d 81ea ff3d 4c6b af3c 85ad 57bd
000001b0: 77d7 993d 4bd0 07bd d08f e83d 18e9 c1bd
000001c0: d4d6 0abc 2062 60bd 297a be3d 3c1d 253c
000001d0: 4b7d 883d 4b33 173e a696 f3bb 6117 c13d
000001e0: 4de6 8b3c da40 c73c 429a c8bd 71f3 b4bc
000001f0: 87cd 10be a5ba a3bc 3e16 36bd 1fd3 d9bd
00000200: b74a e83d a69c f6bd bc04 8bbd 5063 b2bd
00000210: a2b9 a83d 7beb 52bd 2daa b23d 5bfc 253d
00000220: 02eb 463d 366b 8e3d 4b5c bfbd 6a9c d3bd
00000230: fb43 a73d 1497 d83d ed24 473c 77a1 82bd
00000240: 84a7 e63d c76a cdbd c1c1 51bd 9274 3abd
00000250: f38d c0bd b02c 7c3d 8acc a8bc 51f5 b9bd
00000260: 9582 ae3d dcde db3c 06b0 5d3d f1b6 bd3c
00000270: fb6f b13c b2d5 743c a28c b0bd ebda 0cbd
00000280: 3bd0 acbd f96f acbd 5ed1 8cbc 8fea f43c
00000290: c9cc 63bc ae99 c23c c86f 9fbd 891a db3d
000002a0: 8efa 68bc f411 02bd 4838 093e d740 03be
000002b0: 5cc6 8d3b 31b8 1c3d 6926 07bc 27dc c53d
000002c0: 6111 d9bc 9299 7e3c 4397 ee3d 233d 83bb
000002d0: 4996 dbbd 08a3 6fbd af93 a8bd 5939 c5bd
000002e0: c40e 663d ea52 5b3d 8886 09bc 1578 86bd
000002f0: 49f8 c03d c62a 2fbc ef5c 033e 1ee3 dfbd
00000300: a3f5 45ba 150d 5d3c 80cd 91bd 7e19 63bd
00000310: 1b35 f1bd c674 e0bd 48fb f4bd 04f5 80bd
00000320: 1210 d53d e6a9 b3bd 444b 06bd 49ae 4dbd
00000330: bae5 f2bd 45f2 b73c 0e0d a4bd 6e32 c0bc
00000340: 0c5a 913d 0d93 54bd 4442 96bd c7c0 4d3d
00000350: 87ca 3dbd 43d2 f3bd 850e 773a 1dda d9bd
00000360: f9e8 5dbd 9897 2a3d 1a3c cbbd 8b4a cf3d
00000370: 5d77 b23c 3a35 3ebc ddc0 c4bd e325 ba3c
00000380: 0fdb fdbc bb14 533c 9886 8a3d 7cfe bd3d
00000390: 87a4 95bd 85b5 3d3d 6656 0fbc 69db 9fbb
000003a0: 0475 8e3c a148 da3d 2da3 823d a64f 71bd
000003b0: 6223 b9bd c02b 9a3d 6147 babd 2214 f5bd
000003c0: 642d b23d 4e51 8ebd 7a56 c63d 3861 5e3d
000003d0: 5236 cd3d 70df 77bd c60b 46bd 3a47 0f3d
000003e0: ded0 fcbd b272 88bc ce99 b63c ca43 693d
000003f0: 5823 bdbd d2c7 803c c478 e43d 336e a63d

encoder.fc2.bias f4 [16]
0.10184683 -0.059798 0.013594959 -0.093463376 0.002718756 0.11134101 -0.0782442 0.008181853
0.0849854 -0.024745023 -0.024426335 0.0254815 0.021932358 -0.06557683 -0.07561172 0.15153201
00000000: 1295 d03d bfee 74bd 64bd 5e3c ba69 bfbd
00000010: 282d 323b c106 e43d 7f3e a0bd 2e0d 063c
00000020: d30c ae3d 13b6 cabc bd19 c8bc 94be d03c
00000030: 7dab b33c 254d 86bd 51da 9abd 352b 1b3e

encoder.fc21.weight f4 [4, 16]
-0.12059137 0.01023793 -0.13803926 -0.21235587 0.21859245 -0.10129734 0.22375788 0.0798535
0.20071022 -0.114634946 -0.009016128 -0.13526836 -0.194677 0.021102063 0.2563654 -0.01331275
0.05629927 0.16155319 -0.0046468545 -0.111374706 -0.2020713 -0.20423761 0.030312527 0.18733206
0.21061175 -0.106526986 -0.10253277 -0.15936098 -0.110836454 -0.14131837 0.22935805 0.047678363
-0.036282565 -0.21209963 0.12160983 0.10725206 -0.005044108 -0.06353326 -0.1946738 0.039070014
-0.13858905 0.07187434 0.049391028 -0.13001247 0.13125522 0.095345035 0.17024998 -0.074932694
-0.19939677 0.016798362 -0.18866749 -0.106638476 -0.20996748 0.079306565 -0.15197349 -0.0698828
-0.11719101 -0.018156914 0.045438074 -0.18892345 -0.07490658 -0.040773664 -0.14876117 0.16844356
00000000: 9cf8 f6bd febc 273c 2a5a 0dbe d173 59be
00000010: b3d6 5f3e fb74 cfbd c920 653e 3b8a a33d
00000020: fb86 4d3e bac5 eabd 62b8 13bc ca83 0abe
00000030: 6859 47be 3cde ac3c 5342 833e b81d 5abc
00000040: 109a 663d 336e 253e a444 98bb 6c18 e4bd
00000050: c7eb 4ebe aa23 51be fa51 f83c fad3 3f3e
00000060: 9baa 573e d22a dabd b3fc d1bd 862f 23be
00000070: 39fe e2bd c3b5 10be d6dc 6a3e 634a 433d
00000080: 079d 14bd a530 59be 930e f93d f8a6 db3d
00000090: 0b49 a5bb ba1d 82bd 9258 47be e107 203d
000000a0: 4aea 0dbe db32 933d 3f4e 4a3d fd21 05be
000000b0: c567 063e 4244 c33d 0356 2e3e 5076 99bd
000000c0: ab2e 4cbe b89c 893c 0d32 41be 4665 dabd
000000d0: b701 57be 7b6b a23d f09e 1bbe b71e 8fbd
000000e0: d701 f0bd cfbd 94bc 461d 3a3d 2675 41be
000000f0: 9f68 99bd 4902 27bd d954 18be 787c 2c3e

encoder.fc21.bias f4 [4]
0.04890995 0.22471288 0.015801374 -0.053509504
00000000: cd55 483d 221b 663e e271 813c c82c 5bbd

encoder.fc22.weight f4 [4, 16]
0.08751998 -0.06285339 -0.057919435 0.093988895 0.09338714 -0.1858388 0.0069784527 -0.11787251
0.18144628 -0.003578782 -0.27711177 -0.19250649 -0.0670859 0.13818003 -0.17005259 -0.13502495
-0.12363083 -0.21406505 -0.14537884 -0.07753722 0.20714563 -0.15925938 0.18482055 0.16446099
-0.050772797 -0.027284607 0.04167475 0.074519105 -0.020580614 -0.018233802 -0.011523311 -0.26606637
0.049995013 -0.28005406 -0.1714646 -0.1069956 -0.066480465 -0.04557614 0.015028477 0.04808059
0.14536677 -0.0817347 0.13333139 -0.041287564 0.10946792 -0.0013195282 -0.20313145 -0.2366412
0.188522 -0.086670354 0.025813125 -0.009623973 -0.064025946 -0.16280913 -0.0028241253 0.0804433
0.0456353 -0.23277707 -0.23812987 -0.22263847 -0.15499757 -0.010687505 -0.035339065 -0.29578593
00000000: ad3d b33d 47b9 80bd ee3c 6dbd 407d c03d
00000010: c241 bf3d 874c 3ebe 81ab e43b 2467 f1bd
00000020: 0ecd 393e 008a 6abb 98e1 8dbe 6c20 45be
00000030: 5564 89bd 117f 0d3e 4422 2ebe fb43 0abe
00000040: 2932 fdbd de33 5bbe 31de 14be d6cb 9ebd
00000050: fc1d 543e e414 23be 9941 3d3e 7668 283e
00000060: 23f7 4fbd f883 dfbc 25b3 2a3d 799d 983d
00000070: ad98 a8bc 0e5f 95bc 45cc 3cbc da39 88be
00000080: 92c7 4c3d 3f63 8fbe 6b94 2fbe 8220 dbbd
00000090: e926 88bd 0cae 3abd 003a 763c 27f0 443d
000000a0: 07db 143e 8664 a7bd 0688 083e 261d 29bd
000000b0: b830 e03d 05f4 acba b101 50be 1252 72be
000000c0: e90b 413e 3a80 b1bd 0c76 d33c dead 1dbc
000000d0: 0920 83bd 70b7 26be f614 39bb 75bf a43d
000000e0: 15ec 3a3d 1d5d 6ebe 51d8 73be 57fb 63be
000000f0: afb7 1ebe a51a 2fbc b2bf 10bd 4171 97be

encoder.fc22.bias f4 [4]
0.057221923 -0.093259655 -0.048312455 0.08080213
00000000: 8961 6a3d ebfe bebd 48e3 45bd 967b a53d

encoder.bn1.weight f4 [16]
0.9823241 1.0 1.0 0.97403765 0.938424 0.9955649 0.99852127 1.0048654
0.9921258 0.95561004 1.0 0.98282784 0.98224866 0.94863427 0.98895437 0.9984592
00000000: 9879 7b3f 0000 803f 0000 803f 885a 793f
00000010: 8e3c 703f 57dd 7e3f 179f 7f3f 6e9f 803f
00000020: f5fb 7d3f dca2 743f 0000 803f 9b9a 7b3f
00000030: a674 7b3f b2d9 723f 1d2c 7d3f 069b 7f3f

encoder.bn1.bias f4 [16]
-0.015482808 -0.018603906 0.014394851 0.010234244 -0.004685713 -0.0018668892 -0.016353473 0.019879064
-0.008790075 0.0036653525 -0.011720227 -0.007834656 0.007877092 0.011045124 -0.0044107023 -0.0065720906
00000000: 9bab 7dbc 3867 98bc 62d8 6b3c 88ad 273c
00000010: 9c8a 99bb 68b2 f4ba b8f7 85bc 6bd9 a23c
00000020: 3f04 10bc 6936 703b 3206 40bc ee5c 00bc
00000030: eb0e 013c 9cf6 343c a787 90bb b15a d7bb

encoder.bn1.running_mean f4 [16]
0.8519396 0.0 0.0 0.33823732 0.29982996 0.14076848 0.008670761 0.19667487
0.014911358 0.18852927 0.0 0.01059305 0.42039788 0.053994745 0.36749768 0.60238683
00000000: b718 5a3f 0000 0000 0000 0000 712d ad3e
00000010: 5083 993e 9d25 103e cf0f 0e3c 2365 493e
00000020: c54e 743c d10d 413e 0000 0000 798e 2d3c
00000030: 643e d73e 9829 5d3d a828 bc3e 0636 1a3f

encoder.bn1.running_var f4 [16]
0.08142882 1.248488e-13 1.248488e-13 0.00899891 0.08084295 0.04721368 0.00029141828 0.030360565
0.002205579 0.036141068 1.248488e-13 0.0011131488 0.06749929 0.0029644559 0.003290016 0.10463448
00000000: 27c4 a63d 3791 0c2a 3791 0c2a 2a70 133c
00000010: fd90 a53d 2263 413d 80c9 9839 b8b6 f83c
00000020: 7a8b 103b a808 143d 3791 0c2a 13e7 913a
00000030: 113d 8a3d 5147 423b 4f9d 573b 9a4a d63d

encoder.bn2.weight f4 [16]
0.97619826 1.0107087 1.0205861 0.97042435 0.99250925 0.96224 1.0037259 0.9869275
1.0028143 0.982844 0.96604985 0.9666505 0.98625773 0.9609732 0.98128366 0.9663267
00000000: 21e8 793f e75e 813f 91a2 823f bb6d 783f
00000010: 1615 7e3f 5c55 763f 177a 803f 48a7 7c3f
00000020: 385c 803f aa9b 7b3f 0b4f 773f 6876 773f
00000030: 637b 7c3f 5702 763f 6835 7b3f 3061 773f

encoder.bn2.bias f4 [16]
-0.0016304321 -0.027331484 -0.021212537 -0.02046626 -0.012511766 -0.0041438886 -0.0018895254 -0.0022328703
-0.024077227 0.015017838 0.0031921333 -0.01709518 0.0065722205 0.038212463 -0.006321869 0.04342686
00000000: 39b4 d5ba 47e6 dfbc eac5 adbc dca8 a7bc
00000010: 26fe 4cbc 75c9 87bb f4a9 f7ba 5955 12bb
00000020: 9b3d c5bc 610d 763c 1c33 513b 310b 8cbc
00000030: c85b d73b ac84 1c3d ae27 cfbb 5de0 313d

encoder.bn2.running_mean f4 [16]
0.13997646 0.366821 0.368147 0.24460855 0.20962234 0.15257101 0.38116217 0.15243024
0.3272847 0.2596068 0.21384475 0.116611734 0.33370462 0.2964974 0.24565887 0.18312694
00000000: fd55 0f3e f6cf bb3e c37d bc3e aa7a 7a3e
00000010: 3da7 563e 933b 1c3e b027 c33e ac16 1c3e
00000020: dc91 a73e 2feb 843e 1efa 5a3e 22d2 ee3d
00000030: 55db aa3e 82ce 973e 008e 7b3e a185 3b3e

encoder.bn2.running_var f4 [16]
0.10260877 0.37245548 0.35062712 0.14029515 0.13457862 0.06771063 0.3230357 0.075173415
0.23547193 0.13107911 0.13128777 0.05499277 0.16616762 0.19786964 0.11252307 0.10329583
00000000: 8c24 d23d 7cb2 be3e 6685 b33e 88a9 0f3e
00000010: face 093e dfab 8a3d ef64 a53e 85f4 993d
00000020: 8e1f 713e 9a39 063e 4d70 063e 1940 613d
00000030: d827 2a3e 579e 4a3e 7f72 e63d c48c d33d

encoder.bn3.weight f4 [32]
1.0079223 0.9997965 0.9932222 0.994174 0.981392 0.9623652 0.99074113 0.9875193
1.0073004 0.9701945 1.0164739 1.0029666 1.0380871 0.98743635 0.98374784 1.0104693
0.9677905 0.9763652 0.9912511 0.98997986 0.99101174 0.9773229 1.0021769 0.9799943
0.99061763 0.9548573 0.9674346 0.98804003 1.0288663 0.99873817 0.97689784 1.0124112
00000000: 9903 813f aaf2 7f3f cf43 7e3f 3082 7e3f
00000010: 823c 7b3f 915d 763f 36a1 7d3f 11ce 7c3f
00000020: 38ef 803f ab5e 783f d11b 823f 3661 803f
00000030: 0ae0 843f a1c8 7c3f e6d6 7b3f 0f57 813f
00000040: 1ec1 773f 12f3 793f a2c2 7d3f 526f 7d3f
00000050: f2b2 7d3f d531 7a3f 5547 803f e8e0 7a3f
00000060: 1e99 7d3f 8771 743f cba9 773f 31f0 7c3f
00000070: e4b1 833f 4ead 7f3f fa15 7a3f b196 813f

encoder.bn3.bias f4 [32]
-0.027443817 -0.03203887 -0.0150834285 -0.02354119 -0.0241082 0.026350189 -0.023160359 -0.0019711286
-0.0006899741 -0.05754563 -0.006385586 -0.012034825 -0.002523108 0.039326604 0.0126249185 0.017712187
0.025125211 0.0050820187 0.006304426 -0.041131683 0.0066985055 -0.010205604 -0.030966053 -0.012823347
0.011720701 0.0028552534 0.009080109 0.026451234 -0.004652284 -0.04320288 -0.021172171 -0.016622115
00000000: dbd1 e0bc 313b 03bd 7c20 77bc 74d9 c0bc
00000010: 8f7e c5bc 5adc d73c cbba bdbc 0d2e 01bb
00000020: 61df 34ba f7b4 6bbd 2e3e d1bb b72d 45bc
00000030: ba5a 25bb ef14 213d bfd8 4e3c 2619 913c
00000040: 63d3 cd3c 1087 a63b 5c95 ce3b b279 28bd
00000050: 237f db3b 6835 27bc 85ac fdbc 0419 52bc
00000060: 2f08 403c 341f 3b3b bdc4 143c 42b0 d83c
00000070: 3072 98bb 81f5 30bd 4371 adbc 1a2b 88bc

encoder.bn3.running_mean f4 [32]
0.18710493 0.38108432 0.22041744 0.1990486 0.25738215 0.32634777 0.2906925 0.21073912
0.34336334 0.17157848 0.23038056 0.31838366 0.52256495 0.18902913 0.15579218 0.3841834
0.18215717 0.3315072 0.37571913 0.21412785 0.342599 0.19661735 0.22436182 0.19704917
0.22839065 0.15279332 0.19660111 0.2709028 0.4508085 0.291115 0.24297836 0.2598208
00000000: 6f98 3f3e 7c1d c33e 1cb5 613e 65d3 4b3e
00000010: 98c7 833e 0e17 a73e a6d5 943e ffcb 573e
00000020: 52cd af3e 45b2 2f3e e2e8 6b3e 2f03 a33e
00000030: d1c6 053f da90 413e fc87 1f3e b0b3 c43e
00000040: 6987 3a3e 50bb a93e 425e c03e 5544 5b3e
00000050: 2369 af3e 0f56 493e 1bbf 653e 42c7 493e
00000060: 3ddf 693e da75 1c3e cd51 493e c6b3 8a3e
00000070: 5fd0 e63e 060d 953e 52cf 783e 3b07 853e

encoder.bn3.running_var f4 [32]
0.1475261 0.28774607 0.17306313 0.13864377 0.13922617 0.124511 0.15505992 0.13112994
0.250328 0.08012406 0.16689399 0.24062167 0.25342825 0.12813802 0.104500055 0.16249125
0.08105519 0.17235881 0.23218128 0.10269508 0.13531853 0.11208867 0.1923311 0.09015592
0.10757824 0.100521296 0.0960015 0.26268438 0.29037502 0.25923723 0.093217425 0.21513057
00000000: 1511 173e 7453 933e 7637 313e a2f8 0d3e
00000010: 4e91 0e3e a0ff fe3d 07c8 1e3e ed46 063e
00000020: fe2a 803e 1518 a43d 42e6 2a3e 8765 763e
00000030: 59c1 813e 9d36 033e 2004 d63d 1b64 263e
00000040: 4300 a63d d47e 303e eec0 6d3e cc51 d23d
00000050: f190 0a3e bf8e e53d 72f2 443e aba3 b83d
00000060: fb51 dc3d 1cde cd3d 6f9c c43d 917e 863e
00000070: 09ac 943e beba 843e c7e8 be3d 304b 5c3e

encoder.bn4.weight f4 [32]
0.9720191 1.004735 0.99031055 0.96732074 0.9905082 0.9997652 0.9731551 0.9677863
0.9957492 0.9846205 0.9818863 1.0141715 1.005906 1.0301023 1.0140305 0.9892443
0.9749281 0.95135194 0.97462344 0.9609838 0.9988749 1.0183628 0.9961158 1.0169466
0.9975785 1.001017 0.9696253 0.99203885 0.9961246 0.9718818 0.9989939 1.0280172
00000000: 3ed6 783f 289b 803f fe84 7d3f 55a2 773f
00000010: f291 7d3f 9df0 7f3f b120 793f d8c0 773f
00000020: 6be9 7e3f 1710 7c3f e75c 7b3f 5fd0 813f
00000030: 87c1 803f 64da 833f c0cb 813f 1d3f 7d3f
00000040: e394 793f cd8b 733f ec80 793f 0903 763f
00000050: 44b6 7f3f b659 823f 7201 7f3f 4e2b 823f
00000060: 4e61 7f3f 5321 803f 5d39 783f 42f6 7d3f
00000070: 0602 7f3f 3fcd 783f 10be 7f3f 1196 833f

encoder.bn4.bias f4 [32]
0.00091714686 -0.036658008 -0.0070396056 -0.006201016 0.004847863 -0.016983882 0.004832127 -0.008772416
-0.03272797 0.0064656343 -0.013061467 0.030384447 -0.003924243 0.015096481 0.013979057 0.0066837883
-0.007555801 -0.025217066 0.0054750345 0.023447655 0.020403937 0.017146502 -0.013057523 -0.009868357
-0.0039274856 0.015876936 -0.020397348 0.04546951 -0.0065335818 0.0017606243 0.019970734 -0.0015126638
00000000: af6c 703a b526 16bd 7eac e6bb e431 cbbb
00000010: d3da 9e3b c821 8bbc d256 9e3b 2eba 0fbc
00000020: c40d 06bd acdd d33b c3ff 55bc cee8 f83c
00000030: f096 80bb 3b57 773c 6a08 653c ae03 db3b
00000040: a796 f7bb 0594 cebc eb67 b33b 4c15 c03c
00000050: 2826 a73c d276 8c3c 39ef 55bc e4ae 21bc
00000060: 23b2 80bb 5910 823c 5718 a7bc 3d3e 3a3d
00000070: a817 d6bb c0c4 e63a aa99 a33c 9344 c6ba

encoder.bn4.running_mean f4 [32]
0.20176308 0.23207058 0.30530867 0.22304477 0.19511254 0.35182768 0.29723537 0.26102376
0.2243447 0.27261505 0.18182951 0.36747777 0.22005378 0.41528302 0.39069995 0.27821195
0.23494966 0.25385082 0.2966915 0.27097538 0.2109489 0.3389568 0.3106621 0.2552482
0.25605395 0.30619 0.22236735 0.31667 0.33604398 0.25860837 0.29852885 0.32702863
00000000: fb9a 4e3e e9a3 6d3e 6b51 9c3e d965 643e
00000010: 95cb 473e c222 b43e 3c2f 983e e8a4 853e
00000020: 9eba 653e 3394 8b3e 8431 3a3e 0c26 bc3e
00000030: c755 613e fa9f d43e d309 c83e cc71 8e3e
00000040: a596 703e bcf8 813e f3e7 973e 49bd 8a3e
00000050: fd02 583e bf8b ad3e 1a0f 9f3e e4af 823e
00000060: 8119 833e f0c4 9c3e 44b4 633e 9222 a23e
00000070: f50d ac3e 5168 843e c6d8 983e 4c70 a73e

encoder.bn4.running_var f4 [32]
0.09034086 0.16583881 0.16797575 0.11517414 0.11337239 0.2412753 0.17105985 0.16054696
0.10489248 0.20476393 0.12758808 0.21157865 0.14991418 0.46518388 0.24763243 0.16680036
0.117949925 0.1640024 0.20849966 0.21502356 0.10750364 0.24848135 0.19236735 0.15258105
0.11663969 0.1386759 0.17147309 0.25588986 0.23493344 0.14719087 0.1624029 0.13824707
00000000: a104 b93d a6d1 293e d601 2c3e 6be0 eb3d
00000010: c92f e83d df10 773e 502a 2f3e 6c66 243e
00000020: ded1 d63d a3ad 513e 73a6 023e 13a8 583e
00000030: 1a83 193e 952c ee3e 5b93 7d3e b7cd 2a3e
00000040: bb8f f13d 3ff0 273e ef80 553e 232f 5c3e
00000050: de2a dc3d e571 7e3e f2fb 443e 353e 1c3e
00000060: cae0 ee3d 0e01 0e3e a496 2f3e ff03 833e
00000070: 6492 703e 34b9 163e f24c 263e a490 0d3e
