results/_edu_fptra_0.5_1000_VAE_model.pt (torch, 201744 bytes, 61 tensors)

encoder.conv1.weight f4 [16, 1, 2]
0	0xbec71eaa	-0.38890582
1	0x3e158277	0.1460055
2	0xbf01a6d7	-0.506452
3	0xbf073082	-0.5280839
4	0x3e813660	0.25236797
5	0x3e443de8	0.1916424
6	0x3eb09177	0.3448598
7	0x3da5c355	0.08093897
8	0x3efd7762	0.49505144
9	0xbe1b9255	-0.1519254
10	0x3e75933c	0.23981947
11	0xbe82e046	-0.25561732
12	0xbdcb81fa	-0.099369004
13	0xbdebe08b	-0.115174375
14	0xbe79c5be	-0.24391839
15	0x3d620b40	0.05518651
16	0x3f11a963	0.5689909
17	0xbef78b96	-0.48348683
18	0xbecfbc13	-0.40573177
19	0x3e799668	0.24373782
20	0xbf109af5	-0.56486446
21	0x3e87fb66	0.2655899
22	0x3efe9f4d	0.49730912
23	0xbe47ff79	-0.19531049
24	0x3e4556a4	0.19271332
25	0xbf29766e	-0.66196334
26	0x3f1bf65b	0.60922784
27	0x3e54ea5a	0.20792523
28	0xbef0b95f	-0.47016427
29	0xbf0ff8b8	-0.5623889
30	0x3e23ee3c	0.16008848
31	0x3e63a608	0.22231305

encoder.conv1.bias f4 [16]
0	0x3d010acb	0.031504434
1	0x3d00c0b0	0.03143376
2	0xbf2f8293	-0.68558615
3	0xbd1b3712	-0.037894316
4	0x3cb3a68e	0.021930005
5	0x3f204612	0.6260692
6	0x3e8c1eac	0.2736715
7	0xbdc9ab98	-0.09847182
8	0xbdbb5ce1	-0.091485746
9	0xbefa547a	-0.48892576
10	0xbe6aedb4	-0.22942239
11	0xbda4beb0	-0.08044183
12	0xbeaa1126	-0.33216208
13	0x3e309b6f	0.17246793
14	0xbd8419b0	-0.06450212
15	0xbf003c25	-0.50091773

encoder.conv2.weight f4 [16, 16, 2]
0	0xbc31d5e2	-0.010854216
1	0x3d3455d4	0.044027165
2	0x3dc6ef58	0.0971362
3	0xbbea4464	-0.007149266
4	0x3dec7b6d	0.11546979
5	0x3e518d3e	0.20464036
6	0xbcc029fc	-0.02345752
7	0xbde4bf6a	-0.11169322
8	0x3ce65d57	0.02812068
9	0xbdde196b	-0.10844692
10	0x3d4ebb98	0.050471872
11	0x3c5a34b1	0.013318227
12	0x3d45af0e	0.04826265
13	0x3d520e4b	0.051283162
14	0x3e10cd07	0.14140712
15	0x3de4f31c	0.11179182
16	0x3d85d96f	0.06535613
17	0xbd190ed9	-0.037367675
18	0x3e71fe3f	0.23632143
19	0xbc953881	-0.01821542
20	0xbe202257	-0.156381
21	0x3dd6de50	0.104916215
22	0x3cba9c41	0.022779586
23	0xbdf514f6	-0.119668886
24	0xbe0c4eff	-0.1370201
25	0xbc638492	-0.013886588
26	0xbb70dc8c	-0.003675255
27	0xbd923771	-0.07139481
28	0xbb9a1b93	-0.004702994
29	0xbcdcd718	-0.026958033
30	0xbd83c909	-0.06434829
31	0xbdae71ba	-0.08517785
32	0x3e22ded8	0.1590532
33	0xbd9b170d	-0.07572756
34	0xbda120a3	-0.07867553
35	0xbb42cadf	-0.0029722971
36	0xbe225689	-0.15853323
37	0xbe252d84	-0.16130644
38	0xbe22552b	-0.15852802
39	0xbd55cfb3	-0.05220003
40	0xbce9cb3a	-0.028539289
41	0xbcd91a84	-0.026501901
42	0xbd4ba59a	-0.049718477
43	0x3e08e33c	0.13367933
44	0x3d6cd829	0.057823334
45	0x3d46e3a5	0.048556942
46	0xbdf900a1	-0.12158323
47	0xbdda47b0	-0.106582046
48	0x3b38b7d6	0.0028185747
49	0xbcc99a60	-0.024609745
50	0x3d8da263	0.069157384
51	0x3e05f665	0.13082273
52	0x3d2b4d79	0.04182193
53	0xbd857c00	-0.06517792
54	0xbdf75aab	-0.120778404
55	0x3d5a91d6	0.053361736
56	0xbd6943b4	-0.056949332
57	0xbe17b55e	-0.1481528
58	0xbd20e882	-0.039284237
59	0x3de15883	0.110032104
60	0x3d1652eb	0.03670017
61	0x3e2f0530	0.17091823
62	0x3dfde4eb	0.12397178
63	0x3ced34a1	0.02895576
64	0x3bf5a8c0	0.007496923
65	0xbd4bebb3	-0.049785327
66	0x3de752cb	0.112950884
67	0x3dcdabd8	0.10042542
68	0x3d4cb089	0.049973045
69	0x3ab96e6a	0.0014147286
70	0x3d910ec6	0.07082896
71	0xbbb0ba61	-0.005393312
72	0x3de94717	0.113905124
73	0xbe2b5bdf	-0.16734265
74	0xbcf3b058	-0.029747173
75	0xbe07a2da	-0.13245717
76	0x3cafce48	0.021460667
77	0xbdb296b0	-0.087201476
78	0x3b81f460	0.0039658993
79	0xbd9e6d5f	-0.07735705
80	0xbd8d3a73	-0.06895914
81	0xbc87f105	-0.01659442
82	0xbe2b6679	-0.16738309
83	0x3da3dd0c	0.08001146
84	0xbd8c69d5	-0.06856123
85	0x3dac15b9	0.08402581
86	0xbd3f75a4	-0.04674305
87	0xbcca9e35	-0.024733642
88	0x3df41e9a	0.11919899
89	0xbd65fe58	-0.056150764
90	0xbdea564b	-0.1144224
91	0xbce06821	-0.027393403
92	0xbe1d5ea4	-0.15368134
93	0xbe18b237	-0.14911734
94	0xbdb94332	-0.090460196
95	0x3d09991d	0.033593286
96	0xbe00f325	-0.12592752
97	0xbd54de93	-0.051970076
98	0x3d0972c3	0.03355671
99	0xbd11d041	-0.035598997
100	0x3d91feb5	0.0712866
101	0xbd891703	-0.06693842
102	0xbcd417b1	-0.025890203
103	0x3db0aec9	0.086270876
104	0x3cbfa6e4	0.02339501
105	0x3d8a8ee0	0.067655325
106	0x3da90f8e	0.0825492
107	0x3d67c7df	0.056587096
108	0x3b53bd24	0.0032308782
109	0xbd57bcf1	-0.052670423
110	0xbcd02168	-0.025406554
111	0xbd4ca1ff	-0.04995918
112	0xbcef069f	-0.029177962
113	0x3d9015ab	0.07035383
114	0x3d8d4ca9	0.068993874
115	0x3ccf560c	0.025309585
116	0xbe24bcc4	-0.16087633
117	0x3d86e38d	0.065863706
118	0x3dd9beb3	0.10632076
119	0xbc7e4b31	-0.015520857
120	0x3e170376	0.14747414
121	0xbd914466	-0.07093124
122	0x3e1a7015	0.15081818
123	0x3d384356	0.04498609
124	0x3d7db163	0.061936747
125	0xbe5b7071	-0.21429612
126	0x3d42a616	0.047521673
127	0x3db533f4	0.088478
128	0x3c0b4d7f	0.008502363
129	0xbce52540	-0.027971864
130	0xbd8d59f2	-0.06901921
131	0xbc50a937	-0.012735656
132	0x3e172f92	0.1476424
133	0xbd81dccb	-0.06340941
134	0xbc360ae6	-0.011110997
135	0x3e026912	0.12735394
136	0x3e1b7a1d	0.15183301
137	0xbc6ccbfc	-0.014452931
138	0x3d7f358c	0.062306926
139	0xbe1c8222	-0.15284017
140	0xbd46523c	-0.04841827
141	0xbdd5fea2	-0.10448958
142	0x3da0f006	0.07858281
143	0x3dd61343	0.10452893
144	0x3e04c268	0.12964785
145	0x3d93ba5b	0.07213279
146	0x3e0b81ba	0.13623706
147	0xbd6fa6bd	-0.058508623
148	0xbcd020d6	-0.025406282
149	0x3e22e1fa	0.15906516
150	0x3e148b76	0.14506325
151	0x3c77e121	0.0151293585
152	0x3d0f100a	0.034927405
153	0x3de37f89	0.1110831
154	0xbd4961b4	-0.049165443
155	0xbce4e6f1	-0.027942153
156	0x3e06ad0b	0.13151948
157	0xbd324536	-0.043523036
158	0x3d41ddc9	0.04733065
159	0xbd3af5e6	-0.045644663
160	0xbaa70bb8	-0.0012744581
161	0x3d2b9669	0.04189149
162	0xbe0b026b	-0.13575141
163	0xbd1a07df	-0.037605163
164	0xbe230da5	-0.15923174
165	0xbe39377d	-0.18087573
166	0xbdc56b1a	-0.096395686
167	0x3d47df59	0.048796985
168	0x3cbed278	0.023293719
169	0x3d0fe326	0.035128735
170	0xbc9d6d18	-0.019217059
171	0x3d9ad3a5	0.07559899
172	0xbdb744c3	-0.08948662
173	0xbd2bd85d	-0.041954387
174	0xbe40bfa6	-0.18823108
175	0xbd63ed91	-0.055646483
176	0xbdb1d999	-0.086840816
177	0xbd954bc0	-0.07289839
178	0x3da6558e	0.08121787
179	0x3dc26f59	0.09493894
180	0x3dab35fb	0.08359905
181	0x3d5283de	0.05139529
182	0xbd093483	-0.033497345
183	0x3d3eaa79	0.046549294
184	0x3e3ff8f0	0.18747306
185	0x3df23276	0.11826031
186	0x3d21387c	0.03936051
187	0x3d3967aa	0.045264877
188	0xbd98741f	-0.07444023
189	0xbd3852ef	-0.045000967
190	0xbdd26647	-0.10273414
191	0x3e3385b3	0.17531471
192	0xbdaf7c37	-0.08568614
193	0x3d058136	0.03259393
194	0x3d4aa732	0.049475856
195	0x3d4c624e	0.04989844
196	0x3e149894	0.14511329
197	0x3e39edc1	0.18157102
198	0xbd12eb45	-0.0358689
199	0xbe26a3ff	-0.16273497
200	0xbd9cc57f	-0.07654857
201	0xbe0fa409	-0.14027418
202	0x3dfed46f	0.12442862
203	0x3d5562f0	0.052096307
204	0x3d991c5b	0.074761115
205	0x3d446bbe	0.047954313
206	0xbd34e125	-0.044160027
207	0x3e767f64	0.24072033
208	0xbe0d2155	-0.13782246
209	0x3aa7dbcc	0.0012806593
210	0x3dcb1558	0.0991618
211	0xbdc6ed22	-0.09713198
212	0xbdc73ba1	-0.0972817
213	0x3db13967	0.08653527
214	0x3d9f3443	0.0777364
215	0xbd5c09f3	-0.053720426
216	0xbe48dd2b	-0.19615619
217	0xbd51cdda	-0.051221706
218	0xbd191715	-0.03737553
219	0xbdd02dea	-0.101650074
220	0x3e1593a0	0.14607096
221	0xbd8dabbc	-0.06917521
222	0xbe53b7ef	-0.20675634
223	0x3cc14f18	0.023597285
224	0x3e4208ba	0.18948641
225	0xbc2913e2	-0.010319682
226	0x3dbf6163	0.09344747
227	0xbb4469b2	-0.0029970226
228	0xbe4709af	-0.19437288
229	0xbe402269	-0.18763126
230	0xbd757119	-0.05992231
231	0xbd934ec7	-0.0719276
232	0x3dd86440	0.10565996
233	0x3e117b56	0.14207205
234	0xbe584632	-0.21120527
235	0xbdb36480	-0.08759403
236	0xbc851430	-0.016244978
237	0x3d1b2bd4	0.037883595
238	0x3de52276	0.111882135
239	0x3e270f55	0.16314442
240	0xbe2569d8	-0.16153657
241	0xbd3ad17b	-0.045609932
242	0xbd0fccb1	-0.03510732
243	0xbd1e3a0b	-0.038629573
244	0x3e1af5a3	0.15132765
245	0x3ceb0af4	0.028691746
246	0xbd8a621a	-0.06756993
247	0x3e3169f8	0.1732558
248	0x3e31513e	0.17316148
249	0xbaaffbf5	-0.001342653
250	0x3de66e84	0.11251548
251	0xbd96bc6a	-0.07360156
252	0xbe1c53e6	-0.1526638
253	0xbe3d85c2	-0.18508056
254	0x3d924c1b	0.07143422
255	0xbe0b8b15	-0.13627274

encoder.conv2.bias f4 [16]
0	0x3e32fe39	0.17479791
1	0xbd1e9771	-0.038718645
2	0xbe11cde4	-0.14238697
3	0x3d6324c8	0.055455
4	0xbe2b3c2a	-0.1672217
5	0x3e0d3b62	0.13792184
6	0xbd6421ad	-0.05569618
7	0x3d1c42a5	0.038149495
8	0xbc46755b	-0.012112941
9	0x3c4dfe8f	0.0125728985
10	0x3d27cbe8	0.040965945
11	0x3c95d584	0.018290289
12	0xbad04a12	-0.0015891215
13	0xbd84787f	-0.06468295
14	0xbd1cc08c	-0.038269565
15	0x3e019cd5	0.12657483

encoder.conv3.weight f4 [32, 16, 2]
0	0xbd8ad16b	-0.067782246
1	0xbd339ba2	-0.043849595
2	0x3d815c01	0.063163765
3	0x3d146607	0.036230113
4	0xbde98743	-0.11402752
5	0xbd90be4d	-0.07067547
6	0x3dbae6a7	0.09126025
7	0xbdb9eefd	-0.090787865
8	0x3ce8d0d3	0.028419888
9	0x3d9b8e4e	0.07595502
10	0xbdf8810c	-0.12133989
11	0x3cf41167	0.029793454
12	0x3d918d48	0.071070254
13	0x3d877d04	0.06615642
14	0x3d47942c	0.048725292
15	0x3db6fd74	0.08935061
16	0x3db0fbac	0.086417526
17	0xbd9e18c0	-0.077195644
18	0xbcd0640e	-0.025438335
19	0x3d65cfe8	0.056106478
20	0xbcbcb558	-0.02303569
21	0xbd07af3e	-0.03312611
22	0xbe2d0d25	-0.16899545
23	0x3cad7ce9	0.021177726
24	0xbe2d971e	-0.16952178
25	0xbd71058d	-0.058843184
26	0xbdee4cd2	-0.11635746
27	0x3d08c6f4	0.03339286
28	0xbd0e9987	-0.034814384
29	0x3d45886c	0.048225805
30	0x3e0b9edd	0.1363482
31	0xbe349ee6	-0.1763874
32	0x3dc8c87e	0.09803866
33	0x3d1c8cba	0.038220145
34	0xbe2561fe	-0.16150662
35	0x3d8b6433	0.06806221
36	0xbdf163d1	-0.117866166
37	0x3e1c22eb	0.15247695
38	0xbb696e7f	-0.003561884
39	0x3c60cc35	0.013720562
40	0xbdc68f85	-0.09695343
41	0xbe21a9eb	-0.15787475
42	0xbcebb9d7	-0.028775139
43	0xbdf481c3	-0.119388126
44	0xbcd68ccd	-0.026190186
45	0x3e0dd830	0.13852
46	0xb9de4033	-0.00042390972
47	0xbddbbf1e	-0.10729812
48	0xbd83030c	-0.063970655
49	0x3d8d4596	0.06898038
50	0x3e1ac94e	0.15115854
51	0xbe0c165d	-0.13680406
52	0xbd144769	-0.036200915
53	0xbde1ec4c	-0.11031398
54	0xbe6ed7f2	-0.23324564
55	0x3d10ac18	0.03532037
56	0xbdc4aa05	-0.09602741
57	0x3deb77d8	0.11497468
58	0xbd91cf80	-0.071196556
59	0x3df52d78	0.11971563
60	0x3d498bcb	0.049205583
61	0xbd13b63e	-0.03606247
62	0xbdb43ad4	-0.08800283
63	0xbe5e26cf	-0.21694492
64	0x3ca3e5b3	0.02000699
65	0xbcbd3aa5	-0.023099253
66	0x3dc4b113	0.09604087
67	0x3dc52320	0.0962584
68	0x3d0a809e	0.033814065
69	0x3de4c28c	0.11169919
70	0xbe07140f	-0.13191245
71	0x3d5d5271	0.0540337
72	0x3c1ea764	0.009683464
73	0xbbe8c245	-0.007103237
74	0xbe303ee1	-0.17211486
75	0xbc777725	-0.01510409
76	0x3dfa8fe4	0.12234476
77	0x3dd876ad	0.105695106
78	0xb93b0fac	-0.00017839548
79	0x3c74a730	0.014932439
80	0xbda73041	-0.081635006
81	0x3d897121	0.06711031
82	0xbdc90dad	-0.098170616
83	0xbd2cb531	-0.042164985
84	0x3cf3d42a	0.029764254
85	0x3d71dd7f	0.059049126
86	0x3cf24e6a	0.029578406
87	0xbda83a41	-0.08214236
88	0x3de9a2e1	0.1140802
89	0x3dac7af3	0.08421888
90	0x3e084a11	0.13309504
91	0x3d06aaf3	0.032877874
92	0xbe2cc298	-0.16871107
93	0x3de0783d	0.10960434
94	0xbe1c79d8	-0.15280855
95	0xbcbd66e1	-0.023120346
96	0x3bc960c1	0.006145567
97	0xbd8681d9	-0.06567735
98	0xbe138ad7	-0.14408432
99	0xbd8b02f9	-0.06787676
100	0x3d6cc48c	0.05780463
101	0xbe330d48	-0.17485535
102	0x3d592252	0.053011246
103	0x3e0ddc09	0.13853468
104	0x3d922e17	0.07137697
105	0xbd9f2bbd	-0.07772014
106	0x3e110f61	0.14166023
107	0xbd42ce8f	-0.04756027
108	0xbe0801fb	-0.13282005
109	0xbd9732d7	-0.07382744
110	0xbdb33826	-0.08750944
111	0x3cc15e8c	0.023604654
112	0xbdeebe4e	-0.116573915
113	0xbdf26275	-0.118351854
114	0xbd29721d	-0.041368593
115	0xbe285de8	-0.16442072
116	0x3b927161	0.004469082
117	0xbd82be42	-0.06383945
118	0x3bddba7e	0.0067666164
119	0x3df87e12	0.12133421
120	0xbce800d7	-0.028320713
121	0xbd8ad6c5	-0.06779245
122	0xbd69d99e	-0.0570923
123	0xbe114a53	-0.14188509
124	0xbe13b218	-0.14423406
125	0xbe0378fb	-0.12839119
126	0x3d8a5733	0.06754913
127	0x3da7907c	0.08181855
128	0x3d309773	0.043113183
129	0x3ced951b	0.029001763
130	0x3c0faf84	0.0087698735
131	0x3d08be3e	0.033384554
132	0xbdff712c	-0.12472758
133	0xbd3ec1d3	-0.046571564
134	0x3da0f932	0.0786003
135	0xbcb08db1	-0.021551939
136	0x3d16d317	0.036822405
137	0x3e239628	0.15975249
138	0x3bb6e9a4	0.0055820514
139	0xbe20e23c	-0.15711302
140	0xbe30b58a	-0.17256752
141	0xbd819018	-0.06326312
142	0x3e1d83df	0.15382336
143	0xbdb22945	-0.08699278
144	0x3aed39cc	0.001809889
145	0x3dad91ce	0.08475076
146	0xbe0468e0	-0.12930632
147	0x3dae6cb1	0.08516825
148	0x3e324a7c	0.17411226
149	0xbe200410	-0.1562655
150	0x3d690b02	0.056895263
151	0xbd65cef7	-0.05610558
152	0x3cf7f468	0.03026791
153	0xbdc00e2b	-0.09377702
154	0x3d31ab3b	0.04337619
155	0xbd9d2a1e	-0.07674049
156	0xbdce5b6b	-0.1007603
157	0xbc05a7ce	-0.008157684
158	0x3cf56b10	0.029958278
159	0x3d285bc1	0.04110313
160	0xbe2e8c27	-0.17045651
161	0x3cee264d	0.029070998
162	0x3d5a4ee8	0.053297907
163	0x3dcb791c	0.09935209
164	0xbe2836ff	-0.1642723
165	0xbdebd614	-0.115154415
166	0xbda7ec51	-0.08199371
167	0xbd2ae49e	-0.041721933
168	0x3df12c94	0.11776081
169	0xbda455df	-0.08024191
170	0xbc689bc0	-0.01419729
171	0xbdb8e324	-0.09027699
172	0x3dac8dea	0.084255055
173	0xbdbc7a89	-0.09203059
174	0x3bf710c9	0.0075398427
175	0x3c011ffc	0.007881161
176	0xbdcf56ee	-0.101240024
177	0x3df44e95	0.11929051
178	0x3daa9be0	0.08330512
179	0x3d8ddffd	0.06927488
180	0xbdd675f9	-0.1047172
181	0xbdd5ff48	-0.10449082
182	0x3e0484d2	0.12941292
183	0xbe00e9d5	-0.125892
184	0xbe14017d	-0.14453693
185	0xbe1adbd8	-0.15122926
186	0x3cb21b86	0.02174164
187	0xbdfa18e2	-0.12211777
188	0xbc626a3d	-0.0138192745
189	0xbe37170a	-0.17879882
190	0xbd9c32e7	-0.07626896
191	0x3beb0b67	0.00717299
192	0x3c5e49e0	0.013567418
193	0xbdb53b36	-0.08849184
194	0xbdd79d52	-0.10528053
195	0x3e24e9d9	0.16104831
196	0x3db79801	0.08964539
197	0x3da2597c	0.07927224
198	0xbdacf3f2	-0.084449664
199	0xbd0dbc27	-0.034603264
200	0x3d880d40	0.06643152
201	0xbcfc900f	-0.030830411
202	0xbddf212a	-0.108949974
203	0x3de149a8	0.11000377
204	0x3db9d127	0.09073096
205	0xbe12af3c	-0.14324659
206	0x3d7d89fa	0.061899163
207	0xbdc8efb1	-0.098113425
208	0xbb39e058	-0.002836248
209	0xbd96cb76	-0.07363026
210	0x3cb8569f	0.022502242
211	0x3dc18da0	0.09450841
212	0xbd3d588a	-0.046227016
213	0x3dae517e	0.08511637
214	0xbd8c2e14	-0.06844726
215	0xbd24a707	-0.040198352
216	0x3c280ae8	0.0102565065
217	0x3d2c40aa	0.042053856
218	0xbd861426	-0.06546812
219	0x3dfc686d	0.12324605
220	0xbd1057d9	-0.035240028
221	0xbd9151b1	-0.070956595
222	0x3dfc248f	0.123116605
223	0x3daafc62	0.083489195
224	0xbdaa4a10	-0.083149076
225	0xbdeb5287	-0.1149035
226	0xbd428ecb	-0.04749946
227	0xbd420ddc	-0.0473765
228	0x3daf9297	0.08572882
229	0x3d6c7192	0.057725497
230	0x3de37a41	0.111073025
231	0xbc96da71	-0.018414708
232	0x3e1a80ff	0.1508827
233	0xbcc9e81c	-0.024646811
234	0xbcc36a9a	-0.023854543
235	0x3c9da3ee	0.019243207
236	0xbe002adf	-0.12516354
237	0x3dcc33a5	0.09970788
238	0xbd8860f4	-0.06659117
239	0x3dd679de	0.10472463
240	0x3d613b80	0.054988384
241	0x3e0964d7	0.13417374
242	0x3e04a88e	0.12954924
243	0xbdfb0e26	-0.12258558
244	0xbe0ffa6f	-0.14060377
245	0x3e063323	0.13105445
246	0xbe36cfae	-0.17852661
247	0xbaf6d6f2	-0.0018832369
248	0xbdf14a34	-0.11781731
249	0x3d108e8f	0.035292204
250	0xbb9cfd1a	-0.0047909142
251	0x3b169569	0.002297724
252	0xbe2ad53e	-0.16682908
253	0x3d57bed9	0.05267224
254	0xbdccce1d	-0.100002505
255	0xbd706635	-0.058691222

encoder.conv3.bias f4 [32]
0	0xbde749ce	-0.11293374
1	0xbe2ee613	-0.17079954
2	0xbe175d7f	-0.1478176
3	0xbdb57f18	-0.08862132
4	0xbd8007fc	-0.06251523
5	0xbe199ea0	-0.15001917
6	0x3e03c419	0.12867774
7	0x3d0b5976	0.034020863
8	0x3c30a36b	0.010781149
9	0x3e3d5542	0.18489555
10	0xbe201190	-0.156317
11	0x3c312cef	0.010813936
12	0xbdbcfebb	-0.092282735
13	0x3c9d03d5	0.019166866
14	0xbbd70a10	-0.006562479
15	0xbdc80763	-0.09767034
16	0x3dba3e30	0.090938926
17	0xbc265914	-0.010153074
18	0xbdd4045c	-0.10352394
19	0x3dfb85c0	0.1228137
20	0x3ddef1c0	0.10885954
21	0xbdc371d4	-0.09543195
22	0x3e023aa2	0.12717679
23	0x3da4ce13	0.08047118
24	0xbdc50c12	-0.09621443
25	0xbcbc9a93	-0.023022925
26	0xbdb85040	-0.089996815
27	0xbdc267ef	-0.0949248
28	0xbe3abb20	-0.18235445
29	0xbe80b941	-0.25141338
30	0x3e024463	0.127214
31	0x3cf77b38	0.030210122

encoder.conv4.weight f4 [32, 32, 2]
0	0x3d838bb9	0.06423134
1	0xbcc9258e	-0.02455404
2	0x3d873467	0.06601792
3	0xbd56dc24	-0.052456036
4	0xbdbf7a50	-0.09349501
5	0xbdc36a00	-0.09541702
6	0x3c6c2ef8	0.014415495
7	0xbccf6011	-0.025314363
8	0xbd84b664	-0.06480101
9	0x3ca31caa	0.019911129
10	0x3cdd04d2	0.026979838
11	0x3db7020d	0.08935938
12	0x3d615fee	0.055023126
13	0xbdb2d1e8	-0.08731443
14	0x3ddaab8f	0.106772535
15	0xbbd6c3e3	-0.0065541132
16	0xbdffa80a	-0.12483223
17	0x3b23a40b	0.0024969603
18	0x3d605978	0.054772824
19	0x3cb2553d	0.02176916
20	0xbd09383d	-0.0335009
21	0xbcd0113c	-0.025398843
22	0xbc74e380	-0.014946818
23	0x3c485add	0.012228695
24	0xbda97068	-0.08273393
25	0xbcb40475	-0.021974782
26	0x3d0f6690	0.03500992
27	0xbe08231d	-0.13294645
28	0x3d973590	0.07383263
29	0xbdb08145	-0.08618406
30	0xbd8820fc	-0.06646916
31	0x3d98e018	0.074646175
32	0xbd3d9220	-0.046281934
33	0x3da0ae69	0.07845766
34	0xbe1bcc4c	-0.15214652
35	0xbe0b11f2	-0.13581064
36	0xbca7a640	-0.020465016
37	0xbd90394a	-0.07042177
38	0xbe380073	-0.17968921
39	0xbc0961c5	-0.0083851265
40	0x3d01eeb3	0.031721782
41	0xbd1a4299	-0.03766117
42	0xbe3140df	-0.17309903
43	0x3cb37d0b	0.021910211
44	0xbd8489bb	-0.064715825
45	0xbe188b2d	-0.14896841
46	0x3d9acdf8	0.07558817
47	0xbd16b945	-0.03679778
48	0xbd1cbb14	-0.03826435
49	0x3ccb6894	0.02483014
50	0xbde1be64	-0.11022642
51	0x3d7d423c	0.061830744
52	0xbdb20fcc	-0.08694419
53	0xbb2ff7b1	-0.0026850516
54	0x3c51fe54	0.012816984
55	0xbd6da2c3	-0.05801655
56	0x3c8cb37d	0.01717543
57	0xbcb19925	-0.02167947
58	0x3dcbcc7f	0.09951114
59	0x3d81e64c	0.06342754
60	0xbdc8e1f4	-0.09808722
61	0xbd2366e0	-0.03989303
62	0x3cb2d551	0.021830233
63	0x3d9be94d	0.07612858
64	0x3cf21bfa	0.029554356
65	0xbd33e408	-0.04391864
66	0xbd4c1d99	-0.049832914
67	0x3d5b9bd9	0.053615425
68	0xbc948f5e	-0.018134769
69	0x3b3bc95a	0.002865395
70	0xbd12f2f6	-0.035876237
71	0xbd164834	-0.036689952
72	0xbe10292f	-0.1407821
73	0xbda83649	-0.08213479
74	0xbdd8094a	-0.10548647
75	0xbe00130d	-0.12507267
76	0x3b2339bd	0.002490624
77	0xbd4026cb	-0.046911996
78	0x3d8ec52a	0.069712
79	0xbd91a379	-0.07111258
80	0xbd854b5a	-0.06508513
81	0x3c86b88f	0.016445426
82	0x3d2c8eb6	0.042128287
83	0x3dda1d28	0.10650092
84	0xbd223ee0	-0.039610744
85	0xbdc772cf	-0.09738695
86	0xbe0aa00a	-0.13537613
87	0xbe03d571	-0.1287439
88	0x3d4769c6	0.048684858
89	0xbdabbde1	-0.08385826
90	0x3daedadc	0.08537838
91	0x3d8f8c9b	0.0700924
92	0xbdb07de8	-0.08617765
93	0x3dce21f1	0.100650676
94	0x3c8ce8af	0.017200796
95	0x3ab04ab7	0.0013450001
96	0x3d05d064	0.03266944
97	0x3dd6db89	0.10491092
98	0x3d92ce6b	0.07168277
99	0xbe0758ca	-0.13217464
100	0xbc997ec9	-0.018737214
101	0x3bcc8ea6	0.006242591
102	0xbdb68652	-0.08912338
103	0x3c6a0401	0.014283181
104	0xbd868d9f	-0.06569981
105	0xbcc46f83	-0.023978954
106	0xbdb42cb0	-0.08797586
107	0x3d906549	0.070505686
108	0x3d7f78a5	0.062370915
109	0x3c9c71a0	0.01909715
110	0xbd3c960c	-0.046041533
111	0x3d22acdf	0.039715644
112	0xbab99bbd	-0.0014160794
113	0xbd110869	-0.03540841
114	0x3b20dc26	0.0024545281
115	0x3dc5390c	0.096300215
116	0xbd50672e	-0.05087965
117	0xbd2c13b4	-0.042010978
118	0xbc69a92c	-0.014261525
119	0x3d54ee22	0.051984914
120	0xbd30ef74	-0.04319711
121	0xbdf80e1c	-0.12112066
122	0xbd618735	-0.055060584
123	0x3b748fe1	0.0037317204
124	0x3daebba6	0.08531885
125	0x3ce164c3	0.027513867
126	0xbd7e11d6	-0.06202873
127	0xbdc2c848	-0.09510857
128	0xbc9b40c9	-0.01895179
129	0x3cfb473a	0.030673612
130	0xbda68b4c	-0.081320375
131	0xbd56788f	-0.052361067
132	0xbcd73d27	-0.026274277
133	0xbd3c1a57	-0.045923557
134	0x3dbcf6fe	0.092267975
135	0x3daf674a	0.08564623
136	0xbc248f3a	-0.0100439135
137	0xbd39a04c	-0.045318887
138	0xbdd6efc1	-0.10494948
139	0x3d65cce8	0.056103617
140	0xbe03a4b5	-0.128558
141	0x3db2d1d7	0.0873143
142	0xbc9cadba	-0.019125808
143	0x3d2e3a4f	0.042536076
144	0x3af6577b	0.0018794382
145	0x3d7ddcfb	0.06197832
146	0xbd2de824	-0.042457715
147	0xbd8f306b	-0.06991657
148	0xbd5f0eef	-0.0544576
149	0x3d1fc9c8	0.039010793
150	0x3d4cfc31	0.050045196
151	0x3ce3c995	0.027806083
152	0x3cf5cbe1	0.030004444
153	0xbce72294	-0.02821473
154	0xbe2a183a	-0.16610804
155	0x3cb8249d	0.022478396
156	0xbdbacfce	-0.09121667
157	0xbe06702e	-0.1312873
158	0xbd761469	-0.06007806
159	0x3d5eb718	0.05437383
160	0xbda9e6d6	-0.082959816
161	0xbd411200	-0.047136307
162	0xbd85b14d	-0.06527958
163	0xbde322e7	-0.110906415
164	0xbcb8e842	-0.022571687
165	0xbe4ecc64	-0.20195156
166	0x3d4dfd23	0.050290238
167	0xbdb9d6a7	-0.09074145
168	0xbd8be65b	-0.06831046
169	0xbdb07761	-0.0861652
170	0x3cc6ec02	0.02428246
171	0xbc911365	-0.017709443
172	0xbe3affe8	-0.18261683
173	0xbe08fdac	-0.13378018
174	0xbd44054a	-0.047856607
175	0x3c23367b	0.00996172
176	0xbd7adb76	-0.06124445
177	0xbe2f0b2e	-0.17094108
178	0x3d8f90ba	0.07010026
179	0xbd23b02c	-0.039962932
180	0x3ddc3042	0.10751392
181	0xbd8db58a	-0.069193915
182	0xbe3122ad	-0.17298384
183	0xbdad0871	-0.08448876
184	0xbc48d14b	-0.012256931
185	0xbc355201	-0.011066915
186	0xbcc3eedd	-0.02391761
187	0xbd976e5e	-0.07394098
188	0xbcd92fd5	-0.026512066
189	0x3d184b02	0.037180908
190	0x3ddfa1e2	0.109195486
191	0x3db37d08	0.08764082
192	0xbd56d40a	-0.05244831
193	0xbd789dec	-0.06069748
194	0xbd9e7c57	-0.0773856
195	0xbbb113f4	-0.00540399
196	0xbcabc31d	-0.02096706
197	0x3d6f37f8	0.058402985
198	0xbcf41c31	-0.029798599
199	0xbd107453	-0.035267185
200	0xbe1957b6	-0.14974865
201	0xbdb57ff2	-0.08862294
202	0x3d5573e6	0.052112482
203	0xbd8c59df	-0.06853079
204	0xbdaef4af	-0.085427634
205	0x3c444d6e	0.011981351
206	0x3e0d2954	0.13785297
207	0xbdaa793a	-0.083239034
208	0xbcb80762	-0.022464458
209	0x3d96a9ae	0.073565826
210	0xbd8acc20	-0.06777215
211	0xbce8f197	-0.028435512
212	0xbd15cab8	-0.03657028
213	0x3da3670f	0.07978641
214	0x3b9fd264	0.0048773754
215	0xbd045701	-0.032309536
216	0xbc1c30f5	-0.009533157
217	0xbdfdfc75	-0.12401668
218	0x3dd1a350	0.102362275
219	0x3da10309	0.07861907
220	0xbd43d75e	-0.047812812
221	0x3dbc6b7d	0.09200189
222	0xbe00419c	-0.12525028
223	0x3e00d523	0.12581305
224	0x3d47e5e3	0.04880322
225	0x3bd182f2	0.0063937837
226	0xbc30774a	-0.010770628
227	0x3da20755	0.07911555
228	0x3cde280f	0.02711871
229	0xbdb4a4d0	-0.08820498
230	0xbdd1f96e	-0.10252653
231	0x3d2b9a31	0.041895095
232	0xba6a456b	-0.00089367357
233	0xbda962d8	-0.08270806
234	0xbe1f8ec4	-0.15581805
235	0x3cb165b1	0.021654936
236	0x3dc1d0e8	0.09463674
237	0xbda1ff49	-0.0791002
238	0x3c42147e	0.011845706
239	0xbd87d7bb	-0.06632944
240	0x3d0dcbe2	0.034618266
241	0xbdf6ece3	-0.12056901
242	0xbe1df7dc	-0.15426582
243	0xbd8a0593	-0.067393444
244	0xbc8c8aa5	-0.017155955
245	0xbd330313	-0.043704104
246	0x3cc26064	0.023727603
247	0x3dd5d248	0.104404986
248	0xbdb9bbeb	-0.09069046
249	0xbd47c076	-0.04876753
250	0xbd08643c	-0.033298716
251	0x3d7068f5	0.058693845
252	0x3d2a180c	0.04152684
253	0xbd8fc57a	-0.070200875
254	0x3d24f4bc	0.04027246
255	0x3d987331	0.07443846

encoder.conv4.bias f4 [32]
0	0x3d380a91	0.044931952
1	0xbd8572bc	-0.065160245
2	0x3db8e07f	0.09027194
3	0x3d9cf5c4	0.076640636
4	0x3d843912	0.06456198
5	0x3dfde94b	0.12398013
6	0x3c49c1a7	0.012314237
7	0x3c54ef8e	0.012996567
8	0x3d8b7bf0	0.068107486
9	0x3d9e38b1	0.07725657
10	0x3d2aa311	0.04165942
11	0x3d86bd06	0.06579022
12	0xbcc884ca	-0.024477381
13	0x3e1ba9b0	0.1520145
14	0x3d2bd9e2	0.041955836
15	0x3df8cfdb	0.1214902
16	0x3e02e823	0.12783866
17	0xbd439307	-0.047747638
18	0x3dbe3227	0.092869096
19	0x3d898f5c	0.06716797
20	0x3d115207	0.035478618
21	0xbce5c957	-0.028050108
22	0xbd2f2c2d	-0.04276674
23	0x3da5401c	0.080688685
24	0x3dba756b	0.09104427
25	0xbcff3101	-0.031151297
26	0x3e046859	0.1293043
27	0x3e2c7184	0.16840178
28	0x3d8e3cdf	0.06945204
29	0x3ce6e21a	0.028183986
30	0x3e011d67	0.12608872
31	0x3e0689c9	0.13138498

encoder.fc1.weight f4 [64, 512]
0	0xbdb9def0	-0.09075725
1	0xbbc9442b	-0.0061421595
2	0xbc343d30	-0.011000916
3	0x3b9f88bf	0.0048685963
4	0x3d13ba81	0.036066536
5	0xbc0335cc	-0.008008432
6	0x3d271fef	0.04080194
7	0x3c419e29	0.0118174935
8	0xbd379d71	-0.044827882
9	0xbc66d751	-0.014089421
10	0x3d3eba54	0.046564415
11	0xbc65dc7c	-0.014029618
12	0x3c36e789	0.011163601
13	0xbade0ea1	-0.0016941616
14	0xbd83c702	-0.06434442
15	0xbd2bf62e	-0.041982822
16	0xbcc0f9f9	-0.023556696
17	0xbca80607	-0.020510687
18	0xbc8b7035	-0.017021278
19	0xbd38e11a	-0.04513655
20	0xbcbf6ffa	-0.023368824
21	0x3ce5e9e7	0.028065635
22	0xbce4a3b1	-0.027910085
23	0xbd3a97d1	-0.04555494
24	0xbd419e90	-0.047270358
25	0xbca257ab	-0.019817194
26	0x3c4d6cd7	0.0125381565
27	0xbcab3459	-0.020898985
28	0x3ccbc592	0.024874482
29	0xbd20eefd	-0.039290417
30	0xbd6a5d12	-0.057217665
31	0xbbc22b00	-0.005925536
32	0xbcefee40	-0.029288411
33	0xbd0da2ce	-0.03457909
34	0xbc8cd0d8	-0.017189428
35	0xbd571150	-0.052506745
36	0x3d09977e	0.03359174
37	0xbb2a3eab	-0.0025977294
38	0x3cd85f85	0.026412735
39	0xbb2e0eb1	-0.002655905
40	0x3c043f82	0.008071782
41	0xbd454d7d	-0.0481696
42	0x3b42c20a	0.0029717707
43	0x3a4061eb	0.00073388097
44	0x3d8ddbe5	0.06926707
45	0x3d631322	0.05543817
46	0xbcb5bf81	-0.022186043
47	0x3d7c067e	0.06152963
48	0xbd937461	-0.07199932
49	0x3c264859	0.010149085
50	0x3ccf039a	0.025270272
51	0xbb6b6d9e	-0.0035923491
52	0x3c98723a	0.018609155
53	0x3cbbee69	0.022940831
54	0x3cb5a6cd	0.022174263
55	0x3c4ae71c	0.012384202
56	0xb8adedcc	-8.293576e-05
57	0x3d25c416	0.040470205
58	0x3d3e1fb0	0.04641694
59	0x3cfd01ac	0.030884586
60	0x3d07dd08	0.033169776
61	0xbd9f7952	-0.07786812
62	0x3cfe8ac5	0.03107203
63	0xbc82c978	-0.015965208
64	0x3ca02481	0.019548656
65	0xbd993c6b	-0.07482227
66	0xbb90455d	-0.0044028
67	0x3af3edf6	0.0018610347
68	0xbbf65563	-0.007517503
69	0xbb5ccdc5	-0.0033691984
70	0xbb23f207	-0.0025016086
71	0xbc8714c8	-0.016489401
72	0x3d253092	0.040329523
73	0x3d1bc739	0.03803179
74	0xbd55139c	-0.052020654
75	0xbcb85dbc	-0.022505634
76	0xbc126d6b	-0.00893722
77	0xbc890291	-0.016724857
78	0x3c379187	0.01120413
79	0xbc49b2ac	-0.012310665
80	0xbd9c8613	-0.0764276
81	0x3ce8f354	0.02843634
82	0xbd015cb6	-0.031582557
83	0xbd22b229	-0.039720688
84	0x3cefdca8	0.029280022
85	0x3d17a3e6	0.03702154
86	0x3d148947	0.03626373
87	0x3ce3adcf	0.02779284
88	0xbc355e70	-0.011069879
89	0xbcc7e687	-0.024401916
90	0x3c8c0c41	0.017095687
91	0x3d33e158	0.043916076
92	0x3cc1678c	0.023608945
93	0xbc68cc61	-0.014208884
94	0x3d114884	0.035469547
95	0x3c4b9194	0.012424845
96	0xbd8b4eae	-0.06802116
97	0x3c73163a	0.014836842
98	0xbb8b1722	-0.004244701
99	0x3b542805	0.0032372486
100	0xbc1c7d78	-0.009551398
101	0xbcd5c3ff	-0.026094435
102	0x3cf7a26d	0.030228818
103	0xbc8ce4f5	-0.017199019
104	0x3c98e63a	0.018664468
105	0xbcefb009	-0.029258745
106	0xbb96ec05	-0.0046057724
107	0xbab3e32b	-0.0013724318
108	0x3c5e9e52	0.013587551
109	0x3d2e1773	0.04250283
110	0xbd07bde1	-0.033140067
111	0xbd3b6e5b	-0.04575954
112	0x3b94486c	0.004525235
113	0x3c545d76	0.012961736
114	0xbd0d4d33	-0.03449745
115	0xbc57eca6	-0.01317898
116	0x3d37611b	0.04477034
117	0xbd4552d8	-0.04817471
118	0x3cc85b20	0.024457514
119	0x3bd9fde4	0.0066525806
120	0xbcc67489	-0.02422549
121	0xbbecf560	-0.0072313994
122	0xbd176e36	-0.03697034
123	0x3cd4c549	0.02597298
124	0xbb3f46bc	-0.0029186448
125	0x3c8794d3	0.016550457
126	0x3ca73ca1	0.020414652
127	0x3c546a0e	0.0129647385
128	0xbc954fac	-0.018226467
129	0xbd6c557c	-0.05769871
130	0x3d2de4d7	0.042454567
131	0xba6d949a	-0.0009062976
132	0xbc5c94b6	-0.01346319
133	0x3cd8daca	0.026471514
134	0x3cc187de	0.023624357
135	0x3bf89ad7	0.0075868177
136	0x3aba1647	0.0014197313
137	0x3bc1ebff	0.0059180255
138	0x3cb20e01	0.021735193
139	0x3cb962b2	0.02263007
140	0xbd7a42b4	-0.06109877
141	0xbd5024b1	-0.05081624
142	0xbd58b3eb	-0.05290596
143	0x3d8cd930	0.06877363
144	0xbd552ca3	-0.052044522
145	0xbbd6271a	-0.006535423
146	0xbcca1fe3	-0.024673408
147	0xbcf630bf	-0.03005254
148	0x3d28ff52	0.041259117
149	0xbc2ae2e1	-0.010430069
150	0x3d0758fb	0.033043843
151	0x3bb44c15	0.0055022337
152	0x3c9f45e5	0.019442508
153	0x3cb90f11	0.022590192
154	0x3c2ebe2b	0.010665457
155	0xbd12622b	-0.03573815
156	0xbca03e1e	-0.01956087
157	0xbd4e10a7	-0.05030885
158	0xbd7a6113	-0.061127733
159	0xbb060815	-0.0020451595
160	0xbcf73253	-0.030175364
161	0xbd0b4ffb	-0.034011822
162	0xbd21ed00	-0.03953266
163	0x3c23d79a	0.010000134
164	0x3c1d2f2b	0.009593765
165	0xbb838362	-0.004013465
166	0xbbf53568	-0.007483173
167	0xbc7fc0bc	-0.015609916
168	0x3b971c33	0.004611516
169	0x3bff7879	0.007796344
170	0x3cc5bd0d	0.024137998
171	0xbd2a2042	-0.04153467
172	0x3d008629	0.031377945
173	0x3cca1dee	0.024672475
174	0xbbdb7952	-0.006697812
175	0x3c95a59c	0.018267445
176	0x3b79664b	0.0038055356
177	0xbca7da3c	-0.020489804
178	0xbd04ef1c	-0.032454595
179	0x3c4a9e29	0.01236681
180	0x3c4fd170	0.012684211
181	0xb9b93c02	-0.0003533066
182	0x3b6159ad	0.0034385726
183	0xbc92ad66	-0.017904948
184	0x3d3770b9	0.044785235
185	0x3d68ac42	0.056804903
186	0xbd81c183	-0.063357376
187	0x3d03d1d5	0.032182533
188	0xbceecc9f	-0.029150305
189	0xbd204258	-0.03912577
190	0xbce7cd83	-0.028296238
191	0x3c9f5133	0.019447898
192	0xbc97563e	-0.01847374
193	0xbce6034e	-0.028077748
194	0x3d6bb8e5	0.057549376
195	0x3d154fee	0.03645318
196	0x3cb9c7e8	0.02267833
197	0x3c8cecf6	0.017202836
198	0x3ce589a2	0.02801973
199	0xbb3097fe	-0.0026946063
200	0xbcc8521d	-0.024453217
201	0x3d02a1d6	0.03189262
202	0xbce6a400	-0.028154373
203	0x3caa9df4	0.020827271
204	0xbd2199fe	-0.0394535
205	0xbd29d056	-0.04145845
206	0xbd1bac4d	-0.038006116
207	0xbbf9b950	-0.007620968
208	0x3b04fb50	0.0020291395
209	0x3d1df04c	0.038559243
210	0x3d3ec39b	0.046573263
211	0x3c33b51d	0.010968474
212	0x3ae03fce	0.0017108859
213	0xbcbf73b0	-0.023370594
214	0xbcc26b2f	-0.02373275
215	0x3c0b974f	0.0085199615
216	0xbcc300d6	-0.02380411
217	0x3d036f10	0.03208834
218	0xbbbe34fe	-0.005804657
219	0x3c3512cf	0.011051848
220	0x3b8a18ec	0.0042143967
221	0xbd4b5373	-0.04964013
222	0xbda27d79	-0.07934088
223	0x3c83e079	0.016098248
224	0xbbe9d48e	-0.007135934
225	0xbc76ca6f	-0.015062912
226	0xbcb383ec	-0.021913491
227	0xbd7522b2	-0.05984754
228	0x3d024bd9	0.031810615
229	0x3ce024c4	0.027361281
230	0xbd0dd00f	-0.03462225
231	0x3d1f5b18	0.038905233
232	0x3cfa897d	0.030583138
233	0x3cc0388f	0.02346447
234	0xbd6e990b	-0.058251422
235	0xbc61cd44	-0.013781849
236	0x3bc8b741	0.006125361
237	0xbc9386f9	-0.018008696
238	0x3d7b960c	0.061422393
239	0xbd10386a	-0.03521005
240	0x3c593c74	0.013259042
241	0xbc18ea43	-0.009333196
242	0x3bd9d3c7	0.0066475603
243	0x3c72a834	0.014810611
244	0x3d47f760	0.0488199
245	0x3c3c4d5e	0.011493055
246	0x3bc65774	0.0060529057
247	0x3d03effa	0.03221128
248	0xbca8e792	-0.020618234
249	0xbbd9e52d	-0.0066496343
250	0x3cca0ea3	0.024665182
251	0x3c15d1dd	0.009144274
252	0xbca19d61	-0.019728364
253	0x3d45b520	0.048268437
254	0xbd0d4263	-0.03448714
255	0xbaee6703	-0.0018188659

encoder.fc1.bias f4 [64]
0	0x3c868eaa	0.01642545
1	0x3cb4ca9c	0.022069268
2	0x3d234130	0.03985709
3	0xbca0e86d	-0.01964208
4	0x3ccddebc	0.025130622
5	0xbc7cbd62	-0.015426012
6	0xbb4ec9cf	-0.0031553393
7	0xbc29c232	-0.010361241
8	0x3c53af81	0.012920261
9	0xbc6a7634	-0.014310408
10	0xbdd20971	-0.10255707
11	0xbcdcf8b1	-0.026974054
12	0xbbac6eb0	-0.0052622184
13	0xbbe8264c	-0.0070846435
14	0x3c3ab671	0.0113960365
15	0xbd185973	-0.03719468
16	0xbd376adf	-0.044779655
17	0x3dbd21e7	0.09234982
18	0x3c6883c6	0.0141915735
19	0xbd19a206	-0.037508033
20	0xbd2fbdce	-0.04290562
21	0xbb9cec69	-0.0047889245
22	0xbd8d4251	-0.068974145
23	0xbc5957bb	-0.0132655455
24	0xbdc61104	-0.09671214
25	0xbc50ccb0	-0.012744114
26	0xbd0eea33	-0.03489132
27	0x3dd1182b	0.10209688
28	0xbd12942b	-0.035785835
29	0x3d8fe379	0.07025809
30	0xbd5e0f15	-0.054213602
31	0x3ce7656a	0.0282466
32	0x3d1410e8	0.036148936
33	0x3d2822bf	0.04104876
34	0xbd4a0fee	-0.049331598
35	0x3ddc3f82	0.10754301
36	0x3d562d57	0.052289333
37	0xbc4ed3ed	-0.012623769
38	0xbc2de858	-0.010614477
39	0xbd6d2d78	-0.05790469
40	0xbd3a7879	-0.045525048
41	0xbb242dfa	-0.0025051818
42	0x3d5d34ce	0.054005437
43	0x3d895cfc	0.067071885
44	0x3cf5a44d	0.029985571
45	0x3d99f745	0.07517866
46	0xbc836896	-0.016041081
47	0xbbaaeb6a	-0.005216052
48	0xbd0ea64e	-0.03482657
49	0x3c95f2fd	0.018304342
50	0x3da540e7	0.0806902
51	0xbd250af7	-0.04029366
52	0x3b66faef	0.0035244783
53	0xbd98ebf0	-0.074668765
54	0xbcc7c706	-0.024386894
55	0x3dc481bf	0.095950596
56	0x3da546ad	0.08070121
57	0x3d726e71	0.059187356
58	0xbdb235ba	-0.08701654
59	0x3cdc2e28	0.026877478
60	0x3d9794db	0.07401439
61	0xbd004430	-0.03131503
62	0xbc3f5d33	-0.011679935
63	0xbcda93f3	-0.026681876

encoder.fc2.weight f4 [16, 64]
0	0x3e1c8104	0.1528359
1	0x3c9f630a	0.019456405
2	0xbd064403	-0.032779705
3	0xbddb9e3c	-0.1072354
4	0xbdb0785b	-0.08616706
5	0x3d7aba7d	0.061213005
6	0xbd3d8d93	-0.046277594
7	0x3d8c17b5	0.06840459
8	0xbdc39b5e	-0.09551118
9	0xbdd55c11	-0.10417951
10	0x3dbea709	0.09309203
11	0xbd05d39c	-0.03267251
12	0x3d2862ca	0.041109838
13	0x3d209f23	0.039214265
14	0x3de1bd58	0.110224426
15	0xbd6edc82	-0.05831576
16	0xbc2b724c	-0.010464262
17	0xbc58b9d7	-0.013227901
18	0x3d603479	0.05473754
19	0xbe19723b	-0.14984982
20	0x3cdcbdbb	0.02694594
21	0x3dad8e08	0.08474356
22	0x3c66669f	0.014062553
23	0xbd9f3ec7	-0.07775646
24	0xbd2add91	-0.04171521
25	0x3c857431	0.016290756
26	0x3bb2cc3a	0.0054564746
27	0xbb49717b	-0.0030737806
28	0x3d92e0fe	0.0717182
29	0xbdcc9157	-0.09988659
30	0x3d5b8c52	0.053600617
31	0xbd7235c5	-0.05913331
32	0x3d9f4cf5	0.0777835
33	0xbdfc7f31	-0.12328947
34	0x3d5c8fef	0.053848203
35	0xbcdf00ee	-0.027222123
36	0xbb6f5a88	-0.0036522467
37	0x3ca71da6	0.02039988
38	0x3d86f979	0.06590552
39	0xbd65b602	-0.05608178
40	0xbc236e0e	-0.00997497
41	0xbd80b7ec	-0.0628508
42	0xbd2880aa	-0.04113833
43	0x3de40548	0.1113382
44	0x3d9c7d41	0.07641078
45	0x3de903bd	0.11377666
46	0x3d5a203f	0.05325341
47	0xbd3622b9	-0.044466708
48	0x3c214b96	0.009844681
49	0xbc59ba2b	-0.013289015
50	0xbcc3046b	-0.023805818
51	0xbc1b8cb4	-0.009493995
52	0xbd79e090	-0.061005175
53	0xbd3111b0	-0.04322976
54	0xbdb4bea9	-0.08825428
55	0xbdee3535	-0.11631242
56	0x3d98048a	0.07422741
57	0xbcfdabcc	-0.030965708
58	0xbd9f6999	-0.07783813
59	0x3d8b8529	0.06812508
60	0xbd95a015	-0.07305924
61	0x3d0bba1b	0.03411303
62	0x3e0b4aaf	0.13602708
63	0xbdc8da3e	-0.098072514
64	0xbdb60a9c	-0.08888742
65	0x3dbb3043	0.091400646
66	0xbb23443c	-0.0024912497
67	0xbdc409ab	-0.095721565
68	0xbcfd36ef	-0.030909983
69	0xbc210372	-0.009827482
70	0x3d0eb266	0.034838103
71	0x3d85af0f	0.065275304
72	0xbdb55a49	-0.08855111
73	0xbc372749	-0.0111788
74	0x3e0ccd14	0.13750106
75	0xbdaa1bff	-0.08306121
76	0xbda0dc42	-0.07854511
77	0xbb90a62b	-0.00441434
78	0xbde16440	-0.11005449
79	0xbd1c3435	-0.038135726
80	0xbd3be492	-0.04587228
81	0x3dd77072	0.10519494
82	0x3dee0ce1	0.1162355
83	0xbe08ed05	-0.13371666
84	0xbddcb453	-0.107765816
85	0xbd35b113	-0.044358324
86	0x3d40ab40	0.047038317
87	0x3de5a4c2	0.11213066
88	0xbd7fd8a5	-0.062462468
89	0x3d9f195e	0.0776851
90	0xbc880fe4	-0.01660914
91	0xbc959de1	-0.01826376
92	0x3cdab494	0.026697434
93	0xbccf533b	-0.025308242
94	0xbcd1f868	-0.025631145
95	0xbdaf0698	-0.085461795
96	0x3d7022a7	0.058626797
97	0x3cbda9b2	0.023152206
98	0x3db03138	0.08603138
99	0xbd751d27	-0.059842255
100	0xbc983c64	-0.018583484
101	0x3d344d9b	0.044019323
102	0xbd9ef428	-0.07761413
103	0xbd000b9c	-0.03126107
104	0xbc462f82	-0.012096288
105	0xbd7825d9	-0.06058297
106	0xbdc6f60a	-0.09714897
107	0x3da6c4dd	0.081430174
108	0x3d96d527	0.07364874
109	0xbde961e7	-0.113956265
110	0x3dc813fc	0.09769437
111	0xbc88c165	-0.01669378
112	0xbd4d0218	-0.050050825
113	0xbda90a11	-0.08253873
114	0xbd61a4a1	-0.055088643
115	0xbdbe2a13	-0.09285369
116	0x3dd93fec	0.10607895
117	0xbdbce307	-0.092229895
118	0x3b89dda1	0.0042073284
119	0x3bf1fb65	0.007384705
120	0x3c139220	0.009007007
121	0x3d612ff5	0.054977376
122	0xbd3ebe41	-0.04656816
123	0x3db21f4b	0.08697375
124	0x3c5641cf	0.013077213
125	0xbd434c0d	-0.04767995
126	0xbddab90c	-0.10679826
127	0xbd13de23	-0.036100518
128	0xbdf7beb1	-0.120969184
129	0x3d6c67ee	0.057716303
130	0xbd93e56d	-0.07221494
131	0xbdeb0c1d	-0.1147692
132	0x3ddf6ba4	0.10909203
133	0xbd025a5b	-0.03182445
134	0xbcab1747	-0.020885123
135	0xbd84af19	-0.0647871
136	0xbdb2d559	-0.08732099
137	0xbda8a19c	-0.082339495
138	0xbddb646b	-0.107125126
139	0x3d48d050	0.049026787
140	0xb799170a	-1.824975e-05
141	0x3d815216	0.06314485
142	0xbe0ce1b7	-0.13757978
143	0x3df064e7	0.117379956
144	0x3dcbcfdb	0.09951755
145	0x3bddbba1	0.006766752
146	0x3db7f089	0.08981425
147	0x3d8819ce	0.06645547
148	0x3b72104f	0.003693599
149	0xbdae7593	-0.08518519
150	0xbd7fc7b7	-0.062446322
151	0xbdd9e563	-0.10639455
152	0x3d829137	0.06375354
153	0xbc262be2	-0.010142298
154	0x3d5616be	0.052267782
155	0x3d1f2053	0.038849186
156	0x3d16ed6c	0.036847517
157	0xbd71beb9	-0.059019778
158	0xbdd1f6cf	-0.10252153
159	0xbcb74964	-0.022373863
160	0xbd1d00b8	-0.038330764
161	0x3dbec3b6	0.09314673
162	0xbdcc2f36	-0.09969942
163	0x3d954933	0.07289352
164	0xbd9164b0	-0.07099283
165	0xbbda22f9	-0.006657001
166	0xbe0cb88d	-0.13742276
167	0xbdc71c5a	-0.097222045
168	0x3da298d7	0.07939308
169	0xbd944998	-0.072405994
170	0x3dbc3710	0.0919019
171	0x3dc32adc	0.09529659
172	0xbb57b63c	-0.0032915017
173	0x3db58a20	0.08864236
174	0xbc950cbf	-0.018194554
175	0xbbce0e3e	-0.006288319
176	0x3d5052d7	0.050860252
177	0xbcf2d28c	-0.029641412
178	0xbb8da850	-0.004323043
179	0x3ce5066b	0.027957162
180	0xbcb7417e	-0.022370096
181	0xbda5ab9b	-0.08089372
182	0xbda68281	-0.081303604
183	0x3d8acf4c	0.0677782
184	0xbdb5d5c2	-0.08878662
185	0x3c8f7272	0.017510626
186	0xbde65abd	-0.11247776
187	0x37a6009f	1.9789031e-05
188	0x3c1018ce	0.008794976
189	0x3dbfa7e0	0.093581915
190	0xbda80e31	-0.08205832
191	0x3c48efbf	0.012264191
192	0xbda67a1b	-0.081287585
193	0xbe0e4612	-0.13893917
194	0x3d84722e	0.064670905
195	0xbce3c7e1	-0.02780527
196	0x3db332b5	0.08749906
197	0x3d2f3960	0.042779326
198	0x3dbbb0eb	0.09164604
199	0xbd1323a8	-0.035922676
200	0xbdbff82d	-0.09373508
201	0xbd8905e1	-0.066905744
202	0x3d03565e	0.032064788
203	0xbd1dd9fa	-0.038537957
204	0xbab39493	-0.0013700895
205	0xbe095e8f	-0.13414977
206	0x3c71411b	0.014724995
207	0x3d91d478	0.07120603
208	0x3d524c3d	0.051342238
209	0x3d384459	0.044987056
210	0x3d38ddaa	0.04513327
211	0x3ceb94aa	0.028757412
212	0x3d5bc887	0.053658035
213	0xbd8f9b27	-0.07012015
214	0xba8e102d	-0.0010838561
215	0x3d9b755a	0.075907424
216	0xbcddbec5	-0.027068505
217	0xbda2e00c	-0.0795289
218	0xbdfcf047	-0.12350517
219	0x3d7b19a8	0.061303765
220	0xbd92ca30	-0.071674705
221	0x3c03c951	0.008043603
222	0x3de0d9f5	0.10979072
223	0xbca49e87	-0.020095123
224	0xbdbfda87	-0.09367853
225	0x3cdb4263	0.026765054
226	0x3d98709e	0.07443355
227	0x3cfc7a6a	0.03082009
228	0xbdeb6888	-0.11494547
229	0x3da94f16	0.082670376
230	0xbd291493	-0.041279387
231	0x3d51bccc	0.05120544
232	0xbd66bb44	-0.056330934
233	0x3df5f2fe	0.12009238
234	0xbd89f325	-0.06735829
235	0x3bfb8ef1	0.007676952
236	0xbdb74e72	-0.08950509
237	0x3d03d6e1	0.032187346
238	0x3ddc8abf	0.10768651
239	0xbe06f4c0	-0.13179302
240	0xbdae9c45	-0.085259
241	0xbd84df13	-0.064878605
242	0xbd19cadc	-0.037546977
243	0x3d89da2e	0.067310676
244	0x3d471f66	0.04861393
245	0x3dfe91aa	0.12430127
246	0xbde58fd3	-0.11209073
247	0xbd340937	-0.0439541
248	0xbca662d3	-0.020310795
249	0xbdb8bd9c	-0.0902054
250	0x3dcf4e21	0.10122324
251	0xbda22fd7	-0.07919281
252	0xbda0078f	-0.07813942
253	0x3da8406c	0.082154125
254	0xbcd5215a	-0.02601688
255	0x3d1ec081	0.038757805

encoder.fc2.bias f4 [16]
0	0x3e296883	0.16543774
1	0x3d4627a2	0.04837764
2	0xbd836c4f	-0.064171426
3	0xbde70ad2	-0.11281361
4	0xbd1bac31	-0.03800601
5	0x3d903e1c	0.070430964
6	0x3c5a1287	0.013310081
7	0xbc5f9d16	-0.013648292
8	0x3cdd0be9	0.026983218
9	0x3c97024a	0.018433709
10	0xbbfa7fd3	-0.0076446324
11	0xbdfca38b	-0.12335881
12	0xbdfb5dc7	-0.12273746
13	0x3cdfbda6	0.027312111
14	0xbda717fc	-0.081588715
15	0xbd91e13b	-0.071230374

encoder.fc21.weight f4 [4, 16]
0	0x3e2685a9	0.16261925
1	0xbd7c7e84	-0.061644092
2	0xbdfbb7d3	-0.12290921
3	0x3de9b664	0.114117414
4	0xbdb3f583	-0.08787062
5	0x3ca4c65a	0.020114113
6	0x3e000801	0.12503053
7	0xbce3b1fa	-0.027794827
8	0x3e11bc70	0.1423204
9	0x3e000002	0.12500003
10	0xbe09d3b9	-0.13459672
11	0xbdea0fe5	-0.11428813
12	0xbd5a8f90	-0.053359568
13	0xbe243eda	-0.16039601
14	0xbc8e634c	-0.017381333
15	0x3e1bafd4	0.15203792
16	0xbc81df03	-0.01585341
17	0x3e56cab1	0.20975758
18	0x3d97a5b3	0.074046515
19	0x3b437ac8	0.0029827822
20	0x3dadc09e	0.084840044
21	0xbd83234a	-0.06403215
22	0xbe0886f9	-0.13332738
23	0x3e216bd5	0.15763791
24	0xbd524b12	-0.051341124
25	0x3cf39dd9	0.029738354
26	0x3e2ee2c2	0.17078689
27	0x3e09ce57	0.13457619
28	0xbe3a5e9c	-0.18200153
29	0xbccf9cae	-0.025343265
30	0xbd32395a	-0.043511726
31	0xbda7b8d7	-0.08189552
32	0xbd50f0c9	-0.05101088
33	0xbe73c364	-0.23805004
34	0xbdd7faeb	-0.10545906
35	0x3e6173a0	0.22016764
36	0xbe006960	-0.12540197
37	0xbe4fdfea	-0.2030026
38	0x3e47ef97	0.1952499
39	0x3de6ea2e	0.11275135
40	0x3e22d4de	0.15901515
41	0x3d87428e	0.06604491
42	0xbda0e9ef	-0.07857119
43	0x3dd83c25	0.10558347
44	0x3e0d24f7	0.13783632
45	0xbcdcb4a1	-0.0269416
46	0x3e1969de	0.14981791
47	0xbda7117e	-0.08157633
48	0xbe33b96f	-0.17551206
49	0xbe1ee778	-0.15517986
50	0x3e54d9d1	0.20786215
51	0xbdf90814	-0.12159744
52	0xbdff18be	-0.12455891
53	0x3e13df68	0.14440691
54	0xbc18716f	-0.009304388
55	0x3e2dfa56	0.16990027
56	0xbe68f611	-0.22750117
57	0x3db65200	0.08902359
58	0xbe4d36b1	-0.20040394
59	0x3e24b500	0.16084671
60	0x3e0ac71c	0.13552517
61	0xbdb57a24	-0.08861187
62	0xbe696e68	-0.22796023
63	0x3e0227fb	0.12710564

encoder.fc21.bias f4 [4]
0	0x3e06398c	0.1310789
1	0xbe15c1e5	-0.14624746
2	0x3d9315c3	0.07181885
3	0xbdbb643f	-0.0914998

encoder.fc22.weight f4 [4, 16]
0	0xbe64af6d	-0.22332545
1	0x3e11e51a	0.14247552
2	0xbd0da5c6	-0.034581922
3	0x3dc98f27	0.09841757
4	0xbe2f90f4	-0.17145139
5	0xbdd9c3d8	-0.10633057
6	0xbdf4d673	-0.119549654
7	0xbe2aef63	-0.16692881
8	0xbe00dd55	-0.12584431
9	0xbde6c0d3	-0.11267247
10	0xbe7ea2de	-0.24866816
11	0x3dbef383	0.0932379
12	0x3e855fc4	0.26049626
13	0xbe4da913	-0.20084028
14	0x3e116421	0.14198352
15	0x3dd23976	0.10264866
16	0xbded1ada	-0.11577387
17	0x3e2a6d55	0.1664327
18	0xbd714393	-0.058902334
19	0xbe343269	-0.17597355
20	0x3df2007c	0.11816499
21	0xbe25fd2b	-0.16209857
22	0xbd8d8090	-0.06909287
23	0xbe0ea072	-0.13928393
24	0xbe2f239f	-0.17103432
25	0xbe7ddc80	-0.24791145
26	0x3df49f00	0.11944389
27	0x3e858f98	0.26086116
28	0x3e2afc7a	0.16697875
29	0xbe131426	-0.14363155
30	0xbd286e56	-0.04112085
31	0xbb6f0da9	-0.0036476648
32	0xbbdb3bf1	-0.006690495
33	0x3e4ace5d	0.19805284
34	0xbe737443	-0.23774819
35	0xbe3c8f82	-0.18414119
36	0xbe266043	-0.16247658
37	0xbdac3e15	-0.08410279
38	0xbe61d431	-0.22053601
39	0x3c815a42	0.015790109
40	0xbe517c0a	-0.20457473
41	0xbe75eb6d	-0.24015589
42	0xbe3b4f11	-0.1829188
43	0xbc0554ea	-0.008137921
44	0x3dc1f27f	0.094700806
45	0xbd992a66	-0.0747879
46	0xbd578496	-0.05261668
47	0xbd850fcc	-0.06497154
48	0xbe241f46	-0.16027555
49	0xbceffbfd	-0.029294962
50	0x3d2c7e74	0.042112783
51	0x3e3ac349	0.18238558
52	0xbe549c73	-0.20762806
53	0xbe3b51be	-0.18292901
54	0x3ceee7a5	0.029163191
55	0x3d9bae6d	0.076016285
56	0xbe7f3707	-0.24923335
57	0xbe3cc031	-0.1843269
58	0xbde8c7dd	-0.11366246
59	0xbdf76cc8	-0.12081295
60	0xbde52887	-0.111893706
61	0xbe3ac9f4	-0.18241102
62	0x3cb4f994	0.022091664
63	0x3d8033ad	0.062598564

encoder.fc22.bias f4 [4]
0	0xbe3e3b8f	-0.18577407
1	0xbe0d6638	-0.13808525
2	0xbd4242fa	-0.047427155
3	0xbd50fe19	-0.051023576

encoder.bn1.weight f4 [16]
0	0x3f705005	0.938721
1	0x3f68ef34	0.90989995
2	0x3f800000	1.0
3	0x3f5d8741	0.86534506
4	0x3f648eb1	0.8928023
5	0x3f6ef090	0.9333582
6	0x3f70ad81	0.94014746
7	0x3f800000	1.0
8	0x3f66f5d4	0.90218854
9	0x3f800000	1.0
10	0x3f6e288b	0.93030614
11	0x3f6cba99	0.92472225
12	0x3f800000	1.0
13	0x3f6845f0	0.90731716
14	0x3f800000	1.0
15	0x3f800000	1.0

encoder.bn1.bias f4 [16]
0	0xbbfbd1de	-0.00768493
1	0x3d29470c	0.04132752
2	0x3d490dbc	0.049085364
3	0x3d7e0d58	0.062024444
4	0xbca6aa55	-0.020344893
5	0x3c1dc3e4	0.0096292235
6	0xbc1ab6ed	-0.009443027
7	0x3d7e17b8	0.06203434
8	0x3c84e3d7	0.016221924
9	0x3ce342b3	0.027741766
10	0x3d9bd1c5	0.0760837
11	0xbc8b484a	-0.017002244
12	0xbd5d9107	-0.054093387
13	0xbcfe276d	-0.031024659
14	0x3c060cc3	0.008181754
15	0xbd691cd7	-0.05691227

encoder.bn1.running_mean f4 [16]
0	0x3d70d831	0.058799926
1	0x3ca5e4c1	0.02025068
2	0x00000000	0.0
3	0x3e3104fb	0.17287056
4	0x3e7045ad	0.23464079
5	0x3f166153	0.58742255
6	0x3e43f1b6	0.19135174
7	0x00000000	0.0
8	0x3e0c68e2	0.13711885
9	0x00000000	0.0
10	0x3c528a30	0.012850329
11	0x3e180bcb	0.14848249
12	0x00000000	0.0
13	0x3f020d3a	0.5080143
14	0x00000000	0.0
15	0x00000000	0.0

encoder.bn1.running_var f4 [16]
0	0x3c146454	0.009057123
1	0x3a129f57	0.00055932015
2	0x2a0c9137	1.248488e-13
3	0x3d118770	0.035529554
4	0x3da3928c	0.07986936
5	0x3d17a023	0.037017953
6	0x3bf6cb0a	0.0075315284
7	0x2a0c9137	1.248488e-13
8	0x3d63e61a	0.055639364
9	0x2a0c9137	1.248488e-13
10	0x3a0f1167	0.000545761
11	0x3d3e821a	0.046510793
12	0x2a0c9137	1.248488e-13
13	0x3df4de64	0.1195648
14	0x2a0c9137	1.248488e-13
15	0x2a0c9137	1.248488e-13

encoder.bn2.weight f4 [16]
0	0x3f77abfe	0.96746814
1	0x3f7668a8	0.9625344
2	0x3f51b228	0.8191247
3	0x3f60a627	0.8775353
4	0x3f62c19a	0.8857666
5	0x3f584004	0.8447268
6	0x3f670dae	0.9025525
7	0x3f636bf7	0.88836616
8	0x3f6b6ae6	0.9195999
9	0x3f5e66d4	0.86875653
10	0x3f7e2fe7	0.99291843
11	0x3f80d690	1.0065479
12	0x3f698594	0.9121945
13	0x3f56dc6d	0.83930093
14	0x3f744adc	0.95426726
15	0x3f7a4f65	0.97777396

encoder.bn2.bias f4 [16]
0	0x3caaff52	0.0208737
1	0xbcc23ad8	-0.0237097
2	0x3d90a67e	0.07063006
3	0x3bbde2e2	0.005794869
4	0x3d221a95	0.03957613
5	0x3cea099f	0.02856904
6	0x3cd6c0fb	0.026215067
7	0x3b7884bc	0.0037920913
8	0xbb00b636	-0.0019639856
9	0xbcd54fd6	-0.026039045
10	0x3c01b0a4	0.00791565
11	0xbc6aeeb0	-0.014339134
12	0xbcc87186	-0.024468195
13	0x3d65cf70	0.05610603
14	0x3cba8f66	0.022773456
15	0x3c141167	0.009037352

encoder.bn2.running_mean f4 [16]
0	0x3e87495f	0.26423165
1	0x3e54e7a1	0.20791484
2	0x3e05ed16	0.13078722
3	0x3e716c66	0.23576507
4	0x3e2996f2	0.16561487
5	0x3e545353	0.2073491
6	0x3e72c089	0.23706259
7	0x3e5e6ba4	0.21720749
8	0x3e7fe6e7	0.24990426
9	0x3e5f9a1d	0.21836133
10	0x3e95724b	0.2918876
11	0x3e9388d0	0.28815317
12	0x3e0a035a	0.13477841
13	0x3e3ffb18	0.18748128
14	0x3e9bc345	0.30422416
15	0x3e933850	0.287539

encoder.bn2.running_var f4 [16]
0	0x3d8d0800	0.068862915
1	0x3dc148dd	0.09437726
2	0x3d17f547	0.03709915
3	0x3d85efeb	0.06539901
4	0x3d91d74f	0.07121145
5	0x3d2afa23	0.041742455
6	0x3da18e9c	0.07888529
7	0x3da974f1	0.08274258
8	0x3dd3ffef	0.1035155
9	0x3d9138f8	0.07090944
10	0x3e3db7a8	0.1852709
11	0x3e4477fd	0.19186397
12	0x3d073a6c	0.0330147
13	0x3d82f102	0.06393625
14	0x3e74aa7d	0.23893161
15	0x3e2aff62	0.16698983

encoder.bn3.weight f4 [32]
0	0x3f7030a5	0.93824226
1	0x3f732660	0.9498043
2	0x3f709346	0.9397472
3	0x3f6d4ad3	0.926923
4	0x3f6e2fd4	0.9304173
5	0x3f720312	0.94535935
6	0x3f6de091	0.92920786
7	0x3f775824	0.96618867
8	0x3f7aaa9c	0.9791658
9	0x3f791bc1	0.97307974
10	0x3f7f72e2	0.9978467
11	0x3f7aeabc	0.98014426
12	0x3f7472ca	0.95487654
13	0x3f77ca8a	0.96793425
14	0x3f6fd2ed	0.9368122
15	0x3f6be8c5	0.92152053
16	0x3f8141a7	1.009816
17	0x3f75bef0	0.9599447
18	0x3f747410	0.954896
19	0x3f7a3122	0.9773122
20	0x3f86d61b	1.053409
21	0x3f7b85a8	0.9825082
22	0x3f82d12d	1.0220085
23	0x3f746851	0.95471674
24	0x3f6f71ec	0.93533206
25	0x3f78758b	0.97054356
26	0x3f673ab6	0.9032396
27	0x3f752554	0.95760083
28	0x3f6a6360	0.91557884
29	0x3f6a61e4	0.9155562
30	0x3f708b77	0.93962806
31	0x3f7c9cac	0.9867656

encoder.bn3.bias f4 [32]
0	0xbd170403	-0.03686906
1	0xbcfc5d6a	-0.030806262
2	0xbd8ad4d1	-0.06778873
3	0x3d05cfc9	0.032668862
4	0x3c799e2b	0.015235464
5	0xba3bc161	-0.00071622996
6	0xbd1ade59	-0.037809703
7	0xbc1f6bde	-0.009730307
8	0x3c45cc7f	0.012072681
9	0xbb5f4502	-0.0034068231
10	0xbd374a80	-0.044748783
11	0xbc9fccbd	-0.019506807
12	0xbd3e9603	-0.04652978
13	0xbc5e04f3	-0.013550985
14	0xbcb9f890	-0.022701532
15	0x3c581608	0.013188846
16	0xbd494f64	-0.04914798
17	0x3bbfcfe9	0.0058536422
18	0xbd2b8cb5	-0.041882236
19	0x3bd1ee60	0.0064065903
20	0xbd43dc99	-0.0478178
21	0xbd649217	-0.055803385
22	0xbd101857	-0.035179462
23	0xbc5384c3	-0.012910071
24	0xbd0b7a32	-0.03405208
25	0xbd5dce05	-0.054151554
26	0xbd000434	-0.03125401
27	0xbda6deb5	-0.08147947
28	0xbc5f86dd	-0.013642994
29	0xbd5c45ea	-0.053777613
30	0xbcb4e32f	-0.022080986
31	0xbd0f0eb2	-0.034926124

encoder.bn3.running_mean f4 [32]
0	0x3e3baed7	0.18328415
1	0x3e3eda2b	0.18637912
2	0x3e4ad799	0.19808806
3	0x3e66a98a	0.22525612
4	0x3e663e27	0.22484647
5	0x3e3dcc88	0.18535054
6	0x3e993317	0.2992179
7	0x3e894dec	0.26817262
8	0x3e61d36c	0.22053307
9	0x3ebb715c	0.36609924
10	0x3e82a557	0.2551677
11	0x3eb1ee30	0.34752035
12	0x3e8eee10	0.27916002
13	0x3ea4a9fb	0.32160935
14	0x3e6b029c	0.22950214
15	0x3e2f0638	0.17092216
16	0x3e900327	0.28127405
17	0x3e6ec6fd	0.23318096
18	0x3e608a8a	0.21927848
19	0x3e960399	0.2929962
20	0x3e891957	0.26777145
21	0x3e5ecf54	0.21758777
22	0x3ec44537	0.38334057
23	0x3e8db5ec	0.27677858
24	0x3e825dbe	0.25462145
25	0x3e53f026	0.20697078
26	0x3e533530	0.20625758
27	0x3e4fed71	0.2030542
28	0x3e233835	0.1593941
29	0x3e4902b0	0.19629931
30	0x3eb9af75	0.36266676
31	0x3e8ad648	0.2711661

encoder.bn3.running_var f4 [32]
0	0x3dbfae20	0.093593836
1	0x3dd4fc69	0.10399706
2	0x3de3d29f	0.11124157
3	0x3e01c422	0.12672475
4	0x3df9e201	0.1220131
5	0x3dc3c63a	0.09559293
6	0x3e000fee	0.12506077
7	0x3e140af8	0.14457309
8	0x3dfb6132	0.12274398
9	0x3e3f89fd	0.18704982
10	0x3e456c95	0.19279702
11	0x3e788737	0.2427033
12	0x3e3e0dfd	0.18560024
13	0x3e47722e	0.1947715
14	0x3dddb341	0.108252056
15	0x3da11639	0.07865567
16	0x3e43fce9	0.19139446
17	0x3e0c809a	0.13720933
18	0x3df42e38	0.11922878
19	0x3e2968a3	0.16543822
20	0x3e14a824	0.14517266
21	0x3e0993dd	0.13435312
22	0x3e84742c	0.25869882
23	0x3e14f609	0.1454698
24	0x3e0c2412	0.13685635
25	0x3de8528f	0.11343872
26	0x3ddf3966	0.1089962
27	0x3ddbefc9	0.10739095
28	0x3d995466	0.07486801
29	0x3debb5d7	0.115092926
30	0x3e51a721	0.20473911
31	0x3e1d30b1	0.15350606

encoder.bn4.weight f4 [32]
0	0x3f801b84	1.0008397
1	0x3f6f4586	0.9346546
2	0x3f7fa401	0.99859625
3	0x3f77d2d1	0.96806055
4	0x3f808cdd	1.0042988
5	0x3f7e7f24	0.9941275
6	0x3f6f67e3	0.93517894
7	0x3f7ff593	0.9998409
8	0x3f708d2b	0.93965405
9	0x3f731632	0.9495574
10	0x3f7ab8b2	0.9793807
11	0x3f739a32	0.9515716
12	0x3f74f0d0	0.9567995
13	0x3f7371eb	0.950957
14	0x3f7373b5	0.9509843
15	0x3f7c1298	0.9846587
16	0x3f71ffa6	0.94530714
17	0x3f627aab	0.88468426
18	0x3f7c0572	0.9844581
19	0x3f774add	0.9659861
20	0x3f81b0ad	1.0132042
21	0x3f798c8a	0.9748007
22	0x3f703beb	0.9384143
23	0x3f74be07	0.9560246
24	0x3f7ed0f8	0.9953761
25	0x3f6eb144	0.93239236
26	0x3f84968f	1.0358447
27	0x3f767eb8	0.9628711
28	0x3f7f8a85	0.9982074
29	0x3f7b9f61	0.9829007
30	0x3f7dea1a	0.99185336
31	0x3f77a161	0.9673062
