results/_gen_fptra_0.3_1000_VAE_model.pt (torch, 95760 bytes, 61 tensors)

encoder.conv1.weight f4 [16, 1, 2]
000000 9e 4a 26 bf 9d 05 b3 be d8 cc f6 3e 70 21 bc 3e
       -0.64957607 -0.3496522 0.48203158 0.3674426
000010 8b f5 a5 3e 43 c9 1d bf fe be 77 be 60 63 3e 3d
       0.32413897 -0.61635226 -0.24193951 0.04648149
000020 4d 48 7c be 55 df fa bb 35 b3 d9 be c6 e6 c9 3e
       -0.24636956 -0.007656018 -0.42519537 0.3943388
000030 96 1c 11 3f 77 55 01 3e 34 67 51 3e be 8b 15 bf
       0.56684244 0.12630259 0.20449525 -0.58416355
000040 43 38 2c 3f 70 b0 8d 3d 69 ba 34 bf 91 ee 4c 3a
       0.6727335 0.069184184 -0.7059694 0.00078175316
000050 dc e4 ea be 86 66 ac be fc d8 72 be f2 36 56 3e
       -0.4587773 -0.3367197 -0.23715585 0.20919397
000060 b9 7f 19 bf a0 f4 1f 3f 92 8c b1 be 22 b1 ed 3e
       -0.59960514 0.62482643 -0.3467756 0.46424204
000070 67 1f 54 bd 20 5b ce 3e 04 8e c2 be c8 c2 84 3d
       -0.05178776 0.40303898 -0.37998974 0.06482464

encoder.conv1.bias f4 [16]
000000 d8 37 b7 3c 35 b6 17 bf e0 86 1f 3f c4 74 fb be
       0.022365496 -0.592624 0.6231518 -0.49112523
000010 f9 07 b3 3e ec 57 03 3f 46 c8 66 bd 70 ea 51 be
       0.3496702 0.51306033 -0.05634334 -0.20499587
000020 81 1e f0 3d 39 7e 98 3d 98 ef 57 be c8 11 57 be
       0.11724568 0.0744595 -0.21087492 -0.21002877
000030 25 d4 ee 3e 5c 28 fa be 2d d1 82 3c 80 c5 58 be
       0.46646228 -0.48858917 0.015968883 -0.2116909

encoder.conv2.weight f4 [16, 16, 2]
000000 55 06 3b be d4 f0 23 be ea e0 14 3e 79 28 8c bc
       -0.18264134 -0.16009837 0.14538923 -0.017109143
000010 42 11 9f 3d 24 4d 98 3d 98 68 ce bd 46 9c 48 3d
       0.077669635 0.074365884 -0.100785434 0.04897716
000020 65 92 0f be 40 f4 07 3e f6 c7 e7 3d 79 5c 1e be
       -0.14020689 0.13276768 0.113174364 -0.15464963
000030 14 a3 d2 bd d3 1e 2a 3d 32 d1 4e bd de 4a 1a be
       -0.10285011 0.041533303 -0.050492473 -0.15067622
000040 05 30 24 be 7a df 38 3e 39 2a d0 3d 17 cd 3d be
       -0.16033943 0.18054 0.10164303 -0.18535267
000050 7b 70 df bd 3f 67 48 3e e0 6e 66 bd 2d 86 ad bd
       -0.10910126 0.19570635 -0.056258082 -0.084728576
000060 fb 63 15 be 5d 6e 3e be 79 8d 9d bd 55 9d 22 be
       -0.14588921 -0.18596788 -0.076929994 -0.1588033
000070 f2 a3 2c 3e 6d cd 0b be b6 6d 58 3d 12 9e fc 3d
       0.16859415 -0.13652582 0.052839004 0.12334837
000080 31 2e bb bd c2 59 d8 3c 3c 28 6d 3d 40 8f 80 3d
       -0.0913967 0.026409987 0.0578997 0.06277323
000090 b4 72 0b be 99 16 0b be 8e c5 99 3d 44 53 13 3e
       -0.13617975 -0.13582839 0.07508384 0.14387232
0000a0 01 ad 85 39 61 f5 2f be 9d f9 31 3e e0 e5 6f bd
       0.00025496635 -0.17183448 0.17380376 -0.058568835
0000b0 c1 73 17 be 3c 3f 31 be 3c 6c 0a 3c 76 56 d7 bc
       -0.1479025 -0.17309278 0.008448657 -0.026286345
0000c0 98 cc a9 bb 3f 12 dd 3c 2e 53 75 3d 4d 73 80 bd
       -0.00518186 0.02698624 0.05989378 -0.06271992
0000d0 40 ed 28 be da 73 35 3d 28 69 98 3d 29 39 ac bd
       -0.16496754 0.044299938 0.07441932 -0.0840934
0000e0 e6 50 9c bd 35 ca fc 3d 05 cf ae 3d 10 cf 2e be
       -0.07632618 0.123432554 0.085355796 -0.17071176
0000f0 44 91 f9 ba ad a5 ce 3d 87 cb 1c 3e 86 bb 1d 3e
       -0.0019040485 0.10090194 0.15312015 0.15403566
000100 c3 4d 26 3e 0e bd f2 3c b4 09 98 3d 21 d9 32 3e
       0.16240601 0.029631164 0.07423726 0.1746564
000110 f7 99 a2 3d 3b d8 2c be 14 53 cb 3d 26 ec 2f be
       0.07939523 -0.1687936 0.09927955 -0.17179927
000120 52 2c ee 3d a8 4e 10 3e 16 d2 d4 3c 85 f0 38 bd
       0.11629547 0.14092505 0.025979083 -0.045151252
000130 03 c3 d3 bd 16 e8 16 3e f4 51 64 3d db f8 6f 3d
       -0.1033993 0.14736971 0.05574222 0.058586936
000140 49 2c 1f 3c 41 d1 d0 bd f6 0c a4 3d 5a e8 d8 bd
       0.009715148 -0.10196162 0.080102846 -0.105911925
000150 af 7f ef 3a e0 40 31 bc 09 11 fa 3d 84 89 ea bd
       0.0018272306 -0.01081869 0.122102804 -0.1145201
000160 9c a2 9a 3d e3 fe 2f 3e f0 6f 20 be 90 b6 f4 bd
       0.075505465 0.17187075 -0.15667701 -0.119488835
000170 46 87 24 be 6a 38 39 bd fc d9 9a bd 9e da 38 3d
       -0.16067228 -0.045219816 -0.075611085 0.045130365
000180 4b 16 08 3e 53 de 18 bd 18 ce ba 3b 18 1c c6 3d
       0.13289754 -0.0373214 0.005700838 0.09673327
000190 5d c4 2a be f2 45 8e 3d 3e bd 67 3d a0 ff 9d 3d
       -0.16676469 0.06946935 0.05657696 0.07714772
0001a0 62 80 ad 3d ab 69 05 be a1 ca 0d 3c 75 63 82 3d
       0.08471753 -0.1302859 0.0086542675 0.06366626
0001b0 0e 17 c9 bd f4 66 1d be b1 23 2d 3e 4a e5 d4 bd
       -0.098188505 -0.15371305 0.16908146 -0.10395296
0001c0 38 35 80 3d 12 62 27 be 4a d3 e4 bd f5 03 03 be
       0.06260151 -0.16346005 -0.11173113 -0.12794478
0001d0 09 6e c7 3b cb 9c bd 3d f7 89 84 3d 18 64 17 bd
       0.0060861153 0.092584215 0.06471627 -0.03696069
0001e0 ff 8d 2e 3d 87 0b 13 bc ee 55 30 3e d2 ef 2d 3e
       0.042615887 -0.008974916 0.1722028 0.16986015
0001f0 df ef cc 3d 41 77 24 be 96 4a fd 3d 09 2a 74 bd
       0.10006689 -0.16061117 0.12367742 -0.0596104
000200 c6 57 1d 3e dc 1c 8c bd 0b 4e 2c 3e 21 2b 63 bd
       0.15365514 -0.06841442 0.16826646 -0.055461053
000210 49 3d 10 3e 15 a9 33 bd b2 0c 69 3d b0 07 06 bd
       0.14085878 -0.04386242 0.056896873 -0.032722175
000220 82 e5 2f bd 78 ee 15 be 81 dc a7 3d 92 5f 25 3d
       -0.042943485 -0.1464175 0.08196355 0.040374346
000230 b4 85 8d bd 74 c9 2a 3e 6d 14 1b 3e 16 dc c6 3c
       -0.069102675 0.16678411 0.1514451 0.024274867
000240 02 69 8e 3d 87 a1 21 3e 32 c5 0a be b8 a6 4f bd
       0.069536224 0.15784274 -0.13551787 -0.050696105
000250 44 f5 13 3e ad 72 18 3e f1 ce b1 bd 52 91 ca 3d
       0.1444903 0.14887495 -0.08682049 0.09890999
000260 a1 c9 64 3d 05 ca 08 be 7b 97 01 3e 82 a1 dc bd
       0.05585635 -0.13358314 0.12655441 -0.10772993
000270 07 8a eb bd 05 38 07 3e 9d 7b 79 bd 34 c8 03 be
       -0.11500936 0.13204964 -0.060908902 -0.1286934
000280 bf c9 fc bd e5 fe a3 3d a6 74 30 be c2 ea 6b bd
       -0.123431675 0.08007602 -0.17231998 -0.05759693
000290 3c 24 fc bc 68 bf 0d 3e f3 45 93 3c b2 42 1d 3e
       -0.030778997 0.13842547 0.01797769 0.15357473
0002a0 78 e3 1f 3e 93 0a bf bd a5 57 34 bd 8f 79 bf 38
       0.15614116 -0.09328189 -0.044028897 9.130232e-05
0002b0 57 31 6a bd a2 8a d8 3c 87 19 fb bc c0 56 c9 3d
       -0.05717596 0.026433293 -0.03065182 0.098309994
0002c0 9b 9e 20 be cd 28 97 bd 26 78 20 be 2d 8c 3e 3d
       -0.15685503 -0.07380829 -0.15670833 0.0465204
0002d0 2e 5b 92 3d e2 9c 02 bc 34 2c 0d 3e c9 a3 12 3e
       0.071462974 -0.007971974 0.13786393 0.14320292
0002e0 c1 19 23 3e 25 2c 1c 3e b1 46 0c bd 4c 67 14 be
       0.15927793 0.15251215 -0.034247104 -0.1449253
0002f0 f5 2c 2c be 2e 9c 36 3e d0 be dc 3d 8f 2b 0a 3e
       -0.16814025 0.17833015 0.10778582 0.13493179
000300 13 ed ab 3d 84 e8 a0 bd e6 dd 30 be ce a9 20 3e
       0.08394828 -0.07856849 -0.17272148 0.15689775
000310 75 9b 29 be 86 6e e2 3d 7e d8 f0 3d 85 f2 c0 3a
       -0.16563208 0.11056237 0.117600426 0.0014720714
000320 08 ca 08 3d 4f 79 ad 3d f2 b5 2c 3e 40 f5 4c 3d
       0.033395797 0.084704034 0.16866282 0.050038576
000330 07 75 a6 bd 09 82 02 be ed b3 d6 bd c1 bb 0a be
       -0.0812779 -0.12744917 -0.10483537 -0.13548185
000340 62 69 10 be 40 a9 1f be e5 0a 59 3d 0c 5f 0b bd
       -0.141027 -0.15591908 0.052988905 -0.03402619
000350 ba 32 94 bd 86 ae 8c 3c 64 89 17 be 5e d2 29 3e
       -0.07236238 0.017173063 -0.14798504 0.16584155
000360 13 f1 f3 3d 15 53 1c 3e 28 c8 b7 3c 62 3a a9 bd
       0.11911216 0.15266068 0.02243431 -0.08263089
000370 13 e1 87 3d 76 d1 fe 3d 17 2a 89 bd b5 0a 05 be
       0.066347264 0.12442295 -0.06697481 -0.12992366
000380 39 e1 25 3e f7 1f 0e 3e 75 d7 ae bd db 19 2c 3c
       0.16199197 0.13879381 -0.08537189 0.010504211
000390 12 e0 31 3d 1a c0 2d 3e 2a f5 03 3d e4 7d 18 bd
       0.04342658 0.16967812 0.03221623 -0.037229434
0003a0 c5 71 b3 3d 2b b6 ff bd fd 76 50 bd 65 f7 a6 3c
       0.08761934 -0.12485918 -0.050894726 0.020381639
0003b0 f1 dd c5 3d d3 ca 20 be cd e0 07 3e 77 16 59 bd
       0.096614726 -0.15702371 0.13269348 -0.05299994
0003c0 41 bc 0f 3e 99 ea dd bd a4 d4 11 be 3c 10 b8 bc
       0.14036657 -0.108357616 -0.14241272 -0.022468679
0003d0 aa e1 a8 3d fa ad d3 bc 66 5f 06 be 0d 0d 0a 3e
       0.08246167 -0.025839794 -0.13122329 0.13481541
0003e0 13 e7 c3 bc 1d 1c fa 3d 24 51 9a 3d e7 d7 16 bd
       -0.023913896 0.122123934 0.075350076 -0.036826994
0003f0 26 b1 01 be ba 20 89 3d 2a 3c 24 3e 1e bf 8f bd
       -0.12665233 0.06695695 0.16038576 -0.070188746

encoder.conv2.bias f4 [16]
000000 91 01 15 bd 8f d8 56 bd 78 e0 bc bb 5a eb e5 3b
       -0.036378447 -0.05245262 -0.0057640634 0.0070165815
000010 42 2a ad bd c7 4c d1 bd fc 30 2d be cb 69 86 3d
       -0.08455326 -0.10219722 -0.16913217 0.06563147
000020 e1 09 c3 bd c8 cd f4 bd 5f 6a c9 bd 98 83 0f 3e
       -0.095233686 -0.11953312 -0.09834742 0.14015043
000030 35 e0 06 be 3d 6e 23 3e 27 d1 82 3d 0c 08 71 bd
       -0.13171466 0.15960021 0.06387549 -0.058845565

encoder.conv3.weight f4 [32, 16, 2]
000000 2d 6b 31 3e 5c 32 11 3e 8c 90 1e be 0c 85 00 3e
       0.1732604 0.14179367 -0.15484828 0.12550753
000010 fb b2 0e bd 69 19 22 3d 9c f2 06 be e1 9a 0c be
       -0.034838658 0.039575014 -0.13178486 -0.13730957
000020 ec a6 06 3e 94 a0 b5 3d cf d6 1e 3d fd f2 a1 bc
       0.13149613 0.088685185 0.038779076 -0.019769186
000030 52 e3 a2 3c a6 3f f4 bc a8 c6 92 bd 83 99 77 3d
       0.019883785 -0.029815506 -0.07166797 0.060449135
000040 88 15 09 be 0d d5 d0 3b 18 ba 18 be 7c 17 4e 3d
       -0.1338712 0.006373054 -0.14914739 0.050315365
000050 c4 57 ef bc 2e b1 ca bd 24 b0 d1 bd ff e2 1f be
       -0.029216655 -0.098970756 -0.10238674 -0.15613936
000060 22 5a fc 3d e4 67 d8 bd 08 99 f2 3d d6 d2 a4 bd
       0.12321879 -0.105666906 0.11845595 -0.08048026
000070 f4 f8 00 3e 99 ed 79 bc bd 8c 1b 3d a9 28 05 be
       0.12594968 -0.015254402 0.037976015 -0.13003792
000080 93 19 22 bd d5 9a 9e bd db f6 d9 bd a4 f6 38 3e
       -0.03957517 -0.077443756 -0.10642787 0.18062836
000090 96 0f 10 3e 7c af 2b 3e eb e8 64 3d 83 07 20 3d
       0.14068446 0.1676616 0.05588619 0.039069664
0000a0 88 66 09 be 89 d7 c5 bd 20 e4 6f 3d ea 64 ec 3d
       -0.13418019 -0.09660251 0.058567166 0.11542685
0000b0 f3 89 ad 3d c3 29 25 3e f0 2b d0 3d da 64 08 3e
       0.08473577 0.16129212 0.101646304 0.13319722
0000c0 77 1c a5 bd 98 be 11 be 48 3e 9a 3d 78 6d a5 3d
       -0.0806207 -0.14232862 0.075314105 0.0807752
0000d0 10 34 31 be c9 72 a7 3d c9 06 cb bd 73 a3 09 3e
       -0.17305017 0.081761904 -0.099134035 0.13441257
0000e0 7f 14 2a 3e da dd 1c be e2 aa f5 bc 59 84 8b 3d
       0.16609381 -0.15319005 -0.02998871 0.06812353
0000f0 f2 98 1d be 9b e3 27 be d2 1e 65 3d d4 80 bd bd
       -0.15390375 -0.16395418 0.055937596 -0.09253088
000100 5e 1a 10 3d 6d 1b d4 3d 73 19 d6 bd c1 88 83 3c
       0.035181396 0.103567936 -0.10454073 0.01605642
000110 8a 5b c2 bd 62 d6 83 39 2d 9e 89 3d e7 a3 1d 3e
       -0.09490116 0.00025145995 0.06719623 0.15394555
000120 5a 73 a4 3d 50 76 ab 3d 14 90 a4 bd ef f2 e6 bd
       0.08029814 0.08372176 -0.08035293 -0.11276805
000130 19 22 02 bd 96 e9 a3 3d a8 08 be 3d 46 51 27 be
       -0.0317708 0.08003537 0.09278995 -0.16339597
000140 cb 07 f1 3d c8 20 25 3e 75 24 2b be ef 1d e3 3d
       0.117690645 0.16125786 -0.16713126 0.11089694
000150 57 29 24 be dd 38 a3 bd dd de 37 bd 72 c1 77 bc
       -0.16031395 -0.0796983 -0.044890273 -0.015121805
000160 b3 5d e2 3d 0e b1 bb bd ab aa 12 be 48 79 0c 3e
       0.11053028 -0.0916463 -0.14322917 0.1371814
000170 2e 69 5a 3d 7a b4 85 3d 9a 04 09 3e 70 06 66 bd
       0.053322963 0.06528564 0.13380662 -0.056158483
000180 56 17 12 be ce 63 fe bc d2 88 21 be 19 9e 08 be
       -0.14266714 -0.03105345 -0.15774849 -0.1334156
000190 61 21 cb bd dd 0d 2d 3e d9 4f d8 bd f4 5a 8c 3d
       -0.09918476 0.1689982 -0.10562105 0.068532854
0001a0 74 c1 27 be f0 aa d2 bc cf 13 26 be ff 36 04 3c
       -0.1638239 -0.025716275 -0.16218494 0.008069753
0001b0 08 fe 5e bd f1 25 8c bd 20 b3 1a 3d a0 c6 5e bd
       -0.05444148 -0.06843174 0.037768483 -0.054388642
0001c0 cc db 84 bd c8 9b f7 bd 08 4e af 3d 87 08 55 bd
       -0.064872354 -0.1209026 0.08559805 -0.052010085
0001d0 91 d5 34 3e 6a 1e 08 3e c5 50 15 bc 80 ea c1 3d
       0.17659594 0.13292852 -0.009113495 0.094685555
0001e0 5f f3 c9 bd 2c 2c 66 39 83 df f8 bd b3 52 09 be
       -0.098608725 0.00021950965 -0.121520065 -0.13410453
0001f0 df e1 15 3e ba 09 e6 3c 07 95 0c 3d fe 90 d2 3d
       0.14636944 0.02808081 0.03432181 0.10281561
000200 f8 a7 a4 bd 00 93 a0 bd 6b 00 de bc d9 06 4d 3b
       -0.0803985 -0.07840538 -0.027099809 0.00312846
000210 d8 a5 0b be 4e 74 07 be ba be 37 3e 0c 5c 6b bd
       -0.13637483 -0.1322796 0.1794385 -0.05746083
000220 06 fd 0d 3e 09 e5 92 3d e6 ea 13 3c 14 69 d0 bd
       0.13866052 0.07172591 0.009028172 -0.10176292
000230 d1 bf bb 3d 5d fa 1e be 3d 73 3c bd 00 2b 1c be
       0.091674455 -0.15525194 -0.046008337 -0.15250778
000240 d4 0e 03 3e 70 27 6f bd 07 de 2b be 0c d7 0f 3e
       0.12798625 -0.05838722 -0.16783915 0.14046878
000250 73 0b 2b be be ff 16 be 8b c9 93 3d ef 92 dc bd
       -0.16703586 -0.14745995 0.07216176 -0.10770213
000260 e2 a7 9a bd ac 68 26 3e 24 a2 93 bd b4 f9 91 3d
       -0.07551552 0.16250867 -0.0720866 0.07127705
000270 23 c3 61 bd 8a e6 d6 3d d8 42 1e 3e 24 52 21 3e
       -0.055117738 0.104931906 0.15455186 0.1575399
000280 2f 38 21 be 28 1b ab 3a bf f1 51 3d 3f b2 87 bd
       -0.15744089 0.0013054358 0.051255938 -0.066257946
000290 e7 78 18 3e bf b5 c2 3d b3 ec 50 bd 33 d0 1e 3d
       0.1488987 0.095073216 -0.051006984 0.038772773
0002a0 b9 fb 94 bd 77 83 52 3d ed 2e 23 3d 69 ed d9 bc
       -0.07274575 0.051394906 0.039839674 -0.026602464
0002b0 67 03 c9 bd 81 73 22 3e ca a9 a3 bc 9b 2a 24 be
       -0.09815102 0.15864374 -0.019978423 -0.16031878
0002c0 2d cd f3 bd d6 44 1a 3e 7c 09 26 ba fd 3c 36 3e
       -0.119043685 0.15065321 -0.0006333811 0.17796703
0002d0 1d 68 d4 bc 4b f2 de bd bb 1f 72 bd b2 dd 08 be
       -0.025928551 -0.108860575 -0.05911229 -0.1336582
0002e0 7c b4 fb 3d 84 64 92 3d 81 0c 6e bd 1c ac 8e bd
       0.12290284 0.07148078 -0.058117393 -0.06966421
0002f0 aa d3 15 be 1b 3c 20 be 0e 61 84 3d ab 33 af bd
       -0.14631525 -0.15647928 0.06463824 -0.08554777
000300 08 d6 06 3e b5 20 00 be 18 9e 5f 3b 83 f6 b8 3c
       0.13167584 -0.12512477 0.003412133 0.022578483
000310 25 a9 d3 bd 14 7f 57 bd a9 72 24 3c 63 b2 d7 bc
       -0.10334996 -0.052611426 0.010037103 -0.026330179
000320 19 22 ac 3d d6 08 89 bb 38 fc 01 be 8d ca 13 3e
       0.08404941 -0.0041819615 -0.1269387 0.14432736
000330 17 ed ee 3c 4b a7 10 3e 9f da c8 bd 6d bb b1 3d
       0.029165788 0.14126317 -0.09807324 0.08678327
000340 af e1 c7 bc e1 08 8a 3d c7 a0 97 3d c1 4f a3 bd
       -0.024399607 0.06739975 0.07403713 -0.07974196
000350 2d 08 e1 3d 60 ed 0e 3e 67 4a a6 3d 90 62 9b bc
       0.109878875 0.13957739 0.0811966 -0.018967897
000360 15 7c 01 3e 19 01 b8 3d 9c 29 07 be 62 8f 27 3e
       0.1264499 0.08984584 -0.13199466 0.1636329
000370 a1 59 07 be 5a 01 e4 3b f7 19 d6 3d 4e 58 7c 3c
       -0.13217784 0.006958169 0.10454171 0.015401913
000380 bc ae b3 3b 87 06 bc ba cb 81 06 be dd b7 bc 3d
       0.0054834764 -0.0014345207 -0.1313545 0.09214757
000390 fc 06 e5 3c 76 62 52 bd c8 4a ee 3d 7e 29 cc 3b
       0.027957432 -0.05136343 0.11635357 0.006230532
0003a0 fd ac b2 3c 0d 1e a4 3c c0 fc a1 bd 72 c0 9c 3c
       0.021811003 0.02003386 -0.07909536 0.019134734
0003b0 30 6c 95 3d 31 c0 99 3d 3f fa b3 3d 0a a6 8e 3d
       0.07296026 0.07507361 0.08787965 0.06965263
0003c0 ff 88 89 bd 7b 20 14 be ba 05 02 be 2e 05 32 be
       -0.06715583 -0.14465515 -0.12697497 -0.17384788
0003d0 0d 47 81 3d 18 28 f0 bd f6 27 07 be de ee c1 bd
       0.0631238 -0.11726397 -0.13198838 -0.094693884
0003e0 02 12 35 be c7 ef 02 bc f6 bf 0c 3e 0c e6 2a be
       -0.1768265 -0.007991738 0.13745102 -0.16689318
0003f0 85 37 29 be a8 91 61 3d 1d 22 2d bd 16 2e d8 bd
       -0.16525085 0.05507055 -0.04226886 -0.10555665

encoder.conv3.bias f4 [32]
000000 75 ac ea bd d8 17 02 be 04 b5 b2 bd cd 95 f8 bd
       -0.11458675 -0.12704408 -0.08725932 -0.12137947
000010 f3 a9 1c 3e af 1f d2 bd 08 53 62 3d 7f d5 0a 3e
       0.15299205 -0.102599494 0.055254966 0.13558005
000020 5c a4 6a bd 5e da 24 3e c0 b2 26 be 5d c0 4a bc
       -0.05728565 0.16098925 -0.16279125 -0.012374965
000030 9f d4 a4 3d 1d ce 48 bd 89 7c bb 3d 00 e8 00 be
       0.08048367 -0.04902469 0.091546126 -0.12588501
000040 a4 37 f8 3d 8a e2 18 3d 16 a9 a4 3b c2 c0 5e 3d
       0.121199876 0.03732542 0.0050250394 0.054383047
000050 1b f5 13 be f8 40 83 bd b3 e5 81 3d ca b0 d9 bd
       -0.14448969 -0.06408876 0.0634264 -0.10629423
000060 75 00 ec 3d 3e f9 c8 3d 50 02 12 3e af ab 62 bc
       0.11523525 0.09813164 0.14258695 -0.013834878
000070 67 82 22 bd 5f 16 25 be 63 21 a6 3d ce 71 cd bd
       -0.039675143 -0.16121815 0.08111837 -0.10031472

encoder.conv4.weight f4 [32, 32, 2]
000000 c0 93 71 bd 29 a6 ab bc 13 f3 88 3d 7d e6 a6 3d
       -0.058978796 -0.020953255 0.06686988 0.08149431
000010 96 35 3c 3c 26 a4 59 bc 8f e0 25 bd b4 0b 2e bd
       0.011487385 -0.013283765 -0.04049736 -0.04249163
000020 90 3a d6 3c cf b5 a3 3d 17 df 96 3d c4 96 3f 3d
       0.026150972 0.079936616 0.0736677 0.04677464
000030 4c e1 82 bd 1c 84 df bb d6 cc fa bd 2e 4b ec 3d
       -0.06390628 -0.0068211686 -0.122461006 0.11537777
000040 55 b0 c1 3c 49 4c a2 bd bf 22 dc bb f1 00 f8 3d
       0.023643652 -0.079247065 -0.0067180092 0.121095546
000050 36 33 e3 bc 6b 2d 43 3d ad 04 ed bd 73 56 20 bb
       -0.02773438 0.047650736 -0.115731575 -0.002446559
000060 57 b4 e1 3c 3b 30 6d 3c 4d 26 4d 3d 08 24 de bb
       0.027551813 0.014476831 0.050085355 -0.0067791976
000070 1d da e1 bd d0 9a 29 bd 6b 1b a9 3d e3 0a d6 bd
       -0.1102793 -0.041407406 0.08257183 -0.10451295
000080 61 1f f1 3d b1 98 4b 3c 68 1a ec bd 74 b3 02 3e
       0.11773563 0.012426541 -0.11528474 0.12763768
000090 3f 95 22 3d 46 38 6a 3d 69 a8 1c 3d 6f 15 f9 3c
       0.039693113 0.057182573 0.038246546 0.030405728
0000a0 76 df 9b bc 18 0f f3 bc 2e 12 35 bd 9b 1e ea bd
       -0.019027453 -0.029670283 -0.04420679 -0.11431619
0000b0 19 ee 76 3c 9b 7c 37 bd 70 8f f1 3c 93 d2 35 bd
       0.015071415 -0.044796567 0.029487342 -0.044390272
0000c0 ed 94 8a bd 79 80 cb 3d 9a 62 36 3d 32 e7 b9 3c
       -0.067666866 0.099366136 0.044527628 0.02269325
0000d0 3b b7 02 3e cf cc da bd 39 f8 93 3d 5b 2c 91 bc
       0.1276521 -0.106835954 0.07225079 -0.017721346
0000e0 10 93 d6 bd de 00 fe 3d 58 46 83 bc 33 91 ce bd
       -0.10477269 0.12402509 -0.016024753 -0.10086288
0000f0 56 3d b3 3d 7c 79 6c bd bc 29 35 3d 16 19 79 bd
       0.08751933 -0.057733044 0.044229254 -0.06081494
000100 8d 75 1a bd 82 3c df 3c 40 88 5f 3d 87 50 47 bd
       -0.03770976 0.027250532 0.054573298 -0.04866078
000110 15 01 cb bc f5 00 9a 3d 2b 42 77 3d f9 04 7a 3d
       -0.02478079 0.07519714 0.060365837 0.0610399
000120 c1 a9 49 bd c8 11 ce 3d 7a 16 cb bc 6c bb ed 3d
       -0.049234156 0.10061985 -0.024790991 0.116080135
000130 db 6d bd 3d 86 bd 35 3c dc 15 f2 3d 96 be 90 bd
       0.09249469 0.011092549 0.118205756 -0.070676014
000140 09 ab 84 bd 75 b3 de 3d fc 42 41 3d 59 ad c7 3c
       -0.06477935 0.108740725 0.047183022 0.02437465
000150 57 62 d4 3d 17 a7 fd 3d 18 b1 bd 3d d5 36 7e bc
       0.10370319 0.123853855 0.092622936 -0.015516003
000160 25 65 28 3d 67 db 9e bd 70 e4 f4 3d b0 98 8e 3d
       0.041112084 -0.077566914 0.119576335 0.069627166
000170 e5 2f ab 3d df ba a9 bc f1 18 87 3d 0e c4 da 3d
       0.083587445 -0.02071899 0.06596554 0.10681926
000180 f2 b0 c4 3d fe 60 1c bd 8d 22 9c bd f1 0f f8 3d
       0.09604062 -0.038178436 -0.076237775 0.121124156
000190 4d e0 4f bb 2c 69 fb bd 76 a1 09 bb c8 87 e2 3d
       -0.0031719387 -0.12275919 -0.002100078 0.110610545
0001a0 34 39 c6 3d 5c 80 eb bc fc 77 a5 bc 72 64 47 bb
       0.096788794 -0.02874773 -0.020198815 -0.003042486
0001b0 8e 2e 13 3d 51 92 5f bd 25 ee a4 bd f5 69 e8 3d
       0.03593307 -0.054582898 -0.08053235 0.11348335
0001c0 d3 5f e1 bd a3 66 2b 3d 7a f7 e7 3d 2a f3 b2 3d
       -0.11004605 0.04184593 0.11326499 0.08737786
0001d0 7d 41 12 bd 61 e7 41 bc 30 f3 02 3e 4f 2c c6 3d
       -0.035706986 -0.01183495 0.12788081 0.0967642
0001e0 a1 37 ea 3b a7 05 69 b9 b5 d2 de bb 62 e8 93 bc
       0.0071477448 -0.00022222717 -0.0068000206 -0.018055145
0001f0 f1 97 ac bd 3f 32 b8 bc bc 13 d5 bd 99 61 c3 bd
       -0.08427418 -0.022484897 -0.10404155 -0.095401
000200 66 11 0e 3d ae 68 00 be 26 a1 97 bd 25 35 8b bc
       0.03468456 -0.12539932 -0.074037835 -0.016993115
000210 30 f1 db bd f1 ee 35 3d 39 82 07 3d 5f 44 66 bd
       -0.10739362 0.044417325 0.033083174 -0.056217548
000220 ef 80 f4 3d e1 09 96 bd 6e aa f4 3d 97 c6 0d bd
       0.11938655 -0.07326103 0.119465694 -0.03461322
000230 2b 89 59 bd 06 b8 89 bc f6 8e 7f 3d bb 28 c9 bd
       -0.05310933 -0.016811382 0.062392198 -0.09822222
000240 a7 f4 b4 3d 5f 5b a2 3c 53 de 4a bd ea 0d a4 bb
       0.08835726 0.01981896 -0.04952843 -0.0050065415
000250 af 63 80 3c 62 32 79 bd d0 c2 8d bd df 38 c7 bd
       0.015672533 -0.060839064 -0.06921923 -0.09727644
000260 45 40 95 bd 73 c2 e1 bd f0 7d 83 bd 86 3f 85 bd
       -0.07287649 -0.11023416 -0.06420505 -0.06506257
000270 a5 83 97 3d 6d bf cc 3d dc 4d ac 3d 0f e9 b1 3d
       0.07398156 0.09997449 0.08413288 0.086870305
000280 eb 38 d4 3c 35 7a 8a 3d ae a5 aa bc c7 2b 1a bc
       0.025906047 0.067615904 -0.020830955 -0.009409851
000290 c3 cb f3 3d 5c e0 94 bd 56 9b fb bc e4 d9 71 bd
       0.11904099 -0.07269356 -0.030713718 -0.059045687
0002a0 83 7f 51 3c 7d 70 53 bc b6 e9 d1 bd f4 a5 cc bd
       0.012786749 -0.012905237 -0.10249655 -0.099925905
0002b0 3b 2c db bd 5c 72 d9 bc 9c 74 f0 3d 7b 80 c6 3c
       -0.10701796 -0.026543789 0.117409915 0.024231186
0002c0 f6 3d 2a bd 2e 53 69 bd 9c 8b d3 bc b3 fc 84 3d
       -0.041562997 -0.056964092 -0.025823407 0.06493511
0002d0 b5 83 e2 3d 22 01 ff bd e6 23 e8 bd 18 41 83 3d
       0.110602774 -0.12451388 -0.11334972 0.064089
0002e0 e0 46 e5 bd 8a c7 c2 3d 82 c2 d6 bc 5a 47 7f 3d
       -0.11195159 0.09510715 -0.026215795 0.062323906
0002f0 83 f4 61 bc 09 9c 1d ba 70 a7 15 bd 7d d5 bb 3d
       -0.013791206 -0.0006012326 -0.036536634 0.09171579
000300 0b cb bc bc 2e 38 83 bc 35 89 b1 bd 96 f0 b2 3d
       -0.023046037 -0.016018 -0.08668748 0.087372944
000310 c8 6b 27 3d 26 12 b4 3d dd ee a0 3d 3c 89 42 bd
       0.040874273 0.08792524 0.078580596 -0.04749416
000320 ec 78 1a 3d 89 c0 8d bd c5 a7 90 bd 78 39 83 bd
       0.037712976 -0.06921489 -0.070632495 -0.06407446
000330 5c da a5 3c 1e 45 2e bd e6 6d 10 3d 94 a9 8c bb
       0.020245723 -0.042546384 0.035261057 -0.004292676
000340 26 3b c1 3c c4 53 c6 3b c8 04 52 3d d4 84 dc 3d
       0.023587774 0.006052466 0.05127409 0.107675225
000350 cd ff 60 bd a6 ec b6 3c 8e 7b bd bd 57 ff 8c bc
       -0.05493145 0.02232964 -0.09252082 -0.0172116
000360 5c 6f e4 3d 53 a8 54 bd fc 76 cb 3d 44 75 07 be
       0.111540526 -0.05191834 0.09934804 -0.13228327
000370 61 dd 93 3d da 56 14 bc 14 a0 7c bd 04 2e a1 3d
       0.07219959 -0.00905391 -0.0616761 0.07870105
000380 f1 bb b6 bd 41 39 8a 3c 02 a3 51 bc b4 a5 d3 3b
       -0.08922566 0.016873004 -0.012795212 0.0064589623
000390 0e 83 ae bd 56 8c 95 bd 44 8f fd bd 13 61 d9 3d
       -0.085210904 -0.073021576 -0.123808414 0.106142186
0003a0 2d 36 cc 3d 09 b9 85 3d c3 ae 36 3d f0 c1 a2 bd
       0.09971271 0.06529433 0.04460026 -0.07947147
0003b0 27 3f 05 bd 2f 85 da 3d cd 8f 9a 3c 21 6c 4f bc
       -0.03253093 0.10669934 0.018867398 -0.012660057
0003c0 6e e5 bb 3c 73 d9 bc bc 18 ae c9 3d 9a 8c a3 3d
       0.022936549 -0.023052907 0.09847659 0.07985802
0003d0 98 20 0a 3e 78 3e 9d bb 8d 1a a2 3d 9e e3 1a bc
       0.13488996 -0.0047987066 0.079152204 -0.009453682
0003e0 0f 69 db 3d 62 a0 e5 bd ea 0e 01 3d 37 48 b4 3d
       0.10713398 -0.11212231 0.031508364 0.088028364
0003f0 aa fb d5 bb ad fb 88 bd a4 6d 88 bd d8 4a 25 3d
       -0.006530245 -0.06688628 -0.06661537 0.04035458

encoder.conv4.bias f4 [32]
000000 2b 3f a0 3d 40 10 d3 bd 6c 86 c0 3c 16 84 85 bd
       0.07824548 -0.10305834 0.023501597 -0.06519334
000010 c1 74 aa 3d ab 91 2e bc 65 ca e8 3d 90 15 dd 3d
       0.0832305 -0.010654847 0.11366729 0.10795128
000020 2a 2e 5f bd e5 95 ec 3b 6e 95 10 bc 6a 22 ba 3a
       -0.054487385 0.0072200173 -0.008824689 0.001420093
000030 1d 28 0c bd fd a7 a4 bc 6f e5 71 bc 51 c0 87 3d
       -0.034217943 -0.020099634 -0.014764174 0.06628478
000040 7a 9c a2 3d 9a fa c6 bd c8 53 ae 3d fb 7f a3 3d
       0.07940002 -0.09715767 0.08512074 0.07983395
000050 46 e9 89 bd 64 38 94 3d 9a 2f 9b 3d d2 92 a5 3d
       -0.067339465 0.07237318 0.07577439 0.080846444
000060 1d ba 31 bd e5 c3 8f 3d c1 02 89 bd 62 24 b1 bd
       -0.043390382 0.07019786 -0.066899784 -0.086495176
000070 c7 c5 01 bd 18 7a 58 bd bb 12 4a bb 48 f1 0a bd
       -0.031682756 -0.052850813 -0.0030833918 -0.03392151

encoder.fc1.weight f4 [64, 128]
000000 83 b5 8b ba bf 77 b0 3d e3 4b 88 bd 2f c1 a3 3d
       -0.0010658953 0.0861659 -0.06655099 0.07995831
000010 24 c4 a7 3d f1 0d 53 bd 51 2b a5 bd f5 0e 65 bd
       0.08191708 -0.051526967 -0.080649026 -0.055922467
000020 37 83 49 bc 90 a9 0b bd fe 65 a4 bd 64 fd 79 bd
       -0.01229935 -0.034097254 -0.08027266 -0.061032668
000030 aa 8e 2f 3d 09 93 c9 3c 71 fb 88 3d 8b e2 a4 3d
       0.042860664 0.024606245 0.06688584 0.08051022
000040 3f 26 1f 3b 2e 9c 39 bd b1 a1 9c 3d 12 f8 34 bc
       0.002428427 -0.04531496 0.07648028 -0.011045473
000050 5c e5 b5 3c 77 d9 78 3d 9f 85 f7 bc b1 64 5c bd
       0.022204094 0.060754266 -0.030215083 -0.053806964
000060 6b 5f ef 3a df a6 7a bd 78 56 a7 3d 2d 49 ab bc
       0.001826269 -0.061194297 0.081707895 -0.020908916
000070 ad 0e 24 bd 9f bb 5e 3d d6 0d 74 3a 0b bb be 3a
       -0.04005306 0.05437815 0.0009309923 0.0014551593
000080 a6 42 65 3d d4 c6 b4 bd 21 d7 83 bd 2f 2f 0b bd
       0.055971764 -0.08826986 -0.06437517 -0.033980545
000090 7b bb 46 bd 04 66 98 bd f8 80 9b bc 41 6d 2f 3a
       -0.04851864 -0.07441333 -0.018982396 0.00066920003
0000a0 23 17 c2 3d 14 ea 00 3c 6e 06 03 bc a2 dc 93 bd
       0.09477069 0.007868309 -0.007997138 -0.07219817
0000b0 c4 06 28 3d e9 10 42 bd c9 4e 68 bd ae 2a a7 3d
       0.041022077 -0.047379408 -0.05671576 0.081624374
0000c0 1f dc fc bc f5 39 73 3c 9a 3d 7b 3d 0c dc 80 bd
       -0.03086668 0.014845361 0.061338045 -0.062919706
0000d0 b2 37 bb bd 82 08 a3 3d 5c 96 44 bd d7 ac 11 3d
       -0.091414824 0.07960607 -0.047994956 0.035565224
0000e0 36 8d 2b bd 33 42 87 3d be 27 28 bc 5b 65 06 3d
       -0.041882716 0.066044234 -0.0102633815 0.032811504
0000f0 69 ac 92 bd 10 94 35 3d 99 4a 91 bd ec 36 b2 bd
       -0.07161791 0.044330657 -0.070943065 -0.08701882
000100 11 7a a0 3c af 05 60 3d 9c 4b 87 bd bc 4a 29 3c
       0.019589456 0.05469292 -0.06606218 0.0103327595
000110 6c 93 92 3d 96 f1 a8 bd 41 2f 63 3a f7 d7 a8 3d
       0.07157025 -0.08249204 0.0008666404 0.08244317
000120 b0 e1 41 3b 28 b6 9c 3b 2e c2 a2 3a 1c 44 41 3c
       0.0029583983 0.004782457 0.0012417489 0.011796024
000130 9f 8f b4 bd 17 a3 d9 bb ab a8 9a bd 3e df b1 3d
       -0.08816456 -0.0066417563 -0.07551702 0.08685158
000140 44 03 33 3d 14 58 4b 3d ef e0 fe bc 5a d7 6c ba
       0.043704286 0.049644545 -0.031113116 -0.00090347754
000150 eb 76 61 bd 24 b8 96 3d a1 6a 04 bc 50 d6 1a bd
       -0.05504505 0.07359341 -0.008082063 -0.03780204
000160 c7 1e 51 3a c2 42 20 bc d2 0b b6 3d ce e0 20 bd
       0.00079773035 -0.009781541 0.08888973 -0.03927689
000170 90 57 07 bd 4e 82 4d bd 36 ab 33 bd 53 5e 9c 3d
       -0.03304249 -0.050173096 -0.04386445 0.076351784
000180 fe fb 77 bd 66 33 67 bd 42 5f b6 3c be 52 36 bd
       -0.060543053 -0.0564455 0.02226222 -0.044512503
000190 fc 0c 63 bd 46 c0 76 3c 5f 43 b6 bd bf 52 c4 3c
       -0.055432305 0.01506049 -0.08899569 0.023965238
0001a0 df dc 5b bd fd da a8 3c d1 a0 e5 3c c0 be a5 3d
       -0.053677436 0.020612234 0.028030785 0.08093023
0001b0 50 6e 7f 3d 67 18 ac bb ee 83 64 3d fb ea 0c 3d
       0.06236106 -0.0052519324 0.05578988 0.034403782
0001c0 ca d9 85 3d f0 32 9b 3d 1d 14 c5 3c 42 3f 44 3d
       0.065356806 0.07578075 0.024057442 0.04791189
0001d0 26 8c 39 bd 31 5c 10 3d 99 35 f5 ba f3 7e 9d bd
       -0.04529967 0.03524417 -0.001870799 -0.07690229
0001e0 8b 15 4c ba 03 96 ec bc 64 fb 87 bd dd 9a 5e 39
       -0.00077851926 -0.028880125 -0.06639746 0.00021229261
0001f0 57 41 8e 3c bd f4 8c 3d 52 47 ad bd 12 f8 b5 bd
       0.01736514 0.068826176 -0.08460869 -0.08885206
000200 17 d1 20 bc c5 bf a0 bd eb be 0a bd b6 6f 29 3d
       -0.009815476 -0.07849077 -0.03387348 0.0413663
000210 97 69 c5 bc 0d 6b 28 3d 91 c2 be 3c 09 cc c4 bb
       -0.0240982 0.041117717 0.023286136 -0.006005768
000220 08 d0 84 3c 76 40 a4 3d 56 75 ce 3b 71 6a a2 bd
       0.016212478 0.080201074 0.0063006086 -0.07930458
000230 2b 5f a3 bc d2 dc ac bd d7 8c 07 bd f9 9d 27 3d
       -0.01994284 -0.08440556 -0.0330933 0.04092214
000240 08 fc 42 3d 7c 96 83 3c ee 8f 04 3d 3a b7 8b 3b
       0.047603637 0.016062967 0.032363825 0.0042637857
000250 20 73 ab 3d 88 d4 9d 3d 31 15 23 3d 39 73 75 bd
       0.08371568 0.07706553 0.03981513 -0.059924338
000260 b4 e2 22 bd 38 c9 8e bd c8 fa 3b 3d 44 5d 2b bc
       -0.039766982 -0.06971973 0.04589346 -0.010459248
000270 5b 80 24 bd 0b 10 07 3d a9 be 50 3d b8 55 2f 3d
       -0.04016147 0.032974284 0.050963078 0.042806357
000280 11 aa 0e bc 65 ca 44 bd f7 a2 87 3d 90 9d 08 3d
       -0.008707539 -0.04804458 0.0662288 0.03335339
000290 74 b7 a4 3d df 61 82 bc dc 55 b1 bc 7c 67 96 3c
       0.080428034 -0.01591581 -0.021647386 0.018359892
0002a0 85 0b a2 3c ef e3 2b 3d 63 a5 88 3c 67 25 a5 bd
       0.019780884 0.04196542 0.016680425 -0.080637746
0002b0 27 6f 09 bc cf f7 6b bd e4 d5 62 3d fe 9e 55 bd
       -0.008388317 -0.057609376 0.055379763 -0.05215358
0002c0 7a 76 9a 3d 3f cc 81 3d 35 ae 16 bd 8a bb e2 bc
       0.07542129 0.06337785 -0.03678723 -0.027677316
0002d0 c3 d8 ab ba 03 3e f8 bc 33 49 62 bd 7b e2 c0 3c
       -0.0013110865 -0.030303007 -0.05524559 0.023545494
0002e0 04 ff 66 3d c7 74 33 bd 98 a1 96 3d 8b 61 f8 bc
       0.056395546 -0.04381254 0.0735504 -0.03031995
0002f0 f6 8e 8d bd ec fb 7b 3c 2e f7 8d 3b f3 c5 80 bd
       -0.06912033 0.015379887 0.0043324446 -0.06287756
000300 f0 ef 90 bd 4c 56 82 3d 8d f9 2f 3d fb 3b 99 ba
       -0.070770144 0.06364116 0.0429626 -0.0011690849
000310 96 c0 f8 3c 7e b6 2d 3b e0 01 48 3d 24 4d 95 3d
       0.03036527 0.002650648 0.048829913 0.07290104
000320 5e bd 44 3c bc 80 6e 3c 59 4e 7d bd a1 40 7c bd
       0.012008039 0.01455706 -0.061842296 -0.061585072
000330 aa 03 7c bc b0 8a b8 3d 8d 2e 68 3d 10 e4 71 3d
       -0.015381733 0.090108275 0.05668502 0.059055388
000340 64 3a 0f ba 72 47 90 bc 3c 0d 0d 3d 55 39 49 3d
       -0.0005463718 -0.017612193 0.03443645 0.04912694
000350 31 d4 05 3d fc c2 4c bd 38 cd 23 3d 82 71 83 3c
       0.032673065 -0.04999064 0.039990634 0.016045336
000360 1e ae 81 3d 87 30 3d 3d a0 dd 6d bd 96 31 7b bd
       0.06332038 0.046188857 -0.058072686 -0.061326586
000370 ed a4 94 3d 84 40 a6 3d 60 0a 07 3d b1 a0 14 3d
       0.072580196 0.08117774 0.03296888 0.03628606
000380 bc 23 53 bd 55 ee 9c bd 23 43 ad bc 45 d6 ad 3d
       -0.05154775 -0.07662646 -0.021150177 0.08488134
000390 aa 95 25 3c 13 da 26 3d fa 3f b1 bd 50 63 96 3d
       0.0101064835 0.040735316 -0.08654781 0.07343161
0003a0 4d 72 9f 3d 57 a7 2c 3d ae 2d a0 bd 31 39 6f bd
       0.07785473 0.042151775 -0.07821213 -0.05840415
0003b0 5e 99 d4 3c 33 d8 32 3b 7f fe 47 3d 31 92 20 bd
       0.025952037 0.002728951 0.04882669 -0.03920192
0003c0 96 8d f6 bc 74 f2 1f 3c 67 2b 19 bd 39 97 12 bd
       -0.03009681 0.009762395 -0.037394907 -0.03578875
0003d0 c0 5c 3b 3d 98 ea b6 3d 3d 7d a6 bd a6 9c ff b9
       0.04574275 0.08931464 -0.08129356 -0.00048754102
0003e0 89 0f a9 3d 5e 30 6d bd d2 b8 0b bd dc 3e 29 3b
       0.08254916 -0.057907455 -0.034111805 0.002582482
0003f0 7d b2 12 3d d5 e7 bc 3c 8f cd 87 bb e7 b0 55 bc
       0.03581475 0.023059765 -0.0041443775 -0.013042665

encoder.fc1.bias f4 [64]
000000 ef 07 74 3d 62 93 ed 3c 81 10 51 3d b5 1a 06 3b
       0.05957788 0.029000942 0.05104113 0.0020462696
000010 0b 14 29 bd 16 28 86 bd b2 44 7e 3d 31 b3 68 3d
       -0.04127888 -0.065506145 0.06207723 0.056811515
000020 c9 b7 21 bd 14 bb bf bb 71 2a 0e 3d 57 24 88 3b
       -0.03948191 -0.005851159 0.034708444 0.0041547227
000030 c3 db 48 bd d0 9d 74 3d 2e 56 84 bd 16 e8 86 bd
       -0.049037706 0.059720814 -0.0646175 -0.06587236
000040 45 46 44 3c 93 a9 9c bd 02 ee 93 3d 46 19 1c 3d
       0.011979644 -0.07649531 0.07223131 0.03811004
000050 df 5f 6b 39 a3 26 22 3c 8b e9 81 3d ea b8 8b 3c
       0.00022447061 0.009896907 0.06343373 0.017055947
000060 52 60 64 bd c9 d1 15 3d bb da 10 bd da 57 db bc
       -0.05575592 0.03657702 -0.035364848 -0.02677529
000070 5a 91 2e 3d 62 30 93 bc 8b f0 85 3d 3e 37 51 bd
       0.042619087 -0.017967407 0.065400206 -0.051078074
000080 c6 f4 81 bd 65 aa 64 3d 47 9b e6 3c ff c8 1f bb
       -0.06345515 0.055826563 0.028150214 -0.0024381278
000090 6f 7c 73 3c ed b4 8c 3d 11 14 21 bd 0b d6 62 bc
       0.01486121 0.06870446 -0.039325777 -0.013844977
0000a0 89 c2 70 3d 41 22 15 bd 46 36 3e 3a f0 76 c9 3d
       0.058779273 -0.03640962 0.0007256012 0.09837139
0000b0 89 ea 12 bd 29 e0 30 bc 74 d6 aa 3d da 76 9d bc
       -0.0358682 -0.010795631 0.08341685 -0.019221712
0000c0 e5 66 55 bb 04 e8 8d 3d 43 3f b5 bd af 1c c5 bc
       -0.003256255 0.06929019 -0.08849957 -0.024061529
0000d0 81 90 50 3d fc d4 a4 bd 7d ef bc bc 97 05 82 bd
       0.05091906 -0.08048436 -0.023063416 -0.063487224
0000e0 40 29 f9 3b cd 1a b3 bb d2 64 56 bc 75 dd 6f 3d
       0.0076037943 -0.0054658414 -0.013085561 0.058560807
0000f0 ee 06 5c 3c 34 c6 b1 3b 77 17 61 bd de bc 1f bd
       0.013429387 0.005425239 -0.05495402 -0.038998477

encoder.fc2.weight f4 [16, 64]
000000 c4 66 fa 3d 1b a7 e8 bd 96 0c c3 3a 83 a1 99 3d
       0.12226632 -0.11359998 0.001488107 0.07501509
000010 64 b2 03 bd fc 90 c9 3d 89 ed 2b 3d a4 4f df 3d
       -0.03215255 0.09842107 0.041974578 0.10903862
000020 6c 55 2c bd 80 0e 17 bd 2c c1 78 3b ff 08 c6 bc
       -0.042073652 -0.036879063 0.0037956936 -0.024174212
000030 35 fd 90 bd 5b bd c0 3d 59 e7 f7 3d 9d 6d 11 3d
       -0.070795454 0.09411117 0.12104673 0.035504926
000040 7a 5f b1 3d a2 43 52 bd 31 9d 11 3c 83 75 16 bd
       0.08660789 -0.05133403 0.008887575 -0.03673316
000050 33 03 ae 3d 3e af 27 3d f2 23 cb bd f4 5a ae bd
       0.08496704 0.04093861 -0.099189654 -0.08513442
000060 54 3c e1 3d ca b5 9d 3a 11 c6 b1 bc 08 b2 03 bd
       0.10997835 0.0012032327 -0.02170089 -0.032152206
000070 6f df 9d 3d 02 6f 39 3d 7d 71 d9 bd 93 53 95 3c
       0.07708632 0.04527188 -0.10617349 0.018228328
000080 91 53 67 3d e6 53 ca 3c 26 f6 ef 3d e0 7e 47 3d
       0.05647618 0.024698209 0.11716871 0.04870498
000090 55 a5 d8 3b ac 99 ba bd a1 c5 65 bd bd d9 ec bc
       0.006611506 -0.09111342 -0.056096677 -0.02891242
0000a0 7d 25 45 3d bd 0c 01 be a2 bb c9 3d f0 f1 8f 3c
       0.048131455 -0.12602516 0.09850241 0.01757142
0000b0 60 4f db 3d c5 ce a2 bd e3 ca ed bd 8b 40 d3 3c
       0.10708499 -0.079495944 -0.11610963 0.025787612
0000c0 62 79 b2 bd 53 59 7e bd 53 89 f0 3c 19 ff f3 3c
       -0.08714558 -0.062096905 0.029362356 0.029784726
0000d0 c9 9c 90 3d 52 93 3e 3d 6a 43 dc bd dc a4 fe bd
       0.070611544 0.046527214 -0.10755046 -0.12433788
0000e0 e5 f8 a6 bd af 7e f1 3d 8e 19 53 bb 0d 7c f6 3d
       -0.081529416 0.11791741 -0.0032211277 0.120353796
0000f0 7d a1 fb 3d b1 f5 89 3d 0e 2a fb bd 25 84 33 bd
       0.12286661 0.06736315 -0.12263881 -0.043827195
000100 af 46 4b 3a bc 57 ab bd de 33 01 3d df d5 b6 bd
       0.0007754368 -0.083663434 0.031543605 -0.089275114
000110 86 3f 40 3d ec 04 cc 3a 72 9a 2e bd 10 e7 43 3d
       0.04693558 0.0015565432 -0.04262776 0.04782778
000120 11 df d5 bd e9 06 97 3d d6 0e 9c bd 0b 36 48 3d
       -0.10442937 0.07374365 -0.07620017 0.048879664
000130 6f 56 d5 bd 1c 4c 44 bd 07 47 c2 bd d9 9e 08 be
       -0.104168765 -0.047924146 -0.09486204 -0.13341846
000140 17 41 de 3d 37 e7 b5 bd 77 7e a4 3d a5 2d 41 bd
       0.10852259 -0.08881991 0.08031934 -0.04716267
000150 58 ab 88 3d a9 99 19 bd 82 0c c5 bd 34 a2 9b bd
       0.06673306 -0.037500057 -0.09621526 -0.07599297
000160 95 bc 35 3d 80 e7 c1 3d 91 f1 bd 3d 0a a1 6f 3d
       0.0443693 0.09467983 0.09274591 0.05850319
000170 d6 42 53 bd ec 3d ee bc c5 4c d6 3d d2 f8 00 3e
       -0.05157741 -0.029082261 0.104638614 0.12594917
000180 36 6d 0f 3e 2d b9 dc 3d 56 9f 67 bd 5c 2a 76 3d
       0.14006504 0.10777507 -0.05654844 0.06009899
000190 9a ff 90 bc 10 12 e0 3d 63 66 cf bd 4c 04 bd 3d
       -0.017700005 0.10940945 -0.101269506 0.09229335
0001a0 0d 63 4d bd ae 2a 9d 3d 9e 8f 13 3d d5 0d 40 bc
       -0.05014329 0.07674156 0.036025636 -0.011722048
0001b0 e3 d3 01 3e bd e8 0e 3e df 1c a8 bd f1 28 1e 3d
       0.12678485 0.1395597 -0.08208632 0.038613264
0001c0 58 f5 82 3c 88 1b b3 3d b1 c9 0f bd 15 d2 9e 3d
       0.01598613 0.087454855 -0.035104457 0.07754914
0001d0 4b 55 95 3d c7 8c 90 3d 92 6e 1c 3d e6 41 03 bd
       0.07291659 0.07058101 0.038191386 -0.032045268
0001e0 80 8c 09 3e c9 0c bd bc fd 60 e0 3c bc 96 9a bd
       0.13432503 -0.023077386 0.027389998 -0.075482816
0001f0 52 e2 d8 bd 1a df 21 bb d7 f8 4b bd c2 1c 29 3d
       -0.10590042 -0.002469963 -0.04979786 0.04128719
000200 07 3f f9 3d 1b 06 b1 bd cd 78 ac bd d8 7e d1 bd
       0.12170225 -0.08643743 -0.084214784 -0.10229272
000210 4e e2 40 3d cc 51 7c 3d 97 32 92 3b 9c 61 c6 bb
       0.04709082 0.061601445 0.004461597 -0.0060541164
000220 79 15 81 bd 0b 80 07 3c 32 c9 71 3d 6a 09 e4 3d
       -0.06302924 0.008270274 0.059029765 0.11134608
000230 b8 68 5f 3d e6 3d 24 bd c9 9e 97 3d 6d 6a 4a 3d
       0.054543227 -0.040098093 0.07403333 0.0494179
000240 bb a4 98 3a 1a ef ec 3d 02 f4 25 bd 19 a9 c9 3c
       0.0011645773 0.115690425 -0.040515907 0.024616765
000250 06 07 88 3a b3 80 0e bd af 40 c5 bd bf 71 e3 bd
       0.001037807 -0.034790706 -0.09631478 -0.1110568
000260 06 31 c9 3d 2e f2 dc 3d c7 da ef 3d d8 ed 0d bd
       0.098238036 0.107883796 0.1171165 -0.034650654
000270 c5 64 e9 bd 8a a3 11 bd 76 d3 d6 3d 26 f1 0d 3e
       -0.113961734 -0.035556354 0.10489552 0.13861522
000280 36 78 2b 3d 57 ff e7 3b 7c e7 43 3b 56 68 d6 bc
       0.04186269 0.0070799994 0.0029892614 -0.026172798
000290 05 68 05 be 81 14 80 bd 5b fe b1 bd 6d 6e 14 3d
       -0.13027962 -0.06253911 -0.086910926 0.036238123
0002a0 e7 ba f1 bc 17 49 bc bd 26 cc 02 bd ae 37 9a 3c
       -0.029508067 -0.09193628 -0.031932972 0.018825378
0002b0 75 d2 9e 3d ba e6 d1 bc 1d f3 02 be 75 10 2b bd
       0.07754985 -0.025622714 -0.12788053 -0.04176374
0002c0 33 58 51 bd d0 7d 4f bd c2 a1 ca bd 0f ba da 3d
       -0.051109504 -0.050657094 -0.09894134 0.10680019
0002d0 b1 d8 ab bd 6c 5f 43 bd 1d b8 84 bd d1 aa 3b bd
       -0.0839094 -0.047698423 -0.06480429 -0.0458172
0002e0 26 69 e4 3d 0a 8a d1 bd 4d bb 0e 3d 9f ab bc 3d
       0.11152868 -0.10231407 0.034846593 0.092124216
0002f0 e1 3b 16 3d db a4 cf bd 4c 40 9c bd e4 d6 d1 bc
       0.0366782 -0.101388656 -0.07629451 -0.025615163
000300 0d 4e 85 bd 2e f6 f2 3c a4 51 2a 3d db 03 ab 3d
       -0.06509028 0.029658403 0.041581765 0.08350345
000310 a0 ab 14 bd fc 44 f3 bd 2b 9f b8 bd df 8d e5 3d
       -0.036296487 -0.11878392 -0.09014734 0.112087004
000320 ae 87 9f bc fd 00 e0 bd d0 fe bd bd 07 c5 d4 bd
       -0.019473877 -0.109376885 -0.09277117 -0.103891425
000330 f5 1b c4 3d d4 75 2b bd 7d 50 5b 3d 45 cb 46 bd
       0.09575645 -0.041860417 0.053543556 -0.048533697
000340 ef 26 01 3c e1 44 2c bd 16 15 ab 3b 0a c9 00 be
       0.007882818 -0.042057876 0.0052210195 -0.1257669
000350 0f 49 db bc 3c 58 f9 bb c8 36 d8 3d f6 ff ba 3d
       -0.026768235 -0.0076093953 0.10557324 0.09130852
000360 63 b4 56 3d e3 12 7b bd e9 05 d0 3d ff 87 a9 bd
       0.052418124 -0.06129731 0.10157377 -0.08277892
000370 bc c0 66 bc 40 3d a3 bb 01 14 59 3d fb 5d 00 3e
       -0.014084037 -0.004981667 0.052997593 0.1253585
000380 20 45 ca bd 0c df 9b bd c4 2e 00 3e 74 eb c0 3d
       -0.09876466 -0.07610902 0.1251784 0.09419909
000390 4e 59 bb 3d 9e c7 56 bd cc 02 a9 bd ce 52 41 3d
       0.09147893 -0.052436464 -0.082524866 0.04719811
0003a0 de de 05 3e 9d f8 03 bd a3 87 c0 bd 4f 81 fa 3d
       0.13073298 -0.032219518 -0.09400871 0.12231695
0003b0 3b 8f 0d bd ad ef ad 3d df 65 8d bd 59 e4 ed 3c
       -0.034560423 0.0849298 -0.06904196 0.029039549
0003c0 33 25 e2 3d 8f 63 e9 3b b3 71 8f bd ea c2 84 3b
       0.110422514 0.007122464 -0.07004108 0.004051556
0003d0 37 2b 47 bd 58 c5 ab bd 39 5e f7 3b 4e 45 b6 3d
       -0.048625197 -0.0838725 0.007549074 0.088999376
0003e0 7a 30 85 3d 6b 1b 51 bd cc 9d 88 bd a1 07 70 3d
       0.06503387 -0.05105154 -0.06670722 0.058601025
0003f0 9c 33 8d 3d c0 e3 ed bd b8 24 95 3d 01 24 c0 3c
       0.06894609 -0.116157055 0.07282394 0.023454668

encoder.fc2.bias f4 [16]
000000 4a b2 0f bd 65 16 1b 3d 7a 9d 8b bd e0 b4 28 bd
       -0.03508214 0.037863154 -0.06817146 -0.04118812
000010 89 6f a1 bd d5 38 18 bd 8f a5 1a 3d 15 24 1e bd
       -0.07882602 -0.037163574 0.037755545 -0.03860863
000020 e0 e8 f2 bc 12 6f c5 bd d2 75 90 3d 87 74 c1 3c
       -0.02965206 -0.096403256 0.070537224 0.023615135
000030 a4 70 89 3d 27 87 a2 bd 3d 73 07 3c 7f 65 67 bd
       0.067109376 -0.079359345 0.008267221 -0.05649328

encoder.fc21.weight f4 [4, 16]
000000 53 c3 73 be 81 a4 a2 bb 60 30 38 bd c4 1d e4 bd
       -0.23804979 -0.004963458 -0.04496801 -0.1113849
000010 bb 38 1b 3e d4 67 25 3e 30 e7 86 bd b0 17 06 bd
       0.1515836 0.16152889 -0.06587064 -0.032737434
000020 7b fe 64 bc c3 c1 a2 bd 69 6d 98 bc ee ed 19 be
       -0.0139766885 -0.07947113 -0.018606858 -0.15032169
000030 e0 8d 5b be d9 7f 26 be a8 ba 0a 3e 27 a5 89 3b
       -0.2144084 -0.16259708 0.13547766 0.004200596
000040 29 e8 ce bd 4a 36 3e be f6 5a 05 be 92 0e a2 3d
       -0.10102875 -0.18575397 -0.1302298 0.07912935
000050 e2 29 8f 3b eb 17 29 be a9 dd d0 bd 79 66 0c 3e
       0.0043690065 -0.1651303 -0.10198528 0.13710965
000060 d3 39 57 3e dc 95 14 bc 05 42 37 bd 0f 4f 4e 3e
       0.21018152 -0.009068932 -0.044740696 0.20147346
000070 52 0a 16 3d 7a 42 91 3d 1c 5f c2 bd ff 2e 02 be
       0.036630936 0.070927575 -0.09490797 -0.1271324
000080 36 1e c3 bc 2f de 64 3e a2 d4 82 3e bd ea b3 3d
       -0.023818117 0.22350381 0.2555285 0.08785007
000090 bf 79 16 3e 9b e2 38 be 61 99 2f be 79 b4 29 be
       0.1469488 -0.18055193 -0.17148353 -0.16572751
0000a0 24 5a 7d be 10 76 8b bd f6 9e 74 be 3f 43 70 be
       -0.24741417 -0.06809628 -0.23888764 -0.23463152
0000b0 12 74 39 3d 44 b5 d7 3d d3 aa 76 3e c8 09 de 3d
       0.04527671 0.105326205 0.24088602 0.108417094
0000c0 53 6b 90 bd 63 9c 04 be be 56 5d be e4 87 2f be
       -0.070517205 -0.12950282 -0.21615121 -0.17141682
0000d0 fc 71 59 be e0 ed 18 bd cd 89 a3 3d e1 f4 28 3e
       -0.21234888 -0.03733623 0.07985268 0.16499664
0000e0 a5 c7 ca 3d e1 f9 5d 3e fb ae 34 3e 7c 60 4c be
       0.099013604 0.21677352 0.17644875 -0.19958681
0000f0 37 b6 04 be 75 24 58 3e 9e fe 6d be 97 89 8a 3d
       -0.12960134 0.21107657 -0.2324166 0.067645244

encoder.fc21.bias f4 [4]
000000 e5 09 75 be 9d fc 73 3e 14 c9 63 3d b6 bb 67 3e
       -0.23929556 0.23826833 0.055611685 0.226302

encoder.fc22.weight f4 [4, 16]
000000 63 a9 01 be 12 28 a3 bc 56 b2 68 be 95 b2 56 3d
       -0.12662272 -0.019916568 -0.2272428 0.052416403
000010 6e 97 c5 bd cb bb 15 be e5 9d 6e 3e 14 cc b3 3d
       -0.096480235 -0.14622419 0.2330242 0.08779159
000020 13 21 23 3e 5a ff 84 3d 5d 1d f8 3d 94 7c 84 be
       0.15930586 0.06494017 0.121149756 -0.25876296
000030 e7 63 ae bd 28 ee 09 3e 7b 69 3a 3c b4 e6 5b 3e
       -0.085151486 0.13469756 0.011377688 0.21474725
000040 4d c6 11 3e 67 f1 2b be 84 79 24 3e b5 18 71 be
       0.14235802 -0.16791306 0.1606198 -0.23544581
000050 eb 11 4d be e5 60 3c be 64 b7 81 be f3 5d 3e 3e
       -0.20026366 -0.18396337 -0.25335228 0.18590526
000060 15 bb 8b 3d 42 70 4a be 28 9c 1b 3e 45 21 d5 bd
       0.068227924 -0.19769385 0.15196288 -0.10406736
000070 0d 4e 85 be 88 c6 0f be 46 c9 73 be 96 fe 4a 3e
       -0.2603611 -0.14040577 -0.23807248 0.1982368
000080 34 9f ed bd 82 47 11 3e fb 63 96 3d 8f 60 42 be
       -0.11602631 0.14187434 0.073432885 -0.18982147
000090 60 42 f6 3b 9c 63 19 3d dd ab 3a 3d c1 8e d0 bd
       0.0075152367 0.03744851 0.045574058 -0.10183478
0000a0 db e9 aa bd 3a 65 17 3d ef fb ea 3d 38 25 34 3e
       -0.08345386 0.03696177 0.11473834 0.17592323
0000b0 e2 db 50 be ec 58 10 be 0c 0c 47 bd 34 5c c5 bd
       -0.20396379 -0.14096421 -0.048595473 -0.09636727
0000c0 9b ad b7 bd 05 9f 53 be 2a ec fd bd c0 ac 6c 3e
       -0.089686595 -0.2066613 -0.1239856 0.23112774
0000d0 1b af 37 bd 82 73 17 be c4 d8 97 3d 19 59 86 be
       -0.044844728 -0.14790156 0.07414392 -0.2623985
0000e0 c3 01 c6 bd 48 98 5d 3e 5c 95 95 bc 2e a0 2d bc
       -0.09668305 0.21640122 -0.018259697 -0.010597272
0000f0 57 77 72 be 29 f4 be 3d 34 a3 62 3e 9d 3f f7 bd
       -0.23678337 0.093239136 0.2213257 -0.1207268

encoder.fc22.bias f4 [4]
000000 d8 c6 7d be ad 21 74 bd 27 54 19 be 51 1c 84 be
       -0.24782884 -0.05960243 -0.14973508 -0.25802854

encoder.bn1.weight f4 [16]
000000 1d 76 7f 3f 5d a6 7f 3f ba 34 7f 3f 00 00 80 3f
       0.997896 0.99863225 0.9968983 1.0
000010 77 9f 7f 3f 1c 34 82 3f dd d8 80 3f b3 f8 7f 3f
       0.998527 1.0172153 1.0066181 0.9998886
000020 3a 05 81 3f ee 66 81 3f 00 00 80 3f 52 d9 7f 3f
       1.007972 1.0109537 1.0 0.9994098
000030 2e 96 7f 3f 00 00 80 3f 8b bd 81 3f 00 00 80 3f
       0.9983853 1.0 1.0135969 1.0

encoder.bn1.bias f4 [16]
000000 23 10 03 bc 89 be 75 ba db 6b 1d bc 5c 02 c6 3a
       -0.007999453 -0.00093744 -0.009608234 0.0015106904
000010 35 99 2a bc ab db 33 bb b3 7a 12 bc 0d 19 00 bb
       -0.010412504 -0.0027444165 -0.008940387 -0.0019546181
000020 14 6b 2c 3b f9 a9 ee 38 65 64 73 3c 3f 16 1f 3b
       0.002630894 0.00011380384 0.014855479 0.0024274734
000030 85 12 16 bc c7 07 af 3b 04 c4 39 3a c2 0e cb bb
       -0.009159689 0.0053415033 0.00070863985 -0.0061968276

encoder.bn1.running_mean f4 [16]
000000 b0 b2 13 3c e5 b4 0c 3d 5e d2 09 3f 00 00 00 00
       0.00901477 0.034352202 0.5383662 0.0
000010 b1 b0 82 3e e7 67 f8 3e 79 7c 8a 3e 1d 79 00 3b
       0.2552543 0.4851677 0.2704809 0.001960344
000020 b6 0c df 3e 9b 46 04 3d 00 00 00 00 5e e5 1c 30
       0.43564385 0.032293897 0.0 5.707842e-10
000030 eb a6 fd 3e 00 00 00 00 b4 cb 13 3e 00 00 00 00
       0.4954141 0.0 0.14433175 0.0

encoder.bn1.running_var f4 [16]
000000 3e 3a 4a 39 ac fc f0 3b 03 b7 07 3e 35 8b e2 36
       0.00019285918 0.0073543396 0.13253407 6.7515307e-06
000010 27 ef 67 3c 42 27 b6 3d df 62 90 3d 06 e6 83 37
       0.014156139 0.088942066 0.07050108 1.572353e-05
000020 f4 81 d9 3d 03 c5 5f 3a 35 8b e2 36 35 8b e2 36
       0.1062049 0.0008536132 6.7515307e-06 6.7515307e-06
000030 b1 dc 2e 3e 35 8b e2 36 3d 38 05 3d 35 8b e2 36
       0.17076375 6.7515307e-06 0.032524336 6.7515307e-06

encoder.bn2.weight f4 [16]
000000 46 72 82 3f 7d 16 7f 3f 6c 65 80 3f 20 c4 7f 3f
       1.0191123 0.9964369 1.0030951 0.9990864
000010 c6 fc 80 3f ae c5 7e 3f 55 77 80 3f 49 14 80 3f
       1.007714 0.99520385 1.0036417 1.000619
000020 38 9b 7f 3f 32 50 81 3f 43 4f 82 3f 22 ca 7f 3f
       0.9984622 1.0102599 1.0180439 0.99917805
000030 33 26 7e 3f 9b ee 7f 3f 7d 0a 82 3f de da 80 3f
       0.9927704 0.9997346 1.0159451 1.0066793

encoder.bn2.bias f4 [16]
000000 7b a5 cf ba a1 04 48 bb 10 18 db bb 3a 92 53 3c
       -0.0015842164 -0.0030520337 -0.006686218 0.012913281
000010 67 b7 21 bc 57 2a 86 3a c6 c4 2c 3b 18 b9 f1 3a
       -0.009870387 0.0010236007 0.0026362403 0.0018442003
000020 eb 5d 76 bb 7a f1 38 ba 77 8b f1 3a 20 ca c0 bb
       -0.00375926 -0.0007055026 0.0018428405 -0.00588347
000030 f5 31 14 3a a8 71 bb 3b 4c 6a 3d 3b dc 14 80 bb
       0.0005653196 0.005720336 0.002890247 -0.0039087366

encoder.bn2.running_mean f4 [16]
000000 67 13 9d 3e 2c 41 25 3e f8 a2 92 3e a0 f1 12 3e
       0.30678865 0.16138142 0.2863996 0.14349985
000010 27 cc 1a 3e 3f 96 1a 3e 16 a6 90 3e 1c e1 ba 3e
       0.1511694 0.15096377 0.28251714 0.3649987
000020 e1 dd 4a 3e d5 27 87 3e f5 d5 ca 3d e7 a6 8c 3e
       0.19811203 0.26397577 0.0990409 0.27471086
000030 5d 44 68 3e 49 b4 a9 3e 7c f0 1e 3e df 48 36 3e
       0.22682329 0.3314536 0.15521425 0.17801236

encoder.bn2.running_var f4 [16]
000000 0f ab 6a 3e 87 a1 8e 3d a1 f2 27 3e 85 84 2d 3d
       0.22916816 0.06964403 0.1640115 0.04236271
000010 d9 9b b5 3d d2 b2 55 3d 9a b6 1a 3e 80 95 36 3e
       0.08867616 0.05217249 0.1510872 0.17830467
000020 bf b5 bb 3d f1 a0 1d 3e 08 5d 27 3d c9 6d bc 3d
       0.09165525 0.15393426 0.040860206 0.09200627
000030 a1 5b ce 3d ad fd f4 3d 69 44 36 3d 1c 74 41 3d
       0.100760706 0.11962447 0.044498835 0.04722987

encoder.bn3.weight f4 [32]
000000 97 4d 7d 3f 59 8f 81 3f 04 45 80 3f 2a 9e 7f 3f
       0.9894652 1.0121871 1.0021062 0.99850714
000010 9b ad 80 3f 6f d4 7d 3f 70 d3 7f 3f c5 ca 81 3f
       1.005298 0.9915227 0.99932003 1.0140005
000020 59 e2 81 3f 98 7a 80 3f 1a 97 7e 3f 83 0b 81 3f
       1.0147201 1.0037413 0.9944931 1.0081638
000030 a7 72 80 3f 59 3c 80 3f cd f6 7e 3f 1b 1c 81 3f
       1.0034989 1.0018417 0.9959534 1.0086702
000040 56 fb 7e 3f 0e 08 81 3f eb 76 7f 3f 52 42 81 3f
       0.9960226 1.0080583 0.9979083 1.0098364
000050 38 59 80 3f 04 85 7e 3f 64 4e 7f 3f 36 90 7d 3f
       1.0027227 0.99421716 0.9972899 0.99048173
000060 d4 04 80 3f 73 49 81 3f 2b 47 82 3f 58 27 7f 3f
       1.0001473 1.010054 1.0177969 0.9966941
000070 3e c6 80 3f d7 35 81 3f 30 e7 82 3f 98 e9 7f 3f
       1.0060499 1.0094556 1.0226803 0.9996581

encoder.bn3.bias f4 [32]
000000 c6 88 3b bc fc 7e b6 3a c7 26 27 3c 0d db 1f 39
       -0.011446184 0.0013923342 0.010202116 0.00015245024
000010 04 cb 65 bc 09 8f 16 3b bb ce 53 bc 01 09 85 ba
       -0.0140254535 0.002297344 -0.012927706 -0.0010149778
000020 94 b7 80 bb 00 39 90 3c d6 93 b9 3b 0f c2 9f bb
       -0.003928134 0.017605305 0.0056633754 -0.0048754285
000030 c8 4a d4 3a 70 be 69 3c e0 59 b7 ba 77 98 ed 3b
       0.0016196603 0.014266595 -0.0013988577 0.0072508412
000040 ec f5 c8 39 aa 8c 68 3c 9e 1d 06 bc 09 da fc bb
       0.000383302 0.014193693 -0.008185772 -0.0077164215
000050 fd b1 97 3b c8 9c 99 ba 33 5c d3 3b 0a 98 34 3b
       0.004629372 -0.0011719698 0.0064502 0.0027556443
000060 6d ef 82 3b d0 5e a1 bb 9d 84 a8 3b f8 72 25 3c
       0.003995827 -0.0049246326 0.005142762 0.0100982115
000070 cd e0 a4 3b 1c 35 a9 3a 8a 68 15 b9 98 32 91 3a
       0.005031681 0.0012909505 -0.00014248691 0.00110777
