results/_gen_fptra_0.9_1000_VAE_model.pt (torch, 95760 bytes, 61 tensors)

encoder.conv1.weight f4 [16, 1, 2]
00000000: e71c bbbe 6b77 2a3f b5c4 c33e d184 cf3e
00000010: 9278 b5be f6c5 9ebe 7d88 e43e 2da1 af3e
00000020: 2692 08bf 0dcd b7be 6371 083f 51f1 b73e
00000030: e5d5 2b3f da21 34be b044 b0bd 90a5 aabe
00000040: c8ba 0fbe dcbe 24bf 4c02 43be 4b76 d6bd
00000050: 731b 043f 8c22 143f ff5f 26bf 4998 ee3e
00000060: c8f9 79be 9752 dd3e 2e9f f5be 1e5e d83e
00000070: 8f8b 143f 733f 913d 108b 1bbe dc83 dc3e
-0.36545488 0.6658847 0.38236013 0.40531018 -0.3544355 -0.31010407 0.44635382 0.34302655
-0.53348005 -0.3589863 0.53298014 0.35926297 0.6712325 -0.17591038 -0.08606851 -0.3332944
-0.14036095 -0.6435373 -0.19043845 -0.10471781 0.51604384 0.57865214 -0.6499023 0.4660056
-0.2441169 0.43227074 -0.47973007 0.42259306 0.5802545 0.0709218 -0.15189767 0.4306935

encoder.conv1.bias f4 [16]
00000000: f426 b1be 6ac1 17bf 151f 193f af27 68be
00000010: 0d75 703d 365e 273f 5ebd 143e 2672 833d
00000020: 1eb2 9fbe 121c f93d 1048 193f 9d27 1e3f
00000030: 2cf6 d2be b401 65be 1339 1ebf ef90 a8be
-0.3460003 -0.592795 0.5981305 -0.22671388 0.05870538 0.6537813 0.14525363 0.064182565
-0.3119058 0.12163557 0.59875584 0.61779195 -0.4120344 -0.22363931 -0.6180584 -0.32923076

encoder.conv2.weight f4 [16, 16, 2]
00000000: d281 063e 4199 dc3d e7be 95bd c886 aa3a
00000010: f4bf 18be f148 1dbd 4a03 023c 2d18 28be
00000020: d0f7 05bd 84d1 ef3d 1bde c93d 605c d0bd
00000030: 9e8d 55bd e3af 25be 43e9 313d c4ae 053e
00000040: 4f93 f03d 18c8 ba3d e2e1 273d 4e0a 7ebd
00000050: c848 e6bd 1a2d bebd e966 20be 3f04 2abe
00000060: 667f 7dbc 3a8d dbbd 3576 073d 5ae0 8abd
00000070: 26a9 15be 8188 223e f5f3 1d3e 0c34 9a3d
00000080: 0e32 edbd aed3 b73d 3e1b a8bc a9c9 d8bc
00000090: d3ed 273e 3125 153e 2608 dc3d bd48 fa3d
000000a0: 1c8a f1bd f7da ebbd 30ed 8a3d 5158 02be
000000b0: c681 953c 1998 5f3c 880c 0abe 971d 1b3e
000000c0: 47cf 96bd c885 a2bd 51bd ab3d 618b 7b3d
000000d0: f140 cb3d 821b 48bd d5e5 273e 0416 84bd
000000e0: b0c2 08be 7f15 2dbe 2e24 0abd 8dae 8abd
000000f0: 1209 e2bd 94b8 313e 34aa fbbc 4a06 ab3d
00000100: 438e 0a3e 3978 053e 0bcd cfbd 353f 28be
00000110: bf1f 283e f7e9 eb3d 33cf b4bd a5ae 153e
00000120: c29a b4bd aab1 b13d 1c70 b63d 604e ad3c
00000130: 6a29 01bd 385b 553d 5b39 823d 2ae3 2dbe
00000140: 246f 923d 94d9 003e f47a 0abe 7a0a 433d
00000150: bb57 dabd 1403 2d3d 4dc0 58bd bfe8 ba3d
00000160: 0bc4 303e 7441 fbbd 4138 883c f412 fcbd
00000170: 6afb eabc a7bf ecbd cd4e 2ebe d833 203e
00000180: 63d3 83bd 0606 2e3e 6d38 e9bd e67d 7a3d
00000190: df8f 9eba d57e 243d 81bd 153e 9805 c9bd
000001a0: 536b 58bd c4c0 c63d 12cb 29bd f50b bcbc
000001b0: fb82 85bd c7a9 84bd 6ec4 25bd ff41 813d
000001c0: 51a3 e1bd 88b3 2fbe 2d0e 483d f886 11be
000001d0: 2061 b13b 5996 1d3e 73e3 37be a4be 003d
000001e0: eca4 c1bd 9bbf f93d 3655 1cbd 5223 b8bd
000001f0: de9a debd 5f29 22be c818 f43d 9355 1f3e
00000200: d977 ba3d e9bb ec3b 10c5 e53d 17c1 cb3d
00000210: b96b 90bd 387e d7bd a40e 203e 08a1 17be
00000220: 77c6 343e 5f54 2c3e 91eb 2f3e 02d2 56bc
00000230: aa64 a7bd d058 c0bc f14b 503d 25de 9cbd
00000240: 1198 04be acbc 113d ab43 023e 2ebd 33bc
00000250: 5f16 183e 3f23 b53d 25da 4b3d 6af2 7ebd
00000260: d876 553d 517c b13d 98df b83d 3afa 043e
00000270: 48eb 2a3e 07a3 3dbe 8bc8 93bd 89ee db3b
00000280: d711 333e de4f 33be c1bb 213e d3ab 37be
00000290: e530 bdbc 5872 01be d272 01bd bd12 653d
000002a0: b0a9 d6bb 18e9 06be d27e 9bbd 3dc5 913d
000002b0: 0f05 823d 268d 29be 3a52 bc3d 97c3 08be
000002c0: 08c8 02bd 8ab9 0e3e d553 103e 2e65 9dbd
000002d0: bb7a 0e3e feba a73b 4c0d d33d 787a 283e
000002e0: d4a7 fe3b d902 123d 63bf f5bd 17db 033e
000002f0: 87bc d13d 4342 ed3c 1e5b 463b 8339 233e
00000300: 8ddf fabd 2a7b 2dbe 1071 8d3c f597 d63d
00000310: 6e53 ea3d 9b16 e63d 2983 733c 37b8 c5bd
00000320: 1198 063d fb47 19be 0dcc fb3d 145c c73d
00000330: 3700 973c 86ef 2d3d 0696 e7bd 1e3a 2ebe
00000340: 662a f2bc be2f 10be 98c5 b0bd addb 403c
00000350: 0ab9 a33c 50ae 1b3d 1661 31be 8ba5 123e
00000360: 2ef9 1e3e b110 d9bd 256a df3d d436 2f3e
00000370: 81b2 19bd f09b a13d 9e1f 563d 9669 9d3d
00000380: deab f23c 5870 18be 4c67 1b3e 1824 f0bd
00000390: 7b7c e13d 0848 153e 243c 2abd b195 e23d
000003a0: 255d 873d 7f41 bb3c 2629 b43c 04fa a6bc
000003b0: 9e30 01be 8a74 b03c a821 8d3b 65b7 2dbe
000003c0: 20fe 9cbd 990e c4bd 8978 93bd 4832 8f3d
000003d0: 7c3b 033e 9dcd 483c 428b 25be fbf1 bdbd
000003e0: b182 96bd 177e d03d 583a b63d 10db 01be
000003f0: 84b0 05be 66e9 22be e22d e03d ed20 ffbd
0.1313546 0.10771418 -0.07311802 0.0013010139 -0.14916974 -0.03839964 0.0079353545 -0.16415472
-0.032707036 0.11709884 0.098568164 -0.10173869 -0.05213701 -0.16180377 0.043435346 0.13054949
0.11746847 0.09120196 0.040986903 -0.062021546 -0.11244351 -0.09285946 -0.15664257 -0.16603182
-0.015472269 -0.10720296 0.033071715 -0.06781073 -0.14615306 0.15872385 0.15425093 0.075294584
-0.11581813 0.089759216 -0.020520803 -0.026463347 0.16399316 0.14564969 0.10743742 0.12220905
-0.117939204 -0.115163736 0.06783521 -0.12729003 0.018250357 0.013647103 -0.13481343 0.15148006
-0.07363754 -0.07935673 0.083857186 0.06141222 0.09924496 -0.04885436 0.16396268 -0.06449512
-0.13355517 -0.16902731 -0.03372591 -0.06771574 -0.11036886 0.17355567 -0.030720808 0.08350809
0.13530831 0.13034143 -0.10146531 -0.16430362 0.1641836 0.11519235 -0.088285826 0.14617403
-0.0881858 0.08676465 0.08908102 0.021155536 -0.031533636 0.052088946 0.06358596 -0.16981187
0.07150105 0.12583 -0.13523465 0.047617413 -0.106612645 0.042239264 -0.052917767 0.09126424
0.17262284 -0.122683436 0.016628386 -0.123083025 -0.028684337 -0.11559992 -0.17022248 0.15644777
-0.06436803 0.16994485 -0.113877155 0.061155222 -0.001209732 0.04016002 0.14623071 -0.0981552
-0.052836727 0.09704736 -0.04145343 -0.02295492 -0.06519123 -0.06477695 -0.040470533 0.06311416
-0.11017478 -0.1715833 0.048841644 -0.14211643 0.0054131895 0.15389384 -0.17957859 0.03143181
-0.094552845 0.12194749 -0.0381672 -0.08991112 -0.10869382 -0.15836094 0.11918789 0.15559988
0.091048904 0.007224549 0.11219227 0.09948938 -0.070517965 -0.10522121 0.15630585 -0.14807522
0.17653833 0.1682906 0.17179705 -0.013111593 -0.08173497 -0.02347985 0.050853673 -0.07659558
-0.12948634 0.035580322 0.12721126 -0.010970397 0.14852284 0.08844613 0.049768586 -0.062242903
0.05211529 0.086662896 0.09027022 0.12986079 0.16691315 -0.18519221 -0.07215985 0.006711785
0.17487274 -0.17510936 0.15794279 -0.1793664 -0.023094604 -0.12641275 -0.03160364 0.055926073
-0.00655099 -0.13174856 -0.075925484 0.07117698 0.06348621 -0.1655775 0.09195371 -0.13355862
-0.031929046 0.13937965 0.1409448 -0.07685314 0.13914005 0.0051187268 0.103052706 0.16452968
0.0077714715 0.035647247 -0.11999395 0.12876545 0.10241037 0.02896226 0.0030266712 0.15939908
-0.1224967 -0.16941515 0.017265826 0.10478202 0.11441694 0.112347804 0.014862814 -0.09654277
0.032859866 -0.14968865 0.12294779 0.097343594 0.01843272 0.042464755 -0.113079116 -0.17014357
-0.029561233 -0.14080712 -0.08631438 0.011771125 0.019985694 0.038008034 -0.17322192 0.14320962
0.15524742 -0.10598887 0.10908917 0.17110759 -0.03752375 0.07891071 0.052276246 0.076861545
0.029622968 -0.14886606 0.15176123 -0.11725634 0.11010071 0.14578259 -0.04156126 0.110637076
0.06609563 0.02285838 0.021992277 -0.020382889 -0.12616202 0.021539945 0.0043069907 -0.1696449
-0.07665658 -0.09573097 -0.07200725 0.06992012 0.1281566 0.012256053 -0.16166404 -0.0927467
-0.07349146 0.101803 0.08897847 -0.12681222 -0.13055617 -0.15909347 0.109462515 -0.12457452

encoder.conv2.bias f4 [16]
00000000: b6ec 35be 383e 6f3d 0c5f 4c3d 963e 77bd
00000010: 4ed6 05be 36dc 32be 4b79 e8bd 447c 9fbc
00000020: 14c8 13be 1557 9d3d 56a6 353e 4df5 b3bd
00000030: ba00 09be 1d74 12be c31b f83d a151 063e
-0.1776608 0.058408946 0.04989533 -0.06036242 -0.13070032 -0.17466816 -0.1135126 -0.019468434
-0.14431792 0.07682625 0.17739233 -0.08787022 -0.13379183 -0.14302106 0.1211467 0.13117076

encoder.conv3.weight f4 [32, 16, 2]
00000000: a2f0 8f3d 8490 ad3c d947 173e 6097 30be
00000010: 9342 763c 296c 1dbd 22d6 cd3c 7126 37be
00000020: 8393 c63c cc8f 823d 64f0 b3bd 727f b83d
00000030: 1177 59bd 5280 e7bd b5eb 243e a7d2 2f3e
00000040: 8574 bb3d 3072 a4bd 1a92 2ebd c43a 333d
00000050: f76c 13be 2eb7 823d 1b2c 913d 06bc aabd
00000060: a49c 8b3d 6311 95bd f82b 283e 0237 12ba
00000070: ef76 19bd 39fe 103d 5ce6 9abd 0cbe 6ebd
00000080: 367e 82bd 8131 a9bd e630 d63c dde1 37bc
00000090: 47a0 213e 14d9 373d e7c6 16be 4ce7 f3bc
000000a0: d0ae 6dbb 5d5f 7abd 51ec be3d 2d37 7bbd
000000b0: 6158 773d b961 c83d 0f09 08be d711 bbbd
000000c0: 6167 103d cbc2 9a3d f274 213b aea4 0fbe
000000d0: 6879 093d ae40 2cbb 771e 0cbe d711 b8bd
000000e0: 8aa1 143e 770a 213d 86b8 003e f77b a23b
000000f0: c120 87bc b740 b03c 8d58 df3d 8cf3 313e
00000100: b14b b5bd e549 cb3d 6ae9 25be 8df3 073e
00000110: 556b 443d 6948 503d ce50 94bd 8e34 81bb
00000120: 37d2 2ebd 34c4 d1bd cba3 1a3d 9871 b1bd
00000130: c538 413d f29b acbd 4668 023e a850 e03d
00000140: 6a40 483d b0b4 05be 30c4 29be 6598 263e
00000150: 52cc 9c3d 7574 07be b7ce 103e 1124 c73d
00000160: 5f1a ea3d 08ac 003e bc9f a13d a005 0ebb
00000170: 3486 2abe bbf6 aabd e45b 9abd 4f1e ea3d
00000180: 0fbf 11be d1b9 2a3e 9c67 94bd 6623 893d
00000190: 3f0a 2ebe 3102 003e bb2c 9f3d 34bc b6bd
000001a0: 424d c23d 7804 5f3d 7b19 a4bd beef 123e
000001b0: c633 a8bd 6ee3 3bbb 4d6f 363e 6fde aabd
000001c0: 10d5 b5bd 2c05 a8bd 2998 c0bd f720 13be
000001d0: 29a8 313e 520c 42bb e6a0 3ebd d6fa 26be
000001e0: 3a3e bd3b 3f04 703d 78fd 89bc dfe1 863d
000001f0: 2858 aabc 365f 18be 5ab1 913d a042 0d3e
00000200: bf9f 21be 0700 713d 002d 633d e8cd ab3c
00000210: 7d24 f5bc 4812 263c 57f5 30bd 35d5 d33c
00000220: 811a a43d 65cc 80bd 699a 173e 23f7 cdbd
00000230: 65ec 37bd 8672 e3bd 6b75 5c3c 2819 16be
00000240: f466 bcbd 5e3f 1fbe dc33 f9bd 1b78 1fbe
00000250: 76dd b23d 6051 a3bd cf62 95bc 9ca5 203e
00000260: 9ac6 35bd 7965 093e ec02 b73d db17 2ebd
00000270: e906 8d3c b294 0ebe 5d26 42bc fc6c 603d
00000280: 2c14 f23c eedb 1c3e a3ec fdbd 5c6c 2cbd
00000290: 47bb f7bb 50d1 04be f366 d53d efe4 07be
000002a0: b57a ae3d 0f2c 0e3e 8b47 a6bc d14b b03d
000002b0: 3902 013c 333e fb3d af5b ac3c 3f9a 263e
000002c0: 5a7f cb3c 5a49 d23d a0ef 193e 6f03 263e
000002d0: 3695 6e3c ed6c 18be 5824 233e e8a3 f2bd
000002e0: bf87 2f3e b09f ed3d 1cd9 fa3d 12ca 2dbd
000002f0: 2554 0fbd 2b6b 7e3d 8cf5 c83d da7f ca3d
00000300: 9b40 4bbc 33fd 4bbd 1ce8 ef3d 98d7 eabd
00000310: 097f 12be 38bd e73d bc01 4e3d e404 24be
00000320: cbf9 6cbc 6e76 bebd 170f e5bc 83b7 edbd
00000330: 6946 4bbd 01d0 133d 04a7 33be e683 0abe
00000340: 573c 51bd 7178 4d3d d189 213e 7841 023e
00000350: 93d5 a3bd 364d 24be 129c 983d 2dd7 d3bd
00000360: de42 0abe cb00 f0bd 9353 c33d 2e85 163e
00000370: eedf 023e 323c bdbc 6989 9bbd c6b8 b03c
00000380: 99ca 373d 071d f73d 2b54 323e 9d10 2bbe
00000390: 4d6d 3a3d d6ce 033e dcb5 20be 1b11 bf3d
000003a0: 09e3 ae3d aedc a0bb f993 2b3d 8c61 003d
000003b0: 93c2 a9bd dab2 73bd 309e f13d 6d29 163e
000003c0: 4cac 05bd 84af 113e e3e8 be3d c26f e53d
000003d0: 7098 61bd 5e7f c3bd ed7b 293e 6356 e33d
000003e0: 4734 693b e5cd 1d3e ccac 07be 6b54 2f3e
000003f0: 1ca6 0d3e f423 ec3d 49c1 a13d a973 fe3d
0.07028319 0.021187074 0.14773501 -0.17245245 0.015030521 -0.038433228 0.02512652 -0.17885758
0.024240261 0.06375083 -0.08786085 0.09008683 -0.053092066 -0.11303772 0.1610554 0.17170201
0.09153084 -0.08029592 -0.042619802 0.043757215 -0.14397036 0.06382595 0.070884906 -0.08336644
0.06816986 -0.07278707 0.16423023 -0.0005577655 -0.03746694 0.035398696 -0.07563469 -0.05828671
-0.06371729 -0.08261395 0.026146363 -0.011223284 0.15783797 0.044884756 -0.14724313 -0.029773377
-0.0036267526 -0.0611261 0.093224175 -0.061331917 0.06038702 0.09784264 -0.13284706 -0.09134262
0.03525484 0.07556685 0.0024636355 -0.14027664 0.033563048 -0.002628367 -0.13683496 -0.08987778
0.14514747 0.03931662 0.1257039 0.0049586254 -0.01649511 0.021515233 0.109055616 0.17378062
-0.088523276 0.09926204 -0.16202322 0.13276501 0.047953922 0.050850306 -0.07241975 -0.0039430326
-0.042680945 -0.10242501 0.03775386 -0.086642444 0.04717328 -0.08428182 0.1273509 0.10952884
0.048889555 -0.13057208 -0.16578746 0.16269071 0.076561585 -0.13228019 0.14141355 0.09723676
0.11430811 0.12565625 0.07891795 -0.0021670833 -0.16652757 -0.08347841 -0.07537058 0.11431562
-0.1423304 0.16672446 -0.072463244 0.06696205 -0.16996096 0.12500836 0.077722035 -0.08922616
0.09487392 0.05444762 -0.080126725 0.14349267 -0.08213 -0.0028669494 0.17815895 -0.08343207
-0.08878529 -0.082041115 -0.09404022 -0.14368044 0.17349304 -0.0029609394 -0.046540163 -0.16306624
0.0057752402 0.0585978 -0.016844496 0.0658605 -0.02079399 -0.1488007 0.07113905 0.13794947
-0.15783595 0.058837917 0.055462837 0.020972207 -0.029924626 0.0101361945 -0.043202724 0.025858501
0.08012868 -0.06288985 0.14804997 -0.10056903 -0.044903178 -0.11105828 0.013455729 -0.14658034
-0.09199324 -0.15551516 -0.121680945 -0.1557316 0.087336466 -0.079745054 -0.018235592 0.15688175
-0.044378854 0.13417615 0.08936104 -0.04250322 0.01721521 -0.1392391 -0.011849967 0.054791436
0.029550634 0.15318272 -0.123986505 -0.042095527 -0.007560167 -0.12970471 0.10420027 -0.13270925
0.08519498 0.13883995 -0.020297786 0.08608211 0.007874065 0.12267723 0.021039812 0.16269778
0.024841 0.10267897 0.15032816 0.16212247 0.014561942 -0.14885302 0.15931833 -0.11847669
0.17141627 0.116027236 0.122484416 -0.042429037 -0.034992356 0.062113922 0.09812459 0.09887667
-0.01240554 -0.049802016 0.11714193 -0.114669025 -0.14306273 0.113153875 0.050294623 -0.1601749
-0.014463852 -0.092999324 -0.027961297 -0.11607268 -0.049627695 0.03608704 -0.1754418 -0.13526878
-0.051082935 0.05016369 0.15775229 0.12720287 -0.079997204 -0.16045079 0.07451643 -0.10343776
-0.1350207 -0.11718901 0.09537425 0.14699242 0.12780735 -0.023099992 -0.07594568 0.021572482
0.044870947 0.120660834 0.1741492 -0.16705556 0.045514394 0.1287187 -0.15694374 0.093294345
0.08539397 -0.0049091196 0.041889165 0.031343028 -0.08289065 -0.059496738 0.1179775 0.1466424
-0.03263502 0.1422711 0.09321763 0.11202957 -0.055077016 -0.09545778 0.1655118 0.11100461
0.0035584138 0.15410574 -0.1324951 0.17122047 0.13832897 0.11530295 0.07898194 0.12424404

encoder.conv3.bias f4 [32]
00000000: 6a01 cd3d c171 b3bd e7c0 d93d af2b dfbd
00000010: b200 223e ec6b b73d d178 2ebe c250 033c
00000020: 724a c8bd cdce 91bd b3b3 3bbb faae 26be
00000030: c596 823d 8e0d dd3d 685a f8bc bfdc 17be
00000040: 1188 bbbd 13bc c83c c8b2 3abe fb6b 1c3e
00000050: d308 5bbd 2be9 33be 618f dfbd 4c9d 65bd
00000060: f18f 11be 47d7 0b3e 6acb 533c 9eda 2f3e
00000070: 9e83 13be 61dc c23d c719 0f3d 0ec1 11be
0.10010035 -0.08761931 0.10632496 -0.10897004 0.15820578 0.08956131 -0.17038275 0.00801486
-0.09779824 -0.07119522 -0.0028641045 -0.16277686 0.06376413 0.10793601 -0.030316547 -0.14830302
-0.09156812 0.024503743 -0.18232262 0.15275566 -0.053475212 -0.17569415 -0.10916019 -0.056058213
-0.14215066 0.1365634 0.012926916 0.1717324 -0.14405677 0.0951469 0.034936693 -0.14233801

encoder.conv4.weight f4 [32, 32, 2]
00000000: d409 113c e341 8a3d 4acd 2f3d 6d7d 1b3d
00000010: 2caa 80bc eece d5bc a94f 0c3d 991d 123c
00000020: 35c1 79bd a5a2 803d e216 923c 7aa4 373d
00000030: b20c 4f3d 64c0 ab3c 5b64 9e3c cfc3 b63c
00000040: d743 493d 8def 083d 9b63 56bd 47fe aa3d
00000050: 26e4 52bd 2398 d3bd c5b1 78bd bce4 433d
00000060: 0b23 123d c936 643c 8f54 bd3c 6de3 4fbd
00000070: 9aff 6bbc bb98 41bc 3f72 df3d 1dde d2bd
00000080: 685e 063d 539f c5bd c926 933d 54aa 8ebd
00000090: bb51 453d 5d0c 2dbd 00a3 ff3d f075 21bd
000000a0: f512 a33c b39f 823d c2fe 983d 5ac2 0c3d
000000b0: 1108 86bd 0a53 a1bd c15c 703d 3c00 20bd
000000c0: fffc 7d3d 2ba4 c3bd a725 bf3d 6114 013e
000000d0: 9ec2 e7bd 74d8 613d 5b24 9a3d 952b cfbd
000000e0: b621 8bbb 552e 00bd 0f3b e9bd da1f 9dbd
000000f0: 725a b23c d480 ad3d f348 95bd afed 343d
00000100: 3ab0 b13d 8693 533d 4b79 083e 245b e93d
00000110: b34f ddbd eba0 66bd 0579 c7bd 4125 bbbd
00000120: 6b32 933d 1961 bebd 34e8 da3d ba54 f4bb
00000130: 25b2 8ebd e2a7 953c ed1b e0bb 39d0 c03d
00000140: e9f4 6e3d 60fd d6bd 38a8 bfbd 4fff c03d
00000150: 60f1 6dbd 1309 c9bd 017b a63d b6c4 913d
00000160: 8aae 86bd 76f5 c0bd 5147 3f3b bd6f 8bbd
00000170: 3504 16ba 6041 f03d 45cb 003d c9a1 8b3d
00000180: c7a0 873d 18f1 bb3d 8d2c d0bc fafb a7bd
00000190: 65f7 8a3d e5e5 67bd 1849 013d ccee b8bd
000001a0: 7d39 43bd 2631 ddbd 885c febc 1e4d babd
000001b0: d771 c3bd 34d1 64bd 77fe bbbd 0aae d23d
000001c0: e8cf a6bd a4d4 f1bc 377d f43d 5173 cd3d
000001d0: b3b0 b73d 385e 59bc 06a5 a23c aa41 4abd
000001e0: 4332 9e3d 9a0b 9d3d 74b8 b8bb 0d57 343d
000001f0: fd0c f7bd 35cb 06bd ecbd 0a3e 8d89 63bc
00000200: f5ce ab3d 82c5 5ebd 8247 493d 14c9 a43d
00000210: cc9c e13d 9e40 fabc a873 ac3c ac26 acbd
00000220: 737c c23d 5725 a6bd bc90 1b3d b659 46bd
00000230: f300 b63d 9c24 bebc b518 033d 6d6c 0cbe
00000240: cadb e03d a177 b33d 4fb8 dbbc 77d7 513b
00000250: 5d20 89bc 0f3b e7bb c3ef 8a3d 7981 333c
00000260: 9bbd 9dbb 22e6 163d f1ba b9bd b3cf 8ebd
00000270: 469b a73d 7a04 fe3a 8d80 88bb 317b ed3c
00000280: 463a f43c 7c4f 85bd d00d 233d bb54 fa3c
00000290: ccd8 a43c 81b8 273d b216 903c 8200 bbbd
000002a0: a0c3 063b e6b3 e43b 9150 3bbd aaaa 0fbc
000002b0: 3095 c93c aa2d 5f3d e515 6fbd 70d9 a53d
000002c0: df25 c03d 0e13 98bd 300c a03d bdf2 e63c
000002d0: def2 3ebd b3cf dcbd 4e32 e93d 1743 9cbd
000002e0: fc84 f6bd 0b1e 41bd 412c e23d 150f 6abd
000002f0: 3791 9bbd 35bb 20bc fd18 6f3c b3d7 f5bb
00000300: 9617 463c 8c42 323d f1b6 153d 6546 b3bd
00000310: 1694 30bd 1499 2ebc 4d48 f2bd cd98 e6bd
00000320: f7e1 85bc 53c8 913c 8216 33bd caa8 e63c
00000330: b7cd ad3c f4f4 ae3c 5585 debd 7034 463c
00000340: 2964 c6bd 4545 d03d 6986 823d 961a 06bd
00000350: af68 14bc 5942 a73c 6c4e f4bd febf 98bd
00000360: 756d 00be efbe f0bd d60b 293d 9888 223d
00000370: 296e e9bd 6fa0 8b3d 5e55 ca3c 9da8 b73c
00000380: dba2 793d 98d5 81bd b40e 5abd d547 413c
00000390: cb29 23bc 88b4 b63b 41f9 c4bd 5d0e 41bd
000003a0: 6809 a6bd 2ad2 b4bd 4c06 30bd 5d81 ce3d
000003b0: c054 7cbd 6cc6 05bd 64cd 5cbb bc95 85bd
000003c0: 5a0d fa3c 9850 1d3d bb14 5a3d fbc3 d4bd
000003d0: f195 093b 93e5 df3c e325 823d 958d b2bd
000003e0: 496a b13c 511f 01bd 85b8 a83d 508b 643d
000003f0: bed9 2cbc 5446 2fbd 819c 203d e7b4 9dbd
0.008852441 0.06750848 0.04292039 0.037961412 -0.015706144 -0.026099648 0.034255657 0.008918189
-0.060975272 0.06281022 0.017833177 0.04483459 0.050549217 0.020965762 0.019334963 0.022310166
0.049136963 0.03343158 -0.052341085 0.08349281 -0.05148711 -0.10331752 -0.06071641 0.04782556
0.03567795 0.013929077 0.02311161 -0.050754 -0.014404202 -0.011816199 0.109104626 -0.10296271
0.032804877 -0.09649529 0.07185132 -0.06966081 0.048173647 -0.04224812 0.12482262 -0.039419115
0.0199065 0.063781165 0.07470466 0.034365036 -0.06544507 -0.078771666 0.058682207 -0.039062724
0.062008854 -0.09552797 0.093333535 0.1260543 -0.11316417 0.055138066 0.075264655 -0.101157345
-0.004245962 -0.031294186 -0.11388218 -0.07672091 0.021771643 0.08471838 -0.072893046 0.044171985
0.08676191 0.05165436 0.1332752 0.11394337 -0.10806217 -0.056305807 -0.097398795 -0.09137965
0.07187351 -0.09295864 0.106888205 -0.0074563893 -0.06967572 0.01826853 -0.0068392665 0.09414715
0.058339033 -0.10497546 -0.09358257 0.09423696 -0.05809152 -0.09816184 0.0812893 0.07117598
-0.065762594 -0.09421818 0.0029186795 -0.06808422 -0.0005722673 0.11731219 0.031443853 0.068179674
0.06622463 0.09176844 -0.025411868 -0.082023576 0.06785468 -0.05661573 0.03156385 -0.09029922
-0.047662247 -0.1080039 -0.031049982 -0.0909674 -0.095431976 -0.055863574 -0.09179395 0.102871016
-0.08145124 -0.02952034 0.11937945 0.100317605 0.089692496 -0.013267092 0.01985408 -0.04937903
0.077244304 0.076682284 -0.005637223 0.04402833 -0.12063024 -0.032908637 0.13549012 -0.013887775
0.08389083 -0.054387577 0.04914046 0.08046165 0.11016235 -0.03054839 0.021051243 -0.084058136
0.09496393 -0.08112591 0.037979826 -0.0484254 0.088869 -0.023210816 0.032005984 -0.13713236
0.109794214 0.08763052 -0.026821284 0.0032019296 -0.016739065 -0.007056601 0.06784012 0.010956162
-0.0048138625 0.036840566 -0.09068859 -0.06973209 0.08183913 0.0019379996 -0.004165715 0.028989406
0.029812943 -0.06509301 0.039808095 0.03055798 0.020122908 0.04094744 0.017588947 -0.09130956
0.002056338 0.0069794534 -0.04573113 -0.008768717 0.024607271 0.054486908 -0.05837049 0.080981135
0.09382223 -0.074255094 0.078148246 0.028191919 -0.046618335 -0.10781803 0.11386548 -0.07629984
-0.120370835 -0.04714779 0.11043597 -0.05714329 -0.07596057 -0.009810259 0.01459336 -0.00750252
0.012090584 0.043520495 0.03655142 -0.08753661 -0.043109976 -0.010656614 -0.118301965 -0.11259613
-0.0163431 0.017795717 -0.043722637 0.028156657 0.021216257 0.021357037 -0.10865275 0.012097463
-0.09687073 0.10169462 0.06373293 -0.032740198 -0.009058162 0.02041738 -0.1192902 -0.074584946
-0.12541755 -0.11755168 0.041271053 0.039681047 -0.113979645 0.0681771 0.02469891 0.022419268
0.060946327 -0.06339568 -0.05323668 0.011796911 -0.009958695 0.00557572 -0.09617854 -0.04713284
-0.08107263 -0.08829148 -0.042974755 0.10083268 -0.06160426 -0.032659933 -0.0033691758 -0.065227
0.030523945 0.03840694 0.053242426 -0.10388943 0.0020993913 0.02733115 0.063548826 -0.08718411
0.021657126 -0.031524006 0.08238319 0.05579692 -0.010549961 -0.04279168 0.039211754 -0.0770052

encoder.conv4.bias f4 [32]
00000000: 7460 aabd 44e9 0d3d a5b2 ff3d e6d7 9c3d
00000010: 97fc 163d 7b38 94bd 7aaf 7b3d 39fc b2bd
00000020: 1801 323d 6177 22bc fe04 ed3d 3c8c d83c
00000030: 1b63 88bc 16ef ebbd 8ee3 f73d a2fe 043e
00000040: 2beb 803d 9b27 223d de72 96bd f91a b4bd
00000050: 7807 133b 5625 eb3d a032 02bd b0f7 663d
00000060: ea7b 953d f6f2 ab3d b4c6 62bd 1fbd 2f3d
00000070: 1728 253d 71d8 a8bd 975d a1bb ab72 e3bc
-0.08319178 0.034646288 0.124852456 0.07658367 0.036861982 -0.07237335 0.061446644 -0.08739514
0.043458074 -0.009916157 0.11573218 0.026434056 -0.01664882 -0.115202114 0.121039495 0.1298776
0.06294855 0.039588552 -0.07346128 -0.08794207 0.0022434872 0.11481731 -0.03178656 0.056388557
0.07299025 0.083959505 -0.05536528 0.04290497 0.040321436 -0.08244408 -0.004924487 -0.027764639

encoder.fc1.weight f4 [64, 128]
00000000: b53e ec3c c657 103d 5f4a 833d 6977 37bd
00000010: bd7a 7ebd a436 c6bc 6f5f b03c edcb b33d
00000020: cbf1 883d 1415 ebbc 6ded 513d caac 99bd
00000030: 4060 c03c d251 2abd ca1d 37bd 55ef 3bbd
00000040: e40d eb3c 4257 5cbd 4756 803d 4766 80bc
00000050: 3cb6 8c3d d0f2 58bd 77f0 eebc e05b 2cbd
00000060: 6ee9 953d 5ccb 6e3d ba7a 7c3d dff4 62bd
00000070: d57a ea3c f7bc ff3c 3e1f 323d b847 88bd
00000080: 27cc 33bd 1181 efbc 434f 87bd 49c8 95bd
00000090: 9ea8 1abd 991b 5e3d 9004 f43c 099c 8d3c
000000a0: 0c95 313c 0ba2 de3c f329 553d 1f6e 1bbc
000000b0: aa66 86bd f160 8d3d b804 873c 01cb 51bb
000000c0: 3c02 42bc d2c1 333d 3dc0 39bd 54b7 87bd
000000d0: ecc1 833d ab54 883d 1252 9d3d 460a 63bd
000000e0: 8963 863d 8fdc a1bd a962 52bd e9c3 6c3d
000000f0: 893f 65ba 81b6 06bd 6a0a 653d 2cd6 533c
00000100: cc1f 973d 4781 42bd 3bde 1abd 39df 8bbc
00000110: f549 8a3b 4cdc 42bd fe34 51bd 7e3a 8b3d
00000120: 4cfc f4bc fe9e 4fbc c82a 70bd c440 f5ba
00000130: a6b7 333c 25a5 5339 a670 23bc 8229 59bc
00000140: ce8f a33d d3f7 023d 456b a3bd 5741 9cbd
00000150: a96c 233c fd4e d23b 219c 8b3d a3e7 183d
00000160: 2c22 a2bd 967b e1bc 9b29 263c 22a0 513c
00000170: 8dbe 053d 7e1d 663c e42d 4c3d 1363 b93b
00000180: ebaa b2bc 63b8 a1bd d533 d4bb cc9b af3d
00000190: e3d7 bebc 6ccb 9b3c f3c6 9f3d d937 903d
000001a0: 50f2 93bd 4b0f 673d 3a4a ad3d f940 123c
000001b0: 39d9 c13b 770d 0c3b 1d48 963d 64bb 893c
000001c0: 292a 9abb 46f5 9bbc b0bc aebc 2498 33bd
000001d0: 79ee 813d 4def 91bd 3f68 aa3d 94bc 843d
000001e0: d8d6 0bbc 52b8 b5bc 4361 843d a21a 3ebd
000001f0: 513d a43c e1be 03bd d00e 443d 9848 bd3b
00000200: 4a98 87bd 4db8 babc 63d7 a13c 48da 783d
00000210: 8840 9e3d 912c 8bbc e255 10bd a81d b3bd
00000220: 1ff6 a2bd b1fa 34bd 4c87 793d c288 9bbd
00000230: 78ed 2a3c ec4d 853d 48fc 89bd 2b57 87bd
00000240: 2102 e83a ac03 12bd c7e3 693d cd0e 54bd
00000250: b25c b4bc 1476 5abd 6ce8 3d3c 1577 9b3c
00000260: 0b87 fcbb 94f5 0abd 2de3 acbd 4a12 97bd
00000270: 2de0 243d 7442 33bd 5e38 5fbd ed9c 9fbd
00000280: 4b85 af3d 7f39 8b3c 1bad b2bd 96d7 06bd
00000290: 8544 05bb 2c4e 5b3d 26ea ddbc 4ba6 9c3d
000002a0: 0b91 75bd ce1a 7dbd 6ea9 ee3c 3008 603d
000002b0: f4cb 3ebb 3066 433c 2187 d739 7bb1 8cba
000002c0: 23d5 2fbd 68c5 0d3d 6001 79bd 1f4f 553d
000002d0: 1a54 1abd 9d30 d73a d5ee 67bd ed57 683d
000002e0: 9b57 f0bb 610b b23d eab6 2cbd bc7e 3fbc
000002f0: 964a 483c 01f8 5ebd 8929 77bd 8298 3e3d
00000300: 2df0 3abc 6355 6bbd 7d38 783d 445d 833d
00000310: f53b 683d f311 ef3c 36d1 43bb 9452 4fbd
00000320: 6ec9 3c3c f74f 913d 088e f93c 1ee1 263d
00000330: 652a 1e3c 5ed2 b8bd 47ad 963d 5f79 883d
00000340: 19ba d93c 64ba 04bd 5472 3fbd 4a7c 3c3d
00000350: c590 a63d db75 aa3d 4f9e 853d d790 44bd
00000360: 3879 ac3d 454b eb3c cb37 973d 75c5 a53c
00000370: 1bc2 273d 89ff a33d 055f 84bc bd5d bf3d
00000380: 767a d33c f386 a8bd 5e26 4a3c f3c8 b7bc
00000390: 1aa7 c2bd 64b7 7e3c 77c4 4ebd 70ed 8d3c
000003a0: 2c9b 1f3d 8305 83bb 950f 833c 2b50 36bd
000003b0: 922c 5c3d 019f 063d c844 873c bb76 723d
000003c0: 69f8 2b3d dd30 393d 3300 463d 4201 ab3d
000003d0: c3ea 48bd a418 753d 9993 653d 96d4 fbbb
000003e0: a061 87bb 35f9 edbc 39a8 8cbb 76d0 7a3c
000003f0: 0d76 aabb 6159 9bbd 1a56 7b3c b43b 6bbd
0.028838495 0.035239957 0.064106695 -0.044791613 -0.06212877 -0.024195977 0.021529881 0.0877913
0.06686743 -0.028696574 0.051251817 -0.0750366 0.023483396 -0.041581936 -0.044706143 -0.04588254
0.028693147 -0.053794153 0.06266456 -0.01567377 0.06870696 -0.05296594 -0.029167397 -0.042079806
0.07319914 0.058299407 0.06164048 -0.05540931 0.028623024 0.031218035 0.043486826 -0.06654304
-0.043895867 -0.029236348 -0.06606915 -0.07313592 -0.037758462 0.054225538 0.029787332 0.017286317
0.010838758 0.027176877 0.05204196 -0.009486704 -0.0656255 0.06903256 0.016481742 -0.003201187
-0.011841353 0.043886013 -0.04534935 -0.06626764 0.06433472 0.06656774 0.07681669 -0.05542972
0.065619536 -0.07903396 -0.05136362 0.057804022 -0.0008745124 -0.032888893 0.055918135 0.0129294805
0.07379112 -0.04748657 -0.03780959 -0.017074214 0.004220242 -0.047573373 -0.051075928 0.06798266
-0.02990546 -0.012672184 -0.05863455 -0.0018711318 0.010969078 0.00020184049 -0.009975588 -0.013254525
0.07986413 0.031974625 -0.079794444 -0.0762965 0.009974637 0.0064181075 0.068168886 0.03733028
-0.07916674 -0.02752475 0.010141755 0.012794526 0.032652427 0.014045117 0.049848452 0.0056575625
-0.021810016 -0.07896497 -0.0064759054 0.08574638 -0.023296302 0.019017898 0.078016184 0.07041902
-0.07223952 0.05641107 0.08461423 0.0089266235 0.0059157875 0.002137033 0.07337973 0.016812988
-0.004704733 -0.019037854 -0.021330208 -0.043846264 0.06344313 -0.07125721 0.083206646 0.06481281
-0.008535109 -0.022182617 0.06463864 -0.046412118 0.02004877 -0.03216446 0.04786569 0.005776476
-0.06620844 -0.02279296 0.019756025 0.060755044 0.07727152 -0.016989024 -0.035238154 -0.08745891
-0.079571 -0.04418439 0.060920045 -0.07594444 0.0104325935 0.06509003 -0.06737572 -0.06608423
0.001770083 -0.035648033 0.05710199 -0.051771928 -0.022016857 -0.053335264 0.011591058 0.018977681
-0.007706528 -0.033925608 -0.08441768 -0.07376535 0.040252853 -0.043764547 -0.054497115 -0.07793603
0.085703455 0.01699519 -0.087244235 -0.032920443 -0.002033503 0.053541347 -0.02708919 0.07648905
-0.059952777 -0.06179314 0.029133525 0.05469531 -0.0029113265 0.011926219 0.00041108674 -0.0010734046
-0.042927872 0.03461209 -0.060792327 0.05207741 -0.03767786 0.0016417686 -0.056624252 0.056724478
-0.007334662 0.086935766 -0.042166628 -0.011687931 0.012224814 -0.054435734 -0.060342345 0.04653216
-0.011409801 -0.057454478 0.060600746 0.064142734 0.056697804 0.029183364 -0.0029879338 -0.050615862
0.011522634 0.0709533 0.030463234 0.040742032 0.009653662 -0.09024499 0.07357269 0.06663775
0.026577996 -0.03240432 -0.04673989 0.04601697 0.08133081 0.083232604 0.065243356 -0.047989693
0.08421558 0.028722415 0.073836885 0.020235756 0.040956598 0.08007724 -0.01615859 0.09344051
0.02581523 -0.082288645 0.012338249 -0.022434687 -0.09504528 0.015546653 -0.050480332 0.017325133
0.038966343 -0.00399846 0.015998641 -0.044510048 0.053753443 0.03286648 0.01651229 0.05919526
0.04198495 0.045212615 0.048340034 0.08349849 -0.04905201 0.059837952 0.056048963 -0.0076852543
-0.004131511 -0.029049495 -0.0042925146 0.01530849 -0.005202061 -0.07585407 0.015340352 -0.057429984

encoder.fc1.bias f4 [64]
00000000: f2d7 6bbc cecf ac3d 00f1 2dbd f873 583d
00000010: c316 873d a014 d4bc 1216 b0bd 84ca acbd
00000020: d895 6d3d 3ef1 a5bd bdad 9c3d bc35 79bd
00000030: 0841 99bd a8d5 263c 3900 6a3b 509c e4ba
00000040: 2fe3 6c3d 595a c03c 06bf 24bd 8424 56bd
00000050: 57cf 66bd 7d3a 81bd d5fd 6c3d a5ee 283d
00000060: 19bd f63b 19ef 1f3d 0dca 7ebd c927 a7bd
00000070: 773b fb3c 2061 b03d a5be c0bd 2335 88bd
00000080: 2b3b 62bd aeb6 9f3d 5762 233d c83e 193c
00000090: d5ca 10bc e116 ee3c b2c5 0c3d e9de 05bc
000000a0: 2db2 c6bd 4c8c 163d d40c 9e3c eca8 6dbc
000000b0: 8f78 863b a1ef 433d 4b89 64bd 5b4d b93d
000000c0: bef1 1d3d ca12 3c3c ce59 163d 3501 9d3d
000000d0: b70a e53c 394e 343b 84d9 30bd 8884 2a3d
000000e0: db02 b93c 0e37 61bb 9292 8b3d 0c3d 873d
000000f0: d28a 3a3c 0d61 913d 692f ac3d d76c 863d
-0.014394747 0.08438073 -0.042466164 0.05284497 0.06596138 -0.025888741 -0.085979596 -0.08437064
0.05800423 -0.08102654 0.076503254 -0.06084226 -0.07483107 0.010182776 0.00357057 -0.0017441604
0.057833847 0.023480581 -0.040221237 -0.052280918 -0.05635008 -0.06309984 0.05785926 0.041243214
0.0075298664 0.03904638 -0.06220441 -0.08161885 0.030668003 0.08612275 -0.094113626 -0.0665076
-0.05523221 0.07798515 0.039888706 0.009353347 -0.008837421 0.029063644 0.034368224 -0.008170822
-0.09701953 0.03675489 0.019293226 -0.014505606 0.004103727 0.04783595 -0.055794995 0.090479575
0.03856062 0.011479089 0.03670674 0.07666246 0.02795921 0.0027512445 -0.04317619 0.041630298
0.02258437 -0.003436509 0.068150654 0.06603441 0.011385636 0.07098589 0.0840748 0.06563728

encoder.fc2.weight f4 [16, 64]
00000000: 5fc9 be39 a981 05be f64f 43bd d62d e93d
00000010: ac1e 143d b57a 9c3d 1ba8 17bd 73bb 263d
00000020: d8d5 e2bd 7aba bebd cf83 3bbd eba4 d6bd
00000030: 91e4 9cbd 0131 d63d b263 cfbc 49a1 f0bd
00000040: d2aa cdbc 23ad f1bc 817c 223d d1ea 16bd
00000050: d998 c5bd 052e e13c aa8a 273b 2794 0f3d
00000060: 55c2 37bd bfdb b1bd 6b87 8ebd 0c7c 67bd
00000070: c80b 1bbd 41c9 e33d 7844 303d 9c72 403d
00000080: cff5 d93c 05d7 16bc eeb2 aebd 4217 a8bd
00000090: 2d64 07bd 2e66 bbbd 4e5f d8bc ab0b b73c
000000a0: 539b d73d 6055 7bbd 22dc b9bd f92d 2c3d
000000b0: 8997 00be fd6e dc3d 170c 05be 63e1 d83d
000000c0: fb0e a03d bbaa 753d df7e cabd 0acd d8bd
000000d0: c536 893d 88fb a4bc 249b c33d 4421 89bd
000000e0: 5c41 723d a637 c93a 0c9f eebd 50e4 63bd
000000f0: b09d 3cbd adb7 15bd 8f21 633d e3a4 a7bd
00000100: e37d 273d ef09 e6bd 7be7 07bd 6d5b 76bd
00000110: 6143 8cbd f985 30bc 7189 9abc a4cd 813d
00000120: 8e45 c5bd 72fd d43d a406 e0ba e0ba c6bd
00000130: 6356 a53c d8b9 cabc 0af5 473d aa86 893d
00000140: 8d70 883c c6e5 eb3d 4b7c d0bd f8db b1bd
00000150: 5adc 283d 200c 6a3d c74a 25bd b1b8 9bbd
00000160: ed16 88bd ca91 403c 8b5d 6bbd 66b9 a83d
00000170: eab5 e9bd abbc cebd 5413 703d e401 c13d
00000180: d2e3 b5bd 2bf5 893c a4fd acbd 39b8 cabd
00000190: adf6 88bb cd19 133d d1bb 46bd 70ab 4b3d
000001a0: 0c5d 3b3d 49b0 b6bd d477 63bd c4c0 d8bd
000001b0: 8d06 fbbc e932 77bd 5297 823d 350a 8abc
000001c0: e00c a6bc a9da a13c 83a3 09bd 613d c43d
000001d0: f42c 063d 9bb1 013c f4f5 7b3c ab27 e43d
000001e0: d946 c6bd 152f f4bd 2434 a53d 1358 c53c
000001f0: 333b 81bd 20f9 d53d 8e4d a23d 2932 63bd
00000200: ed12 92bc 7043 d3bd 735f 80bd cfae 593d
00000210: d41f 863c 7016 4fbc 8b02 c2bd ffbf a6bd
00000220: fb37 e3bd d33e 01bb 35a9 ccbd c72a ba3b
00000230: ef45 04be d283 c83d eec4 b9bc 61a4 863d
00000240: c839 e13d fbd1 c63c eef4 bc3c 6a19 f1bb
00000250: fa15 4c3d 24e5 003b 0fd4 de3b 9125 b83d
00000260: 7fe6 62bd fda7 e83d 50dd bd3c 91f0 1abd
00000270: 6112 83bd 6ee1 8d3b a9fc a9bd 9981 98bd
00000280: 1ea5 6f3c f4a3 f73d 1344 a9bc 1a2c 8f3d
00000290: 2f81 8a3c 40dc 5b3d 2999 ff3c 1cc5 763d
000002a0: cce8 a8bd 001f 9c3c 1e1c cbbd 6259 253d
000002b0: 18d6 aa3d b40f 303d ab6d 07bd 1cd1 26bd
000002c0: 4245 b4bd 59af b4bd 6525 83bd 74bd 043d
000002d0: 40bc e03d 0bea d23d 5dc8 82bc 0457 e83c
000002e0: 7ae7 9ebc 396b 86bd 95c6 29bd 53cf eabd
000002f0: ec3c 3f3d 7aa0 d8bd d4aa b53c 6c19 d93c
00000300: ddd9 ac3d 2f40 09bd 5edd c53d 3403 c0bd
00000310: b27d 803d bb04 223d c1f4 92bd 26a0 c9bd
00000320: 247c b8bd a0a5 d53d fd09 23bd df53 e8bd
00000330: 9218 cf3d b0ab ee3d 4721 87bd d2a1 ffbc
00000340: afbf 533d 6e8b d6bd 9764 c73d 9caa 7c3d
00000350: 118f e83d 37f2 5abc 0a16 e13d 18b2 29bd
00000360: 20a4 2cbd 408d f53c 6aae 10bd f2c0 b5bc
00000370: 76d1 993b ed4a d6bd aba0 1d3d beef df3c
00000380: f8a0 a13d cc3d 76bc a60c 683c daaa c1bd
00000390: df88 1a3d 008a a73d e6df 11bd 5f90 9cbd
000003a0: 69bd fd3c 6da5 97bb d874 e93d 9a31 853d
000003b0: ac2f fe3d 22ef d9bd 8874 8dbd d2e1 e33d
000003c0: 8f7d f8bd 8f29 773a 6793 e33d e256 ad3b
000003d0: 3f4c a6bd 9417 02bd 4156 be3d 2970 ba3d
000003e0: 7778 e2bd 727a 63bd 524d 7e3c 6046 05bd
000003f0: b2cf 673c 5417 ba3d 742f 86bd 8e29 c2bd
0.00036389657 -0.13037743 -0.04768368 0.11385696 0.036162063 0.07640592 -0.037025552 0.04070611
-0.11075944 -0.09312911 -0.04578 -0.10480674 -0.07660783 0.104585655 -0.025316093 -0.11749513
-0.025105868 -0.029501503 0.039669517 -0.036845032 -0.09648294 0.027487764 0.0025564828 0.0350534
-0.044863064 -0.08684491 -0.06959423 -0.056514785 -0.037853032 0.111223705 0.043034047 0.0469843
0.026606468 -0.009206538 -0.08530222 -0.08207561 -0.03305452 -0.091503486 -0.026412632 0.02234443
0.105276726 -0.061360717 -0.0907519 0.04203603 -0.12557806 0.10763357 -0.12992893 0.10589864
0.07815357 0.059977274 -0.0988748 -0.10585983 0.066998996 -0.02013947 0.09551075 -0.06695798
0.059144363 0.0015351668 -0.116514295 -0.055637658 -0.04604882 -0.03655212 0.055451926 -0.081857465
0.04089154 -0.112323634 -0.03317974 -0.060145784 -0.06848789 -0.010774129 -0.018864365 0.06338051
-0.09632407 0.10399903 -0.0017091823 -0.09703612 0.020182794 -0.02474682 0.04881767 0.06715138
0.01665523 0.11518435 -0.10179957 -0.08684534 0.04122577 0.05714047 -0.040354516 -0.076035865
-0.06644998 0.011753509 -0.057462256 0.08238487 -0.114116505 -0.10094579 0.058612183 0.09424189
-0.08881344 0.016840538 -0.084468156 -0.09898419 -0.0041797967 0.035913277 -0.04851896 0.049724042
0.045743033 -0.089203425 -0.0555342 -0.10583642 -0.030642772 -0.060351286 0.06376518 -0.01685057
-0.020269811 0.019757586 -0.033603203 0.095820196 0.032757714 0.00791588 0.015378464 0.111403786
-0.09681482 -0.11923043 0.08066586 0.024089849 -0.063101195 0.104479074 0.07924949 -0.05546776
-0.01783129 -0.10315597 -0.062682055 0.053145226 0.016372599 -0.012639627 -0.09473141 -0.08142089
-0.11094662 -0.0019721284 -0.09993211 0.005681369 -0.12917303 0.09790768 -0.022676911 0.065743215
0.10997349 0.024270048 0.02306601 -0.007357766 0.049825646 0.0019667828 0.0068001817 0.0899154
-0.0553956 0.11360166 0.02317682 -0.03782708 -0.0639999 0.004329852 -0.08300144 -0.07446594
0.014626769 0.120918185 -0.020662343 0.069908336 0.016907303 0.053676844 0.031200962 0.060246572
-0.082475275 0.01905775 -0.09917472 0.040368445 0.083416164 0.042983726 -0.033063572 -0.040726766
-0.088022724 -0.088225074 -0.06403617 0.03240724 0.10973406 0.102985464 -0.015964681 0.028361805
-0.019397486 -0.0656342 -0.04144915 -0.11465325 0.04668896 -0.105774835 0.022176184 0.02650138
0.084399916 -0.033508476 0.09661363 -0.09375611 0.062739745 0.039555293 -0.07175589 -0.09844999
-0.09008053 0.10431981 -0.039804447 -0.11344122 0.10112108 0.116538405 -0.06598144 -0.031205092
0.051696476 -0.10475813 0.09735983 0.061686143 0.11355413 -0.013363413 0.10990532 -0.04142961
-0.04214871 0.02997458 -0.035322584 -0.02218673 0.004694159 -0.1046351 0.038483303 0.027335998
0.078920305 -0.015029382 0.014163172 -0.094564155 0.037728187 0.08180618 -0.035613917 -0.07644724
0.030974107 -0.0046278746 0.11399239 0.06503601 0.124114364 -0.10641314 -0.06906992 0.11127056
-0.121333234 0.0009428495 0.11112099 0.0052898983 -0.081200115 -0.031760767 0.092937954 0.09103424
-0.11058133 -0.055536695 0.015521364 -0.032537818 0.0141486395 0.09086481 -0.0655202 -0.09480582

encoder.fc2.bias f4 [16]
00000000: b60c fc3d 1301 a6bd 47e3 b4bd 5bf6 7dbd
00000010: 1a29 e83d d225 033e 986e 0cbe c791 853d
00000020: ec00 5dbb 6e08 703d 4e14 b2bd 75cc 163d
00000030: 0997 dabb a51c e6bd 1e20 7bbd 390e 363d
0.12307112 -0.08105674 -0.08832412 -0.06200252 0.113359645 0.12807396 -0.13714063 0.065219454
-0.0033722473 0.05860179 -0.08695279 0.03681608 -0.006670837 -0.11235932 -0.061309926 0.044447158

encoder.fc21.weight f4 [4, 16]
00000000: 4974 31bc b1aa 433e 93ba 68be 3c18 27be
00000010: a048 2ebc 45c0 5b3d 1376 61be 0224 ec3d
00000020: 828f b33d 72db 24bb e968 57be 4926 5d3e
00000030: 1fd0 89bd e38a 473e 4ea9 d9bd adce 96bd
00000040: da89 afbc 61e2 253e b732 66be dbd9 babd
00000050: a66b e3bc 5f25 aebb c5d1 d6bd 93c7 d53d
00000060: 7c19 33be 9c6e b73d a48a 33bd f0f6 fe3d
00000070: c6d4 4c3e 441e 19bd 47b9 f0bd 55c6 60be
00000080: af2b fbbd 417a f63d 01f0 d7bb b857 37be
00000090: 89b2 c4bd 7ce9 78be 72af 20be 72cc edbd
000000a0: 5042 16be 8880 b2bd efbc 583e da2c 813d
000000b0: a2ad ca3d 5835 65be f5fe 21be 1f09 e93d
000000c0: ba2a f6bd fda0 11be 8b34 61be e4a4 d83d
000000d0: bb53 9e3d 321a 9ebc fe09 2abe e6bc 07be
000000e0: 9d35 8a39 2761 80bd 2953 253e 1462 ff3d
000000f0: 2798 3bbe 0f81 193e f64b 16bd bcce 77bd
-0.010830947 0.19108082 -0.22727422 -0.16317838 -0.010637432 0.05365016 -0.22017698 0.115303054
0.08767606 -0.0025155214 -0.21036114 0.21596636 -0.06729149 0.19486575 -0.106279954 -0.07363639
-0.021428037 0.16199638 -0.22480284 -0.09123584 -0.027761292 -0.0053145136 -0.10489229 0.104384564
-0.1749019 0.08956644 -0.04383339 0.12449443 0.20003042 -0.03738238 -0.11754089 -0.21950658
-0.12264191 0.12035037 -0.00658989 -0.17904556 -0.096043654 -0.24307817 -0.15691927 -0.116112605
-0.14673734 -0.08715922 0.21165822 0.06307383 0.09896399 -0.2238363 -0.15819915 0.11378693
-0.12019868 -0.14221568 -0.219927 0.105783254 0.07730814 -0.0192996 -0.16605374 -0.13255653
0.00026361356 -0.0626853 0.16145004 0.12469879 -0.1831976 0.14990638 -0.036693536 -0.06049989

encoder.fc21.bias f4 [4]
00000000: 7e25 4e3e e4b0 623e aeb8 303e 352e e43b
0.2013149 0.22137791 0.1725795 0.006963516

encoder.fc22.weight f4 [4, 16]
00000000: 456b 0bbe f4f7 983b 4731 ccbc 4d63 b9bd
00000010: 1749 3abe 08d2 e4bd 320e f5bd 187f 943c
00000020: 4013 3a3e ddb7 c93d 2a8a 323e 6fcb 30bd
00000030: 4458 f93d 4fc6 573e 1bf2 88be 0260 38be
00000040: 409c d9bd a4bd 253e 2f77 76be b274 e6bd
00000050: afc9 443e ecbf 36be c81d 6d3e 9e3b 6fbe
00000060: d381 d93d 30ea ef3d fdee 223e af42 0cbc
00000070: 71a1 9fbd a3af 82be 2870 8e3b 76b9 6dbe
00000080: 52a2 5cbe e13b 5d3e 5d04 adbd 3f33 1c3e
00000090: 4968 76be 865d 133e 0ac8 28bd f304 ff3d
000000a0: 7734 46be 5d27 313e 0b37 5ebe 4475 0f3e
000000b0: 492f d73d a5d1 073d ac83 31be 4779 dfbd
000000c0: b6f4 913d fee7 6fbe 6cc2 dd3d 1cb0 87be
000000d0: 1888 563d 7e45 8bbe f1d4 623e 7ad4 c33d
000000e0: cfd2 45be feca 383e e802 d9bc c1df e93d
000000f0: 22ae ffbd 7f3d 7bbe a5cb 013e 1a08 993d
-0.13615139 0.00466823 -0.024925841 -0.09052143 -0.18191944 -0.11172873 -0.11965598 0.01812701
0.18171406 0.09849522 0.17435518 -0.04316276 0.121750385 0.21071742 -0.26747212 -0.18005374
-0.106255054 0.16185623 -0.24068902 -0.112527266 0.19217561 -0.1784665 0.23155892 -0.23362586
0.10620465 0.117145896 0.1591148 -0.0085608205 -0.077944644 -0.25524625 0.004346866 -0.23215279
-0.21546295 0.21604873 -0.08448098 0.15253924 -0.24063219 0.14391145 -0.041206397 0.12452116
-0.19355951 0.17300172 -0.21700685 0.14009577 0.10507066 0.033158917 -0.17335385 -0.10911804
0.07126753 -0.23428342 0.10828099 -0.26501548 0.052375883 -0.27201456 0.22151543 0.09562011
-0.19318698 0.18046185 -0.026490644 0.11419631 -0.12484385 -0.24535178 0.1267534 0.074722484

encoder.fc22.bias f4 [4]
00000000: 3f0d 3cbd ba4e 93bd 42cf 2ebe adcc e43d
-0.04591107 -0.0719275 -0.1707125 0.11171851

encoder.bn1.weight f4 [16]
00000000: 9241 803f e862 803f 5441 803f 628e 7d3f
00000010: 343d 803f 0270 7f3f 5d1a 7e3f d802 7d3f
00000020: 0000 803f 930e 7f3f ba0c 7e3f 8ed1 803f
00000030: 6a02 803f 548e 7d3f 2e77 7f3f 6f9f 7d3f
1.002001 1.0030184 1.0019937 0.99045384 1.0018678 0.99780285 0.9925898 0.98832464
1.0 0.99631613 0.9923817 1.0063951 1.0000737 0.990453 0.9979123 0.990714

encoder.bn1.bias f4 [16]
00000000: 21c5 e6ba 3729 e1bb 36ed 19bb 065c 0f3b
00000010: 70e4 67bb 539c bfbb 99ab c53b cac2 243c
00000020: eee8 873b 56da 0c3c 6420 b9b9 32da 80bb
00000030: 9593 abbb 1806 c9bb e21f 023b 4f5c 743b
-0.0017606356 -0.0068713683 -0.0023487336 0.0021874919 -0.0035383962 -0.0058474927 0.006032419 0.010056207
0.0041476404 0.008596977 -0.00035310083 -0.003932261 -0.005236099 -0.0061347596 0.001985543 0.0037286466

encoder.bn1.running_mean f4 [16]
00000000: 6da6 9f3d 272b 463d 21e7 973e ead9 5e3e
00000010: 7302 843c 14ae 8c3f ca45 ca3e bfd3 983c
00000020: 0000 0000 db3f 0f3d 7fc1 903f 56e9 083f
00000030: 030c 8c3b dcf8 613d bd5a f73b c57e e73c
0.07795415 0.048380997 0.29668525 0.21762815 0.01611445 1.0990624 0.3950637 0.018655656
0.0 0.034973007 1.130905 0.5348104 0.004273893 0.05516897 0.0075486586 0.02825869

encoder.bn1.running_var f4 [16]
00000000: 1960 9b3c 0e40 f93b 9477 3d3d 4326 343d
00000010: 82f8 383a 276d db3d 67c4 e93d 9453 773a
00000020: 358b e236 76ca 2c3b 7759 1d3e a18a 1a3e
00000030: 89af 8538 3fb1 1b3c b10c 4939 b6b7 233b
0.018966721 0.007606513 0.046256617 0.0439818 0.00070560735 0.107141785 0.11414414 0.00094347564
6.7515307e-06 0.0026365793 0.1536616 0.15091945 6.37463e-05 0.009502708 0.00019173582 0.0024981326

encoder.bn2.weight f4 [16]
00000000: 0805 803f d261 7f3f 58f0 7d3f 7b3a 803f
00000010: 050f 803f 48e6 7f3f c7db 7e3f 479a 7e3f
00000020: 26ba 7f3f e3c7 7b3f c234 803f 7609 803f
00000030: d207 803f c2e3 7e3f 3f6e 803f a2a5 7e3f
1.0001535 0.99758637 0.9919486 1.0017847 1.0004584 0.99960756 0.99554104 0.9945416
0.99893415 0.9835188 1.00161 1.0002887 1.0002387 0.9956628 1.0033644 0.99471486

encoder.bn2.bias f4 [16]
00000000: 2392 2abc 836d be3b 8a53 bf3a 3ddb c8ba
00000010: 5dab 8abb 0fbc 6d3b 25c1 9aba c4ec 21bb
00000020: 9065 f8bb 6b96 79bb ba5c 9b3b bd1e 6f3b
00000030: 78b5 45bc f75d edbb 1954 12bb 2f87 20bb
-0.010410818 0.0058113947 0.001459704 -0.0015324127 -0.004231854 0.0036275422 -0.0011806829 -0.0024707774
-0.0075804666 -0.003808404 0.0047412785 0.0036486827 -0.012067191 -0.0072438675 -0.0022327958 -0.0024494638

encoder.bn2.running_mean f4 [16]
00000000: 7454 383e 9666 733e dbc4 843e 61c9 8a3e
00000010: d18d 563e 39b7 683e a1e1 463e dc8f 643e
00000020: 8f26 c33e f310 b13e 98f3 b53e 2113 543e
00000030: 7c4f 083e 8f9e 3e3e 0275 a23e 2c41 993e
0.18000966 0.23769602 0.2593144 0.27106765 0.20952536 0.22726144 0.19422008 0.22320503
0.38115355 0.34583244 0.3553741 0.20710422 0.13311571 0.18615173 0.31729895 0.29932535

encoder.bn2.running_var f4 [16]
00000000: bf37 b23d 2930 e43d c6d2 da3d 1e7a 4f3e
00000010: 54f7 1f3e 2ba9 0b3e e89a b13d 10e4 b63d
00000020: 30b3 c73e 4a6f 163e 7017 423e 8632 d83d
00000030: 3ee9 323d 8bef 9a3d 919b 473e c03a 263e
0.08702039 0.11141998 0.10684733 0.20261428 0.15621692 0.13638751 0.08672124 0.08930218
0.39003897 0.14690891 0.18954253 0.105565116 0.04367947 0.075652204 0.19492938 0.16233349

encoder.bn3.weight f4 [32]
00000000: f326 7f3f eb17 803f 0c51 7e3f 3410 7e3f
00000010: 8c68 7e3f 4cdf 7e3f 78fa 7f3f 16e4 7e3f
00000020: a455 7e3f 0306 813f 7b33 7e3f 6df9 7c3f
00000030: c9a1 7f3f c9ac 803f 4d77 7f3f 97d4 7f3f
00000040: f9fd 7d3f 9158 803f 82d6 7e3f 3da2 7e3f
00000050: 8f00 7c3f 48bc 7f3f be7e 7d3f ba12 803f
00000060: 6e40 7f3f 628a 803f 59e5 7e3f cc8e 7f3f
00000070: 3ae0 7f3f 7d77 803f 03e8 7d3f 887f 813f
0.99668807 1.0007299 0.9934242 0.99243474 0.99378276 0.99559474 0.9999156 0.9956678
0.9934943 1.007996 0.992973 0.98818094 0.9985624 1.005273 0.99791414 0.9993376
0.99215657 1.0027028 0.9954606 0.99466306 0.9843835 0.9989667 0.9902152 1.0005715
0.99707687 1.0042231 0.99568707 0.99827266 0.9995152 1.0036465 0.99182147 1.0117044

encoder.bn3.bias f4 [32]
00000000: 2ec5 223c 93cd d23b 8743 0c3c 35ba 003a
00000010: 56b5 d6bb 6833 ecbb 5d14 9cba b560 32ba
00000020: c1d7 703b 58aa d33b 3509 e2ba e5c6 ca3b
00000030: baf6 af3b bae0 8bba 9e9f 1f3c 9c89 e639
00000040: 0f15 8c3b c19d 933a 1e7f b7bb 4cc4 07bc
00000050: cb9e b1b9 dac4 31bc baf9 a7bb 5765 873c
00000060: 1483 c1ba 7ce7 323b 3a45 a5ba 09d2 c138
00000070: 07bb 273b 5e2d 39bc be3e b5bb 5cce 173c
0.009934707 0.0064331978 0.008561022 0.00049105595 -0.0065523786 -0.0072082765 -0.0011907924 -0.00068045716
0.0036749693 0.0064595155 -0.0017245176 0.006188261 0.0053699883 -0.0010671832 0.009742646 0.00043971546
0.0042749713 0.0011262224 -0.0055998703 -0.008286547 -0.0003387838 -0.010850156 -0.0051262053 0.016527815
-0.0014763796 0.002729862 -0.0012609132 9.242079e-05 0.0025593655 -0.01130232 -0.005531161 0.0092655085

encoder.bn3.running_mean f4 [32]
00000000: 2525 993e 0d51 673e 1b33 c03e 723d 333e
00000010: d1da a73e 5938 aa3e f9cb 6d3e 7ad8 8e3e
00000020: 9b96 633e 626b 7a3e f16c 8d3e d3d3 733e
00000030: bae8 a43e 5f05 c33e 2974 7a3e 61f4 393e
00000040: 8620 3d3e d86f 823e 3565 4e3e 5703 c83e
00000050: 944a 2d3e 329b 3c3e 83ba 623e eb98 993e
00000060: 35c2 173e 9be5 bb3e e6fb d63e b0e7 b23e
00000070: cc31 4f3e a42d a83e 88b0 8b3e 2134 583e
0.29911152 0.22589512 0.3753899 0.17503908 0.3278413 0.33246115 0.2322234 0.27899534
0.2222542 0.24455026 0.27622178 0.23811273 0.32208806 0.38090035 0.24458374 0.1815963
0.18469438 0.25475955 0.20155795 0.39065048 0.1692298 0.18418577 0.22141461 0.2999948
0.14820178 0.36698613 0.41989058 0.3494239 0.2023384 0.3284732 0.2728312 0.21113636

encoder.bn3.running_var f4 [32]
00000000: 0f3f 1d3e 6161 1c3e 3555 a13e 5c9b ac3d
00000010: 93de 353e 747f 563e 8098 143e 5469 333e
00000020: 96c0 133e 0b85 0c3e ff38 263e 8ebe 193e
00000030: 6a86 463e a28c 853e ac99 103e 6a32 e53d
00000040: 75f0 c83d 12ea 0e3e 146a 023e 9ea1 7c3e
00000050: 3e06 813d c275 c93d d4d5 153e fa30 493e
00000060: eda4 913d 70ab 8b3e cea1 ac3e 3aca 453e
00000070: 6a3c eb3d 53a3 263e 8379 0b3e 365c 133e
0.15356086 0.15271522 0.3151032 0.0842807 0.17760687 0.20947057 0.14511299 0.17520648
0.14428934 0.13722627 0.1623268 0.15014097 0.19387212 0.26083857 0.14121121 0.11191256
0.098114885 0.13956478 0.12735778 0.24671027 0.06300019 0.09836914 0.1463235 0.1964759
0.07111535 0.27279234 0.33717197 0.19315425 0.114861324 0.16273241 0.13620572 0.14390644

encoder.bn4.weight f4 [32]
00000000: d2ab 7f3f 404d 7f3f b7ca 7e3f 4833 7e3f
00000010: 4156 7f3f ffde 7b3f 9ff8 7f3f 87b9 7e3f
00000020: 3d50 7f3f d13d 7d3f 64fe 7e3f a897 7c3f
00000030: 6667 7e3f a2eb 7d3f 7356 7f3f 7643 7e3f
00000040: 800f 7f3f ca70 7c3f 16f8 7e3f ac5a 7e3f
00000050: e503 7e3f 3f17 7d3f edd2 7f3f 7900 7e3f
00000060: 02fa 7d3f b707 803f 9b14 803f db89 7e3f
00000070: 4c07 7f3f 4684 7f3f e0cc 7f3f 813c 7e3f
0.9987155 0.9972725 0.9952807 0.99297 0.9974099 0.9838714 0.9998874 0.9950184
0.9973181 0.9892245 0.9960692 0.9866891 0.99376523 0.9918767 0.99741286 0.9932169
0.99633026 0.986096 0.995973 0.99357104 0.9922469 0.98863596 0.9993122 0.9921947
0.99209607 1.0002354 1.0006288 0.994291 0.9962051 0.9981121 0.9992199 0.9931107

encoder.bn4.bias f4 [32]
00000000: 3478 3abc 9f81 403c 9215 423c e2d2 4bbb
00000010: 8fa7 0f3b 8389 9abb 8dc0 0c3c a5ef 9e3c
00000020: 11b1 6bbc 33a1 1ebb f2ca eb3b d286 49bc
00000030: b02c 233c bfc8 313c 4027 3d3c 5b8d a03c
00000040: 689a 2d3c 2f18 7e3b acd8 813c 5983 753c
00000050: 0448 c9ba 64af 7fbb cddb 79bb c837 513c
00000060: dc07 f33b 1906 65bc a3d1 3b3c d309 69ba
00000070: da49 bebb bfc1 bb3b c54e 0fbc bbf3 c1bb
-0.011381198 0.011749654 0.011845963 -0.0031101038 0.002191994 -0.0047160997 0.00859083 0.01940138
-0.014385478 -0.002420497 0.007195824 -0.01230021 0.009959385 0.010851084 0.011545002 0.019598654
0.010595895 0.0038771739 0.015850388 0.014984929 -0.0015356545 -0.0039014453 -0.0038125396 0.012769647
0.0074167084 -0.013978505 0.0114635555 -0.00088897086 -0.0058071436 0.0057298834 -0.008746807 -0.0059189475

encoder.bn4.running_mean f4 [32]
00000000: 8b93 5c3e ca12 a43e bfe1 973e 17b8 8f3e
00000010: cd44 893e e008 4d3e 66a7 c03e b35e 7e3e
00000020: 35fb 9e3e dc6f 723e 5e1e ab3e b8f2 b43e
00000030: e611 9a3e 1eff 663e 8cca a53e 1d5c a33e
00000040: 12e8 9b3e 02c8 823e 6bb8 863e f4b4 5f3e
00000050: df5f 9e3e 5863 a03e 70c1 903e 3bca 903e
00000060: 5d86 943e 5f06 9f3e 3762 693e c73e ac3e
00000070: 1a4b 9d3e 62ad 803e 9353 933e 1022 873e
0.21540658 0.32045585 0.29664418 0.28070137 0.26810303 0.20022917 0.37627715 0.24840812
0.3105103 0.23675483 0.33421606 0.3534143 0.3009178 0.22558257 0.32381094 0.31906214
0.30450493 0.2554322 0.26312575 0.21846372 0.3093252 0.31325793 0.2827258 0.2827929
0.2900876 0.31059548 0.22791372 0.33641645 0.3072136 0.2513228 0.287747 0.26393175

encoder.bn4.running_var f4 [32]
00000000: 0b09 0f3e 2ff7 663e f1f5 1b3e 9823 f83d
00000010: bd3f 153e bb83 ef3d 84e3 4e3e 6cab 233e
00000020: ab0a 4f3e dcdc 033e 205a 3e3e 6277 9c3e
00000030: cbfb 803e 0870 023e c508 393e 900b 443e
00000040: 50d9 573e 58be 133e 4aac 2e3e 4d69 ff3d
00000050: 18e1 2f3e f1bc 2f3e f607 443e ba84 253e
00000060: b87e 223e 35ee 253e 4eb9 213e 6fc0 843e
00000070: e731 3c3e c4b2 1b3e 6644 223e 53c1 183e
0.13968293 0.2255523 0.15230538 0.12116164 0.14575095 0.116950475 0.20203978 0.15983361
0.20218913 0.1287722 0.18589067 0.30559832 0.25192103 0.12738049 0.18069752 0.19145036
0.21078992 0.14428079 0.1705791 0.124712564 0.1717571 0.17161919 0.19143662 0.16163912
0.15868652 0.1620415 0.15793344 0.25928065 0.18378411 0.15204912 0.15846404 0.14917497
