results/_gen_fptra_0.5_1000_VAE_model.pt (torch, 95760 bytes, 61 tensors)

encoder.conv1.weight f4 [16, 1, 2]
000000 4e 4e f0 3e 50 9a 38 3d c8 25 cf bd 60 b2 87 be
       0.46934742 0.04506904 -0.10114628 -0.26503277
000010 cc eb 5f 3e ac 93 75 3e e2 bf d8 3d 3a 02 d4 3e
       0.21867293 0.23982114 0.10583474 0.4140795
000020 7f 7d cc 3c 2a 3a 9d be 10 eb 14 3e 6a d7 b8 3e
       0.024962185 -0.30708438 0.14542794 0.36101848
000030 19 c8 9e be f4 fc 7a 3e e4 37 f8 3e d2 e2 00 bf
       -0.31012037 0.24510556 0.4848014 -0.503461
000040 42 a6 46 bd ab 03 22 3f 17 46 c2 be a0 77 dc bc
       -0.0484984 0.63286847 -0.379441 -0.02691251
000050 7a d4 11 3e 6b 5e ec be 70 72 d1 be a7 f7 2f 3f
       0.1424121 -0.46165785 -0.4090762 0.6873726
000060 96 f8 14 3f b4 74 02 bf 62 a9 42 3e be 6e 38 bd
       0.5819181 -0.50959325 0.19009927 -0.045027487
000070 34 84 dc 3e 21 5e 9d be 80 5c 94 bc 34 ee b8 be
       0.43069613 -0.30735877 -0.018110514 -0.36119235

encoder.conv1.bias f4 [16]
000000 e0 6b 12 bf ca 5d 2b bf 46 f1 13 bf 7d 35 e1 3e
       -0.57195854 -0.66939986 -0.5779003 0.4398612
000010 11 6c c1 3e 46 11 0b bf f7 4c 5e be 35 0d 50 be
       0.3777776 -0.5432323 -0.21709047 -0.20317538
000020 76 05 ec be 4d ca 17 bf 10 e3 00 be 2f 37 83 3e
       -0.46097916 -0.5929306 -0.12586617 0.2562804
000030 ab d0 4d 3e 11 78 17 be f0 17 0d bd 46 26 e7 be
       0.20099132 -0.14791895 -0.034446657 -0.45146388

encoder.conv2.weight f4 [16, 16, 2]
000000 4f a5 d8 3d 05 b8 6b 3d 3e b4 15 3d 97 a1 83 3c
       0.10578405 0.05754854 0.036548845 0.016068263
000010 14 22 2d 3e 39 2c a5 bd ee 66 f7 3d a9 b8 94 3d
       0.16907531 -0.080650754 0.12080179 0.07261784
000020 42 bf 28 3e b3 3a a1 3b a8 27 1f be 5c f4 11 bd
       0.16479209 0.0049203276 -0.15542471 -0.03563343
000030 dd 2b d4 bd 45 ba 1c 3e 82 85 7e 3d e6 e2 9d bd
       -0.10359929 0.15305431 0.06213904 -0.07709293
000040 27 1c c0 3b 26 80 d8 bc d6 f4 04 3e ad da f0 bd
       0.005862731 -0.026428293 0.12984022 -0.11760459
000050 26 89 62 3c 58 e0 08 3e 13 62 45 3c 5a 56 0a be
       0.013826644 0.1336683 0.0120473085 -0.13509503
000060 10 f0 7b 3d b4 a6 90 3d d5 75 11 3e 7d 6d 46 bd
       0.06150824 0.07063046 0.14205106 -0.04844426
000070 ca 50 a6 3d 64 2b 96 bd 97 8c fe bd 7e 8e 38 be
       0.08120878 -0.07332495 -0.12429159 -0.18023106
000080 40 3e 7c bd 6a 17 c7 bd 94 3b e9 bd c5 f7 7f 3d
       -0.061582804 -0.09721263 -0.11388317 0.06249215
000090 23 aa 19 be 22 63 ba bd 9b 7b 16 be 64 e9 e1 bd
       -0.15006308 -0.09100939 -0.14695589 -0.11030844
0000a0 06 2c ed bd b0 dd 4e bb eb 53 b1 3d 97 d0 ba 3d
       -0.115806624 -0.0031565242 0.08658584 0.091218166
0000b0 5d 79 9f bd 02 8d 5e bd 08 fa 34 bd 58 2b 64 3d
       -0.0778682 -0.054333694 -0.04418376 0.0557054
0000c0 d5 4e 1b 3e 9a ca 19 bc 97 7e db 3d e8 07 fa 3d
       0.15166791 -0.009386683 0.107175045 0.12208539
0000d0 ee 40 d1 bd b4 1d 4a bd e9 f5 fa bd 80 9a 1f be
       -0.102174625 -0.049344733 -0.12253935 -0.15586281
0000e0 48 e9 07 be 9e ab ba 3d be 5e f3 3d 96 2e aa 3d
       -0.13272583 0.09114765 0.11883305 0.08309667
0000f0 f8 2c ec bd d0 4e 21 3d 3e 2e 3f bd 9e e2 36 3b
       -0.115320146 0.039381802 -0.04667496 0.002790607
000100 e0 3e b6 bd a9 0d 2e 3e 46 ae bf 3d 97 72 7f 3d
       -0.08898711 0.16997398 0.09359412 0.06236514
000110 d8 e8 ae bd 2a 70 eb 3d 8e 4d ce 3d aa 14 17 3e
       -0.08540505 0.11496003 0.10073386 0.14753976
000120 55 59 27 3d 5e 31 dc bb fd 7a 02 bd 8b b6 23 3e
       0.040856678 -0.006719752 -0.031855572 0.15987603
000130 11 84 f0 3c 34 cf 1e 3e ec 75 18 3e 2f a4 1f be
       0.02935985 0.15508729 0.14888734 -0.15589975
000140 de 86 ef 3d 65 7c 00 bd e5 05 31 3d b0 86 7b bd
       0.11695646 -0.031368632 0.043218512 -0.061407745
000150 bf 86 97 bd 12 88 15 be 72 98 a0 bd 46 77 39 3e
       -0.07398748 -0.14602688 -0.07841577 0.18111905
000160 83 47 66 bc 33 49 31 be 3a 33 e9 3d 93 8e 6e bc
       -0.014055136 -0.1731308 0.11386724 -0.0145603595
000170 28 e5 fd bc af 22 01 be eb 36 1b be 1f ff 3b be
       -0.03099306 -0.12610887 -0.15157668 -0.1835904
000180 08 80 0a be cd 19 c3 bd cf c0 ab bd 38 f0 ca bd
       -0.13525403 -0.095264055 -0.08386385 -0.09909099
000190 af ab c5 3d 6a 3f 30 3e 54 97 ce bc bb 35 f0 bd
       0.09651887 0.1721169 -0.025218643 -0.11728998
0001a0 ee 05 08 3e 4f fc 44 3c e0 47 8b bd 0d 63 0c be
       0.13283512 0.012023046 -0.068008184 -0.1370966
0001b0 74 e8 14 be 00 fe 0f 3e 85 6e 0e be 74 55 05 bb
       -0.14541799 0.14061737 -0.13909347 -0.0020345123
0001c0 93 4d cb 3d aa 78 a8 bb ee 9b 0b be f2 15 42 be
       0.099269055 -0.0051413374 -0.13633701 -0.18953684
0001d0 b1 80 84 bd b4 64 e0 bd 9c 69 4b 3d a5 d6 12 3e
       -0.064698584 -0.109567076 0.049661264 0.14339693
0001e0 6d ce e1 3d d0 06 50 3d 78 de 2c be 7f 07 a1 bc
       0.11025701 0.050787747 -0.1688174 -0.019656895
0001f0 e9 4b 07 3c 46 0f 9f bc 32 49 05 bd 9e 3d a7 bd
       0.0082578445 -0.019416463 -0.032540508 -0.081660494
000200 f2 86 56 bd 40 7c b9 3d f6 bb 09 bd 21 48 df bd
       -0.052374788 0.09056902 -0.03362652 -0.10902429
000210 ee 8e 9e 3c 49 e0 a2 bd 08 55 19 be 62 33 00 be
       0.019355264 -0.07952935 -0.14973843 -0.12519601
000220 e3 cf f9 bd 4a 05 14 be 16 27 9b 3d ac 31 24 3e
       -0.12197854 -0.14455143 0.075758144 0.16034573
000230 21 30 0a 3e 58 bf e0 3d 7e 40 7c bd d3 b8 d8 bc
       0.13494922 0.10973996 -0.061584942 -0.026455319
000240 cb b7 66 3d c9 dd a0 bd 1d 19 21 3e 87 f0 74 3d
       0.056327622 -0.07854802 0.15732236 0.059799697
000250 ad 86 88 3c fa dc cc 3d c8 a0 0c 3e 51 44 dc bd
       0.01666578 0.100030854 0.13733208 -0.10755218
000260 b0 a4 17 be fe ea bf bb 08 e2 bc bd fe 08 67 3d
       -0.14808917 -0.0058568707 -0.092227995 0.05640506
000270 75 a8 fa bb 23 d9 e3 3d 13 29 1b 3e dc cf 1e 3e
       -0.007649476 0.111254 0.15152387 0.1550898
000280 a6 a5 35 3d f1 58 a8 bc f4 4e eb bd 46 60 dd 3d
       0.044347428 -0.020550223 -0.114896685 0.10809378
000290 d1 d3 b1 3d 67 04 ee 3d e4 9b 16 3e 1c ee ec 3d
       0.08682979 0.116219334 0.14707905 0.11568853
0002a0 8a 43 c7 bd bc c5 e8 bd f7 27 c5 3d 39 51 87 bd
       -0.09729679 -0.1136584 0.09626763 -0.06607289
0002b0 73 7d c0 3c f1 fe 0c be 55 18 0a be 2b 18 0f 3e
       0.023497319 -0.13769127 -0.13485844 0.13974063
0002c0 50 b0 86 bd cb 42 f1 3b 4b 7d 0b be 11 3a f4 bd
       -0.06576598 0.0073626987 -0.13622014 -0.11925138
0002d0 4b 05 16 be 67 72 86 bd 15 d4 86 3d 3c 92 91 3d
       -0.14650457 -0.06564789 0.0658342 0.0710797
0002e0 8c f2 c8 3c 9c 03 12 3e 41 88 57 bd f3 ad 0b 3d
       0.024529718 0.1425919 -0.052620176 0.034101438
0002f0 29 dd ca bc 06 92 7f bc a8 48 89 3d 86 60 d7 bd
       -0.02476366 -0.01559878 0.06703311 -0.10516457
000300 7e 32 10 3e a1 2d 9b 3d 3f 73 3e 3b 5d 0f 0a bd
       0.14081761 0.075770624 0.0029060391 -0.033706058
000310 4a e2 d6 bd 59 c3 9f 3c 64 04 0c 3e 99 63 36 3e
       -0.1049238 0.019502329 0.1367355 0.17811431
000320 78 12 15 be 5a be 36 bd 19 cb c3 3d c7 1e 5b 3d
       -0.14557827 -0.044615127 0.09560222 0.05349615
000330 7d 0c 25 3e db 9d d1 bc b2 84 39 be 57 c2 00 bd
       0.16118045 -0.025587967 -0.18117025 -0.031435337
000340 5a 87 5f 3d 96 7f f8 bd b6 7a dc 3d 92 58 63 bd
       0.05457244 -0.1213371 0.10765593 -0.05550439
000350 d2 1d 54 3c 1b fb 50 bc 22 09 f1 3d a1 fc 23 be
       0.012946563 -0.012755181 0.1176932 -0.16014339
000360 0c 44 bb 3c 59 ad 3b 3e ee 00 29 ba 90 89 95 bc
       0.022859596 0.18327846 -0.0006446977 -0.018254071
000370 74 d0 a3 3d 2e 4f 4e 3d bd 5f 06 be 40 71 34 3e
       0.07998744 0.05036848 -0.13122459 0.17621326
000380 dd 36 96 bc 59 1f 16 bd b1 92 90 3d 76 73 22 3e
       -0.018336708 -0.03665099 0.07059229 0.15864357
000390 2b 02 f5 bd e3 6a 06 bd b0 40 2a ba 47 42 fd 3d
       -0.11963304 -0.03281678 -0.00064946245 0.12366157
0003a0 67 b7 8e bd b0 5e 00 be 1b f9 10 3d 87 9f 41 3e
       -0.06968575 -0.1253612 0.035393815 0.18908511
0003b0 20 60 3a 3c 3c 5a c9 bd 62 52 ec 3c 6a 02 c5 3d
       0.011375457 -0.09831664 0.028847877 0.09619601
0003c0 d3 58 2c 3d a0 89 a8 bb 37 ec 03 3e 00 e8 28 3e
       0.042076897 -0.0051433593 0.12883078 0.16494751
0003d0 68 bb 1f 3d 85 73 02 3e e0 2f 1c 3e 04 47 61 3d
       0.038997084 0.1273938 0.15252638 0.054999366
0003e0 d3 ae 98 bb b9 0b 04 3e aa 52 2c bc c7 94 18 3d
       -0.0046595125 0.12895097 -0.0105177555 0.03725126
0003f0 8e ba 49 bc a9 7b 2f 3e ad 56 1f be 06 0c f2 bc
       -0.0123125445 0.17137016 -0.15560408 -0.029546749

encoder.conv2.bias f4 [16]
000000 c6 82 1e bd dc c2 45 3e bd 03 40 3d 78 fa be bd
       -0.038698934 0.19312614 0.046878565 -0.09325117
000010 ca a2 fd bd 01 3f cb 3d d4 13 97 3d 04 c5 58 3d
       -0.12384565 0.099241264 0.07376829 0.052922264
000020 3b ab 1f 3e d2 d4 b7 bd 28 3c 5d 3d d1 0f c1 bd
       0.15592663 -0.08976139 0.054012448 -0.09426845
000030 75 94 82 3c 0f 5b 41 bb b8 39 e8 3d 15 69 a0 bd
       0.01593993 -0.0029503738 0.11339134 -0.07832543

encoder.conv3.weight f4 [32, 16, 2]
000000 44 35 a2 3d 60 a1 08 be d4 49 8c 3d ae ef 4b bd
       0.07920316 -0.1334281 0.06850019 -0.049789123
000010 cc 23 95 bd 64 13 f9 3d 2d 63 54 bd 4e 70 20 3e
       -0.07282218 0.121619016 -0.051852394 0.15667841
000020 cf 93 80 3d 7f 44 4c be 83 19 0f 3e 4c bf c7 3c
       0.06278192 -0.19948004 0.13974576 0.02438321
000030 af c3 0b 3d bc ae 04 3e d6 c0 a4 3d cc 07 01 bc
       0.034122165 0.12957281 0.08044593 -0.007875394
000040 b8 da be bd 0b 9b 26 be f5 45 a6 bc 90 49 f5 3c
       -0.09319061 -0.16270082 -0.02029703 0.029942304
000050 85 17 91 bd 48 71 db 3d f7 07 62 3d 85 e9 3f 3d
       -0.07084564 0.10714966 0.055183377 0.04685356
000060 0b 68 c0 3c a9 20 98 3c 9f cc 00 bd bb 8e 9e 3d
       0.023487112 0.018570261 -0.031445142 0.077420674
000070 98 8c cd 3d 20 63 db 3d fe 3a 05 3e 9f 91 09 bc
       0.10036582 0.10712266 0.13010785 -0.008396535
000080 04 30 d8 bd e1 17 fa 3d b2 84 dc 3d a1 fd 29 be
       -0.10556033 0.12211586 0.10767497 -0.16600658
000090 97 95 19 be c5 95 02 3e 18 57 c7 bb a5 9e 8f bd
       -0.1499847 0.12752445 -0.0060833804 -0.07012681
0000a0 52 12 f3 3c 44 84 58 bd b2 fa 8b bd 86 67 a6 3d
       0.029671822 -0.052860513 -0.06834926 0.08125214
0000b0 76 99 ca 3d d1 ec f7 3d a3 f6 f1 bd 79 c0 24 3e
       0.098925516 0.12105716 -0.1181462 0.16089047
0000c0 7a 4d 29 be d4 bd cb bd 99 dd e1 bd 35 58 84 bd
       -0.16533461 -0.09948316 -0.110285945 -0.06462137
0000d0 ab 89 ce bd c8 6d 08 be 70 52 19 bd 5f a2 67 bd
       -0.10084852 -0.13323128 -0.037432134 -0.056551334
0000e0 0b 6c d2 3d 45 64 06 3c 20 54 13 3d c8 58 aa bd
       0.10274514 0.008202617 0.0359689 -0.08317715
0000f0 c3 ed 33 bd 23 24 7f bc c3 55 ae 3d 30 55 91 bd
       -0.04392792 -0.0155725805 0.085124515 -0.07096326
000100 89 97 36 bd 72 aa e6 3d 1a 93 ad 3d 22 54 b5 3d
       -0.04457811 0.112629786 0.08475323 0.08853938
000110 b7 0c 0f 3e d2 e9 3e 3e cb 57 36 bd 63 66 13 3d
       0.13969694 0.18643883 -0.04451732 0.035986315
000120 0f 7e ae bd f2 c5 8e bc 87 a5 49 3d 96 4c 6f bc
       -0.085201375 -0.017428372 0.049230125 -0.014605662
000130 29 2a 26 bd 16 28 c0 3c 62 fa 54 3d 2e c7 06 be
       -0.04056755 0.023456614 0.051996596 -0.13161919
000140 d5 fb 5c 3c a3 a4 67 bc 0b 33 b1 bc a3 f2 98 3d
       0.013487776 -0.014138374 -0.021630784 0.07468154
000150 13 cb 3f bd 23 7a e0 3d 5b be a6 3d 8c 8c 12 3e
       -0.046824526 0.10960796 0.08141776 0.14311427
000160 36 d8 13 be 29 de c9 3d 34 25 bd 3d d2 16 c5 3d
       -0.14437947 0.09856827 0.092356116 0.09623493
000170 1a 73 e1 3d e8 24 23 be 92 27 f2 3d 87 c3 e4 3d
       0.11008282 -0.15932047 0.11823954 0.111701064
000180 12 3b 8c 3c 7b 4e 1d 3e 22 e6 e0 3c 35 d5 e7 bd
       0.01711801 0.15361969 0.027453486 -0.11319963
000190 8d f3 2e bd ab 88 3d 3d 97 7b d8 bd dd 99 8f bd
       -0.042712737 0.046272915 -0.10570448 -0.07011769
0001a0 9d 80 ea 3d b8 69 22 3e f3 eb 2d 3e 1b 92 89 3d
       0.11450312 0.15860641 0.16984539 0.067173205
0001b0 25 76 04 3d ce 18 10 bd 41 b6 05 3e fb 3f ce 3d
       0.032339234 -0.035179906 0.13057806 0.10070797
0001c0 12 79 23 3e 01 2a e2 3d 55 f6 2b be a0 c0 0e 3e
       0.15964153 0.11043168 -0.16793187 0.13940668
0001d0 f3 34 93 bb bc cd 24 3e c3 4b d8 bd df d1 95 bd
       -0.004492396 0.16094106 -0.105613254 -0.0731542
0001e0 a6 ed 9d 3d 0e b8 1e 3e 5b 8c 8e 3d af fb 0e 3e
       0.077113435 0.15499899 0.069603644 0.13963197
0001f0 be c6 db bd b2 1c 84 bd 02 89 7e 3d f4 4f 2d 3d
       -0.107312664 -0.06450786 0.06214238 0.042312577
000200 87 5c fc bd a7 19 06 be ae 73 db bd 3a 9f 28 3e
       -0.12322336 -0.13095723 -0.107154235 0.1646699
000210 bb 3b 86 3c ae 73 23 bd 97 03 32 be 96 43 89 bb
       0.016385904 -0.039905243 -0.17384182 -0.004188965
000220 03 c5 75 bd 03 b4 c0 bc 94 7e a0 3d 82 9a 87 3d
       -0.06000234 -0.023523336 0.07836643 0.06621267
000230 b9 53 05 3e 48 84 02 3e 80 c7 94 bd a1 c7 30 3e
       0.13020219 0.12745774 -0.07264614 0.17263652
000240 01 ad 66 bd 4d b2 aa 3c f8 68 e6 3d 9b 4c 36 3e
       -0.056317333 0.020836974 0.1125049 0.1780266
000250 56 1c ee 3d 6c a7 bd 3d 0c 71 84 bc 36 de be 3a
       0.116264984 0.09260449 -0.016167186 0.0014562074
000260 84 3c d8 bd 39 5a 1d be 4d ac 6d bd 6a 8b ce 3b
       -0.105584174 -0.15366448 -0.058025647 0.0063032405
000270 65 64 07 be 5d 40 2e 3d 40 26 bc bc 6f d9 38 bd
       -0.13221891 0.04254185 -0.022967458 -0.045129236
000280 a5 39 68 bc 68 a5 92 3d 5a d7 ff 3d 79 6f a5 bc
       -0.0141739 0.07160455 0.12492247 -0.020194756
000290 0e 5a 02 be 65 2d be bd 85 b0 cd bd a9 b0 92 bd
       -0.12729666 -0.09286002 -0.10043434 -0.071626015
0002a0 4e 4a 0b 3e 2b 2d 01 3d ea 0f de 3d 42 ce 04 bd
       0.13602564 0.031537216 0.10842879 -0.032423265
0002b0 a0 a0 3c 3d 57 a4 22 bd e5 84 33 3c 8f f9 42 3c
       0.04605162 -0.039707508 0.0109569775 0.01190032
0002c0 a8 aa e5 3d c7 fb 70 3d 93 06 78 3c 5f 13 36 be
       0.11214191 0.058833864 0.015138286 -0.17780827
0002d0 a6 11 29 be 4f dd c2 3d a8 fc 34 be 47 f2 c6 3d
       -0.16510639 0.095148675 -0.17674506 0.097141795
0002e0 fb d1 c5 3d 23 d2 bd 3d e9 d6 22 3d c5 18 0f be
       0.09659191 0.09268596 0.039755736 -0.13974293
0002f0 b0 e4 f4 bc a8 bf 0d 3e ab 8e 6e bd 45 3c 3c bc
       -0.029894203 0.13842642 -0.058241528 -0.011488979
000300 88 3d a4 3c 4d 1c 97 3d 4f a8 30 be 22 1f 89 bc
       0.020048872 0.07378445 -0.17251705 -0.016738478
000310 00 81 c7 bd 2d b8 1e be 8f d3 9c bc 8e 0f 92 3c
       -0.09741402 -0.15499945 -0.019143848 0.017829683
000320 c9 d6 db 3d a5 7b 6e bd 84 37 09 bd 2c 82 84 bd
       0.107343264 -0.058223385 -0.03350021 -0.06470141
000330 ae 66 f9 bd 67 a0 4d bd 07 ae f2 bd e7 c6 eb bd
       -0.12177788 -0.0502018 -0.11849599 -0.11512547
000340 5d 64 14 be eb 49 0d be 15 2a da 3d 63 3c 57 bd
       -0.1449141 -0.13797729 0.10652558 -0.052547824
000350 ad 0f f4 3c c2 1f 32 3e fe 74 94 3d ac 2d 1b 3d
       0.029792631 0.17394927 0.07248877 0.037885353
000360 10 a9 38 3d 91 08 07 3e be b7 d1 bd 0b 2a c3 3d
       0.045083106 0.13186862 -0.10240124 0.095295034
000370 ff e6 96 3d 5b 17 2d be c6 25 61 bd 7a fd 07 3e
       0.07368278 -0.1690344 -0.054967664 0.13280287
000380 e0 27 96 bd fc a1 3e bd e2 92 1b 3e 40 7a 10 be
       -0.07331824 -0.0465412 0.1519275 -0.14109135
000390 b2 68 05 3e 48 38 4b 3e 8c 9d d5 3b 36 8e 84 bc
       0.1302822 0.19845688 0.006519025 -0.016181093
0003a0 1b a2 a6 3d 1e 63 9b 3d 1e b1 10 be 44 b9 32 be
       0.08136388 0.075872645 -0.14130065 -0.17453486
0003b0 a3 d7 8a 3d f6 b6 dd 3b 9b 80 55 bd be 4b 07 be
       0.06779411 0.0067661954 -0.0521246 -0.13212487
0003c0 d3 5d 86 3d 4f e9 2c be 2e 13 4a bd e0 98 63 3d
       0.06560864 -0.16885875 -0.049334697 0.055565715
0003d0 05 2a c8 bd 91 0e cd 3d a9 59 3f 3d a6 42 6c 3e
       -0.097736396 0.10012544 0.046716366 0.230723
0003e0 57 9b 2b bd a0 9d a0 bd 1f 2c 26 be 36 1e 2d 3e
       -0.04189619 -0.078425646 -0.16227768 0.16906056
0003f0 04 9a 2e bd 13 fc 58 be 8b 4c 43 3d ac 0f 68 3d
       -0.04262735 -0.21189909 0.04768042 0.05665557

encoder.conv3.bias f4 [32]
000000 67 e4 1c 3d a9 89 7a 3d bf ea 06 3e 2b 3e 4c 3d
       0.03830376 0.06116644 0.13175486 0.049863975
000010 b1 50 f5 bd 5a 67 9e 3d 8a 2e 8e 3d a8 9f 06 bd
       -0.11978281 0.077345565 0.0694247 -0.032867104
000020 4b 2a be 3d 42 f4 c4 bd e9 03 14 be ad 62 26 bb
       0.092854105 -0.09616901 -0.14454617 -0.0025388405
000030 9d 65 de 3d 7e 92 1f be cb 8b e1 bc 01 62 b8 3d
       0.10859225 -0.15583226 -0.027532479 0.09003068
000040 f1 2e 16 be 90 2e 43 3e f0 2b 19 3e 18 3d a2 3d
       -0.14666344 0.19060731 0.14958167 0.07921809
000050 a6 17 1e be 14 8c ee 3d 68 0c d6 3d 3b 1e bb bc
       -0.15438709 0.116478115 0.10451585 -0.022841563
000060 53 2a 3a 3e 21 e8 de 3d 53 86 31 be d5 cc 4d 3e
       0.18180208 0.10884119 -0.17336397 0.20097668
000070 d5 ea 2e bc a1 2c 07 3e 36 23 e6 bc c8 cb e3 3d
       -0.0106761055 0.13200618 -0.028092962 0.111228526

encoder.conv4.weight f4 [32, 32, 2]
000000 d8 1c e3 3c 56 24 a3 3d 88 73 be 3c 64 36 c6 3c
       0.027723715 0.07965915 0.023248449 0.024195857
000010 da 62 fd bd 29 d2 3c bd c8 57 3b bc 70 61 c7 3c
       -0.1237237 -0.04609886 -0.011434503 0.024338454
000020 09 67 eb 3d c3 00 4f 3d 44 e1 09 be 70 61 95 3d
       0.11494262 0.050537836 -0.13464838 0.07293975
000030 9d ab a1 3d a5 8e ec 3d cd 18 a7 3c ac 17 a8 bc
       0.07894061 0.11550645 0.020397568 -0.0205191
000040 3f bc 22 3d bc 14 ec bd 7b 1d c9 bd 92 5d 82 bd
       0.039730307 -0.11527392 -0.09820076 -0.06365503
000050 af 79 bb bd 04 db 94 3d 92 99 13 bc 42 17 2e 3c
       -0.09154069 0.072683364 -0.009008782 0.010625662
000060 3b 50 0b bd a7 8a 1a be 5d 41 de 3c 7b 77 09 3e
       -0.03401206 -0.15091954 0.027130777 0.13424484
000070 50 70 a5 bd 1a 5b 36 3d c6 36 54 bb 91 da a7 3d
       -0.080780625 0.044520475 -0.003238128 0.08195985
000080 12 11 e5 3d a7 5c 00 be 52 0d fa 3d a9 78 0f bc
       0.111848965 -0.12535344 0.12209572 -0.008756795
000090 26 05 f7 bd ee 51 66 bd 38 f7 0b 3c 01 79 02 be
       -0.12061529 -0.056230478 0.008542828 -0.12741472
0000a0 f2 f0 79 bc 28 f7 b2 3c ba 6b db 3d 3e ff c7 bd
       -0.0152552 0.021846369 0.107139066 -0.097654805
0000b0 13 bb b0 3b 17 e6 1d 3d b0 90 8d bc 51 87 46 bd
       0.0053933947 0.03854951 -0.017280906 -0.04846889
0000c0 5f 71 df bd 47 4c 91 bd 80 96 b4 b8 9d fb 2b 3d
       -0.10910296 -0.07094627 -8.611102e-05 0.041988004
0000d0 f5 64 93 bd 9b 36 ce bd 22 b6 a5 bd bd fb c7 bd
       -0.071969904 -0.10069009 -0.0809138 -0.09764812
0000e0 0d 04 da bc 48 ac 93 bd c3 5e e0 bd 42 da 8c bd
       -0.02661326 -0.072105944 -0.10955574 -0.06877567
0000f0 5e 13 24 bd 54 fd 97 bd f7 00 1f ba 52 c7 26 bd
       -0.040057532 -0.074213654 -0.00060655124 -0.04071743
000100 1c 22 89 bd bf 87 55 bd 97 e9 a0 3d b5 af 33 bd
       -0.06695959 -0.05213141 0.07857054 -0.04386874
000110 f6 6f fb 3c df 37 f9 bd 56 a9 cf 3d 32 b5 ef 3d
       0.030693036 -0.1216886 0.1013972 0.11704482
000120 69 b3 1c bd a2 f7 ab bd 88 1a 0e bd 69 32 8b bd
       -0.038257036 -0.083968416 -0.03469327 -0.06796724
000130 fa 2d c5 3d 2c ef f0 ba 34 ee fc bd a9 dc 91 bd
       0.0962791 -0.0018381826 -0.12350121 -0.07122166
000140 fa ea a4 3a c9 86 5a bd 4e c4 b0 bd 87 f7 53 3d
       0.0012582236 -0.053351197 -0.08631192 0.051749732
000150 ea d9 cd 3d 78 7b 78 3d 1d 66 1c bd 7a b1 62 3c
       0.100513294 0.060664624 -0.03818332 0.013836259
000160 08 10 35 bd 14 01 a4 3d bb 4a ba bd 5f be ff bc
       -0.04420474 0.08008018 -0.09096285 -0.031218706
000170 a4 62 8b 3d 3b 9a f8 3d 83 f4 d7 3d 4f fb 57 3d
       0.068059236 0.12138792 0.10544684 0.0527299
000180 1c 9e c2 bd 14 74 bb 3d 62 2c 85 bd 30 34 93 3d
       -0.09502813 0.091529995 -0.06502606 0.07187688
000190 2e 90 84 3d 28 05 0a be 5d a9 d1 bd 7f 78 8c bc
       0.064728126 -0.1347853 -0.102373816 -0.0171473
0001a0 21 26 39 3c 31 f0 d2 bd 53 79 92 bd eb d7 44 bc
       0.011300595 -0.10299719 -0.07152047 -0.0120143695
0001b0 71 59 03 3d b8 bb 8a bd ab 3d d4 bc 8f 85 80 bd
       0.03206772 -0.06774086 -0.025908312 -0.06275474
0001c0 93 b8 28 3d 7b 49 2a bd 63 5b b1 3d 7b 3f d5 bd
       0.04119165 -0.041573983 0.08660009 -0.104124986
0001d0 cc 88 49 3d d1 08 d9 bd a0 d2 ef 3d 77 26 36 bd
       0.049202725 -0.10597385 0.117100954 -0.044470277
0001e0 88 91 9f 3d a7 bf 27 3d a9 4a 8f bd 38 e8 e1 3c
       0.0779143 0.04095426 -0.06996662 0.02757655
0001f0 74 d7 a4 3d c6 d7 6e bd 8c 3c 46 3d 7a 9d 94 3d
       0.08048907 -0.058311246 0.048397586 0.07256599
000200 8a d1 8a bd b4 76 97 3d 62 7d a3 3d f5 7f 72 3d
       -0.06778248 0.07395688 0.07982899 0.05920406
000210 16 6e 89 bd eb c6 e6 3d 90 2b 48 3d 11 45 54 3d
       -0.0671045 0.11268409 0.04886967 0.05182368
000220 8e 43 d4 3d 65 04 b7 3d 7f 9a ba 3d 1c 81 92 bd
       0.103644475 0.08936385 0.09111499 -0.07153532
000230 7d f5 b2 bd c0 8b 8d 3b b4 fd a0 bd 62 44 1a 3e
       -0.087382294 0.004319638 -0.0786089 0.15065148
000240 25 c8 18 bd 1d 89 ff bc 1b c3 d7 bd 17 df 0f 3d
       -0.037300248 -0.03119331 -0.1053526 0.035124864
000250 b6 e0 a9 bd e5 af c1 3d c1 af bf bc 89 3f 54 39
       -0.08294813 0.09457377 -0.023399236 0.00020241564
000260 25 23 65 bd 76 f0 99 bd 24 f6 a7 bd 27 6f d4 3d
       -0.05594172 -0.075165674 -0.082012445 0.10372763
000270 c3 e3 f4 bd f4 cf e0 3d 42 cc 1c 3c 8f ef 7c 3d
       -0.119575046 0.10977164 0.009570183 0.0617519
000280 fc 49 a2 3d b5 07 82 3d d7 41 99 bd 06 f0 05 be
       0.07924268 0.06349126 -0.07483261 -0.13079843
000290 39 53 80 3d a2 29 ca 3d 6f 50 04 3d 5b e3 d2 bd
       0.062658735 0.09871222 0.03230327 -0.10297271
0002a0 dc c6 1d bd c8 40 64 bd fd 37 a9 3d bf 2e 50 3d
       -0.038519725 -0.055725843 0.08262632 0.05082583
0002b0 d9 2a aa 3d 4c a5 32 3d 5c 0e b4 3d 0f 0d b2 3d
       0.08308954 0.04361467 0.08791801 0.08693897
0002c0 bf 22 72 bd 8e 42 f3 3b d7 ce cc bd 0f da eb 3d
       -0.059115168 0.0074237054 -0.10000389 0.11516201
0002d0 41 5e bb bd 30 92 cf bd 0d a0 60 3d 0d c9 12 be
       -0.09148837 -0.10135305 0.054840136 -0.14334507
0002e0 ab 6f 82 bd a7 fc e4 3d 4f 43 25 bd 3f f4 15 bc
       -0.06368955 0.11181002 -0.040347394 -0.009152471
0002f0 a7 96 92 3d 6c a2 24 3d 56 6a a6 3d 3c d4 76 bd
       0.07157641 0.04019396 0.08125751 -0.060260996
000300 b7 8f d5 3c 10 9c 37 ba ea 53 01 3e ce 03 c7 3c
       0.026069505 -0.0007004151 0.12629667 0.024293806
000310 f2 94 a3 bd d0 b4 e5 bd 65 a1 9d bd e9 61 d1 bc
       -0.079873934 -0.11216128 -0.07696799 -0.025559383
000320 e3 99 63 3d d7 3e a9 bd f2 16 95 bc 13 78 b8 3d
       0.05556668 -0.08263939 -0.018199418 0.09007277
000330 2c c9 6e bd 28 ba 93 bd a7 b2 18 3d 6d fe b9 3c
       -0.05829732 -0.07213241 0.03727975 0.022704327
000340 3f 37 54 bd a8 f7 07 3e 7c 09 c8 bd 0d b9 5d 3d
       -0.0518105 0.13278067 -0.09767434 0.054131556
000350 ed 5e 0e be e8 93 44 bc cd e8 55 bd 99 59 7a 3d
       -0.13903399 -0.011998154 -0.05222397 0.061120603
000360 a5 03 0e 3d ba 89 b4 3d 8b ca 07 3e f9 66 c6 bc
       0.034671444 0.08815332 0.13260858 -0.024219023
000370 65 40 29 bd 20 0f d7 3c 82 24 93 bd d3 9b d4 3d
       -0.041321177 0.02625233 -0.07184698 0.103812836
000380 13 6f 09 bd 58 76 b2 bd 8c 6f be 3d e3 af 9a bd
       -0.033553194 -0.087139785 0.0929862 -0.07553079
000390 f3 85 ee 3c 37 a3 9a 3d e0 e1 53 3c 3a 33 db 3d
       0.029116606 0.07550662 0.012932271 0.1070313
0003a0 06 ad fb bb 72 41 8d 3c 1e be ea bd 4a 83 68 bd
       -0.007680538 0.01724312 -0.11462043 -0.056765832
0003b0 33 6e b0 bd f9 3c bc 3d c3 b0 be bc 37 dc 3f 3d
       -0.08614769 0.09191317 -0.023277646 0.046840873
0003c0 f2 bd ca 3d 3f 52 36 3d a9 d2 ce 3d 60 57 d7 3d
       0.098995104 0.04451203 0.10098774 0.10514712
0003d0 00 54 c2 bc db 1d 00 bd 81 8a f6 3b 02 15 c2 3c
       -0.023721695 -0.031278472 0.007523835 0.023691658
0003e0 fc 1c 8e bb 53 f2 c1 bd c7 11 14 3d 6e 99 56 3d
       -0.0043369513 -0.09470048 0.036149766 0.052392416
0003f0 4a a1 c2 bd ec 32 ef bd a9 2d d5 3c 0a b8 24 3d
       -0.0950342 -0.116796345 0.026022749 0.040214576

encoder.conv4.bias f4 [32]
000000 cd d4 79 bd 18 6c 13 bd 55 ba a3 3d b0 47 20 bd
       -0.06099396 -0.035991758 0.079945244 -0.039130867
000010 49 4c ba bd 5c ea 26 bd da 14 34 3e df 54 fa bd
       -0.090965815 -0.040750846 0.17586079 -0.12223219
000020 3b 55 11 3e ad c8 3b 3c 22 56 86 bd 4a 42 00 be
       0.14192669 0.011461419 -0.06559397 -0.12525287
000030 e3 19 74 3d 9f 47 50 bb 94 3b 90 bc 21 cf 3d be
       0.059595 -0.003178097 -0.017606534 -0.18536045
000040 f5 2f 15 3d e8 68 fc 3d f4 f4 15 be 9d bd ee 3b
       0.03642269 0.12324697 -0.14644223 0.0072857873
000050 06 63 cc bd c6 3a c6 3d 85 56 8c bd d5 f1 e4 bc
       -0.09979825 0.09679179 -0.0685244 -0.027947346
000060 d4 c4 b7 bd 52 55 dc 3d b2 6d 3a 3d 73 6d 67 3d
       -0.08973089 0.10758461 0.04551477 0.056500863
000070 3e a5 7f bb bd cc 02 3e 8b c0 af bd 3a 0c 5e bb
       -0.0039008404 0.12773414 -0.085816465 -0.00338818

encoder.fc1.weight f4 [64, 128]
000000 c4 fb 93 bd 81 2c 93 3d a4 f3 a4 bd cf 5d 91 bd
       -0.07225755 0.07186223 -0.08054283 -0.07097971
000010 ee 81 0d 3b 1d 80 9d 3c 80 c6 ae 3d b4 da 8a 3c
       0.0021592337 0.019226128 0.085339546 0.016949989
000020 04 d1 43 3d 17 9a 94 3c 80 5d bc bd 95 46 2e 3d
       0.047806755 0.018139882 -0.09197521 0.04254778
000030 b1 7d fb 3c 57 d4 49 3d 12 87 80 3d a0 de ed 3c
       0.030699583 0.04927477 0.062757626 0.02903682
000040 86 e7 07 3c 87 e1 19 bd 42 f6 00 bc 1f c4 92 3d
       0.008294946 -0.037568595 -0.007871212 0.071663134
000050 df 22 e6 bc fa d9 a8 bd e8 bf 60 bd f9 89 33 bc
       -0.0280928 -0.08244701 -0.054870516 -0.010958188
000060 62 39 08 3d 21 02 71 bd 58 4b 25 bd b3 69 47 39
       0.03325785 -0.05883992 -0.040355057 0.00019017495
000070 6e 7e 0c bc c4 b7 81 bd 9d 92 3d 3d 94 42 38 3c
       -0.008575065 -0.06333879 0.0462824 0.011246342
000080 7b 2e 14 bd 4d 83 2b bd af a2 6f 3d f5 fb b2 3d
       -0.03617714 -0.041873265 0.058504757 0.08739463
000090 b6 56 98 bd d1 1d 25 bc 5a 37 b9 bc c1 ee 44 3d
       -0.07438414 -0.01007791 -0.022609401 0.048079256
0000a0 4d 82 93 3d a3 4e fc bc 34 db 62 3d 12 99 33 bd
       0.07202587 -0.030799216 0.05538483 -0.04384715
0000b0 e3 8f 98 3a da a8 81 3d 0b 10 ea 3b 22 56 db bd
       0.0011639561 0.06331034 0.0071430258 -0.10709788
0000c0 c1 73 5f bd 6f 3c 6e bd 7e 91 9b bd cd 19 8f 3d
       -0.05455375 -0.058163103 -0.0759611 0.06987343
0000d0 87 1d 4b 3d 50 94 2b bd b7 2a 76 bc 6f 96 5d 3d
       0.049588706 -0.04188949 -0.015024832 0.054098543
0000e0 38 5d a2 3d df b3 5f 3d 3d ba 92 bd 39 3f 57 3d
       0.07927936 0.054614898 -0.071644284 0.05255053
0000f0 eb 79 8a bd 9f 31 e4 3c 1f ca 13 3c 27 b8 8c 3d
       -0.06761535 0.027855692 0.009020357 0.06871062
000100 3b c3 5d 3d 47 ed 0a bd 0d f5 10 3d 2d 29 9e bd
       0.054141264 -0.03391769 0.03538995 -0.077226974
000110 1c 6c 8d 3a e3 aa 8d bb aa 41 94 bd 1b 63 9f bd
       0.0010789665 -0.00432335 -0.07239087 -0.07782575
000120 38 79 93 bc 30 43 d7 bc 11 a4 96 3d 55 97 a8 bd
       -0.018002138 -0.026277155 0.07355512 -0.08231989
000130 7b b2 34 3c ed 2d cd bb 4a 6c 05 3d 45 d9 c7 3d
       0.011028881 -0.0062615783 0.032573976 0.09758238
000140 a3 08 db bc cf 1a 33 bd 6b fe a9 3d 15 13 3f bd
       -0.026737517 -0.04372674 0.083004795 -0.046649057
000150 29 05 06 3c 42 65 32 3d 5e 20 e3 bc 0b 10 6f 3d
       0.008179941 0.0435536 -0.027725395 0.05836491
000160 7f a3 84 bb 7a a2 27 3d 4f db 91 3c 49 3f a0 3d
       -0.0040478106 0.040926434 0.01780477 0.07824571
000170 48 16 12 3d 58 3f b9 bc 56 e2 db bc 74 1a b0 bd
       0.03566578 -0.022613212 -0.026841324 -0.085987955
000180 7b 37 7b bd 05 96 34 3d 2f 5c a2 bb f5 86 53 3c
       -0.061332207 0.044088382 -0.004954837 0.012910594
000190 e2 70 06 bd 13 01 a7 bd 15 f2 44 3a 32 df 54 bd
       -0.032822497 -0.08154502 0.00075128797 -0.051970668
0001a0 47 02 9f 3c 54 a9 5e bd fb 57 38 bd bd 49 3a bd
       0.019410266 -0.054360703 -0.04500578 -0.04548048
0001b0 84 3a a5 3c 7c da 7c 3d 9a 17 06 bd 0e a5 a9 bd
       0.020169504 0.0617318 -0.032737352 -0.08283435
0001c0 95 2a 40 3d de 4c 2b 3d 85 bd b9 3b 5f 95 89 bd
       0.04691561 0.041821353 0.0056683444 -0.067179434
0001d0 9e 5a 7f 3d f3 29 21 3d 31 72 cc 3c ec c3 96 bc
       0.06234228 0.039346647 0.024956794 -0.01840397
0001e0 a2 cf 4c bc 81 2f e5 3c 6d 5e 2f bd d7 28 7a 3c
       -0.012500675 0.027976753 -0.04281466 0.015268526
0001f0 14 ce 1a 3d be d1 87 bd 76 f3 95 bd d0 16 bd bc
       0.037794188 -0.06631802 -0.07321827 -0.023082167
000200 8a 94 91 3c aa a9 60 3d 2f 17 ae 3d 57 4d 78 3a
       0.017771024 0.054849304 0.08500516 0.0009471974
000210 06 de 88 3d 46 b7 8a bd a8 e4 46 bb 17 12 6c 3d
       0.066829726 -0.06773238 -0.0030348692 0.05763444
000220 d4 64 86 bd 9b b9 e7 3c bf 56 02 3d 57 45 37 3d
       -0.065622 0.028286746 0.03182101 0.044743862
000230 75 41 f9 bc 87 9d 10 3d ad 88 70 3d 4d f5 a6 bd
       -0.03042672 0.03530648 0.058724094 -0.08152256
000240 8f ce a2 bd 45 78 ce bc 5f cb 5d bc a0 ef 8c bd
       -0.07949554 -0.025203833 -0.013537257 -0.06881642
000250 96 4b f0 3c 5f 85 14 3d df 15 cf bb bf 92 da 3d
       0.029332917 0.036260005 -0.006319746 0.10672521
000260 65 af cf 3d 03 2e b8 bd 64 20 a5 3d b3 2e 16 3d
       0.10140876 -0.08993151 0.08062819 0.03666563
000270 95 ea 52 bd c3 b5 85 3d 2f c3 a4 bd 7f 09 4f 3d
       -0.051493246 0.06528809 -0.08045041 0.050546166
000280 ec 33 f0 3c b1 ad 61 bd 08 9f 8f bd 65 fe 68 3d
       0.029321633 -0.055097286 -0.07012755 0.056883235
000290 ca 8a 73 bc c2 44 78 3d 21 8f 86 3d bb ff 4c 3d
       -0.014864633 0.060612448 0.065702684 0.05004857
0002a0 9a e7 db bd c8 2f 0f 3d a3 36 01 3d 82 79 ba bc
       -0.10737534 0.034957677 0.031546246 -0.022763018
0002b0 38 40 43 3c 62 28 7d bd bd 08 f3 bc cd 09 83 3d
       0.011917166 -0.06180609 -0.029667253 0.06398354
0002c0 23 cf 28 bc b7 7b 3f bd 8e 56 44 3c a9 62 d3 bd
       -0.0103032915 -0.046748843 0.011983527 -0.10321552
0002d0 50 67 33 3d 56 b6 fe 3c 08 bc 5a 3d 01 c3 8b ba
       0.0437997 0.031092804 0.053401977 -0.0010662974
0002e0 5b 2b 2e 3d 88 f4 0d bd df c5 44 bd 81 95 04 be
       0.042521816 -0.03465703 -0.048040267 -0.12947656
0002f0 97 33 d8 3c 9b 68 e9 bb f4 d3 8f bd ab ac 2b bd
       0.026391787 -0.0071230656 -0.07022849 -0.041912716
000300 52 f1 11 bd 4b 47 55 bc 59 b0 81 3d 6e e3 14 3d
       -0.03563053 -0.013017486 0.06332464 0.036349706
000310 9d eb 03 bb 50 15 cd 3c 6c c2 9b 3d 96 3b 3a bc
       -0.002012945 0.025034577 0.076054424 -0.011366745
000320 96 78 8f bd c7 bc 87 bd 35 0d c3 bc ce f9 67 3d
       -0.07005422 -0.06627803 -0.023810009 0.056634717
000330 fd 78 0d 3c 6f d5 9f bc 77 39 52 3d ba f1 69 3b
       0.008634803 -0.019510953 0.051324334 0.0035697059
000340 92 cf 8d 3d 4f 40 c4 bd e5 70 a3 3c 52 3a d3 bc
       0.069243565 -0.095825784 0.019951293 -0.025784645
000350 99 ae 24 3d 30 4d 9d bd 29 86 8b 3d 80 ed 3a 3d
       0.04020557 -0.07680738 0.068126984 0.045636654
000360 b3 bb c6 3c 9c d1 21 bc 8e ca 67 bd ef 38 87 bd
       0.024259424 -0.009876635 -0.056589656 -0.06602656
000370 49 f0 e7 bb 17 da bb bd 3e e5 93 3c 0c ff 19 bd
       -0.007078205 -0.09172457 0.018053647 -0.037596747
000380 32 82 c4 bc 7d e1 55 bd 73 91 83 bd 0d 97 71 bd
       -0.023987863 -0.052216996 -0.064242266 -0.058981944
000390 19 53 87 bd 40 a1 fe bb cb df f8 3c 9e 39 12 bd
       -0.066076465 -0.0077706873 0.03038015 -0.03569948
0003a0 c0 d8 40 bd 39 c6 6c bd d2 0c 8e 3d 6b e7 fd bb
       -0.04708171 -0.057806227 0.06936039 -0.0077485344
0003b0 1a ea 65 bd bb 22 7f 3c 83 09 05 bc fa de 08 bb
       -0.05613146 0.015572245 -0.008119944 -0.0020884858
0003c0 3e 3e e9 3c 9e 2d 1b bd 02 ea 71 3d c9 5e 71 3b
       0.028472062 -0.0378853 0.059061058 0.0036830178
0003d0 76 cc c4 bd 68 f8 86 3d 5c e3 59 bd c4 85 dc ba
       -0.0960931 0.065903485 -0.053195342 -0.0016824533
0003e0 dc 49 fb 3c 22 b5 b5 bd 6a cc 29 3c d2 f1 72 bd
       0.030674867 -0.08872439 0.0103636775 -0.05931265
0003f0 6a 15 67 bd 58 3a 77 bd 9d 04 32 bd ec 23 c2 bd
       -0.056416906 -0.060358375 -0.04346143 -0.09479508

encoder.fc1.bias f4 [64]
000000 7d 65 ab 3c e3 40 26 3d 8e 4d 19 be 92 7e e0 bd
       0.020922417 0.040589225 -0.14970991 -0.10961641
000010 3f 92 8d bc 10 72 85 3d df 40 8e 3d fa d9 8b 3d
       -0.01728165 0.06515896 0.06945967 0.06828685
000020 1a 57 91 bd d8 76 24 bc 24 30 0d 3e af d6 93 bd
       -0.070966914 -0.0100381 0.13787895 -0.07218682
000030 8c d7 d2 bd 5b 18 32 3d e2 78 34 3c 68 a4 05 bd
       -0.102950186 0.04348026 0.011015149 -0.032627493
000040 dc d7 66 3d 9a aa 9b 3d 0f 47 66 bd 71 64 f1 bb
       0.056358203 0.07600899 -0.05622011 -0.00736671
000050 6e 9a 88 bb e4 de 0a 3c 2c b3 fc 3b ff 62 be 3d
       -0.0041688 0.008475993 0.0077117886 0.09296226
000060 47 27 af bc d4 bd 9b bc 63 b1 9d 3c af 49 e2 3d
       -0.021381034 -0.019011416 0.019249624 0.1104921
000070 06 ff c1 3d dc 57 64 bd 2e 56 74 3d 3a c8 5c 3c
       0.0947247 -0.05574785 0.0596525 0.013475472
000080 1a 53 35 3d fd 38 cb bd 41 34 15 3e 13 ac 72 3d
       0.044268705 -0.09922979 0.14570715 0.059246134
000090 7e ff 87 bd 7b c7 42 3d 15 d9 07 bd b4 7f 16 bb
       -0.06640528 0.04755352 -0.03316601 -0.00229643
0000a0 7a 79 bc 3c 1c ee 07 3d ec ff 1b bc 63 c0 c2 3d
       0.023007143 0.033186063 -0.009521466 0.09509351
0000b0 bc ac 13 3e 99 bd ac 3c b3 30 2f 3e 55 45 ec bd
       0.14421362 0.021086501 0.17108421 -0.115366615
0000c0 51 ce 3f bc 16 cb b4 bb 37 c1 d2 bd c6 15 5d 3c
       -0.0117069045 -0.005517374 -0.10290759 0.013493961
0000d0 f7 e5 3e bd 9d e0 ec bd d1 fd 79 bd c0 7b e2 3d
       -0.04660603 -0.11566279 -0.061033074 0.1105876
0000e0 45 60 a5 3d 1c 12 76 bd e7 08 93 ba 9c 50 17 bd
       0.080750026 -0.060075864 -0.0011217863 -0.03694211
0000f0 5c de 29 be 34 29 5f bd 1d ab 6c bd ae c9 d0 bc
       -0.1658873 -0.054482654 -0.057780374 -0.025486793

encoder.fc2.weight f4 [16, 64]
000000 a0 aa f3 bd 4a cb d1 3d 52 24 d4 3c 0d eb 3b bd
       -0.118977785 0.102438524 0.025896225 -0.04587846
000010 6d 4c f6 3c 9c f5 da bd 87 de 82 bd 90 0a 38 bd
       0.03006574 -0.106913775 -0.063901 -0.04493195
000020 02 db 87 bd 7d 6f e4 bd c1 e2 30 3c 98 c9 a9 bd
       -0.06633569 -0.11154077 0.01079625 -0.08290404
000030 c9 3f 04 3d ff 03 d4 bd 84 a5 48 3d 8b 8e dc bc
       0.032287393 -0.10352325 0.048985973 -0.026923439
000040 c9 6f 87 bd e4 71 ca 3d 03 56 56 bc 37 bf 84 3d
       -0.06613118 0.09885004 -0.01308203 0.06481784
000050 c7 03 a6 bd fe 21 bd bd 65 15 bf bc c8 8a a3 3b
       -0.08106189 -0.09234999 -0.023325631 0.0049909092
000060 21 9a e4 bd fc ef c8 bd dd b6 a4 3d ff a1 2e 3d
       -0.1116221 -0.098113984 0.08042691 0.04263496
000070 73 b8 30 bd 01 81 a3 bd 23 63 c3 3d 25 5c b2 3d
       -0.043144654 -0.0798359 0.09540393 0.087089814
000080 f9 13 a6 3c f2 8b ba bd 69 9a 1a bc 15 09 bf 3d
       0.020273196 -0.09108724 -0.009436228 0.09327904
000090 a0 b3 aa bd 90 8c a0 bc 70 c5 93 bc e0 5f c2 bc
       -0.08335042 -0.019598275 -0.018038481 -0.023727357
0000a0 5b b2 f2 bd c9 5e d3 3c d9 2d c9 3c f9 c9 dd 3d
       -0.11850425 0.025802033 0.024557995 0.10829539
0000b0 eb fb dc 3d 85 4a 84 bd b4 32 20 3d 71 70 84 3d
       0.10790237 -0.06459526 0.039110854 0.06466759
0000c0 cd fd d3 bd ae 9e 98 3d 2b 1f d1 bc 8b 53 8d bc
       -0.10351143 0.07452141 -0.025527557 -0.01725175
0000d0 63 85 22 3d 6d 37 ba bb af 8b fb 3b a1 1b 79 3d
       0.03967799 -0.005682877 0.0076765637 0.060817365
0000e0 47 cc f4 bd 6e 7f 84 3c 39 0c fe bd e0 b8 ff 3c
       -0.11953025 0.016174044 -0.12404675 0.031216085
0000f0 40 ff 02 be d7 cb ef 3d f4 6d d5 bc 06 15 07 3e
       -0.12792683 0.11708801 -0.026053406 0.13191614
000100 09 4a 34 3d af f2 26 3c c0 48 86 bd ca e5 39 bd
       0.044015918 0.010189696 -0.06556845 -0.04538516
000110 98 dc d7 bd aa 8d 7c bc 98 41 b8 3d b8 f4 b7 3d
       -0.10540122 -0.015414635 0.08996886 0.08982223
000120 2d 18 9b bc 4e 5d b8 3c 0b b3 45 3d 4e 5c 99 3d
       -0.018932426 0.022505429 0.04826645 0.07488309
000130 e0 88 a0 3b 73 9b 05 bd 10 dd df bd c3 4d bd bd
       0.0048991293 -0.03261895 -0.10930836 -0.092433475
000140 41 e4 9e bc 35 dc eb bd 54 58 17 3d 95 1a 91 bc
       -0.01939595 -0.115166105 0.03694947 -0.01771287
000150 cd 75 d4 bb 07 ce 09 3d d1 1d 05 be 76 f6 1b 3b
       -0.0064837695 0.03364375 -0.12999655 0.0023798025
000160 6f 38 4d bd 71 12 cf 3d 72 ec e2 bd 0c be 94 bb
       -0.050102647 0.10110939 -0.110802546 -0.004539257
000170 3b 42 ad 3c 92 18 b2 bd 72 48 07 3d 30 6a 97 3c
       0.021149745 -0.08696093 0.033028074 0.018483251
000180 59 a5 5f 3b 81 b9 69 bc 14 a7 65 3c d8 42 06 bd
       0.0034125654 -0.014265419 0.014016885 -0.03277859
000190 86 27 f4 3c 2c d9 07 3d 46 45 78 bd d6 50 b8 3d
       0.029804002 0.033166096 -0.06061294 0.08999793
0001a0 97 c6 18 3d 80 e0 9a 3d 71 75 f7 bc 10 15 01 bd
       0.037298765 0.07562351 -0.030207368 -0.031514227
0001b0 87 bb 56 3d 6d 6e e3 bc 64 7e 8d 3d 4c 67 8f bd
       0.052424934 -0.027762616 0.06908873 -0.07002124
0001c0 23 16 88 bd f9 d1 95 3d 9c 58 95 bd 62 e0 4a 3d
       -0.06644847 0.0731544 -0.072922915 0.049530394
0001d0 9b 0d ad bd 2f 28 af bd fa dc 9e 3c 21 8f e1 3d
       -0.08449861 -0.08552586 0.01939248 0.11013628
0001e0 fe f0 03 bd 51 32 b7 bc df aa dc bc 0e a2 73 3c
       -0.03221225 -0.02236286 -0.026936946 0.01487018
0001f0 d9 de 93 bc e1 19 24 3d 01 3f c5 bd 18 ec e0 3b
       -0.018050598 0.040063743 -0.09631158 0.006864082
000200 5e f7 f3 3c 8f a0 1f 3b f8 30 a6 bc 72 4a 96 bd
       0.02978104 0.0024357175 -0.020287022 -0.07338418
000210 e2 b7 24 be b7 79 d3 3c ab b7 39 3d 82 e0 d3 bd
       -0.1608577 0.025814874 0.045341175 -0.10345556
000220 5c 75 c8 3d 45 d0 d8 ba ae 53 0e 3d 9f 98 b6 bc
       0.097880095 -0.0016541561 0.034747772 -0.022289572
000230 7c c7 52 3c 86 a2 c0 bd 1c 38 b8 bc a2 f6 de bd
       0.012864944 -0.09405999 -0.022487693 -0.10886885
000240 dc a3 6a bd ef 77 1d bd e3 49 99 bd 87 fd d4 3d
       -0.057285175 -0.038444456 -0.07484796 0.10399919
000250 c2 cd 8a bd 6e 24 d9 3d 4a af cb bc 70 10 7f 3c
       -0.067775264 0.106026515 -0.024863858 0.015567884
000260 e8 86 1d bd 8a 20 67 bd 14 79 7f 3d b0 c4 d4 3b
       -0.038458735 -0.056427516 0.06237133 0.0064931735
000270 49 f2 cc 3d 3a 70 b8 3d 24 a8 d3 bb 3d 90 a6 bd
       0.1000715 0.090057805 -0.006459253 -0.0813298
000280 ad c8 b0 bc 23 22 6a 3d f2 a9 18 3e fa 80 32 bd
       -0.021580065 0.05716146 0.14908579 -0.043580033
000290 e3 7f 8f 3d 38 bf 19 3d 28 b8 0f 3d 56 e9 e7 3c
       0.07006814 0.037535876 0.035087734 0.028309505
0002a0 da cc 91 bc f9 e8 16 3d 39 4b c1 3d f9 01 b6 3d
       -0.017797876 0.036843274 0.09438176 0.08887095
0002b0 49 58 3b bd 28 a0 9d bd 08 41 56 bc 44 d9 7d bd
       -0.045738492 -0.07696563 -0.013077028 -0.06197478
0002c0 3f 44 ca bd 95 dd f0 3d 5b 54 77 bd 75 17 b2 3d
       -0.09876298 0.117610134 -0.060383182 0.0869588
0002d0 20 75 ab 3d 29 9b b2 bd 9e 35 d3 bd 62 11 d9 bd
       0.08371949 -0.08721001 -0.10312961 -0.10599019
0002e0 b8 2b 22 3c 4b 93 38 3d 69 f3 c4 3d ba 92 7a 3c
       0.009898119 0.045062345 0.09616739 0.015293771
0002f0 98 b1 5f 3d 9d 32 7f bd 59 8d 4b bc 3d ff 88 bd
       0.054612726 -0.062304128 -0.012423837 -0.06689308
000300 76 1a a7 3d 41 a0 12 ba 10 66 81 bd 3a 89 c3 bd
       0.08159344 -0.00055933377 -0.06318295 -0.09547658
000310 7e cd bb 3d f8 78 bb bd 70 05 b5 3c 61 f8 bf 3d
       0.09170054 -0.09153932 0.02209732 0.093735464
000320 3a cb 95 bd 80 3e cd 3b 19 70 88 bd e0 2b 50 bd
       -0.07314153 0.006263554 -0.06662006 -0.050823092
000330 79 2a f1 bd 83 6a 6c 3d 58 2f 64 bd d6 74 7f bd
       -0.11775679 0.057718765 -0.055709213 -0.062367283
000340 4d a6 a2 3d 94 e2 24 3c 45 05 4c bd 1f d5 ac 3b
       0.079418756 0.010063786 -0.049809713 0.0052744295
000350 4a 53 5a 3d 53 ce d8 3c 3a 59 89 bd 0d bf 5b bb
       0.053302087 0.02646557 -0.06706472 -0.0033530623
000360 3c ba f1 3b 6f b7 b4 3d 35 03 99 bb 55 06 62 3b
       0.007376937 0.0882405 -0.0046695718 0.0034488637
000370 fa ae 1f bb 90 52 62 3d 27 68 ad 3d 4d 97 07 ba
       -0.0024365769 0.05525452 0.08467131 -0.0005172387
000380 ef dd 53 3c 09 b2 88 bd c5 d5 45 39 99 cd 3d bd
       0.012931331 -0.066745825 0.0001886702 -0.04633865
000390 b2 f4 10 be 01 39 a7 bc b3 5f 5d bc b6 08 b6 3d
       -0.14155844 -0.020412924 -0.013511586 0.0888838
0003a0 ec bd b3 3d da 52 a6 bd 2e c7 c5 bd d5 0d 81 3d
       0.08776459 -0.081212714 -0.09657131 0.063014664
0003b0 95 08 c9 3d 3c f5 5e 3c 7d a6 42 3d 3e 5c 40 3d
       0.0981609 0.013608273 0.047522057 0.04696297
0003c0 92 69 cb 3d 5f 7c c5 bd cf 77 5e bc bf 40 1a 3d
       0.09932245 -0.096428625 -0.013578369 0.037659403
0003d0 63 32 1b bd 9d 40 ec 3c b2 04 1a 3d 6c b7 95 3d
       -0.03788985 0.028839404 0.037602134 0.073103756
0003e0 27 a4 21 bd fe fb ba bc bc 15 91 bd 33 7e d6 3c
       -0.03946319 -0.022825237 -0.07084224 0.026183223
0003f0 2e 97 cc bd 48 09 6a bd da fb 72 bd f8 ea d5 bd
       -0.09989773 -0.057137758 -0.059322216 -0.10445207

encoder.fc2.bias f4 [16]
000000 23 91 dc 3d f3 74 27 3e c5 fe 28 bd 6d 7d 73 3d
       0.1076987 0.16353206 -0.041258592 0.059445787
000010 af 3f 13 3e e9 e7 df 3d 6d 3e 55 3d 78 b6 46 bd
       0.14379762 0.10932905 0.052061487 -0.04851386
000020 ce 7e 03 3e ff 13 4c 3d 43 dc a5 bc 03 2e 0a 3d
       0.12841341 0.049823757 -0.02024663 0.033735286
000030 c7 42 0c 3e a5 ba 5e 3d fe c1 c5 3d f5 ba 7c bd
       0.13697349 0.054377217 0.09656142 -0.061701734

encoder.fc21.weight f4 [4, 16]
000000 a1 8c ce bd 83 d1 22 be f5 a9 78 be 1e 01 29 be
       -0.100854166 -0.15900235 -0.24283583 -0.16504332
000010 79 39 d6 3d c3 22 30 3e 00 1b 49 be 9c be 81 bd
       0.10460181 0.1720076 -0.19639206 -0.06335184
000020 39 de 2a 3d ac 72 1e bd 73 a6 af 3d bb e7 25 3b
       0.041715834 -0.03868358 0.085766695 0.0025315124
000030 78 20 e5 3d 63 22 3f 3e 98 a9 a0 bd fb 2a 51 3e
       0.111878335 0.18665461 -0.078448474 0.20426552
000040 27 d5 21 be 27 7a 1b 3e 60 a3 1f be 52 58 38 3e
       -0.15803967 0.15183316 -0.15589666 0.18002442
000050 42 f7 5e 3e 88 6c dd bd 3a 08 dd 3d af df a2 bd
       0.21774009 -0.10811716 0.10792585 -0.079528205
000060 73 78 29 be 39 ce 05 3d 4d f0 4c be b8 3b c5 3d
       -0.16549854 0.032667372 -0.20013542 0.09630531
000070 a8 53 0c 3d bc 68 aa bd 70 b1 82 3d e8 7c 05 3e
       0.03425947 -0.08320758 0.063815 0.13035929
000080 c3 5e d5 3d 11 be 5c be 3a e2 91 bd 3d bd e7 3d
       0.10418465 -0.2155688 -0.071232274 0.11315391
000090 ac 95 ff bd 29 d1 f5 3d d2 8f da 3d 48 45 15 be
       -0.124797195 0.12002785 0.10671963 -0.1457721
0000a0 11 0b 6f 3d 46 72 16 be 62 80 5a be ef 40 60 3e
       0.058360163 -0.1469203 -0.21338037 0.2189977
0000b0 c1 c4 4b 3e a0 16 2d be 1a 21 19 3e 63 cc 05 be
       0.19899274 -0.16903162 0.14954033 -0.13066249
0000c0 9b a2 1b 3e e5 6e fd bd 20 ee b0 bd a1 fb 43 be
       0.15198748 -0.12374667 -0.08639169 -0.19138958
0000d0 06 c3 d3 bc f7 40 1e 3e 94 9a 1d be 62 89 39 bb
       -0.02584983 0.1545447 -0.15390998 -0.0028310646
0000e0 e1 c6 e6 3d d8 9e c6 bd d2 ec 71 3e c7 64 ac bc
       0.11268402 -0.09698266 0.23625496 -0.021044148
0000f0 f4 c4 46 bd 1c 0c 08 3e dc 4f 33 3e ad 73 d1 3d
       -0.048527673 0.1328587 0.17510933 0.102271415

encoder.fc21.bias f4 [4]
000000 91 cd 73 3d e0 58 80 3c da 9f ee 3c a5 85 3e be
       0.059522215 0.015667379 0.029128958 -0.18605669

encoder.fc22.weight f4 [4, 16]
000000 97 57 7f 3d fc 3a 0c be 8d ef 1d 3e ab cc 1a 3e
       0.06233939 -0.13694376 0.15423413 0.15117137
000010 d2 7b f8 3d c7 db b4 3d cd 3a bd bd 9a 83 30 bc
       0.12132992 0.08830982 -0.09239731 -0.010773564
000020 3b 18 14 be a9 97 05 be 24 7f 0d bd 20 f3 d7 bd
       -0.14462368 -0.13046135 -0.03454508 -0.10544419
000030 79 ba 6d be 70 9d fe 3d 30 fa d3 bd 17 fd f7 3d
       -0.23215665 0.124323726 -0.10350454 0.1210882
000040 a9 17 6d be b8 5e 45 be e4 81 a7 be 97 5a fa bd
       -0.23153557 -0.19274414 -0.32716286 -0.1222431
000050 37 ac 69 be 53 d0 9b be 95 3c c1 3d 75 47 5a 3b
       -0.22819601 -0.30432376 0.09435383 0.0033306752
000060 fb 22 99 bd a1 e5 ab be dc d1 06 3e a8 da 87 be
       -0.07477375 -0.3357363 0.13165992 -0.2653401
000070 aa 2a b7 be 17 54 f7 3c 3b 25 7f be e1 8f 68 be
       -0.35774738 0.030191464 -0.24916546 -0.22711135
000080 d0 d0 ce bc b1 e3 0b 3e 89 f5 f8 bd d0 ff f8 bd
       -0.025246054 0.13661076 -0.12156207 -0.12158167
000090 c2 82 f5 3d 51 98 0a bc 5b b6 07 3c 50 1d 16 3e
       0.11987831 -0.008459167 0.008283223 0.1465962
0000a0 f5 13 46 3d a0 9a 01 be ba fe 08 3e ac a0 27 bd
       0.048358876 -0.12656641 0.1337842 -0.040924713
0000b0 d3 08 b5 bd 16 9b 41 3e 96 35 f6 bd 2f ab 3a 3c
       -0.08839574 0.18906817 -0.120219395 0.011393352
0000c0 6a 2e 09 be 6d 2d 4b be e4 b5 94 3d de a7 28 3e
       -0.13396612 -0.19841547 0.072612554 0.16470286
0000d0 32 07 ca 3d ce 81 47 be ff b2 3b 3c cc ac 4c bd
       0.09864654 -0.1948311 0.01145625 -0.04996948
0000e0 d1 86 dd bd dc 26 05 be 9e 31 4a be 91 1f cb bd
       -0.1081673 -0.13003105 -0.1974549 -0.0991813
0000f0 04 a3 ad bd 1d 10 be 3b cf 1c a0 bd 82 8c 19 be
       -0.084783584 0.0058002607 -0.07817995 -0.14995006

encoder.fc22.bias f4 [4]
000000 ea 2b c8 3d ff 3d ca be 19 fa 10 be c1 11 d7 bd
       0.09774001 -0.39500424 -0.14157905 -0.10501433

encoder.bn1.weight f4 [16]
000000 00 00 80 3f 00 00 80 3f 00 00 80 3f 89 58 7c 3f
       1.0 1.0 1.0 0.98572594
000010 d7 b2 6c 3f 00 00 80 3f 97 41 80 3f f5 d2 76 3f
       0.9246039 1.0 1.0020016 0.96415645
000020 62 76 80 3f 00 00 80 3f 87 6e 7a 3f c9 4c 7e 3f
       1.0036128 1.0 0.978249 0.99335915
000030 87 98 77 3f fb 06 78 3f e1 45 7a 3f 00 00 80 3f
       0.96717113 0.9688565 0.97762877 1.0

encoder.bn1.bias f4 [16]
000000 62 5d a8 3c 9b 63 20 3a fc 4b af bc 1d 14 ee 3c
       0.02055234 0.0006118358 -0.021398537 0.029062325
000010 a9 12 9a bc fc 2d e8 3c 78 1f 91 bc 62 37 09 3d
       -0.018807726 0.02834224 -0.0177152 0.033500083
000020 ae 15 b4 3b d0 fa e7 3b 04 15 31 3c d6 07 f1 bc
       0.0054957485 0.0070794597 0.010808233 -0.029422682
000030 9b fb 87 3c 27 bf 04 3d b2 57 38 3b f1 6f 28 b9
       0.016599467 0.03240886 0.0028128442 -0.0001606343

encoder.bn1.running_mean f4 [16]
000000 00 00 00 00 00 00 00 00 00 00 00 00 89 82 24 3f
       0.0 0.0 0.0 0.6426168
000010 16 2e 82 3e 00 00 00 00 4a cd 08 3c 86 4d ae 3d
       0.25425786 0.0 0.008349726 0.0851088
000020 4d 3c 8c 3d 00 00 00 00 cb a7 d4 3b bb 5b da 3e
       0.06847439 0.0 0.006489729 0.4264811
000030 c4 0d a5 3e 5e e9 3b 3c 61 7c 02 3e 00 00 00 00
       0.32237065 0.011469213 0.1274276 0.0

encoder.bn1.running_var f4 [16]
000000 35 8b e2 36 35 8b e2 36 35 8b e2 36 73 94 27 3d
       6.7515307e-06 6.7515307e-06 6.7515307e-06 0.040913057
000010 2b 1e f6 3c 35 8b e2 36 a7 0a 6c 39 c1 50 96 3c
       0.030043682 6.7515307e-06 0.00022510682 0.018349053
000020 59 c9 c7 3b 35 8b e2 36 6b ce ed 38 3e 73 0b 3e
       0.0060970006 6.7515307e-06 0.00011339489 0.1361818
000030 49 d3 b7 3d e2 30 b2 39 0e 60 f4 3c 35 8b e2 36
       0.08975846 0.00033987226 0.029830959 6.7515307e-06

encoder.bn2.weight f4 [16]
000000 8c 11 74 3f f7 c7 7e 3f c1 c5 82 3f b8 08 75 3f
       0.95339274 0.9952387 1.02166 0.9571643
000010 7f 89 79 3f 46 ea 7e 3f f0 cd 7d 3f 75 fb 7a 3f
       0.9747543 0.9957622 0.9914236 0.9803994
000020 eb bf 76 3f f7 39 80 3f 3a 65 7a 3f 7a b0 81 3f
       0.96386594 1.001769 0.9781071 1.0131981
000030 18 5b 80 3f dd 48 73 3f 08 68 81 3f 72 0b 74 3f
       1.00278 0.95033056 1.0109873 0.95329964

encoder.bn2.bias f4 [16]
000000 23 2d b5 3b 19 ae ad bc ab 32 75 bc 81 15 8f bc
       0.0055290624 -0.02120118 -0.0149656935 -0.017466309
000010 f8 18 46 39 0d 72 1f 3c c4 91 85 3c 95 5d 63 bc
       0.00018892053 0.009731782 0.016304858 -0.013877292
000020 15 ac 54 bb 23 e2 3f 3c 5c 14 64 bc 11 5e 0c bd
       -0.0032451202 0.01171163 -0.01392087 -0.034269396
000030 62 3e 8d bc 8f a4 a2 3c 54 da 8e bb b3 98 84 3b
       -0.01724166 0.019853858 -0.004359523 0.0040465235

encoder.bn2.running_mean f4 [16]
000000 8e dd 20 3e 0a 2d 9b 3e cb e8 8f 3e 67 3f 53 3e
       0.15709516 0.303078 0.28107294 0.20629655
000010 7c a8 55 3e 66 5c a5 3e 65 28 c1 3e a9 fc 90 3e
       0.20865053 0.32297057 0.3772613 0.28317764
000020 0d 6f 76 3e 20 5f 82 3e c9 bd 63 3e e4 d1 fb 3d
       0.240658 0.254632 0.22240366 0.12295893
000030 fe 95 96 3e 19 15 15 3e f7 e9 e1 3e 0f 56 01 3e
       0.2941131 0.1455883 0.44123814 0.12630485

encoder.bn2.running_var f4 [16]
000000 6e a0 7c 3d 30 12 ff 3d b3 46 f9 3d 71 3f 90 3d
       0.061676435 0.12454641 0.12171688 0.070433505
000010 07 b9 08 3e 70 31 12 3e f7 31 7d 3e 3f c6 05 3e
       0.13351832 0.14276671 0.24726091 0.13063906
000020 d6 9c 95 3d 91 1c 1f 3e 8c 05 9f 3d 49 5d 45 3d
       0.07305305 0.15538241 0.0776473 0.048184667
000030 e8 7a 24 3e 14 4d 13 3d 9d a8 9e 3e d7 eb 3b 3d
       0.1606251 0.03596218 0.30988017 0.04587921

encoder.bn3.weight f4 [32]
000000 c0 7b 7e 3f 1f 34 79 3f b9 5f 7d 3f 88 7f 77 3f
       0.9940758 0.97345155 0.98974186 0.9667897
000010 1b ad 7d 3f 7f ff 7a 3f 4c 2d 77 3f bb 21 82 3f
       0.99092263 0.98046106 0.9655349 1.0166544
000020 8f 70 82 3f 1e 62 77 3f d0 03 7f 3f 61 11 80 3f
       1.01906 0.9663409 0.9961519 1.0005304
000030 5c dc 82 3f e5 25 7d 3f df 67 7f 3f 52 c3 79 3f
       1.0223498 0.9888595 0.9976787 0.9756366
000040 bb e5 7b 3f 5e 29 83 3f 02 78 77 3f 35 41 7f 3f
       0.98397416 1.0246999 0.9666749 0.99708873
000050 97 bd 75 3f c7 df 7a 3f 0b 0f 81 3f 16 7e 81 3f
       0.95992416 0.9799771 1.0082716 1.0116603
000060 75 21 83 3f 58 26 7e 3f 19 1f 7b 3f 72 82 84 3f
       1.0244585 0.9927726 0.98094326 1.0352309
000070 56 ea 79 3f 59 de 7a 3f 7c d2 79 3f 4d ed 79 3f
       0.97623193 0.97995526 0.975868 0.9762772

encoder.bn3.bias f4 [32]
000000 01 60 80 bb fc 73 0f 3d 60 0d e0 bc 8a 84 97 bb
       -0.0039176946 0.03502272 -0.027350128 -0.004623954
000010 b7 9b 54 3b 9f b4 f8 3c f3 84 ac 3c fb 71 04 bc
       0.0032441446 0.030359564 0.021059489 -0.008083816
000020 75 a6 a8 bb fc 4b a1 3c 8a 25 fd bc 5a 5b 5f bd
       -0.0051467963 0.019689552 -0.03090169 -0.05453048
000030 fc a6 b6 3a 1e 22 f8 bc 18 71 05 bd 09 c5 2e bc
       0.0013935263 -0.030289706 -0.032578558 -0.010667094
000040 43 73 a3 bc fc fb 48 bc 5f 8b 51 3d d0 2a 6c bc
       -0.019952422 -0.012267109 0.051158305 -0.014414504
000050 16 fb ef 3c ed e7 30 bc a8 60 c1 38 9f c9 f3 3c
       0.029294532 -0.010797483 9.220961e-05 0.029759226
000060 74 3e 0a bd 9e a3 08 bd 5b 52 cf bc 1d 4f db 3b
       -0.033750966 -0.033359163 -0.025307825 0.0066927806
000070 e5 53 53 3c 39 82 ea ba 17 ed 4a bd 2d 54 96 bc
       0.01289842 -0.0017891593 -0.049542513 -0.018350685
