results/_gen_fptra_0.7_1000_VAE_model.pt (torch, 95760 bytes, 61 tensors)

encoder.conv1.weight f4 [16, 1, 2]
00000000: 824c 98be f4f7 12be 190e 943e a036 1abf
00000010: dcb5 5e3e 7749 703e 4dae 07bf 9840 053e
00000020: e804 bcbe 13e9 a03d 607e c33c d22d c93e
00000030: fd67 013f eb8d 2ebf d8e2 6c3e a8dd 17be
00000040: 4e85 c33e fce9 09bf 3284 acbd b041 f73d
00000050: f050 26bf 1cb1 5c3e 2a93 133f 56dc 713e
00000060: 7f0a d9be 5683 f6be 62ef 12bf 40d6 363e
00000070: aa80 44be c0f1 ac3e 52f5 abbe f035 b93e
-0.2974587 -0.14352399 0.28917006 -0.602396 0.21749061 0.23465525 -0.53000337 0.13012922
-0.36722493 0.078569554 0.023863971 0.3929277 0.505493 -0.681853 0.23133409 -0.14830649
0.3818764 -0.53872657 -0.08423652 0.12073076 -0.6496725 0.21551937 0.5764643 0.23619208
-0.4239082 -0.48147076 -0.5739652 0.17855167 -0.19189706 0.3377819 -0.33585602 0.36173964

encoder.conv1.bias f4 [16]
00000000: 6bc4 0e3d c3a9 9ebd fd68 35be 352f 81be
00000010: 4427 d63e cdfd 0cbf a392 a03e f093 9abe
00000020: a584 a13c cbb9 153f ffc6 d4be 6859 bc3e
00000030: c2ef f43e 55a1 16bf e768 1dbd 1b8c c83e
0.034855288 -0.07747223 -0.17715831 -0.2523133 0.41826832 -0.5507477 0.31361875 -0.30190992
0.01971657 0.5848662 -0.41558072 0.36786962 0.4783917 -0.58839923 -0.03843012 0.39169392

encoder.conv2.weight f4 [16, 16, 2]
00000000: 1901 05be fc7c 9b3d ef73 44bd ff14 e83b
00000010: cb3b 313e 6020 953d 08bb 453c 9bf5 d13d
00000020: 4a87 ffbd 3690 ec3d 5f82 fbbd f508 353e
00000030: f1f6 e13c a5ed ed3c bccb 453d f605 d6bd
00000040: ca20 9d3d 5adc 94bd 4329 203e 4304 cebd
00000050: d3df 1fbe a5b2 2cbe 610a a63d 4c4a e1bb
00000060: 0fb0 583d e82e 533d 2e27 373e 72e1 2f3e
00000070: 9324 90bc 086f 183e bc47 973c cb5f 43bd
00000080: 86a2 52bd 8576 28be 5a44 2a3e 4255 c3bd
00000090: e057 b03d 0b9c 093e fc34 08be 5b81 1d3d
000000a0: 7738 053e 77e8 213e 8ca7 9fbc 31f5 e3bd
000000b0: 04b3 fdbd 7a9e d03d ab74 c4bd 0e80 0d3e
000000c0: 83c4 d1bd 8c37 2dbc 2190 27be fcd1 203e
000000d0: c36f 36be ef9a 03bd 9f2b 19be 8612 d33d
000000e0: 67ae 20bc 7645 0a3e c05d 9d3d 00e3 06be
000000f0: 1997 883d 3185 1b3e 3a69 f4bd b4b6 043b
00000100: 49d3 c73d 5db6 94bd bbfc 1d3c 7da7 bfbd
00000110: 4cbe f73d ad60 c03c 1d2e 3a3e c8c1 bb3d
00000120: b359 e73d b9db 39bb caaa 36bd ca99 1d3d
00000130: a010 aebc e4b1 0d3e 6423 9d3d 1420 0dbe
00000140: 300d 04be d2c7 083d 3ce8 06be a559 df3c
00000150: 9a0b 8d3d d94a 1b3e a209 98bd 55b6 f1bd
00000160: 93e7 27bd 4bc0 d23d d61c 443e cfa6 90ba
00000170: 369a 05be c6f3 aebd b160 9abd df4a 1a3d
00000180: 2a3a 7f3d 7be6 febd dd7d 5d3d 17d7 c03d
00000190: fff8 153e 4052 3dbd 09b0 973d eba3 5f3c
000001a0: 690b 333d 5fe8 f33d 7992 43be 6689 90bd
000001b0: 8a9b 0d3e 0d36 53bd e812 9cbd a9d2 c53d
000001c0: 42fc d03d eb4d 2e3e 5919 8e3d a75e 2dbe
000001d0: ef20 a33d 71cf 413e 1fe2 243e 41d2 0f3d
000001e0: cba1 173d f0db ad3d c2b1 933d 6322 113e
000001f0: ced6 1e3e ea8d 44be 8c4e 153e 2559 4abe
00000200: 83f8 f8bd a84d 463c 9a2d b7bd 9181 fabc
00000210: 4a8e 9abd 229a fd3d f142 a43d f142 ed3d
00000220: 37ce b13d 4899 a93d 87a9 4fbd 00d0 a63d
00000230: c4b6 0bbd 06d1 37bd 13ae 2fbe db3e 0f3e
00000240: 137a 92bd 249f 24be b182 ee3c 02df 993d
00000250: 7f87 17be d899 883d d330 f83d e946 df3d
00000260: cd9b 7fbd 905e 98bd a2fa 3fbc 26a7 bbbd
00000270: 5a6b 44bd 4615 03be 8f41 84bc 4bef 94bd
00000280: f318 01be 6231 33bd 0ea7 21bd 4e2b 88bd
00000290: 2b5c ec3d 2cf6 8b3d 436a 3a3e c235 e4bc
000002a0: d635 293d 2b34 cfbd 7a51 ffbc 9058 dc3b
000002b0: 63ea f2bc f811 35be 0864 dabd e062 f13d
000002c0: 4275 7fbb 9cdc 953d 4ed4 06be c30c 31be
000002d0: 91c7 933d b73a 2a3e 0feb 353d a85c 1f3e
000002e0: 1b3f 7dbd 1444 333e c52c f9bc 30cd 1b3e
000002f0: 0c60 ca3d 7498 a83d e173 903d 000e f03d
00000300: 847e 123e 8666 fa3c 6c22 1d3e c3ab ca3c
00000310: 7883 21be 2ce7 26be 610e 27be 88c1 81bd
00000320: 1559 f1bd 3c6b 0dbe 0cc2 343e 56e8 f53b
00000330: 6b99 15be 2b4a 293d 4bfe 0fbe 7a97 7b3d
00000340: 4347 c4bc ee4c 2e3c b4a1 cc3c d1c2 af3c
00000350: 921c 0dbe 23c4 013e 8192 0cbe 9c27 1bbe
00000360: 2dc7 cd3d 6129 303e 0f8a 90bc d12a 9bbd
00000370: ab8a 083e 8327 c93c b32d e63c 0315 c8bb
00000380: 5f10 2bbe 2017 2cbc a011 cb3b 4ca7 86bd
00000390: 9d79 933d 9b96 d7bd 16af 25be 006c b8bb
000003a0: 57c6 91bd 7efc d13d 188e 193e bfb3 a0bd
000003b0: 1db0 3b3e cb1c acbb 776d 343d 880f 223e
000003c0: 0f17 e33b 6437 f4bc cac8 d43d 01e6 a13c
000003d0: 2310 2a3e 72d8 023e 2ccc a13c 9d13 f2bd
000003e0: ff1e a0bd 9a4b a1bd eff8 5cbd 800d f1bd
000003f0: 5ee7 e7bd 5cfb 443d f688 623d fe69 1b3e
-0.129887 0.07592198 -0.047962125 0.007082581 0.17307965 0.07281566 0.0120685175 0.10251924
-0.12476976 0.115509436 -0.12280726 0.17679198 0.027583571 0.029043982 0.04829 -0.10450356
0.0767227 -0.07268591 0.1564074 -0.100594066 -0.15612726 -0.16865022 0.08107448 -0.006875312
0.052902278 0.051558405 0.1788604 0.17175844 -0.017595565 0.14886105 0.018466823 -0.047698777
-0.051424526 -0.16451462 0.16627637 -0.09537746 0.08610511 0.13438432 -0.13301462 0.03845344
0.13009821 0.15811335 -0.019489072 -0.11130751 -0.1238766 0.10186477 -0.09592565 0.1381838
-0.1024256 -0.010572325 -0.16363575 0.15705103 -0.17816071 -0.032130178 -0.14958046 0.103062674
-0.009807206 0.1350306 0.07683897 -0.13172531 0.066694446 0.15187527 -0.11934133 0.00202505
0.09757096 -0.072613455 0.009642775 -0.09358118 0.12096843 0.023483599 0.18181653 0.0916782
0.11296406 -0.0028359725 -0.04459647 0.038476743 -0.021248162 0.13837391 0.07672766 -0.13781768
-0.12895656 0.03339369 -0.13174528 0.027264426 0.068869784 0.15165271 -0.07423712 -0.11802355
-0.04099233 0.10290583 0.19151625 -0.0011036041 -0.13047108 -0.0854259 -0.07537974 0.03766906
0.06231133 -0.124463044 0.05407511 0.09416025 0.14645766 -0.046221018 0.07406623 0.013649921
0.043712053 0.11909556 -0.19098844 -0.07057457 0.13828865 -0.05156522 -0.076207936 0.09659321
0.10204364 0.17021911 0.069384284 -0.16930638 0.07965266 0.18926789 0.16101883 0.035112623
0.037019532 0.084892154 0.07211639 0.14173274 0.15511629 -0.19194761 0.14580745 -0.19760568
-0.12156775 0.012103476 -0.08944245 -0.03057936 -0.07546671 0.12382914 0.080205806 0.11585034
0.086819105 0.08281189 -0.050698783 0.081451416 -0.034109846 -0.044877075 -0.17156248 0.13988821
-0.0715219 -0.16076332 0.029115053 0.075132385 -0.14797781 0.06669968 0.121186875 0.10902197
-0.062404443 -0.07439911 -0.01171747 -0.091627404 -0.04795394 -0.12801084 -0.016144542 -0.07272204
-0.12607174 -0.043748267 -0.039465956 -0.06648885 0.11541017 0.06834063 0.18204598 -0.027857665
0.041311108 -0.10117372 -0.03116678 0.0067244247 -0.02965278 -0.17682636 -0.10663611 0.11786437
-0.0038979803 0.073174685 -0.13166925 -0.17290024 0.07215799 0.1662396 0.044413622 0.1556269
-0.06182776 0.17506438 -0.030416856 0.15214992 0.09881601 0.08232203 0.07053352 0.1172142
0.14306074 0.030566465 0.15345162 0.024740105 -0.15772808 -0.16299123 -0.16314079 -0.06335741
-0.11784569 -0.13810438 0.17652148 0.0075045032 -0.14609306 0.041330498 -0.14061849 0.061423756
-0.023959761 0.010638459 0.02497945 0.0214552 -0.1378043 0.12672476 -0.13727762 -0.15151829
0.100477554 0.17203285 -0.017643956 -0.07576526 0.13334148 0.024554973 0.028097963 -0.0061060204
-0.16705464 -0.01050356 0.0061971694 -0.06574878 0.0720093 -0.105267726 -0.16180071 -0.005628109
-0.071179084 0.10253237 0.1499561 -0.07846784 0.183289 -0.005252456 0.044049706 0.15826237
0.006930239 -0.029811569 0.1038986 0.019762995 0.16607718 0.1277788 0.019750677 -0.11820147
-0.07818412 -0.07875748 -0.05394834 -0.11770153 -0.11323427 0.048091277 0.055306397 0.15177152

encoder.conv2.bias f4 [16]
00000000: ae98 1c3d abbf 093e 39ba 15be 169f 063d
00000010: 3c86 b8bd 8b05 863d f088 0c3b 7c02 843d
00000020: 936a bd3d 0ae5 57bd 706b 753d 2e6d 053c
00000030: be3e 63bd 5203 1a3e b267 933c cb5c 263e
0.038231544 0.13452022 -0.1462182 0.03286656 -0.09009978 0.06544026 0.0021443926 0.06445786
0.09248843 -0.052708663 0.059916914 0.008143706 -0.055479757 0.15040329 0.017993782 0.16246335

encoder.conv3.weight f4 [32, 16, 2]
00000000: 17d8 29be ec3e dbbd e1d5 e53d 6959 02bc
00000010: 6ff9 64bc 6f14 1ebe aff8 50bc cf5c 593d
00000020: 5425 65bd 8c10 22be b10f 1ebe 78a0 c63d
00000030: 6082 3dbd e477 b33b e4fb ac3d ab38 163d
00000040: 1953 9b3d df28 c9bd b2ef 973d 7928 1ebe
00000050: 8405 bbbb 0997 d33d 3e28 e5bc 30db 40be
00000060: 5457 b33c 6429 32be d452 19bd 6c53 d43d
00000070: 3866 043e f461 16be b3c8 913d 22aa b33d
00000080: 0c62 19bd c90a c13d d49f 1ebe 2045 ecbd
00000090: c0ca 05be a3a0 b63d afb9 113e 9bd6 cdbd
000000a0: 314f ca3d c1e8 4e3d f113 23be 15ea fc3c
000000b0: 977c 253e 36f9 eebd 6f41 17be c057 163d
000000c0: 92f6 123e 5925 c1bd 2cff a23d 10d4 f1bd
000000d0: df6d 28be 4c2c f9bd 434e d13d f06b 083e
000000e0: 205c 0abe acc7 c3bd 812f 9e3b 93a4 b6bd
000000f0: 9361 123d 9617 4fbd df19 1d3e 95fa 183d
00000100: 126b e8bd 06df 7c3d 88b2 623d 5bac 023e
00000110: 983f 0e3d bc1b c1bd 24da 843d 86e6 213e
00000120: ceae d5bd be2b e0bd ec4e 0dbe e903 833d
00000130: 266b 523d 88b0 e63c 79bd 97bd 3f0b 46be
00000140: 720b d3bd e261 bf3d 6710 e83d ff32 43bd
00000150: 1f7c ccbc f253 07bd 901b 283e e6fc e8bc
00000160: 31de 043e 6ccb 523a c81e 2ebe 3478 543c
00000170: b9ba 24be 5883 e9bd 3ca2 08be 8a19 453d
00000180: b4c4 273e 5240 40bd bce2 a93d 0709 a03d
00000190: b084 1cbe 4329 cbbd 3ec6 d93b 2b32 19be
000001a0: 86d9 15be 50b2 6f3d 46a6 333e 4883 babd
000001b0: 0458 0f3e 3188 ac3d 3803 8539 f4c3 78bd
000001c0: 02ae ee3d f75c 013e dc7c afbd 2b29 0c3e
000001d0: afc3 913d 487e 9cbd e80e 1a3e 24e0 8abd
000001e0: 3256 c9bd 640d 293e e35d 2d3d 7187 97bd
000001f0: 903c 1a3c 5866 1a3c 1073 a5bc 2df6 1abe
00000200: baac 843c 4805 653c 9d9f 4a3d 7bd8 1f3e
00000210: 9926 e93d 81de 07be f6c8 fe3d 5a38 043e
00000220: 10f3 d13d 678d 9cbd 1730 18be 0679 ce3d
00000230: bb86 0a3e f200 2fbe ea9d febd e55d 11bd
00000240: 2a40 f03d a52a 10be b5b2 483d 0173 fb3d
00000250: fb50 8cbd c080 07be c9dd e63d 08d6 d2bd
00000260: 77b5 98ba 1f60 063d 8d9f 35be 34d1 a7bd
00000270: ac68 ad3d 1577 46be c3a2 b53c 32c3 15be
00000280: e2c1 82bd f110 323e 5ad0 36bd 8974 ddbc
00000290: e6d2 0bbe d5cc eabc 469d af3c e38e 21bd
000002a0: 19ee 7bbd 11c2 d6bc 2ca1 203e 659e d23d
000002b0: 2a7e 0b3d b11c 71bd a786 31bd 5e75 f83d
000002c0: 1e6d 1f3e 10b2 16be 783e 0e3d 02c0 313e
000002d0: 4659 853d 907d 7ebd 4f35 1c3e fc14 f5bd
000002e0: 1e61 043e 1bd2 113e c002 acbd 9aa1 70bd
000002f0: 46e8 203e 54bb a63d 2404 e8bd dd01 2cbe
00000300: 0bef ddbd 59e2 843d d2b6 753d bcf6 0ebd
00000310: e3bb b03d 3a0d 343c 38e1 8dbc 0f90 1dbe
00000320: 6b92 1d3d 8737 a5bd 7fb5 38bd b143 f73d
00000330: 81b4 733d 031b 02be c799 24be 02e8 813c
00000340: d849 89bd 955c 0c3e b6be 18be 8ffc e7bd
00000350: 35e6 e33d cfa3 33bd 2e36 81bd 997f 723d
00000360: caa1 bcbb 4506 9abc 2244 f53d 4825 6ebd
00000370: 7d35 13be f6a2 2abd 14b2 1d3e f151 02be
00000380: b6d7 023e 3f51 7bbd cc64 11be cd46 053e
00000390: 072c 143e dee9 113e c860 96bd d0ca 0a3e
000003a0: c03c 19bd e977 27be f310 3d3d 8956 843c
000003b0: ab3a 2cbe e337 ff3d 1ce9 27be 1b90 e03d
000003c0: 6307 e4bd 4883 073e f83b 1b3e 639a 16be
000003d0: 20e7 713d 036c b43d 0a67 c5bd e6ad 0a3e
000003e0: a3ec f1bd 44e9 b0bd 36ec 39be d584 bb3d
000003f0: 2526 d9bc 0ad8 fcbd d9e3 3a3d 863c 28bb
-0.16586338 -0.10705361 0.11222435 -0.007955887 -0.013975485 -0.15437482 -0.012754603 0.053067025
-0.055943802 -0.15826625 -0.15435673 0.09698576 -0.046266913 0.0054769386 0.08446482 0.036675137
0.07584209 -0.09822249 0.07418765 -0.15445127 -0.0057074446 0.10331542 -0.02797329 -0.18833613
0.021892227 -0.17398602 -0.037432507 0.10367474 0.12929618 -0.14685804 0.071183585 0.08772685
-0.03744702 0.09425885 -0.15490657 -0.11536622 -0.13065624 0.08917358 0.14230989 -0.10050698
0.09878386 0.05051494 -0.15925576 0.030873338 0.16160809 -0.11668627 -0.14771055 0.03670478
0.14351872 -0.094309516 0.079588264 -0.11808026 -0.16448162 -0.12166652 0.10220005 0.13322425
-0.13511705 -0.09559569 0.0048274403 -0.08918109 0.035737585 -0.050559603 0.153419 0.03734835
-0.11348547 0.06173613 0.055346042 0.12761061 0.034728616 -0.09429118 0.064869195 0.15810594
-0.10433732 -0.10945843 -0.13799638 0.0639723 0.051371716 0.028160349 -0.07409186 -0.19340228
-0.103049174 0.093448415 0.113312535 -0.047656056 -0.02496153 -0.03303904 0.16416764 -0.028440904
0.12975384 0.00080411765 -0.1700393 0.012968112 -0.16086854 -0.11402005 -0.13343138 0.04812006
0.1638363 -0.04693634 0.08295199 0.07814222 -0.15284991 -0.099199794 0.0066459468 -0.14960544
-0.1463376 0.05851966 0.17543897 -0.09107071 0.13998419 0.08424414 0.00025370135 -0.06073375
0.11654283 0.1263312 -0.08568737 0.1368758 0.07117402 -0.07641274 0.15044749 -0.06781033
-0.098308936 0.16509014 0.042325865 -0.0739888 0.009413853 0.009423815 -0.020196468 -0.15132971
0.016195644 0.01397831 0.049468625 0.15609924 0.11384315 -0.13268472 0.12440674 0.12912121
0.102514386 -0.07644158 -0.14862095 0.10081677 0.13527958 -0.17090204 -0.124324635 -0.035489935
0.11730988 -0.14078768 0.048998553 0.12277795 -0.06851383 -0.13232708 0.11272771 -0.102947295
-0.001165076 0.032806512 -0.17736645 -0.08194199 0.0846723 -0.19381364 0.022172337 -0.14625242
-0.063846365 0.17389275 -0.044632293 -0.027033107 -0.1365467 -0.028662125 0.021437299 -0.039442908
-0.061506364 -0.026215585 0.15686482 0.102841176 0.034055866 -0.058865253 -0.043341305 0.12131761
0.15568969 -0.14716363 0.034727544 0.17358401 0.06511168 -0.062131464 0.1525471 -0.11966893
0.12927672 0.14240305 -0.08398962 -0.058747865 0.15713605 0.08141199 -0.11328915 -0.16797586
-0.108366095 0.06488485 0.059988804 -0.034903273 0.086295865 0.010989482 -0.017319307 -0.15386985
0.038469713 -0.080672316 -0.045094963 0.12073458 0.059498314 -0.12705617 -0.16074286 0.0158577
-0.06703538 0.13707192 -0.149165 -0.113274686 0.11127893 -0.043857392 -0.06309162 0.059203718
-0.0057565914 -0.018801818 0.11975886 -0.058141023 -0.14375873 -0.041659318 0.15399963 -0.1272657
0.127776 -0.06135678 -0.14198607 0.1301529 0.1446992 0.1424937 -0.07342678 0.1355393
-0.03741145 -0.16354336 0.046158742 0.016154544 -0.16819255 0.124618314 -0.16397518 0.10964986
-0.111342214 0.13233674 0.15159595 -0.14707331 0.05905831 0.08809664 -0.09638794 0.135429
-0.11812713 -0.08638242 -0.18156514 0.09156195 -0.026507447 -0.12345894 0.04562745 -0.002567084

encoder.conv3.bias f4 [32]
00000000: d157 953d d91a 413d 91ce 853d 214f 8b3d
00000010: f839 b13d 57c5 1cbc faba 093e 3122 d2bd
00000020: 7a82 fa3d 813a bdbb 75c3 85bd 2d5f dd3d
00000030: 6cd6 c1bc 4b38 45bd 4cda 1e3e 306d 37bd
00000040: 7201 72bd 6659 2abe 17c7 bf3c 82e8 8abd
00000050: 415a 40be c52b 8abc 1fd4 fd3d ec2c 723d
00000060: 4f8d ac3d 261b 2bbd 6720 053d dfae 243e
00000070: 087a 36be 94f4 cf3c b0aa 27be 96b5 e03d
0.0729214 0.047144745 0.0653354 0.06802202 0.08653635 -0.009568534 0.13450232 -0.10260428
0.12231918 -0.0057747965 -0.06531421 0.10809169 -0.023661815 -0.04814939 0.15512961 -0.044781864
-0.05908341 -0.16635665 0.023410363 -0.067826286 -0.18784429 -0.016866574 0.123939745 0.059124872
0.0842539 -0.041773938 0.032501604 0.16082333 -0.17819989 0.025385179 -0.16373706 0.10972135

encoder.conv4.weight f4 [32, 32, 2]
00000000: 0c26 533d b11a d7bd b3cc b73d 936e 2a3d
00000010: 4a8b a1bd cc77 5b3d 3243 b2bc d11f 89bc
00000020: 326f c7bd 3575 cdbd 02fa 8bbd c7bc 5bbd
00000030: 707f ddbd 6539 803d cf46 b83d 7bfa 523c
00000040: 9a80 f73d bafa 9dbd 0d42 0c3d c40a ed3d
00000050: e917 c8bd 9877 383d 99ba 8cbd bf97 ecbd
00000060: 8fb7 cc3d f435 8b3d 578f ea3c abd6 ebba
00000070: 28af 83bc d5dd 563c ebe0 e63d 0063 95bc
00000080: f590 bf3d d75c 20bd 1635 fe3b 55f7 43bd
00000090: 9228 6abd 1476 913d d5d0 1f3c 622a a4bd
000000a0: 89f0 55bd eb2b d83d 4b91 e03d dc75 eabd
000000b0: b23d 06bd f55d 973c 5919 84bc df34 843d
000000c0: 3e3e d23d d00e bb3b 65c1 b9bd 8668 8bbd
000000d0: 4aab a23d f540 b03d 69ef b83b 5ff4 bdbd
000000e0: d382 893d 5e21 76bb e10d fe3d 88e2 53bd
000000f0: 44e2 d13d 794a fabd 6446 6c3d addf a2bc
00000100: 6ad1 aabd ef81 933c 7f38 8dbc 88ea e1bd
00000110: 150a cf3d ac80 963b f51c 80ba 8831 8c3d
00000120: 4b9b 36bd e1e2 613b b47f 6b3d df8a 7bbd
00000130: c127 1f3d c03c e63c 212f 75bd 30fe c9bd
00000140: 8844 9bbd 9d35 373d 79ab 02bd cf77 e1bd
00000150: fddf 7ebd 4db8 a63c 36b7 fa3c a255 ae3d
00000160: f312 37bd 3058 0c3b 2877 833d 9fe3 6d3c
00000170: 99b5 97bc 71b6 253d 42f8 ec3d e12f 8dbc
00000180: d3a8 66bd 11ba e23b 3b30 c73c 6fb5 a33d
00000190: cdbb a03c cb65 e83d ea46 033e 57a3 983c
000001a0: 6dd7 d43d 07c0 8e3c 4695 90bd 56bd 8c3d
000001b0: a2fe 85bc 1161 323b 94ae b93d 3f2f efbd
000001c0: 41eb 953d 70c5 3dbd 702d a03d bcf0 80bd
000001d0: 6507 fd3d ece1 963d bf17 d63d d5d5 e63d
000001e0: a2e3 8c3c 5a24 9abd ab2a 06be 2162 943c
000001f0: 3823 0abc ec5d 2bbd 5204 453d d6c5 aa3d
00000200: 8e49 883d 9346 383d 0dac 783d 3a91 c3bc
00000210: 4ee7 433c ea25 bab8 f088 8e3d b8e8 dc3d
00000220: b20f af3c 8168 98bd 37e2 61bd 4dc4 1a3d
00000230: 705a d03d 1dd8 803d 0879 a03d 663b bd3d
00000240: 1c23 c43c f47b 883d 4613 393d 25c0 883d
00000250: d0d0 1abd 04c3 d33d b7eb 473d bffe 8c3d
00000260: a3ba d63c c4c2 bdbd d343 4ebd 1afc b23d
00000270: c00b 77bd 9941 cbbd 008d 27bd 1118 e23d
00000280: 2482 a3bd 8027 cbbd 326f a53d bcf4 ed3b
00000290: cb54 36bd f858 6cbb 29a2 0a3d a9fc 5cbd
000002a0: a6e0 e6bd 1f75 98bd 1a77 e93d e348 f2bd
000002b0: f170 a03d 23f0 85ba 6382 c3bd c06e 9abd
000002c0: 7ce6 b0bd 8a84 34bc 51db 30bb caa0 c1bd
000002d0: 21d1 b0bc 0c10 cb3d f2fc e63c 7d26 a5bd
000002e0: 7c40 9d3d 8001 18bc 415c 53bd 3785 ad3d
000002f0: 0aab 8abb 51f4 01be 7f45 da3d 8467 54bc
00000300: 7e91 cb3d 1d9e c4bd 89b0 06bd d92b c3bd
00000310: 2df4 44bc 8000 d8bc b727 04be cdf1 b2bd
00000320: 59b3 ed3d 04b6 203d 683a f6bd 9308 f6bc
00000330: bae7 cf3d 4c4c 3abd c808 dc3d f09a 7c3d
00000340: 44bd 373d 5528 9cbd 8bd3 05be 63c7 f93d
00000350: 5c7d 8ebd 4278 933d 595b 0cbe b9ac eebd
00000360: 2dd5 cb3c beb4 30bd 2b18 9cbd bc14 303d
00000370: fde9 203c e9d3 87bd b12b cebd 8bc2 2c3c
00000380: bec7 b23d fea8 c1bd 30ea dd3d c1f4 a03d
00000390: e566 efbd 428d 96bd 82ed 7fbd 03a3 b0bc
000003a0: eed4 b9bd 8de5 043d 81fc 06be 0504 c9bd
000003b0: e6b8 9c3d 2ffa 24bd 2604 05be 726c e7bd
000003c0: 16f3 b2bd ca30 48bd 1d6d f13d e149 d03d
000003d0: bfe6 f4bd a1e8 89bd a6e1 6e3d dca4 4c3d
000003e0: 5241 113d 2eef c23b 90d4 d9bd e5a4 d13d
000003f0: 0029 9b3d 7b06 c7bd c3ea 373d 31b6 d3bd
0.051549956 -0.10503138 0.0897459 0.041609358 -0.078878954 0.053581044 -0.021760557 -0.016738804
-0.09738006 -0.10032121 -0.068347946 -0.05364683 -0.108153224 0.06260947 0.08997881 0.012877102
0.12085076 -0.07713838 0.03424268 0.11574319 -0.097701855 0.04503593 -0.06871528 -0.11552381
0.099959485 0.067974 0.028632803 -0.0017993053 -0.016074732 0.013114412 0.112733684 -0.018235683
0.0935382 -0.03915104 0.007757793 -0.047843296 -0.057167597 0.071026 0.009754379 -0.080158964
-0.052231345 0.10555252 0.109652124 -0.11448261 -0.03277368 0.01847742 -0.016125368 0.06455397
0.10265778 0.005708553 -0.0907009 -0.06807046 0.07942827 0.086061396 0.0056437743 -0.09275126
0.06714406 -0.003755651 0.12404991 -0.05172971 0.10248235 -0.12221236 0.057684317 -0.019882048
-0.08340724 0.018006293 -0.017238853 -0.110310614 0.10109345 0.0045929756 -0.0009774255 0.06845385
-0.044581693 0.0034467506 0.057494834 -0.061411735 0.03885627 0.02810514 -0.0598594 -0.098629355
-0.07581431 0.044728864 -0.03190181 -0.1100918 -0.06222533 0.020351553 0.03060494 0.08512427
-0.044695806 0.0021414869 0.064192116 0.014519601 -0.01851921 0.040457193 0.11570789 -0.017234745
-0.056313347 0.0069191535 0.02431499 0.0799359 0.0196208 0.113475405 0.1282002 0.018632574
0.10392652 0.01742555 -0.07059722 0.068720505 -0.01635677 0.00272185 0.09066501 -0.11678933
0.07320262 -0.04633087 0.078211665 -0.062959164 0.12354926 0.0736731 0.10453748 0.11271254
0.017198388 -0.07526465 -0.13102214 0.018113198 -0.008431248 -0.041837618 0.048099823 0.083385155
0.066546544 0.04498918 0.060710955 -0.02387296 0.011957003 -8.876233e-05 0.069597125 0.10786575
0.021369789 -0.074418075 -0.055147376 0.037784863 0.101734996 0.0629122 0.07835585 0.09239845
0.023942523 0.06664267 0.045184396 0.06677274 -0.037796795 0.10339931 0.04880878 0.068845265
0.026212042 -0.09265664 -0.05035765 0.08739491 -0.06031394 -0.09924621 -0.040905952 0.110397466
-0.07983807 -0.099196434 0.080778494 0.0072618406 -0.04451446 -0.0036063772 0.033846054 -0.053951893
-0.11273317 -0.07444214 0.1139967 -0.11830308 0.07834042 -0.0010218661 -0.09546354 -0.07540655
-0.086377114 -0.011017928 -0.0026986192 -0.09454496 -0.021584095 0.0991517 0.028196786 -0.08063982
0.07678315 -0.009277701 -0.051601652 0.08472674 -0.004231815 -0.12690856 0.106577866 -0.012964133
0.0993986 -0.0960047 -0.0328832 -0.09529848 -0.012021107 -0.026367426 -0.12905775 -0.08737526
0.116064735 0.039236084 -0.12022859 -0.030033385 0.1015162 -0.04548292 0.107438624 0.061671197
0.044858232 -0.0762488 -0.13068978 0.12196233 -0.06957504 0.07200672 -0.13706721 -0.11654038
0.024881924 -0.04314112 -0.07621797 0.042988524 0.009821412 -0.066322155 -0.10066927 0.0105444295
0.08729504 -0.09456061 0.10835683 0.07859183 -0.116895474 -0.073511615 -0.062482364 -0.021562105
-0.09073816 0.03244548 -0.1318226 -0.0981522 0.07652454 -0.040277656 -0.12989864 -0.11299981
-0.08737771 -0.048874654 0.1178839 0.10170341 -0.11958074 -0.067338236 0.058320664 0.04996191
0.035462685 0.0059489226 -0.10636246 0.10236529 0.075761795 -0.09718033 0.04490162 -0.10337485

encoder.conv4.bias f4 [32]
00000000: be73 bfbd b822 b4bd 038a 95bd 85c0 babd
00000010: 05e2 0fbd dc6d bb3d 86ac 08bd bc5c 81bd
00000020: eead 91bd 3b43 24bc 49ae b3bd b1ea 01bd
00000030: 0584 87bd 27e9 f53d 5d59 683d 59f3 30bc
00000040: 6e1f a7bd d24e af3d 8b43 2dbd 318c a93d
00000050: db12 8fbd 1c5b 103e 0549 793d 1316 81bd
00000060: 96d3 ee3d 2946 0e3d b395 ff3d 6f19 dd3c
00000070: dd7a f9bd ee02 3c3d 4d7f 0f3d f1a2 f3bd
-0.09348248 -0.087956846 -0.07301714 -0.091187514 -0.03512766 0.091518134 -0.033367656 -0.06316516
-0.071132526 -0.010025795 -0.08773477 -0.03171796 -0.066169776 0.12007361 0.05672585 -0.010800206
-0.081602916 0.08559956 -0.042300742 0.082786925 -0.06986018 0.14097255 0.060860652 -0.063030384
0.116614506 0.03473488 0.12479725 0.026989667 -0.121816374 0.04590123 0.035033513 -0.11896313

encoder.fc1.weight f4 [64, 128]
00000000: a235 9f3c d62e 843c fcce 7e3d f24b 2cbd
00000010: 5833 4cbc da3b e43c 5be7 7a3d 35ba 99bc
00000020: 2017 363c d554 733d 7ba8 a5bc 9923 913d
00000030: a3d1 093d ddf3 87bd 86bb 6fbd 477f aabd
00000040: aaba 813d 5bd7 a8bc 2091 22bd d624 8bbd
00000050: 4ec4 a6bd 6896 0bbd 8b28 cebc 9da2 85bd
00000060: b869 9dbd 2be9 3c3d 4ff0 77bd b08c 9a3d
00000070: 986d 403d 2df1 223d 7eff 9e3d 7669 9fbc
00000080: a3d2 97bd d945 b23d ad52 9ebd eb2f b0bb
00000090: eb6d bc3c cecd aebc 15eb b5bc 1565 a0bd
000000a0: 4344 923b 3939 a9bd 25dd 393d 2a32 8c3d
000000b0: 2554 9e3d 293b 1aba c5f7 ab3d 7bf7 70bd
000000c0: cbc5 0abd 0e7f 8abd 448c 7abd 268f 883d
000000d0: 8daf c7bc 67ef debc da87 9a3c f07e 3dbc
000000e0: 9499 60bd 5df5 94bd 0133 4b3c 6f67 9fbc
000000f0: 8e0a 613c 1c44 02bd 9c55 94bd 46ac 63bd
00000100: b55c 3fbd e893 1b3d f4cc 783d b359 8bbd
00000110: 2b94 ac3d ac1c 79bb 6a05 863d ae77 a0bd
00000120: e159 afbd 7bff 8abd 9339 2abd 0ef5 843d
00000130: d116 46bd 4fe5 b73c 72d1 83bd 4a3c a2bd
00000140: 1ede 08bd 09ea 3a3c 55d4 953d d528 14bd
00000150: 9d41 d439 253f 613d d0b2 5c3d 3b86 893c
00000160: d53e 84bc ff46 cebc 0934 f6b9 d409 5d3d
00000170: 90a8 283d 6a39 d6bc 026f 80bd 7d2a 693d
00000180: 7c20 323c b2f9 623d e1b8 bfbc 8c16 aabd
00000190: b157 55bd b643 efbb e0eb 63ba 666f b6bc
000001a0: 9842 4e3b 0640 013b a8a0 453d bfc4 f9bc
000001b0: e1e0 70bd 8bed 8fbd 73b7 8f3d beaf b1bc
000001c0: 3df4 7fbd 4929 cd3c 13aa a23d 9bc5 59bd
000001d0: 9357 6bbd 7f96 2bbd b03a 54bd fcaa adbc
000001e0: ff9c 803d c7cb 12bc 9c1b 453d d9c7 a03d
000001f0: 5f01 66bd a423 8d3a 0fb5 e0bc 6358 413d
00000200: 73fd 9abc 009f 94bd bab4 22bc d1dc 8c3b
00000210: 8727 d13a 9319 973d 5241 e83c d3d7 7cbd
00000220: c2a3 6abd a63f a43d f2b8 d9bc 44f9 0dbd
00000230: 625c 57bc 45dc 38bd 0d1d 813d 9181 983d
00000240: 1269 36bd 76c7 ae3d bcca a1bd 58f4 bcba
00000250: 9f1b 07bd 5a77 f03c af8d 5c3d 817b 73bd
00000260: f6e2 853d 8583 5a3c f78c 223d f852 833d
00000270: f2d2 9d3d 4029 2dbd 349f 773c 7985 8ebc
00000280: 6416 663d 5ec6 cebc 904d a53c 1134 01bc
00000290: dba0 9a3d a6d6 96bd b580 8dbd 1558 813d
000002a0: a99a 9dbd 3e09 f63b e7e1 9dbd ef05 cbbc
000002b0: fd31 cb3d 87a9 763d 3513 5b3d b6bf ffbb
000002c0: 5ddd 703a 866a a23c 072b a6bc 4e06 92bd
000002d0: d785 27bc 138b a6bc 05c5 81bc d326 4b3d
000002e0: 0517 013d 2690 e73c de10 9fbd df43 28bd
000002f0: 8802 b63d dc5a 463d d3f9 48bc e6e5 cabb
00000300: 6a30 083d cee9 f5bc 9776 abbb 7018 d43d
00000310: 4b50 d03c 3b70 8f3d 1cda 64bd e56c 3dbd
00000320: bea4 013c 3d92 bc3d 5083 14bc d09a d23b
00000330: a78a 683c be4a 5abd dcf9 863d c62e b0bd
00000340: 37f1 2d3d 4dfe 1cbd 7aee a93c f540 ab3d
00000350: e010 66bc 9815 ac3d 2ca4 51ba 2854 9e3d
00000360: 4902 1e3c ebde f23b d8fe 40bd 1532 a53d
00000370: ad4f 153d 57f5 443d 9366 02bd ff46 883d
00000380: bba3 17bd 7ff0 8c3c 693e 53bd a9ef a4bd
00000390: d29e 543d 84a3 75bc fdb7 98bc ce41 8fbd
000003a0: d448 b03d d9c7 e0bd 4485 253d 5d6f 5fbd
000003b0: a2cf 0dbd b285 f63c fce0 883d 2b4f d4bd
000003c0: db37 6fbd f448 09bd 844a 26bd 62af 283d
000003d0: b74b c0bd 856c 15bd 031c 983d f067 88bd
000003e0: 29b5 86bd 81d4 423d 13b4 f73c d408 ccbd
000003f0: b80c 4b3c 1bcd 923c 0d17 3cbd 387b 39bd
0.019434754 0.016135614 0.062209114 -0.042064615 -0.012463413 0.02786057 0.061255794 -0.018765548
0.011113912 0.059407074 -0.02022194 0.07086868 0.03364719 -0.0663831 -0.058528446 -0.083250575
0.063344315 -0.020610502 -0.039689183 -0.06794135 -0.08142911 -0.034078985 -0.025165817 -0.06525157
-0.0768618 0.046120804 -0.06053191 0.07546365 0.046979517 0.039780784 0.07763575 -0.019459467
-0.07413223 0.08704729 -0.07730613 -0.005376806 0.023001632 -0.02133837 -0.022206822 -0.0783178
0.004463704 -0.082628675 0.045376915 0.068455055 0.07730893 -0.00058834493 0.08396868 -0.058829766
-0.033880036 -0.06762515 -0.061168924 0.066679284 -0.024375701 -0.027213765 0.018863607 -0.011565909
-0.054833964 -0.07273362 0.012402297 -0.0194585 0.013735427 -0.031803235 -0.07242891 -0.055584215
-0.04671927 0.03798285 0.060742334 -0.06804218 0.08426698 -0.0038011475 0.065440014 -0.07835327
-0.08562065 -0.0678701 -0.041558813 0.06492053 -0.048361603 0.02244821 -0.06436433 -0.079216555
-0.033414952 0.011408337 0.0731589 -0.036171753 0.00040484677 0.05499186 0.053881466 0.016787639
-0.016143242 -0.025180338 -0.00046959546 0.05396445 0.04117638 -0.026150424 -0.06271173 0.056925286
0.010872003 0.05541391 -0.023403587 -0.08305082 -0.052085582 -0.007301773 -0.0008694511 -0.022269916
0.0031472798 0.0019721999 0.048248917 -0.030489324 -0.05880821 -0.070277296 0.07017412 -0.021690246
-0.062488783 0.0250441 0.07942595 -0.053166967 -0.057456564 -0.04189157 -0.05181378 -0.021199696
0.06279945 -0.008959717 0.048122033 0.07850618 -0.05615365 0.0010768068 -0.027430085 0.047203433
-0.018919682 -0.07256889 -0.009930784 0.0042987843 0.0015957215 0.07377925 0.02835146 -0.061729264
-0.057285078 0.080199525 -0.026577447 -0.034661546 -0.013144584 -0.04513194 0.06304369 0.07446588
-0.044533797 0.08534138 -0.07899997 -0.0014416082 -0.032985326 0.029353786 0.053846058 -0.059443954
0.0653743 0.013337021 0.039685216 0.064123094 0.0770625 -0.042275667 0.015113641 -0.01739763
0.056173697 -0.025241073 0.020178586 -0.007885949 0.07550212 -0.0736516 -0.069093145 0.063156284
-0.07695515 0.007508426 -0.07709103 -0.024783103 0.09921644 0.060220268 0.053485114 -0.007804836
0.0009188259 0.019826185 -0.020284189 -0.07130109 -0.010224781 -0.020329988 -0.015841017 0.049597573
0.031516094 0.028266978 -0.07766889 -0.041080352 0.088872015 0.048426494 -0.012266594 -0.006191957
0.033249296 -0.030018713 -0.005232643 0.103562236 0.025428912 0.07003828 -0.055872068 -0.046246428
0.007912813 0.0920758 -0.00906451 0.0064271465 0.014193214 -0.053293936 0.06590626 -0.08602671
0.04246637 -0.038328458 0.020743597 0.08361999 -0.014042109 0.08402556 -0.0007997181 0.07730895
0.0096440995 0.007411828 -0.047118038 0.08066193 0.036452938 0.048085537 -0.031836104 0.066541664
-0.03702138 0.017204521 -0.05157319 -0.08053524 0.051909275 -0.014992598 -0.01864242 -0.06994973
0.08607641 -0.10975618 0.040410295 -0.054549564 -0.034621842 0.030093048 0.06683537 -0.103666626
-0.058402877 -0.03351684 -0.040598407 0.041182883 -0.093894415 -0.036480445 0.07427218 -0.066604495
-0.06577522 0.04756594 0.030237233 -0.09962621 0.012393169 0.017920068 -0.04592042 -0.045283526

encoder.fc1.bias f4 [64]
00000000: 0008 923d 5456 d43d 3ec3 b6bc f661 8ebc
00000010: bf7e ea3d 8040 993d 331c 7fbd ad0f c33b
00000020: 6966 0b3d ee86 a63c 23e2 a03d eaf3 a7bd
00000030: 5994 babc 2ada 653c f3f2 b53d 94c2 7b3d
00000040: f54c 833c 1670 0f3b 9726 bc3d cae4 f0bc
00000050: d8ea 9d3d be05 0ebd 755d 0a3a e3e5 c5bc
00000060: dfde 923d ae19 53bd bcf9 f33c c2e2 0f3d
00000070: 1f37 67bd 957e 1cbd 171f b23d c22a c53d
00000080: ccad 0c3c b0c8 84bd c039 acbc 8eed 07bc
00000090: 3840 a23d 581e 86bd e110 bc3d 6ff7 7fbd
000000a0: c292 863d 1f95 43ba 4595 b6bd 4ea0 af3d
000000b0: 5dec 97bd 31f7 f3bc 2cbe 96bd 6728 66bd
000000c0: ec1c 093e 65bf db3b 225f 61bd 4a86 05bc
000000d0: 994b 58bd 68c1 883d e254 c3bc 0de4 c13d
000000e0: 01f1 163d 368a 0b3d accb 153d 919e f03c
000000f0: 7b38 a9bd 6c00 b2bd 8423 47bb ca47 1dbc
0.07130432 0.10368028 -0.022309896 -0.017380696 0.11449956 0.074830055 -0.062282752 0.0059527964
0.034033213 0.020328011 0.07855632 -0.0820082 -0.022775816 0.014029065 0.088842295 0.06146486
0.016027907 0.0021886877 0.09187048 -0.02940597 0.077108085 -0.034673445 0.00052782084 -0.02415747
0.071714155 -0.051538162 0.029782169 0.035128362 -0.056449052 -0.038206656 0.08697336 0.09627296
0.008586358 -0.064835906 -0.021023631 -0.008296384 0.07922405 -0.06548756 0.09182907 -0.06249183
0.065709606 -0.00074608804 -0.0891519 0.085754976 -0.074181296 -0.029780956 -0.07360491 -0.056190874
0.13389939 0.0067061656 -0.055022366 -0.008149693 -0.05280647 0.06677514 -0.023844186 0.09467325
0.036850933 0.034067355 0.03657119 0.029372485 -0.08262726 -0.08691487 -0.003038616 -0.009599635

encoder.fc2.weight f4 [16, 64]
00000000: 445b 04be 52e4 c63d 504f 93bd 957d ef38
00000010: 6c3c ea3d 70bc e1bc 27ef 76bc aa90 d73d
00000020: e527 d5bd 0864 52bd cc62 15be 3c4f 00bc
00000030: a57f 8e3d 9c33 303d 54fd 71bd 10e3 df3d
00000040: 1d3e 63bd 2772 0abd 1a2a 0e3d 2402 e23c
00000050: f7a0 b83c 19ae a6bd 0c24 36bd c25e 023e
00000060: 0116 8d3d ba37 b83d cf0a febb ffd2 b83c
00000070: a500 fdbd e4fb 62bd 4f2e 18bd 3c14 39bc
00000080: 293a 913d a87f 4c3d 10c7 dc3d 143a 833d
00000090: 8f79 f1bd 42bc b43d 7800 72bd 34b3 ad3c
000000a0: af91 85bd 66ef 853d c1bb b7bd aa1d 57bd
000000b0: c190 b3ba 34f0 4fbd be4c fcbd 5dfa 7bbb
000000c0: b336 a2bd d417 643d 5658 723c 7af3 713d
000000d0: fe1d b13d 230c 673d 0e9d ee3c 5134 ddbd
000000e0: a8b4 eebd 2066 b43a a93e cf3d c3e5 eebd
000000f0: 2b2d b43c c4e7 b93c 906d 3c3d 9a5a 8cbd
00000100: 0544 7c3d c21f b9bd cea1 d63d 5125 6fbd
00000110: bbdd d93d 32c7 b83d 7278 103a 2e55 b63c
00000120: 3a04 273d b97d d2bd 694b cdbd dddd bdbd
00000130: 8f7a 493d fcbe 523d b2fa ce3d a9b9 703d
00000140: be7b 753d cb0c e8bc f590 063d a6ac 523c
00000150: 6cc8 8b3d b451 073c 7f37 0abd 95a1 b6bc
00000160: 21f9 5f3c 9b4d c9bd bd7a ee3d 745c ecbd
00000170: 2120 90bd 7ace 8fbd e7b4 d03b 22d9 b9bd
00000180: 38a4 ab3d 742e bc3d 8001 e03d 7f4b 14bd
00000190: 79dd f23c c11a 323b e178 3cbd 8e92 e63d
000001a0: 1223 48bd e061 b43b 97d9 5f3d 6d7b c53d
000001b0: e1c4 183d 651a 8dbc 8990 383d 6273 d7bc
000001c0: 934b 03bd 8993 bb3d 4e6b d6bd 858a 2bbd
000001d0: 83c7 9abd ba61 0abd a256 ad3c 589b 483d
000001e0: 1a41 84bc 0586 7dbd a89f aebb 4cfc 523d
000001f0: 9c93 ab3d e743 b03c 1fba 943c 522a 27bd
00000200: 4cad c23b fb85 073e c780 b63d 5df9 733d
00000210: 8243 c53d ea42 9fbd 2424 df3d fcb5 b13d
00000220: e594 cf3d 4751 c13c 9d98 90bd 6d19 813d
00000230: 4afd 6a3d 79a5 3d3d a0c5 b3bd e170 b43d
00000240: 5226 023e 61c5 0fbd 197e 6b3a 7b69 ae3d
00000250: e75d 233c 7064 a7bb d5b4 e3bd 0aff b3bd
00000260: d17d ee3d 1c3d 93bc b592 083e 18c6 363c
00000270: 71d3 e13c ffab af3c 7fc4 703d 0575 e73d
00000280: ed9b 7dbd 0958 0e3e d744 fabd dd10 043e
00000290: 839a 603d 4316 e9bd dbde 003e 8d51 a4bd
000002a0: 1201 893d 2e9f 70bd 89bb acbd a77a acbd
000002b0: e63e cdbd 4701 193e b7ba 89bb e3b4 863c
000002c0: f25a 843d cad0 c53c 23da 3d3d 583f 91bd
000002d0: 7d7d 4b3d ecb4 25bd a664 843d 6876 033e
000002e0: a87e be3d fce0 b53d 1b0c 143d 19ba 95bb
000002f0: 5228 b3bc f662 593d a2e3 f9bb 441f a4bc
00000300: 90d2 903d f2df 213c 240d 863d 979d 313d
00000310: 3915 8cbd 068d 27bd 3ebe f13b eb2d dbbd
00000320: 8bed e73c 3196 093e b261 8c3d 202c ccbc
00000330: fa48 80bd 794e 85bd e933 b2bd 2928 793d
00000340: 2353 1d3b 3942 b5bd 1b4c e43d de26 e6bd
00000350: 8bcf 883c c812 ccbd 3751 0c3e 9289 3b3d
00000360: 8b70 b63d fe5c a5bd d99b 34bd b145 003d
00000370: 0861 ee3d 9614 b0bd c275 3b3d f180 54bc
00000380: e547 8a3b f8cb c43d 9279 ac3c a30e eabd
00000390: 5fac 0bbd f669 8f3c 12cf c43d 2e4d a23d
000003a0: 6779 2d3d f0c6 fbbd 2e61 043e 125b ee3d
000003b0: cfa4 b73d 7ada 7b3c 2023 ec3c 3d27 cf3d
000003c0: 11c0 1e3e 5b4c da3d 0462 b4bd 395c 9a3b
000003d0: 469b dbbd 37c6 1dbc c493 223d 09cf 293d
000003e0: a46f 043e 9deb e4bc ffde 8f3d 958a df3a
000003f0: 4548 78bc df98 7b3d 7f56 153d d94e 42bc
-0.1292544 0.097115174 -0.07192862 0.000114197996 0.11437306 -0.027555674 -0.015071667 0.10525639
-0.10408 -0.05136493 -0.1458847 -0.007831391 0.0695794 0.04301797 -0.059079483 0.109319806
-0.055479158 -0.03380027 0.03470812 0.027588911 0.022537692 -0.08138675 -0.04446797 0.1273146
0.068889625 0.08995004 -0.0077527533 0.022561548 -0.123536386 -0.055416003 -0.03715354 -0.011296328
0.07091171 0.04992643 0.10780156 0.06407562 -0.117907636 0.0882497 -0.05908248 0.021203615
-0.065219276 0.06539802 -0.08971358 -0.052518524 -0.0013699756 -0.050766185 -0.12319325 -0.0038448789
-0.07920589 0.055686787 0.014791569 0.059070088 0.08648299 0.05640806 0.029127624 -0.10800994
-0.11655551 0.0013763346 0.10119373 -0.11664917 0.021994194 0.022693522 0.046002924 -0.068532184
0.061588306 -0.090392604 0.104800805 -0.058385197 0.10637995 0.090223685 0.0005511112 0.022257414
0.040775515 -0.10277886 -0.10024149 -0.09270833 0.049189147 0.05145167 0.1010641 0.05877081
0.059932463 -0.028326413 0.032853086 0.012858545 0.06825337 0.008259226 -0.03374433 -0.022293845
0.013670237 -0.09829255 0.11644504 -0.115410715 -0.07037378 -0.07021804 0.0063692215 -0.09074618
0.083809316 0.09188548 0.10937786 -0.03620481 0.029646622 0.002717659 -0.046013717 0.11258422
-0.04886157 0.0055048317 0.05465087 0.09642682 0.037297133 -0.0172245 0.045059714 -0.026300136
-0.032054495 0.091589995 -0.104696855 -0.04188015 -0.07557585 -0.033784606 0.021159474 0.048976272
-0.016144324 -0.06189539 -0.005329091 0.05151014 0.08377764 0.021516753 0.018155156 -0.040811844
0.0059410688 0.13234703 0.08911281 0.059563983 0.09632017 -0.07776435 0.10895565 0.08677289
0.10135821 0.023598326 -0.07060359 0.06303678 0.05737046 0.046300385 -0.08777928 0.088105924
0.1270993 -0.035100345 0.00089833286 0.085162126 0.0099711185 -0.0051084086 -0.11118475 -0.08788879
0.11645091 -0.017973475 0.13337214 0.011155628 0.027566643 0.021444319 0.058781143 0.113016166
-0.06191628 0.1390077 -0.122201614 0.12897058 0.054834854 -0.11381199 0.12585013 -0.08023367
0.06689657 -0.058745556 -0.08434207 -0.084218316 -0.100217625 0.14941894 -0.0042031663 0.016443675
0.06462659 0.02414741 0.04635061 -0.0709216 0.04968022 -0.040455744 0.0646451 0.12838137
0.093015015 0.08880803 0.036144357 -0.0045693037 -0.021869812 0.053072892 -0.007626013 -0.02003444
0.070714116 0.009880053 0.06545475 0.04336318 -0.068399854 -0.040905975 0.007377415 -0.107021175
0.028311512 0.134362 0.068545714 -0.024923384 -0.06263919 -0.06509108 -0.08701307 0.060829315
0.0024005852 -0.088505216 0.111473285 -0.11237882 0.016700527 -0.0996452 0.13702856 0.045785494
0.089081846 -0.080743775 -0.04409394 0.031316463 0.11639601 -0.085976765 0.0457666 -0.012970195
0.0042199963 0.096092165 0.021054063 -0.11428573 -0.034099933 0.01750658 0.09609808 0.07924877
0.042352106 -0.12293804 0.12927696 0.11638464 0.089669816 0.015371913 0.028825343 0.10114906
0.15502955 0.10659095 -0.088077575 0.004710701 -0.107229754 -0.009629778 0.0396917 0.04145721
0.12933213 -0.02794438 0.07024955 0.001705485 -0.015153949 0.061425086 0.036459442 -0.011859619

encoder.fc2.bias f4 [16]
00000000: 5b11 64bb 21f1 983d 8170 2ebd 89f9 86bd
00000010: b404 febd 4687 72bd cae5 23bc 961f f73c
00000020: 4524 b73d 2308 5f3d 05ec 98bd dca9 a0bd
00000030: bfcc aebc 25dd 123e a43d 453d c163 543d
-0.0034800384 0.07467867 -0.04258776 -0.06590564 -0.12403241 -0.059211038 -0.010003516 0.030166429
0.08942465 0.05445112 -0.07466892 -0.07844898 -0.021337865 0.14342172 0.04815449 0.051852945

encoder.fc21.weight f4 [4, 16]
00000000: 64a8 8d3e bbc1 f7bd df65 0c3e a537 88be
00000010: 9946 22be a5a3 193e 9c74 45bd a3e6 203e
00000020: 1bf8 c5bd c5b1 1dbe 96d7 e7bd 25f7 11be
00000030: 502b e43d f7e2 1d3e a079 babd d057 243e
00000040: cb8e 573e 1b97 64be 9da1 24be 5d97 d0bd
00000050: e6ba ab3c 2e62 a1bd 4740 843d e6e0 10bd
00000060: 223f 6ebb 34fa 4abe 9bd1 1e3e a10f 6b3d
00000070: 9b5c 3f3e c097 4b3e ed40 3c3e c19f a33c
00000080: ea8a b43d 84c1 68be 2973 71bd e05d a63c
00000090: f95b 433d 9c10 86bd dd53 b03d 6347 ea3c
000000a0: c396 363e adf6 893c 24cc 3d3e a7db a43d
000000b0: 8758 d23d 5892 d73d e68c 01be 3ebb fc3d
000000c0: 59d0 893e 0968 e73d d816 27be b45f bfbd
000000d0: fffc 243e fd95 543e 6bb8 a6bc f28d 05bc
000000e0: d386 57be a0bd ec3d 883b c4bd ea5d ca3d
000000f0: 60e5 253e b391 6b3e de33 8fbe fbaf 503e
0.27667534 -0.12097498 0.13710736 -0.26604953 -0.15847243 0.15003832 -0.04820691 0.15712981
-0.09666463 -0.15399845 -0.11320417 -0.14254434 0.11141074 0.15418611 -0.091052294 0.16049123
0.21050565 -0.22323267 -0.16077276 -0.1018512 0.020963144 -0.078800544 0.064575724 -0.03537073
-0.0036353548 -0.19822007 0.15509646 0.05738795 0.1868767 0.19882107 0.18384142 0.019973638
0.08815558 -0.2273007 -0.058947716 0.020308435 0.047695134 -0.06546137 0.08609746 0.028598493
0.17830949 0.016841257 0.18534905 0.08049708 0.102707915 0.1052596 -0.12651405 0.12340401
0.2691677 0.1129914 -0.16317308 -0.09344426 0.16112135 0.20760341 -0.02035161 -0.008151518
-0.21047525 0.115596056 -0.09581667 0.09881194 0.16200781 0.23004799 -0.2796926 0.20379631

encoder.fc21.bias f4 [4]
00000000: aa35 0dbe 3c7f 253d f8f1 14be 050c 3fbd
-0.13790002 0.040404543 -0.14545429 -0.046642322

encoder.fc22.weight f4 [4, 16]
00000000: b0a7 173e c4bf 1ebe c20f 48be 6b53 84bc
00000010: 2df0 92bd 68f2 e93d 1288 ddbd d438 d03c
00000020: 4334 9ebe 0edf 1cbb 0af9 89be 070c df3d
00000030: 5e61 c23d 8ef8 55bd d926 a7bc a676 1cbe
00000040: 536d 31be 59f7 27be 20cb 82be 749d c53d
00000050: 4ccc 1a3e ea5b 583d ddd4 2bbd 0332 71bd
00000060: 9b15 cebd 7cdf 3a3e 6964 01bc 2ed0 8f3d
00000070: f4ae 1d3e 7b6b 403e 9e26 193e 8bc4 8cbb
00000080: a594 8c3d 524c bc3d 4e8a f6bd e4a8 adbd
00000090: 9c86 c1bc b379 943d 86a3 5dbe a785 9e3d
000000a0: 9f2c 5fbd 13e5 183d f872 133e 1e9f b9bd
000000b0: bee5 4ebe 4e49 91bc dd6c b6bd 96a7 193e
000000c0: e50d 3cbe 4ae5 023e c092 d83b 78ec 47bd
000000d0: 9949 08bb d9ba 8ebe 6b30 4c3e d7fd 23be
000000e0: dee1 123e e3f1 e93d feda c13c 4290 4abd
000000f0: 6948 c9bc 5f75 78be 4a8c 8f3d a44b 8ebd
0.14810061 -0.1550284 -0.19537261 -0.016153058 -0.07174716 0.114231884 -0.10816969 0.025417723
-0.30899248 -0.0023936662 -0.26947814 0.10890966 0.094912276 -0.052238993 -0.020404266 -0.15279636
-0.1732686 -0.1640295 -0.25545597 0.096491724 0.15116996 0.05282203 -0.04195105 -0.058885586
-0.10062715 0.18249315 -0.007897475 0.07022129 0.1539877 0.18791 0.14956138 -0.0042958907
0.06864289 0.091942444 -0.12038098 -0.08479479 -0.023623757 0.07249775 -0.2164441 0.07740336
-0.054485913 0.037327837 0.14399326 -0.09063552 -0.20204827 -0.01773515 -0.08907483 0.15005335
-0.18364675 0.1278278 0.006609291 -0.0488095 -0.002079582 -0.27876928 0.19940345 -0.16014801
0.14343974 0.11423089 0.023663994 -0.04945398 -0.02457066 -0.24263524 0.0700918 -0.06948021

encoder.fc22.bias f4 [4]
00000000: a760 70be b535 88be a264 97be cae5 233c
-0.2347437 -0.26603475 -0.29568964 0.010003516

encoder.bn1.weight f4 [16]
00000000: fd25 803f 6222 803f e2b7 7d3f 0000 803f
00000010: dae2 803f 0000 803f 1925 813f 0000 803f
00000020: 993b 7e3f e4ae 7d3f 0000 803f 1166 7d3f
00000030: e991 7b3f 0000 803f d5b0 803f 107a 7d3f
1.0011593 1.0010493 0.9910871 1.0 1.006923 1.0 1.0089446 1.0
0.9930969 0.99094987 1.0 0.98983866 0.98269516 1.0 1.0053965 0.9901438

encoder.bn1.bias f4 [16]
00000000: 64b3 28bc 4c59 fd3b 5fc8 98bb c053 debb
00000010: bc93 123b 57e8 1fbc c744 573b 3ddd a4bb
00000020: e47f 0b3c f6a9 edba fd3d 923c 3cf4 de3b
00000030: 09c9 0abc d53c 40bc 9003 34bb 4ee5 b5ba
-0.010296676 0.0077315923 -0.004662558 -0.006784886 0.0022365889 -0.009759984 0.003284739 -0.0050312565
0.008514378 -0.0018132317 0.017851824 0.0068040174 -0.008470782 -0.0117332535 -0.0027467944 -0.0013877542

encoder.bn1.running_mean f4 [16]
00000000: ceba 373c 49fa 4e3d 8c19 c13d 0000 0000
00000010: 5fe9 833e 0000 0000 dff0 a23e 0000 0000
00000020: d05b d83d f288 1a3f 0000 0000 8fd7 413f
00000030: 2ed9 223e 0000 0000 42b6 bb3d 6ceb c93e
0.011213971 0.05053166 0.09428701 0.0 0.25763986 0.0 0.31824395 0.0
0.10564387 0.6036521 0.0 0.7571954 0.1590316 0.0 0.09165622 0.39437425

encoder.bn1.running_var f4 [16]
00000000: d370 b339 0aa6 f23b 3dce 413c 358b e236
00000010: 0666 0f3d 358b e236 e444 c13d 358b e236
00000020: c0a9 f33c 6b64 bf3b 358b e236 abb0 c73d
00000030: 63be 2f3d 358b e236 4385 643c 1628 803d
0.000342256 0.0074050473 0.011828956 6.7515307e-06 0.035009407 6.7515307e-06 0.09436968 6.7515307e-06
0.029744029 0.005840828 6.7515307e-06 0.097504936 0.042906176 6.7515307e-06 0.013947788 0.06257646

encoder.bn2.weight f4 [16]
00000000: 6aa0 7d3f 8123 7d3f d546 7b3f ad80 823f
00000010: 7a49 7c3f 7d8a 7f3f 2687 813f a890 823f
00000020: 6e13 7d3f 8ab3 7a3f 3e92 803f c6f9 823f
00000030: a3dc 7d3f 755e 823f d307 7f3f 37db 7f3f
0.990729 0.988823 0.98154956 1.0195519 0.98549616 0.9982069 1.0119369 1.0200396
0.9885777 0.97930205 1.004463 1.0232475 0.9916479 1.0185076 0.99621314 0.9994387

encoder.bn2.bias f4 [16]
00000000: 5fad 1abc 339a 73bc 1bd6 5e3a d33e 693c
00000010: 8606 103c 32c8 20bb 9743 b5bc 7076 81bb
00000020: 251e 80bc d1c3 1b3c 191c c6bc 9324 b63b
00000030: 45e4 1dbc fb0c f2bb 454f 5a39 a24b 23bc
-0.009440749 -0.014868307 0.0008500532 0.01423617 0.008790618 -0.0024533388 -0.022126956 -0.0039508864
-0.015639374 0.0095071355 -0.02418332 0.005558559 -0.009636943 -0.0073868013 0.0002081963 -0.009966763

encoder.bn2.running_mean f4 [16]
00000000: 78d6 5e3e bd3d 933e 1790 1a3e 9a5a 873e
00000010: 1b5d 323e 541e 813e 9719 983e 3eeb 533e
00000020: ad15 943e a08e 823e 94a7 6b3e 4eb1 c53e
00000030: dbda 353e e2cc 923e 2a5e 313e 8bec ce3e
0.21761501 0.2875804 0.15094028 0.2643631 0.1741833 0.2521845 0.29707024 0.20695207
0.28922787 0.2549944 0.23013145 0.38611835 0.17759268 0.28671938 0.17321077 0.40414843

encoder.bn2.running_var f4 [16]
00000000: 370f a73d 90a5 f53d 1f81 8c3d 4690 283e
00000010: 9668 b83d fce0 e33d 7206 233e 0b7c b53d
00000020: 903a a83d 2192 e83d 58dc d63d 0795 6b3e
00000030: 3b9f a13d 154c d13d acfc 6b3d 14b5 4f3e
0.08157199 0.11994469 0.068605654 0.16461286 0.09004323 0.11126897 0.15920427 0.0886155
0.08214295 0.11355997 0.10491246 0.23006068 0.07891699 0.102195896 0.057614014 0.2028392

encoder.bn3.weight f4 [32]
00000000: ef11 7e3f 71bf 803f 2805 803f 41df 7e3f
00000010: c756 7e3f abb6 7f3f 17ba 7c3f 8bb7 7d3f
00000020: b90f 803f 5e94 823f 24ac 803f 9647 843f
00000030: 1bde 803f 4426 823f aaae 7c3f a44f 813f
00000040: efc9 7f3f 5c59 7e3f a717 843f 5c0c 823f
00000050: 2572 803f c7cb 803f 8bba 7e3f b4c5 813f
00000060: 39a5 7e3f 1763 803f 04d8 803f f98b 813f
00000070: 5172 7e3f 0976 7d3f 4d52 803f 467f 7d3f
0.99246114 1.0058423 1.0001574 0.9955941 0.9935116 0.99888104 0.9872145 0.9910819
1.0004798 1.0201528 1.0052533 1.0334346 1.0067781 1.0167928 0.98704016 1.0102429
0.999175 0.993551 1.0319718 1.0160022 1.0034834 1.0062188 0.9950339 1.0138459
0.9947086 1.003024 1.0065923 1.0120841 0.99393183 0.9900823 1.0025116 0.9902233

encoder.bn3.bias f4 [32]
00000000: 09a9 3c3b e4f2 d03b d5a3 d1ba 2e4c c4bc
00000010: 3474 073d 1107 78bc 2a56 f6bb 6467 2ebc
00000020: 7557 8dbb fbea af39 2be6 45bc 7c7b 473b
00000030: 88d7 c93b 8de2 4cbc c218 863c e9e7 0b3c
00000040: 5515 fc3b 5c34 243c 6604 1cbc a05f 4e3c
00000050: 14f3 e9bc 9820 30bc d991 6a3c 9d41 0739
00000060: 2a5d 00bb 9826 58bb 8619 72bc 5f53 b0bc
00000070: 7f47 95bc e287 b73c 0cb7 d1bc 2199 21bc
0.0028787276 0.006376611 -0.001599426 -0.023962107 0.033069804 -0.0151384035 -0.007517596 -0.010644767
-0.004313404 0.00033553675 -0.012078802 0.0030438593 0.0061597265 -0.012505186 0.016369227 0.008539178
0.0076929727 0.010022249 -0.009522533 0.012596041 -0.028558291 -0.010749958 0.014316999 0.00012899046
-0.001958678 -0.0032981988 -0.014776593 -0.02152413 -0.018222569 0.022403661 -0.025599979 -0.009863169

encoder.bn3.running_mean f4 [32]
00000000: 189d a63e e218 a73e 2f92 823e b011 9e3e
00000010: d827 a03e 1c90 a13e 774e a83e 4041 833e
00000020: 8a8e a43e f7fe 823e ebac 643e 2ce4 a53e
00000030: cff7 7f3e ff24 723e 6b63 af3e e89d 823e
00000040: cf5b 623e 2557 053e 3eae a33e bac7 593e
00000050: 1546 693e cfa2 8e3e 9349 883e 5989 b23e
00000060: 904e ad3e 2878 633e c311 b93e 68a6 cc3e
00000070: 8cf1 513e c676 6a3e bb47 0a3e d341 923e
0.32541728 0.32636172 0.25502154 0.3087287 0.31280398 0.3155526 0.32872364 0.2563572
0.3214 0.25585148 0.22331588 0.32400644 0.24996875 0.23646925 0.34255537 0.25511098
0.22105335 0.13021524 0.31968874 0.21267596 0.2278064 0.27858588 0.26618633 0.34870413
0.33849 0.22213805 0.36146364 0.39970708 0.20502299 0.22896871 0.13503926 0.28565845

encoder.bn3.running_var f4 [32]
00000000: 3149 303e 08e7 443e 7384 fd3d e04d 333e
00000010: 8768 263e e109 4c3e f282 223e ff45 123e
00000020: 828c 283e e6c2 0a3e 4879 023e 558f 473e
00000030: c715 153e 11c8 043e 1d9c 3e3e 3d51 153e
00000040: db22 153e dd17 6d3d 0857 533e f672 c63d
00000050: 8d87 263e ae2a 3d3e 782d 0a3e 4d09 803e
00000060: d5ec 643e 1229 f63d 7ad9 833e 286d 973e
00000070: 3c67 033e 009d d33d 5e95 633d f235 0e3e
0.1721542 0.19228756 0.12378778 0.17510176 0.16250812 0.19925644 0.15870264 0.14284514
0.1645985 0.1355091 0.12741578 0.1948827 0.14559089 0.12966944 0.1861424 0.14581771
0.14564078 0.057884086 0.20638669 0.09689896 0.16262646 0.18473312 0.13493907 0.25007096
0.22355969 0.12019552 0.2575186 0.29575467 0.1283235 0.1033268 0.05556237 0.13887766

encoder.bn4.weight f4 [32]
00000000: cfb6 7e3f 7c9c 7f3f 7feb 803f 2113 823f
00000010: 5c09 7e3f ffc4 7f3f a693 7f3f d2b0 7e3f
00000020: 175c 813f 1129 853f b2a1 7d3f c8f9 813f
00000030: 4c80 803f f80d 843f 7ab5 7f3f 7d2a 7f3f
00000040: 89d8 833f 5b8f 7f3f 557b 813f 49ba 803f
00000050: e514 7e3f fe68 843f cddc 803f 5a88 7f3f
00000060: bcbd 7f3f 8e07 7f3f cc29 813f b53f 823f
00000070: 6e88 7f3f d2af 7f3f 2705 823f f314 813f
0.99497694 0.9984815 1.0071868 1.0162088 0.9923303 0.9990997 0.9983467 0.99488556
1.0106229 1.0403157 0.9907485 1.0154352 1.0039153 1.0316763 0.99886286 0.99674207
1.0300456 0.9982812 1.0115763 1.005685 0.9925063 1.0344541 1.0067383 0.9981743
0.99898887 0.996209 1.009088 1.0175692 0.9981755 0.99877656 1.0157822 1.0084518

encoder.bn4.bias f4 [32]
00000000: 6416 2ebc fbe3 40bc 457b 72bc 42fb 143c
00000010: b8df c5bc 80bb d03c 7b8a 7dbc 09bb 07bc
00000020: 9c6e 66bb 9817 ae3c 3ebc 2e3c 2dad 09bc
00000030: bad1 c2bc fb24 8abc f4ce 06bd 0a09 c43b
00000040: 9d31 eebb a31a 893c 7e71 1f3b 68ae bb3c
00000050: f542 603b 068d b8bb 7c64 683c 7b97 c9bc
00000060: 8ee4 cf3c fc20 8dbc 472b 583b fe46 bd3b
00000070: 0570 aebc eb64 5cbc 999c eebc 41ad dcbc
-0.0106254555 -0.011773105 -0.014799898 0.009093108 -0.024154529 0.025480032 -0.015474911 -0.008284339
-0.0035161143 0.021251485 0.010664998 -0.008403105 -0.023781646 -0.016863337 -0.03291221 0.005982523
-0.007269098 0.016736334 0.0024329121 0.022910312 0.0034219597 -0.0056320457 0.014184114 -0.024608364
0.025377538 -0.017227642 0.003298478 0.005776285 -0.02129365 -0.013451795 -0.029127406 -0.026938083

encoder.bn4.running_mean f4 [32]
00000000: a2a2 7d3e 880c 5c3e 48cc 5c3e f7c5 8f3e
00000010: 8b7f 913e 420c af3e ccae 823e dbc6 923e
00000020: 3bd1 603e 9e8b 703e 557b 7a3e 3faf 833e
00000030: 0bc2 5d3e b823 9c3e 012c 943e 1795 8c3e
00000040: a0f2 473e 45b9 8a3e 3160 8c3e 925d 993e
00000050: 696a 8d3e 474f 8c3e 4756 9e3e cfff 513e
00000060: cda2 ac3e 6adf 8e3e 407a 993e beb4 983e
00000070: 9fab 8c3e d508 903e 601b a33e 178c 603e
0.2476907 0.21489155 0.21562302 0.28080723 0.2841762 0.3418904 0.25523984 0.2866734
0.21954815 0.2349076 0.2446111 0.2571964 0.21656053 0.30496 0.28939822 0.27457497
0.19526148 0.27094474 0.27417138 0.299542 0.27620247 0.27404234 0.309252 0.2050774
0.33717957 0.27904826 0.29976082 0.29825395 0.27474687 0.28131738 0.31856823 0.2192844

encoder.bn4.running_var f4 [32]
00000000: a9ba 403e 1b6a 013e 9138 f53d 1264 3a3e
00000010: 8c17 3c3e 8f21 5b3e e18d 1b3e 4867 573e
00000020: 2647 013e 0137 113e c35b 213e 1c1d 2f3e
00000030: 398b f73d 8e4c 2f3e 6aca 2e3e b029 263e
00000040: 5dec e63d 532b 0e3e 2500 2a3e da4a 2c3e
00000050: 3318 453e bab5 063e cf34 563e 4b64 083e
00000060: 9e09 5b3e 371d 2c3e 1cd7 143e 50c4 653e
00000070: f757 363e 2008 143e c2c6 4a3e aee8 fa3d
0.18821205 0.12638132 0.1197368 0.18202236 0.18368357 0.2139952 0.15190841 0.21035492
0.12624797 0.14181139 0.1575766 0.17100948 0.120871015 0.17119047 0.17069402 0.1622684
0.112755515 0.13883714 0.16601618 0.16825429 0.19247513 0.1315526 0.20918582 0.13319509
0.21390387 0.1680802 0.14535183 0.22438169 0.17806993 0.14456224 0.19802383 0.122514114
