results/_mar_fptra_0.3_1000_VAE_model.pt (torch, 228240 bytes, 61 tensors)

encoder.conv1.weight f4 [16, 1, 2]
000000 03 0c f0 be b7 fe 18 3f 35 05 3e bd d7 81 22 3f
       -0.46884164 0.59763664 -0.046391685 0.6347937
000010 32 73 c6 3e 4e 38 2b bf a8 dc d3 3e bb 6e d2 be
       0.38759762 -0.6688279 0.41379285 -0.41100106
000020 d4 c0 34 bf 7a a0 24 bf a7 d5 d1 be df 27 20 3f
       -0.7060673 -0.6430737 -0.40983316 0.6256084
000030 86 56 2f be 55 86 dc 3e bd 07 15 bf e2 d0 25 bf
       -0.1712285 0.43071237 -0.5821493 -0.64771855
000040 6e 9f 55 be 2b cd 0e 3f 64 64 95 be ef 59 f8 3d
       -0.20861599 0.5578181 -0.29178154 0.121265285
000050 1a 8e ec be e8 9f 99 bd 86 f9 15 3f d1 fc 2b bf
       -0.46202165 -0.07501203 0.5858387 -0.6718264
000060 a7 b7 c5 be 94 5e e9 3e e4 4e 13 be d0 08 22 bf
       -0.38616678 0.4557997 -0.14385563 -0.63294697
000070 54 1d 1c bf 6a 13 16 be 5c b8 6e 3e 69 69 a7 be
       -0.6098225 -0.14655843 0.23312515 -0.3269761

encoder.conv1.bias f4 [16]
000000 91 97 1a 3f 9f 26 c7 3e 66 58 df be 49 29 78 be
       0.6038752 0.38896653 -0.4362213 -0.24234499
000010 56 8c 52 3d 64 94 21 bf f5 a2 da 3e e3 e6 20 3f
       0.051403366 -0.6311705 0.4270245 0.62852305
000020 70 b6 30 3f 55 1a 01 3d 59 18 29 bf 8a 16 d5 3d
       0.6902838 0.031519253 -0.66052777 0.104046896
000030 63 f4 b3 3e 6c 29 3a be 88 0c 07 3f df 3a 32 be
       0.3514739 -0.18179864 0.52753496 -0.1740527

encoder.conv2.weight f4 [16, 16, 2]
000000 57 b2 51 3c 8b 0f 8d 3c e2 de 8e bc a7 0a 32 be
       0.012798867 0.017219326 -0.017440263 -0.17386876
000010 58 9a 61 be ee c5 47 be 7f 11 cc ba d1 52 17 3d
       -0.22031534 -0.19509098 -0.0015569179 0.036944214
000020 ab 9d 89 bd 3c a8 94 bd ec 07 5d 3e 73 1a 03 be
       -0.06719526 -0.07258651 0.21585053 -0.12803058
000030 7e 85 58 3d 2d 0a 33 bc d6 bb dd 3d 55 c1 85 bd
       0.052861683 -0.010927719 0.108268425 -0.06531016
000040 56 e5 11 bd 66 a7 35 be 86 70 06 be 8f 75 71 bc
       -0.035619102 -0.17739639 -0.13128862 -0.014737501
000050 29 b7 af bd a8 8b 18 be d5 ea 03 3e 8d ec e3 3d
       -0.08579857 -0.14897025 0.1288255 0.11129103
000060 c0 50 06 3e 78 61 d7 3d bd 71 f1 bc c5 d8 54 3d
       0.13116741 0.105166376 -0.02947318 0.05196454
000070 a4 a0 34 3d 45 e6 01 bd a1 b1 de 3d 91 f5 fb bd
       0.04409851 -0.031713743 0.10873724 -0.123026974
000080 a7 d5 e6 bd 09 19 8b bd 75 e2 26 3e 0b 67 17 3e
       -0.1127122 -0.067918845 0.16297324 0.14785402
000090 4b 7c 3b 3e dc ab 66 3d 56 76 c8 3d 7b 15 f1 3d
       0.18309133 0.05631624 0.09788196 0.11771675
0000a0 fc 69 03 be 32 f6 be bb 5c d3 34 be 66 48 22 3d
       -0.12833399 -0.0058276886 -0.17658752 0.039619826
0000b0 27 80 b0 bd a4 c8 cb bd 46 3e 1e 3c ea c9 86 bd
       -0.08618193 -0.099503785 0.009658402 -0.06581481
0000c0 bc 96 38 3e 81 fc b4 bd 44 03 70 3d d4 07 b2 3d
       0.1802625 -0.08837224 0.058596864 0.08692899
0000d0 77 c5 1c bd 2d 7e e4 3d 7d ab 32 ba 16 90 25 3e
       -0.038274255 0.111568786 -0.0006815715 0.16168246
0000e0 e6 c9 ec 3d ad e2 9e 3d fa 0b 04 3c aa fb 80 3d
       0.115619466 0.07758079 0.008059496 0.06298001
0000f0 7a ff 2c bd f0 3f cf 3d ff 23 4b be 7c 5a 93 3d
       -0.04223583 0.10119617 -0.1983795 0.07194993
000100 e3 cb 3d 3d 7b f4 73 3d 1a ea c8 bd b8 4d 8c 3d
       0.04633702 0.059559327 -0.09810276 0.06850761
000110 73 ad a6 3d 1a d9 fb bd 5f 2e 03 3d 34 35 09 bc
       0.081385516 -0.12297268 0.032026645 -0.008374501
000120 4e 0c 2d be d3 11 07 be 23 0e c8 bd 63 a1 cf bd
       -0.16899225 -0.13190393 -0.09768321 -0.10138204
000130 ea 88 db bd 98 6e 7b 3d cf 4d f0 bd 5e 76 d9 bd
       -0.10719474 0.061384767 -0.11733591 -0.1061828
000140 80 a1 ee 3d ef fd 29 3c aa bb cc bd 4e ca f4 bd
       0.116518974 0.010375484 -0.099967316 -0.11952649
000150 57 1c 08 be 46 f2 49 3c 32 5d df 3d a4 1b 07 bc
       -0.13292061 0.012325829 0.109064475 -0.008246336
000160 52 6c 22 be f4 ef 7e bd 3d a4 de 3c 30 ce 0d 3b
       -0.15861633 -0.062240556 0.027177924 0.002163779
000170 dd f0 7b 3c b7 a7 99 3d db d9 82 bd d9 43 a5 bc
       0.0153772505 0.07502692 -0.06389209 -0.020173954
000180 e8 1e f2 3c 5c 0c 82 3c bb 89 11 3e 18 89 64 3d
       0.029555753 0.015875034 0.14212696 0.055794805
000190 82 84 17 3d 20 a2 12 3d d9 de e1 3c 64 ca f1 3d
       0.036991604 0.035799146 0.027572082 0.11806181
0001a0 7b 96 97 3c ff bb d1 3d 5a 03 37 3c be b7 49 be
       0.018504372 0.102409355 0.011170233 -0.19698998
0001b0 fe 22 90 3d 41 fb b5 bd ec 57 bb bd 9a ed 76 3d
       0.07037924 -0.088858135 -0.09147629 0.06028519
0001c0 dc 1d 24 3e 60 77 db 3d d5 42 39 3e e2 42 98 3d
       0.16027015 0.10716128 0.180919 0.07434632
0001d0 51 b1 0f 3e ba a4 8f 3d 6b 9d 3b be 94 ab 52 3d
       0.14032485 0.07013841 -0.18321769 0.05143316
0001e0 2a 06 c6 bd 4d d9 a1 3d 1d de 53 3e 6d e4 60 bd
       -0.096691445 0.07902775 0.20690198 -0.054905344
0001f0 b9 25 dd bd 0e be 09 be 4d 19 d6 bd 9a 7f 0f 3e
       -0.10798211 -0.13451406 -0.104540445 0.1401352
000200 d3 a0 09 3e 84 e9 e9 3d 89 1f 13 be 2a b3 1e be
       0.13440256 0.11421493 -0.14367498 -0.15498033
000210 6c 62 c6 bc 20 4b 2c be 2b f3 38 3e 16 1d 01 3e
       -0.024216853 -0.16825533 0.18061511 0.12608752
000220 cd 48 0c 3e e2 0d d8 3d 4c 66 dc bd 3a 83 f2 bd
       0.13699646 0.10549523 -0.10761699 -0.11841436
000230 2f 0e 0e 3d af da b5 bc 68 e6 2e be 5f 66 0d be
       0.034681495 -0.022199003 -0.1708008 -0.13808583
000240 1c e0 b6 3b 81 39 f2 3d 38 1f ed bb 88 e3 2f 3d
       0.005580915 0.11827374 -0.0072363876 0.0429416
000250 d8 bf e7 3c c3 bf 2e bb 32 d2 24 3d 5c fb 33 3e
       0.02828972 -0.0026664592 0.04023952 0.17576355
000260 52 58 b5 bc f1 7b d8 bd 28 2a eb bd 4f be a7 3c
       -0.022136841 -0.10570515 -0.1148265 0.020476488
000270 25 51 49 3d 99 29 51 3d 19 e4 23 3e 03 50 67 bd
       0.04914965 0.05106506 0.16004981 -0.05647279
000280 e3 37 ff bc 77 3a 86 bc fe ac 09 3e 30 8d 06 be
       -0.031154579 -0.0163853 0.13444898 -0.13139796
000290 a5 f2 7a bd 9e 41 a9 bc c9 1c 98 bd b5 bd 1c 3e
       -0.06126656 -0.020661172 -0.07427365 0.15306742
0002a0 39 8a df bc ee 1e 39 be 1f 4f 19 be 5b 7b 97 bc
       -0.02728759 -0.18078205 -0.14971589 -0.018491438
0002b0 f5 49 04 bb 21 58 04 3e d7 c4 4a bc 44 a7 34 be
       -0.0020185683 0.12924244 -0.012376032 -0.17641932
0002c0 74 f7 43 3e 49 ce 1f bd 29 c3 e6 bd bc 5a 52 3d
       0.19137365 -0.03901509 -0.112676926 0.051356062
0002d0 28 1b 0c 3e 1a 00 1b 3e c2 da fd bd 18 2f 15 3e
       0.13682234 0.15136757 -0.1239524 0.14568746
0002e0 2b 07 04 3e 90 87 3b be 97 1a 9f 3d 52 f1 f0 bd
       0.1289336 -0.18313432 0.077687435 -0.11764778
0002f0 4e 44 59 3d 02 56 03 be 38 63 fe bd 3f 26 3b 3e
       0.053043656 -0.12825778 -0.12421268 0.18276308
000300 5c 82 18 be 37 ed 59 bc 57 7c c0 3d dc 6c 63 3d
       -0.14893478 -0.013301185 0.09398716 0.05552374
000310 de 1f 26 3e c8 c9 6b bd 1b b3 41 bd 0b 6f 42 bc
       0.16223094 -0.05756548 -0.04728995 -0.011867295
000320 41 51 04 3e 36 70 c2 3d 77 69 d7 bd 95 49 b8 3d
       0.12921621 0.09494059 -0.10518163 0.0899841
000330 0d ea bf bd f0 df d4 3d 2e ad f7 bd ec a7 ca bd
       -0.093708135 0.10394275 -0.12093578 -0.0989531
000340 bc ce ad bd 43 0c b8 3d 0c b6 32 be c4 59 06 3e
       -0.08486697 0.08986714 -0.17452258 0.1312018
000350 d0 5e 23 3e 4a dd 16 be 95 43 ed 3d 10 6e 4f 3d
       0.15954137 -0.14732853 0.11585156 0.050642073
000360 43 a8 11 bc ee c4 bd 3c d1 39 a1 bd 6c 6e 14 3e
       -0.008890214 0.023165192 -0.07872356 0.14495248
000370 09 9a d3 3d 03 43 c8 bb 26 cb ea bc 29 0c 03 3e
       0.10332114 -0.006111504 -0.028661322 0.12797607
000380 e2 a9 10 be 2d 63 fc 3d f4 ac 9b 3c 3a 7e eb 3d
       -0.14127305 0.12323604 0.019003369 0.11498685
000390 c7 5c 1c 3e 15 01 17 3e ed b5 98 bd 5d 77 00 3d
       0.15269767 0.14746507 -0.074565746 0.031363834
0003a0 2b 6c d8 3d 3c 84 9e bd 3e 72 f7 3d b1 0a 56 bd
       0.105675064 -0.077400655 0.12082337 -0.05225629
0003b0 7f 18 00 3e cd 5f 35 3e ab 62 29 bd 9f 70 79 bd
       0.12509345 0.17712326 -0.041353863 -0.06089842
0003c0 e7 b1 0a 3e cc b0 16 3e c7 a4 3f 3d cb 41 c9 bd
       0.13544427 0.1471588 0.046788003 -0.09827002
0003d0 d5 48 a3 bc 1e fc 90 3a 9c bc 07 be 48 bc f7 bd
       -0.01993219 0.0011061465 -0.13255543 -0.12096459
0003e0 32 e9 46 bd 25 81 a8 3d 43 fd af bd f5 5f 1c be
       -0.048562236 0.08227757 -0.08593228 -0.1527098
0003f0 80 da a0 3d 46 ab 9a 3c 1d 91 27 be b4 0e 20 3d
       0.078541756 0.018880498 -0.1636395 0.039076522

encoder.conv2.bias f4 [16]
000000 91 2e 36 be 22 ce 0d be b6 69 26 be b5 1d 2f 3e
       -0.17791201 -0.13848165 -0.16251263 0.17101176
000010 2c c5 81 3d a6 be 87 bd f4 0c 92 3d 3e 97 5e 3d
       0.06336436 -0.0662816 0.07131377 0.054343455
000020 60 2d ca bc 11 71 02 be 3c 11 10 3e 18 6b 23 bd
       -0.02467984 -0.12738444 0.14069074 -0.039897054
000030 e6 f2 37 3b f6 58 d4 bc 1b 3f 40 be 24 be e8 3c
       0.0028068363 -0.025921326 -0.18774073 0.028410979

encoder.conv3.weight f4 [32, 16, 2]
000000 5a 02 ce bc 6d be f3 bd cb 96 89 bd 04 a4 f6 3d
       -0.025147606 -0.11901555 -0.067182146 0.12043002
000010 44 19 d9 3d 1e ad 15 bd 39 4a 11 3d 43 55 73 3d
       0.10600522 -0.03654205 0.035471175 0.059407484
000020 40 7e 02 3e 96 e8 f4 bd 6d 49 97 3d 8a 10 96 3a
       0.12743473 -0.11958425 0.07387052 0.0011449021
000030 3b 82 c5 bd d3 21 28 be 97 56 b2 bd a3 3f 46 3e
       -0.0964398 -0.16419153 -0.08707922 0.19360213
000040 c3 e6 53 bc 0a 8c eb bd 67 d8 11 be 57 9d c4 bd
       -0.012933436 -0.1150132 -0.14242707 -0.09600323
000050 3d ab f3 3d bf 93 f0 3d e2 86 2a bd bd 3b ec bd
       0.118978955 0.1174693 -0.04163254 -0.11534832
000060 76 3f 13 3d 09 b4 15 be a3 f7 d9 bb e0 f9 05 3d
       0.035949193 -0.14619459 -0.006651835 0.032709002
000070 06 5a 73 bd a5 60 15 3e 68 df 12 3e ec 87 7c 3c
       -0.059412025 0.14587648 0.14343035 0.015413266
000080 ce ab 87 bd 81 2f e1 bd bc 5e f8 3d d4 53 9e bc
       -0.06624566 -0.10995389 0.12127444 -0.019327082
000090 20 67 08 3d 2d c8 85 bc 8f d1 d5 3d 43 3c 13 be
       0.033301473 -0.016330803 0.10440361 -0.14378457
0000a0 18 e0 d3 bd f2 f5 14 be 3f f8 9c bc bb 5b 0a 3d
       -0.10345477 -0.14546946 -0.019161342 0.033778887
0000b0 bd 77 f4 bd 3a c4 50 bb ab 96 da 3d b9 6f fe bc
       -0.11936901 -0.0031855241 0.10673269 -0.031059133
0000c0 15 1d b6 3d 2c 72 6e 3d 43 6f 04 bc 73 07 29 3d
       0.08892266 0.05821435 -0.0080831675 0.04126687
0000d0 8d b7 3c bd 42 ab d8 3d 0f ff ee bd 8d bf ea bd
       -0.046073485 0.1057954 -0.11669742 -0.11462317
0000e0 c8 c2 f0 3d 9a df fb 3d bd 32 95 3d e9 fe 3d 3d
       0.117559016 0.12298508 0.07285068 0.04638568
0000f0 8f c2 1c 3d 1e 80 c5 3d c6 ab 37 3e e8 7a ff 3d
       0.038271483 0.09643577 0.1793662 0.124746144
000100 99 a1 bc 3d 35 7e d7 bd 2d 06 fc bd cc 94 0e be
       0.0921051 -0.10522119 -0.123058654 -0.13923949
000110 64 36 b7 3d d0 c0 c3 bc b5 57 96 3d 8e 32 4c bd
       0.08945921 -0.023895651 0.073409475 -0.0498529
000120 49 93 b5 bc aa 93 6f bb b4 54 07 be ee ab 34 be
       -0.022164958 -0.003655652 -0.13215905 -0.17643711
000130 51 74 d4 3c bc 45 be bd 26 1f 94 3d 9b 08 98 3a
       0.02593437 -0.092906445 0.072325036 0.0011599244
000140 ec 75 44 bd 92 97 38 bc e4 f9 87 bd 39 c9 a4 bd
       -0.04796402 -0.011266606 -0.0663946 -0.08046193
000150 e2 33 f2 bd 21 69 3a 3d a5 c4 a5 3d 6f bc 18 bd
       -0.11826302 0.045510415 0.080941476 -0.03728908
000160 3c 6c aa bc 9c 06 8b bd 31 92 03 be 2d 03 10 be
       -0.020803563 -0.0678837 -0.12848736 -0.14063711
000170 97 52 8a 3d 14 5a 0c bd 28 22 21 3c 6c 2a d8 bd
       0.06754034 -0.034265593 0.009834804 -0.10554966
000180 b6 a4 93 3d fe 5d 0f be 71 42 3d be 73 f3 f8 bd
       0.072091505 -0.14000699 -0.18482377 -0.12155809
000190 89 41 a1 bd 18 03 2f bd bb 55 9c 3d 25 de 31 3d
       -0.07873828 -0.04272756 0.07633539 0.043424744
0001a0 12 c0 05 3d 6e 81 1a 3d 48 c7 ed bd b1 d3 21 be
       0.032653876 0.03772109 -0.116102755 -0.1580341
0001b0 7e 03 28 3c af 7b 6c 3d de 18 4c 3d c9 4c e6 3d
       0.010254739 0.05773514 0.049828403 0.11245114
0001c0 ce 17 c6 bd 4c 8b 7d 3c c2 cd 58 3d a6 e8 15 3e
       -0.09672509 0.0154751055 0.0529306 0.1463953
0001d0 ce 76 c4 bc 86 12 34 3d c1 49 f9 bd 45 0b ea 3d
       -0.023982432 0.043962978 -0.121722706 0.11427931
0001e0 0b 30 34 bd 62 fb 0f b9 d1 4a de bd dd 78 18 3e
       -0.04399113 -0.0001373119 -0.10854114 0.14889856
0001f0 59 ca 89 3d 0f 14 34 be fe 95 4f bd 85 68 ff 3d
       0.06728048 -0.17585777 -0.050680153 0.124711074
000200 34 84 0b 3c de 32 a2 3d 0e 43 fd 3d 65 15 88 bc
       0.008515406 0.079198584 0.12366305 -0.016611764
000210 91 65 bc bd c4 37 1c be fe 5c 04 3e a5 ec b8 bd
       -0.0919906 -0.15255648 0.12926099 -0.09029511
000220 38 57 3c 3d 77 43 d5 3d ed 85 95 3d 2c e4 ca 3d
       0.045981616 0.104132585 0.07300935 0.099068016
000230 d9 94 cb bc 32 3c 0a 3c 66 e6 45 bd 49 f7 8d bd
       -0.02485125 0.008437203 -0.04831543 -0.069319315
000240 16 cd 71 3d 2f cc 4c bd c7 dc 91 bd 9b 37 12 be
       0.059033476 -0.049999412 -0.07122188 -0.14279024
000250 57 cd bd 3d 49 48 38 bd 41 59 60 bc 44 c0 07 be
       0.09267681 -0.04499081 -0.013693155 -0.13256937
000260 d3 c5 ad 3d 7b 3c 17 be 73 00 17 3e 3a 50 df 3d
       0.084849976 -0.14769165 0.14746265 0.10903974
000270 8f 50 8a bd d8 d0 1d 3b 6c 6f fd bd 12 75 b5 bc
       -0.067536466 0.002408078 -0.12374768 -0.02215055
000280 55 59 15 3e c8 0a 0a 3d b0 66 cd bd e2 de d5 3d
       0.14584859 0.033701688 -0.10029352 0.10442902
000290 01 c2 2a be e7 f2 9d bd 0d ca 00 3e ec 85 ee 3d
       -0.16675569 -0.077123456 0.12577076 0.11646637
0002a0 cb a8 11 be 57 d3 05 be e4 33 76 bd 7c 71 01 be
       -0.14224546 -0.13068901 -0.06010808 -0.12640947
0002b0 e0 fd 88 bd 51 82 33 be a2 3f be bd 02 5a 90 bd
       -0.06689048 -0.1753018 -0.09289481 -0.07048418
0002c0 23 0a 0e 3d 60 8e 7b bd 48 a7 6a bd c7 bf 2f be
       0.034677636 -0.061415076 -0.057288438 -0.17163001
0002d0 b1 2e d4 bd be 69 7e bd a6 f6 03 be 9a 63 80 3d
       -0.10360468 -0.062112562 -0.12887058 0.062689975
0002e0 6c e8 6a bd 4c 4d ed bd 64 c2 ec bd ab 93 10 3e
       -0.05735056 -0.11587009 -0.115605146 0.14118831
0002f0 c3 67 11 3e af 3f eb 3d 3c 1b a1 bd a6 2a 5b bd
       0.14199738 0.11486756 -0.07866523 -0.05350747
000300 ac 91 37 bd 9e 09 69 bd 6b 92 1a 3e 27 01 c1 3d
       -0.044816658 -0.056893937 0.15094917 0.09424048
000310 6c 7c 48 3d 79 5d bf 3c d9 db 04 be 0d e6 83 bd
       0.048946783 0.02336 -0.1297449 -0.06440363
000320 ac 45 fc 3d c3 99 d3 bd a0 e9 7d bb 9d 1e a9 bc
       0.12317976 -0.10332062 -0.0038743988 -0.02064448
000330 24 aa 38 be 41 74 2f 3e 10 a0 f7 bd 3a c9 ba bd
       -0.18033653 0.17134191 -0.120910764 -0.09120412
000340 1d 36 08 3e 8d ed c6 3d cc 97 b9 bd 12 94 33 3d
       0.13301893 0.09713278 -0.09062156 0.043842383
000350 29 24 e7 3d c2 27 c0 bc 28 20 d6 3d a4 2c b6 3d
       0.11286194 -0.023456458 0.10455352 0.08895233
000360 02 0d b7 3d a1 83 9d 3d 39 30 08 3e 5e 87 c1 bb
       0.08938028 0.07691122 0.13299645 -0.0059060296
000370 eb 4d a6 bd 27 e0 ca 3d e4 f1 87 bc 46 c7 74 3d
       -0.081203304 0.09906035 -0.016594835 0.059760354
000380 1d 6e b9 3d f2 f0 b6 3d 92 5a 0c be c5 f9 69 bd
       0.090542056 0.089326754 -0.13706425 -0.057122964
000390 d9 78 fe 3d 31 46 04 3e aa e4 a7 bd c2 7b 0b 3d
       0.124253936 0.12917401 -0.08197911 0.03405357
0003a0 6e 5d 15 be 99 97 c1 bd a5 a3 f2 bd 71 c4 27 3e
       -0.14586422 -0.09452743 -0.11847619 0.1638353
0003b0 02 7d 76 bb 53 7b ca 3d c1 9c 09 bd c3 45 92 3d
       -0.0037611132 0.098868035 -0.033596758 0.07142212
0003c0 af 01 70 3d 59 8b c0 3d 54 36 a8 bd d1 94 10 be
       0.058595356 0.094015785 -0.08213487 -0.14119269
0003d0 e9 f1 7c bd 45 93 f5 3d a9 18 07 3e 08 b5 1a be
       -0.06175414 0.1199098 0.13193001 -0.1510812
0003e0 3c 32 15 3d 87 9e be 3c 18 ad cb bd ad fb c7 bd
       0.03642486 0.023268951 -0.099451244 -0.097648
0003f0 7a ff 85 bd aa 99 df 3d 97 10 06 be 7e 72 7c 3c
       -0.06542869 0.10917981 -0.13092266 0.015408156

encoder.conv3.bias f4 [32]
000000 a6 b9 2f bd e5 bf 83 3d b9 65 67 3c 5c c4 9e 3b
       -0.042901658 0.06433085 0.014123374 0.004845185
000010 9d b4 31 ba 4e 8a 09 be 3a 3d ca bd df bb bc bd
       -0.00067789276 -0.13431665 -0.09874959 -0.09215521
000020 41 b6 da 3d 5f 1c 90 3d e9 2e 8a bc 83 03 b9 bd
       0.106792934 0.07036661 -0.016868072 -0.09033873
000030 13 bc 3b 3e f1 3f e9 bd a3 ae 28 3e c2 0f 3c 3e
       0.18333463 -0.11389149 0.16472869 0.18365386
000040 b5 7f 1d bd e6 51 21 3e a6 cb aa bd 3f a2 f4 bd
       -0.03845187 0.15753898 -0.08339624 -0.119450085
000050 86 62 83 bd 00 74 13 3e f8 7d 26 3e cc 8a 1b 3e
       -0.06415276 0.14399719 0.16258991 0.15189666
000060 bf 53 4a bd 94 d5 8e 3a 4e 2d fa bd db 25 11 3e
       -0.049396273 0.0010897391 -0.122156724 0.14174597
000070 aa 43 2a 3e 88 88 3f bd bf fb 62 3d ef ef af bc
       0.16627374 -0.046761066 0.055415865 -0.021476714

encoder.conv4.weight f4 [32, 32, 2]
000000 dd 4c 9c 3d 29 a0 90 3d 8e 31 d4 3c 30 58 28 3b
       0.07631848 0.07061798 0.025902536 0.002568733
000010 1d 13 54 3c e0 79 1e bd d4 a0 35 bd 1c 0c 3d bd
       0.01294401 -0.038690448 -0.04434283 -0.046154127
000020 07 38 76 bc 5e c3 01 be 2a c4 67 3d 1f 9b eb ba
       -0.015028006 -0.12672183 0.05658356 -0.0017975307
000030 22 2c b2 bd 0c 4e 4c bd 84 28 d2 bd 7e 05 93 bd
       -0.08699824 -0.04987912 -0.10261634 -0.07178782
000040 2a f6 1c bd 4f 75 a1 bd a9 72 ee bd 94 ea 9c 3c
       -0.038320698 -0.07883703 -0.116429634 0.019154824
000050 a5 27 eb bd 55 17 a3 3d 83 0a 77 3d 81 db 78 3d
       -0.11482171 0.079634346 0.06031276 0.06075621
000060 7f 29 67 bd 78 24 86 bd ed 0a 3b bd 90 ae d3 bd
       -0.056436058 -0.065499246 -0.045664717 -0.103360295
000070 23 99 a6 3d 95 6c ae 3d ad 0f b1 bd 4d 30 a7 bd
       0.08134677 0.08516804 -0.08645568 -0.081635095
000080 d0 1b 1e bd c9 d4 b9 bd 3e 03 91 3d 3e 68 d4 bd
       -0.038600743 -0.09073789 0.070806965 -0.10371445
000090 5b 3e 30 3c 13 6d 8a 3d 1e 7e 8b 3d b8 21 d8 3d
       0.010757054 0.067590855 0.06811164 0.10553306
0000a0 0d 67 e1 3c 93 0c 61 bd ee a0 a7 bb 04 45 ad 3d
       0.027514959 -0.054943632 -0.00511562 0.08460429
0000b0 48 43 b5 bd ed 00 32 bd 5c 26 b6 3d 26 cf 84 3d
       -0.088507235 -0.043457914 0.08894035 0.06484823
0000c0 d0 f3 89 3d e7 fc 95 bc 2f 50 05 3e c3 44 c9 3b
       0.06735957 -0.01830907 0.13018869 0.0061422302
0000d0 4f f1 ef 3b e6 d3 c4 bd 02 e6 0a 3d 17 31 6d bd
       0.0073224674 -0.09610729 0.03391076 -0.057908144
0000e0 c9 6e 32 3c b4 0b b4 bc bb d7 83 bd 58 a5 89 bd
       0.010890671 -0.021978237 -0.06437632 -0.0672099
0000f0 51 70 0e be c9 31 00 3d c8 68 a9 bb 1a 76 a0 3d
       -0.13910033 0.03129748 -0.0051699616 0.07835026
000100 66 0d d2 bd 67 c8 5e 3d 56 b2 aa bc e9 24 88 bd
       -0.10256462 0.054390337 -0.02083699 -0.06647665
000110 35 a5 31 3d cf e6 e1 bd d1 ed bf bd a8 b5 dd bc
       0.043370444 -0.11030351 -0.09371532 -0.02706416
000120 6d e1 08 3e a8 6f 26 be 7e 0b 02 bd d5 cb 00 be
       0.13367243 -0.16253531 -0.03174924 -0.12577756
000130 01 d6 46 3d b5 75 8d bd cf ca 9f bd ae c1 d2 3d
       0.048543934 -0.069072165 -0.078023545 0.10290848
000140 47 7f 61 bd e5 ae 6a 3c 25 8d 0c be 14 36 b1 3d
       -0.05505302 0.014323925 -0.13725717 0.08652893
000150 34 f4 b7 bd 15 85 d6 3d dd db ca bc c3 8c 87 bd
       -0.08982125 0.10474602 -0.024763042 -0.06618645
000160 ee e3 38 3d aa 47 92 3d ca f8 b0 bd aa ce 33 3d
       0.045139246 0.07142575 -0.08641203 0.043898262
000170 7e 8d f4 bd ec 41 97 bd b4 e7 ef 3c 0e 5d 84 bd
       -0.1194105 -0.073856205 0.02928529 -0.06463061
000180 6f 60 4d bc d0 4b 9d 3d 5f b7 97 3d 8f cc e3 bd
       -0.012535199 0.07680476 0.07408022 -0.11123001
000190 1e 7a 83 bc 60 13 8a bd ac 22 c1 bc 8f 4e c7 3c
       -0.016049441 -0.06741977 -0.023576103 0.024329452
0001a0 b9 d1 c0 3d 1d ad cf bd ef d9 ce bd f6 0c 67 bc
       0.094150014 -0.101404406 -0.10100161 -0.014102211
0001b0 6d 58 a2 3c 93 b8 3a 3c 36 3e b6 3d db 4a ae bd
       0.019817555 0.011396545 0.088985845 -0.08510371
0001c0 e4 33 0f be 91 a8 77 bd 45 ad 95 b7 24 d0 bc 3d
       -0.13984638 -0.06046349 -1.7842869e-05 0.09219387
0001d0 20 71 c0 3d f2 fd b8 3d 75 d3 5a 3d 16 17 d2 bd
       0.09396577 0.09032811 0.053424317 -0.102583095
0001e0 3f 80 99 bd d5 7f a9 bd f6 14 be bd ae 28 8c bd
       -0.07495164 -0.08276335 -0.09281342 -0.068436965
0001f0 cc 91 2d be 5c fb 3e 3d 17 77 c3 3c d4 3f 94 3b
       -0.16950148 0.046626434 0.023860497 0.0045242105
000200 a0 30 cd 3d 9f 7f da 3c e1 bc f6 3c 5e 05 70 3d
       0.1001904 0.026672183 0.030119361 0.05859887
000210 e7 7f 57 bd 0c e8 29 bb 95 48 ee bd cc 1b ea bc
       -0.05261221 -0.0025925664 -0.11634938 -0.028577708
000220 4e 49 03 be ea 92 76 3c 89 d6 95 3d e1 cc e1 bd
       -0.12820932 0.0150496755 0.0731631 -0.11025406
000230 36 90 01 bd 0a 7a 9e 3c 89 1c 91 bb ff 3b 85 3d
       -0.03163167 0.019345302 -0.0044284505 0.06505584
000240 aa 3b 32 be 7d b0 88 bd e1 35 f8 ba 05 29 10 bd
       -0.17405573 -0.066742875 -0.0018936956 -0.03519537
000250 15 de e8 bd eb da 50 3c 3e 46 93 bd ae 20 ae 3d
       -0.11370484 0.012747507 -0.07191132 0.08502327
000260 cc 1a 8c 3d 8b 35 dc 3c 76 59 10 bd f6 ec 1e 3d
       0.068410486 0.026881 -0.035241567 0.038800202
000270 a9 70 f3 3d 78 df 3e bd 70 69 02 bd d4 e4 96 bc
       0.118867226 -0.046599835 -0.031838834 -0.01841966
000280 b9 e2 fa bb db 54 bd 3d 15 4f c0 bc 36 f0 a7 3b
       -0.007656422 0.092447005 -0.02347521 0.005125071
000290 ce 99 a4 3d c7 cc 48 3d 69 4b 8b bc bb 40 80 3d
       0.080371484 0.049023416 -0.017003732 0.06262346
0002a0 1d 0f fe bd 38 31 a5 3d 0e 39 97 bc 10 e8 8c 3d
       -0.124052264 0.08066028 -0.018459823 0.068802
0002b0 1a 1d 3b 3d f6 37 08 3d 85 72 ba bc 99 79 1f 3d
       0.04568205 0.033256494 -0.022759685 0.038934324
0002c0 ba d2 a9 3d dd b5 b5 3d 44 51 07 3d 41 7a 95 bd
       0.08292146 0.08872578 0.033036485 -0.07298709
0002d0 e6 24 fa bd 35 22 6b 3d e1 5f 36 3d 59 89 ae 3d
       -0.12214069 0.05740567 0.04452503 0.08522291
0002e0 97 d8 92 3d af c8 c7 3d 53 ac 19 bd 01 74 7b 3c
       0.071702175 0.09755074 -0.037517857 0.015347482
0002f0 cb c2 44 3d 66 99 37 3d 44 a8 d2 3d 23 8c bf bd
       0.04803733 0.044824027 0.10286 -0.09352901
000300 cb 87 07 3d 0e b2 bc 3d 07 5f c0 3d 0c 77 cc bd
       0.033088487 0.09213649 0.09393125 -0.09983644
000310 35 76 d0 3b 20 d1 c2 3c c3 38 c2 3d 41 b0 c4 bd
       0.0063617476 0.02378136 0.09483483 -0.0960393
000320 f8 c6 84 bd 60 b2 34 bd c1 b3 19 be 68 d3 82 3d
       -0.06483263 -0.044115424 -0.15009977 0.06387979
000330 35 93 53 3c 21 6a 75 3d 48 49 b9 3d 33 7b 52 3d
       0.012913515 0.059915666 0.090471804 0.051387023
000340 a1 e1 99 3c 20 35 51 bd 5c 2d 29 39 e4 17 eb 39
       0.018784346 -0.051076055 0.00016133994 0.00044840493
000350 5f 40 70 3c 96 4c 5f bd 52 a9 a3 bc 13 33 01 3d
       0.014663785 -0.054516397 -0.0199782 0.03154285
000360 e7 28 4c bd d0 b0 79 bc b7 16 77 bc 20 01 b6 bb
       -0.049843695 -0.015239909 -0.015081099 -0.0055543333
000370 79 e2 5b 3c 03 64 4c 3d 17 c7 0f bd 20 23 a8 3d
       0.0134206945 0.049900066 -0.035101976 0.082098246
000380 b3 e9 91 3d ca d8 15 bc 85 e4 59 bb e0 28 dc bd
       0.07124653 -0.009145925 -0.003324778 -0.10749984
000390 14 23 4d 3d 16 11 88 3d 4f 43 fe 3c 30 8f 02 3c
       0.05008228 0.06643884 0.031037955 0.007968709
0003a0 35 e2 ac 3d e6 12 19 be df ce 89 3d b2 22 aa 3d
       0.08441583 -0.14948615 0.06728911 0.08307399
0003b0 5e 8c 3b bd 93 24 12 be e6 f2 b6 bb e2 3f 5c bd
       -0.04578816 -0.14271764 -0.005583155 -0.05377186
0003c0 49 fd 8e bd a1 fa 01 3d 48 75 d4 3c d2 36 20 be
       -0.06981904 0.03173316 0.02593483 -0.15645912
0003d0 95 79 a4 bc b7 7c e9 bd 36 f4 f0 bd 57 c7 54 3c
       -0.020077506 -0.114007406 -0.117653295 0.012986979
0003e0 7a d9 ea bc fa 99 f3 bc 2e 48 85 3d 0b 37 9a bd
       -0.028668154 -0.029736508 0.06507908 -0.0753003
0003f0 e0 cf b9 bc b1 03 cc 3d 55 be b2 bd 78 ee 28 3d
       -0.02268213 0.099616416 -0.08727709 0.041243047

encoder.conv4.bias f4 [32]
000000 89 f1 e1 3b 54 ed 1f 3e a3 24 30 3e 94 97 0b 3e
       0.0068952483 0.15617877 0.17201476 0.13632041
000010 20 bc 47 bd b0 26 69 bd 71 07 3e 3c 54 0e ec bd
       -0.048763394 -0.05692166 0.011598454 -0.115261704
000020 ad 93 8a 3d 3d 54 f0 3b 44 f8 c3 3d 6d e3 45 3d
       0.06766448 0.0073342607 0.09568837 0.048312593
000030 e5 ed dc 3d 11 44 36 3e c1 58 f9 bd 36 d5 05 3e
       0.10787562 0.17799403 -0.121751316 0.13069615
000040 96 5e a8 bd af b9 67 3d a0 0f d0 3d 5b 4d ac 3d
       -0.08221166 0.056573566 0.1015923 0.08413192
000050 77 15 b8 3d f0 ea ee 3c 0a 49 8c bd 90 91 f4 3d
       0.08988469 0.029164761 -0.068498686 0.11941826
000060 bc f8 95 bd af a4 7f bd 52 fc 05 bd 62 6b 2f 3d
       -0.07322833 -0.062412914 -0.032711335 0.042827018
000070 a3 82 29 3b 24 28 0b 3e 7b eb 87 3d 88 74 8b 3d
       0.002586522 0.13589531 0.06636711 0.06809336

encoder.fc1.weight f4 [64, 608]
000000 a7 f5 28 bd 0f 96 d0 3c b7 f8 00 3d ea f4 26 3d
       -0.041249897 0.025462179 0.031487193 0.040760912
000010 67 71 8e bb a0 b6 c6 bc 4d 25 a6 3c 1f 32 d2 39
       -0.0043470147 -0.024257004 0.020281458 0.00040091664
000020 06 c3 0e 3d 32 e9 b7 3c 52 a4 cb 3b 23 e7 b1 3c
       0.034853958 0.022450063 0.006214657 0.02171666
000030 30 b5 d6 bb 4f 14 b5 bc 78 58 f6 bc 31 08 f5 3c
       -0.006552361 -0.02210441 -0.030071482 0.029911133
000040 5f 40 c2 3b 65 ab 10 3d f6 45 9f bc db 55 98 bc
       0.005928084 0.035319705 -0.01944254 -0.018595627
000050 b1 ac 2e 3c 40 85 ff bc 1a 71 07 bd 70 52 93 bc
       0.01066129 -0.031191468 -0.033066846 -0.017983645
000060 1a fe fe 3a 3d 74 87 bb 66 3f be bc 9e ed 98 bb
       0.001945439 -0.0041337297 -0.02322359 -0.004666998
000070 c1 44 20 3c df 27 a3 bc 24 29 09 3d 8d 82 27 3c
       0.009782017 -0.019916473 0.0334865 0.010223997
000080 94 21 c8 3c f4 99 d4 3c b9 30 70 3c 6b 0b c5 bc
       0.024430074 0.025952317 0.014660054 -0.024053296
000090 79 4f b6 3c 0c 98 8d 3c 13 97 73 3a 35 d7 d7 3c
       0.022254692 0.017284416 0.0009292226 0.026347736
0000a0 7b e7 4a bd f2 73 e2 3c f5 62 fb 3c 0e 02 a7 bc
       -0.049537163 0.027643178 0.030686835 -0.020386722
0000b0 a3 6a a5 bc 3e e9 bb 3b 30 2c 99 3b 15 58 12 ba
       -0.02019245 0.0057345917 0.004674457 -0.0005582583
0000c0 be 0f 72 bc 6f 40 2c 3c 3a fa 2a 3c 43 e8 ab 3c
       -0.014774261 0.010513409 0.010435635 0.020984774
0000d0 a9 00 22 3c ee 97 42 bd 35 89 98 bc aa 35 aa 3c
       0.009887853 -0.047508173 -0.018620113 0.020777542
0000e0 7c ef ec 3c b2 73 1a bd 97 82 47 bc 9e be c1 3c
       0.028922789 -0.037707992 -0.012177131 0.023650464
0000f0 5f 46 47 3c d0 18 88 bc 36 cf 47 3a 5c 87 a3 3c
       0.012162774 -0.016613394 0.00076221244 0.019962005
000100 6a 75 74 3b de bb d5 bb 13 45 90 3c 49 e0 e7 3c
       0.003730143 -0.0065226397 0.017611062 0.02830519
000110 8b b2 2c 3c 47 22 2a bd 11 71 b9 bc 8b 00 b8 bb
       0.010540615 -0.041536596 -0.022636922 -0.005615299
000120 77 f3 27 3d 31 57 05 bc 88 59 09 3d 99 c5 15 bc
       0.04100367 -0.008138464 0.03353265 -0.009141349
000130 20 fc 0a bd d4 d9 03 b8 bc 5a 03 3d ab ff 04 bc
       -0.03393185 -3.1435702e-05 0.032068953 -0.008117597
000140 03 f9 d5 3c 44 83 bf bc 5f 7b ba 3a b5 0b f5 3c
       0.026119715 -0.023378022 0.0014227441 0.029912809
000150 d9 87 08 bd ef f7 08 3d 67 52 23 bd b5 f8 a0 3c
       -0.03333268 0.033439573 -0.039873507 0.019649843
000160 c1 ca 78 bc b1 fb 72 3c 69 eb 94 b9 9b 86 9f bb
       -0.015185059 0.014830516 -0.00028404154 -0.004868341
000170 a5 65 bb 3a e8 b8 ac 3c 3a ab 8f bc 69 8a e5 3b
       0.001429726 0.021084264 -0.017537702 0.007005025
000180 4d 19 a7 3b 4a b5 b6 3c 60 05 10 bc 15 d1 a2 3c
       0.0050994516 0.022303242 -0.008790344 0.019875089
000190 32 34 92 3c 83 65 14 bc 8e c5 85 bc 37 80 c4 bc
       0.017847154 -0.009057405 -0.016329553 -0.023986919
0001a0 7e 7e dd bc 1d d9 81 3a 43 e1 04 bd 3b e8 5c bd
       -0.027037855 0.0009906624 -0.03244139 -0.05393241
0001b0 27 f6 91 bc 05 4b f8 3c 6d b8 b5 bc 7e ca e3 bc
       -0.01781757 0.03030921 -0.022182668 -0.027806517
0001c0 68 91 40 3a a0 9a 05 3d c3 b7 c9 bc 1d 15 12 bc
       0.0007345886 0.032618165 -0.024623757 -0.008916167
0001d0 d4 69 ac bb e7 7a 03 bd 0c 65 e2 3c 1c e1 40 3b
       -0.005261639 -0.03209963 0.027636074 0.002943105
0001e0 c2 c6 1f bd 64 0b 74 3c 55 79 b2 bb 97 c9 1b bd
       -0.03900791 0.014895294 -0.005446593 -0.038034048
0001f0 ce 32 0b bd 12 20 93 bc fb e2 33 3b ea 48 85 3c
       -0.033983998 -0.017959628 0.0027448523 0.01627012
000200 6c 35 1f 3d c5 ee c9 3c 99 b7 1c 3d d1 8c 16 bd
       0.038869306 0.024649987 0.03826103 -0.036755387
000210 f2 67 35 bb e6 cc 97 bc 66 14 73 bc f0 0c 7e bb
       -0.0027680364 -0.01853032 -0.014836406 -0.0038765036
000220 0a ac a7 bc cf 2e c3 3b 58 b7 d3 3b f8 25 06 bc
       -0.020467777 0.0059565078 0.0064610653 -0.008187763
000230 36 34 ab 3a 59 c6 91 3c cb 9b 15 bd f4 b0 04 bd
       0.0013061825 0.017794775 -0.03652553 -0.03239532
000240 20 e5 89 3b c6 6f 72 39 a7 96 f0 bc f1 64 53 bc
       0.004208222 0.00023120557 -0.029368712 -0.012902484
000250 40 77 46 bc 10 48 21 bc fa 1e e3 bc 5b 42 c8 bc
       -0.012113392 -0.009843841 -0.027724732 -0.024445703
000260 67 c4 fa 3c 12 1f 8d 3c 80 4e 13 bd ed f3 a9 3c
       0.03061123 0.01722673 -0.035963535 0.020746196
000270 26 77 08 bd 45 9f 1e bc f8 ef 0f bd e2 b6 d5 3b
       -0.033316754 -0.0096815275 -0.03514096 0.0065220455
000280 92 f4 23 bc 9d 05 8a bc ba 26 2e bd 03 99 ae bc
       -0.010007041 -0.01684838 -0.0425174 -0.021313196
000290 82 44 97 3c 8d 82 0a 3c 93 b4 e4 bc bd 2b 9c 3a
       0.018465284 0.008453977 -0.027918136 0.001191489
0002a0 4f be 81 3b dc 40 64 bd 76 67 c7 3b 9b cb 34 bd
       0.003959454 -0.055725917 0.0060853316 -0.044139486
0002b0 bf e3 4f bc 33 e9 02 bd 6a ec 64 bc ec 0f 90 bc
       -0.012688576 -0.031960677 -0.013972381 -0.017585717
0002c0 01 b2 93 3c 2a 72 bc ba d7 c0 a7 3c 3f e0 58 bc
       0.018029215 -0.0014377285 0.020477695 -0.013237058
0002d0 41 6a 55 bc ce 4f f7 3c bc 9f 00 bc 30 0c c6 bc
       -0.013025821 0.030189421 -0.007850584 -0.024175733
0002e0 1b bf 9a 3b c7 0f af bb f8 92 ae bc 58 58 d3 3c
       0.0047224886 -0.005342457 -0.021310315 0.025798962
0002f0 38 ec 70 bb 45 6c e9 bc b8 e4 52 bb ce bc b6 3c
       -0.003676189 -0.02849401 -0.0032179784 0.022306826
000300 62 45 20 bd 3a 71 2a bc d5 0a ab bc b6 0d 04 3d
       -0.03912867 -0.010402972 -0.020879189 0.03223964
000310 58 07 97 3c cd 17 c1 bb 45 c4 83 3c f5 2c aa 3a
       0.018436119 -0.00589273 0.0160848 0.0012983369
000320 c9 97 ce 3c 9b 3e ce bb 77 a1 a9 bc 81 5d a5 3c
       0.025218861 -0.0062940842 -0.020706875 0.020186188
000330 d0 fb a8 bc 99 00 01 bc 95 58 6d 3c 22 35 c4 3c
       -0.020627886 -0.007873678 0.014486452 0.023951117
000340 7e 5c 06 3d 97 9d 42 bd 50 dc ea bc 2b 54 65 3c
       0.03280305 -0.04751357 -0.028669506 0.013997118
000350 26 67 f2 3c c8 2b 22 bc 8a 64 ed ba 31 5c 66 3c
       0.0295902 -0.009898134 -0.0018111628 0.014060066
000360 51 90 1a 3d ff f6 90 bc 45 68 9d bc 39 c1 24 bd
       0.037735287 -0.017695902 -0.019214759 -0.040223334
000370 c3 9e ce ba 46 d3 8e 3b 2b 15 9a 3b a0 a3 2d bc
       -0.0015763867 0.004358682 0.0047022304 -0.010598093
000380 2e 01 07 3d 0f 52 a1 bc 5b f6 eb bc 1b 4a e5 3c
       0.03296011 -0.019692449 -0.028803995 0.027989438
000390 4e c4 96 3c a4 d3 2c bd 53 9e be bc f4 ae 0b bb
       0.018404152 -0.042194024 -0.023268854 -0.0021313997
0003a0 59 72 6e bb 7c 57 c2 3c c6 f9 8b bc 31 04 5b bc
       -0.0036384074 0.023723356 -0.017086875 -0.0133676985
0003b0 69 c7 22 3d 2b 5f cd 3b 20 9c dd bc ab 71 f2 bc
       0.039740954 0.0062674484 -0.027051985 -0.029595217
0003c0 a9 d0 f4 3b 87 16 b4 3c db 0f 07 3d fb bf f0 bc
       0.0074711633 0.021983398 0.032974105 -0.029388418
0003d0 c2 2a 54 bd 80 4c 25 bc ab e6 27 bb 8e d6 9d 3c
       -0.05179859 -0.01008904 -0.0025619667 0.019267347
0003e0 e4 f9 12 bd c9 86 56 3c 9f d7 34 bd f0 e1 1a bc
       -0.035882846 0.013093659 -0.044150945 -0.009453282
0003f0 0e ff fa 3a 7f cc 6f bc e1 a1 02 bc 2d 77 1c bd
       0.0019149499 -0.014636158 -0.007973165 -0.038199592

encoder.fc1.bias f4 [64]
000000 68 6f 43 bc bc f6 2e bd f9 e9 00 bd e6 db 9a bc
       -0.011928417 -0.042715773 -0.031473134 -0.018903684
000010 00 a5 6f 3d e7 97 70 3d 00 a3 05 bc 2a 70 74 3b
       0.058506966 0.058738615 -0.008156538 0.00372983
000020 86 54 d9 3b 81 2b 43 bc 7a 33 98 bc 77 3b 9b bc
       0.0066323904 -0.011912228 -0.018579233 -0.018949253
000030 25 78 17 bd 0c 10 e0 bb 53 39 b5 3c f9 64 cc bc
       -0.036979813 -0.0068378504 0.02212206 -0.024950491
000040 ef a9 8c 3b ea 61 1b 3d b5 80 16 bd 32 9b aa 3d
       0.0042927186 0.037935175 -0.03674384 0.083303824
000050 96 bf 22 ba a4 78 00 3d 82 5c fa bc 5d 3a 32 bd
       -0.0006208358 0.031365052 -0.03056169 -0.04351269
000060 38 8b 11 3c 56 97 ca 3b d8 1d 1f 3d d9 65 c0 3c
       0.00888329 0.0061825914 0.03884682 0.023486065
000070 c6 ee 9d bd f0 41 39 3d af 6a ca 3b 3b f5 14 3c
       -0.07711558 0.0452289 0.0061772685 0.009091671
000080 7d c1 8f bc 86 bf e3 3c c3 ee 38 bd 8a df 1b bd
       -0.017548317 0.027801286 -0.045149576 -0.03805498
000090 86 38 93 3d c6 9d c1 3a 13 36 00 3d f1 53 80 3c
       0.07188515 0.0014771752 0.03130157 0.015665026
0000a0 6c 7f 36 3d b1 3c 31 bd 5f e7 41 bc ce 33 0d 3d
       0.044555113 -0.04327077 -0.011834948 0.034473233
0000b0 b2 03 b5 3b a6 96 d0 bb ef 09 e3 3b 9f ec 17 bd
       0.005524122 -0.006365615 0.0069286744 -0.037090894
0000c0 bc d9 64 3d 24 03 24 3d 3c ce 3a ba bc 80 7f 3c
       0.05587171 0.040042058 -0.0007126068 0.0155946575
0000d0 26 d5 8b 3c 73 ee 76 bc c8 e1 8a bc f4 78 50 bc
       0.01706941 -0.015071499 -0.016953364 -0.01272415
0000e0 fd 4b 16 bc 1d 97 8d 3c c6 1f 03 bd 1e f8 1f 3d
       -0.00917339 0.01728397 -0.032012723 0.039054982
0000f0 71 dd 7d 3d d9 8f 08 3d cc 72 d9 3c 4b ef 90 3c
       0.06197876 0.03334031 0.026543997 0.017692229

encoder.fc2.weight f4 [16, 64]
000000 8e 1b 1f bd f1 1f 33 bd 34 48 b3 3d 8e 48 89 bd
       -0.038844638 -0.043731634 0.08754006 -0.06703292
000010 cf 6b ba bd 4e d9 8f bd dc 03 3c 3d 66 88 37 3d
       -0.09102594 -0.070238695 0.045902118 0.044807814
000020 d4 99 c7 bd 91 6d ec 3d 20 38 b0 3d 0c c5 6a 3d
       -0.09746137 0.11544336 0.08604455 0.057316825
000030 85 d4 0b 3c c2 25 12 bd 7a dd c3 3d 3a 07 b2 bd
       0.008534555 -0.03568054 0.09563728 -0.086927846
000040 0c 8d 85 3d e0 30 40 3d 27 73 29 bd 12 88 1f 3b
       0.06521043 0.04692161 -0.041369583 0.0024342579
000050 61 b1 f5 bd d8 f5 c9 3d 47 77 0d bc 45 a5 aa bd
       -0.11996723 0.09861344 -0.008634395 -0.08332304
000060 7a 4c 6f bd c9 8c ab 3c c7 4a 0a bc f7 88 94 bd
       -0.058422543 0.020941155 -0.00844068 -0.072526865
000070 e3 83 ac bd 67 03 c8 3d e7 ab c5 3d b9 9d 70 3d
       -0.08423593 0.09766274 0.096519284 0.058744166
000080 8e ed d8 3d 04 2c 9c 3d f3 cc 51 bd 1b 83 c8 bc
       0.10592185 0.07625583 -0.051220845 -0.024476578
000090 ef 1a 8e bd c4 4c 8d 3c 0c 13 d0 bc 15 a7 ee 3c
       -0.06938731 0.017248519 -0.025399707 0.029132405
0000a0 a1 0c 62 3d d9 13 18 3d 28 74 23 3d 15 2d ad 3d
       0.055187825 0.037128303 0.039905697 0.08455864
0000b0 0f 76 85 3d 09 e4 86 3d 84 65 d5 3c 4b 0b 2f 3d
       0.065166585 0.06586463 0.026049383 0.04273538
0000c0 2a a1 d1 3c 46 02 9d bd 71 ab 89 3d 63 04 db bd
       0.025589544 -0.07666449 0.06722153 -0.10694196
0000d0 e6 ea 03 3d 45 d7 3a 3d 3e 68 a5 bd b5 fb b8 bd
       0.03220644 0.045615453 -0.08076523 -0.09032384
0000e0 de f7 ab bd 97 de 2f bd 41 df db bd 41 5c af 3d
       -0.08396886 -0.042936888 -0.10735942 0.08562518
0000f0 b5 f8 b8 bd 4d fc d0 38 fb 9e d9 bd c3 87 ce 3c
       -0.09031812 9.9652076e-05 -0.10626026 0.02521122
000100 8e 89 bc bd 2a 61 29 bc dc f8 fc bd 56 bf ef 3d
       -0.09205924 -0.010338107 -0.12352154 0.11706416
000110 05 85 84 bd 79 ba c6 3d 23 cc 8e bd f1 f5 92 3d
       -0.06470684 0.097035356 -0.0697253 0.07175816
000120 22 74 f2 bd 2e ef 8e 3d 4c 7b b9 bb f9 fb b1 3d
       -0.11838557 0.06979214 -0.00566045 0.08690638
000130 3b 6d 53 bd 15 6b 6a 3d 18 3d de 3d 9b f0 86 bd
       -0.051617842 0.057231028 0.108514965 -0.065888606
000140 f0 1c 8f bb e0 8c c2 3c 8c aa b7 3d a0 c6 3a bc
       -0.0043674633 0.023748815 0.08968076 -0.011399895
000150 e0 46 88 bd 63 97 d3 bc f1 45 59 3d c5 b9 95 3d
       -0.06654143 -0.025829023 0.053045217 0.07310823
000160 d8 7a c8 bd fd 61 ff 3b 1c ed 31 3d 90 76 c0 bd
       -0.097890556 0.0077936635 0.043439016 -0.09397614
000170 12 82 dd bd 71 23 95 3d 0a be e3 3d 18 50 9b bc
       -0.108158246 0.072821505 0.111202314 -0.01895909
000180 4a 72 23 3d c3 53 ac 3d 13 1c 98 3d 10 b0 15 bc
       0.039903916 0.08414414 0.0742723 -0.009136215
000190 1f 4f 3d bc 05 dc ee bd 28 78 40 bd e2 4a a3 bd
       -0.0115545085 -0.11663059 -0.04698959 -0.07973267
0001a0 c1 1d f1 bd c4 f4 f9 3d 19 12 65 3d d1 25 79 bd
       -0.11773253 0.122048885 0.055925462 -0.06082708
0001b0 3b 15 16 bc f9 38 0f bd 08 47 b0 3d dc fa 24 3d
       -0.009160335 -0.034966443 0.08607298 0.0402783
0001c0 e1 ab 02 3d d0 cd 78 bd 51 9b ba bd 74 93 ce bc
       0.031902198 -0.060743153 -0.091116555 -0.025216796
0001d0 b7 aa 45 3c 3f 9e a4 bd 2b 7e 40 3b 11 32 cd 3c
       0.012064627 -0.080379955 0.0029372077 0.025048288
0001e0 3c ce ff 3b 1b 63 a3 bd b1 ba a9 bd 76 28 b1 bd
       0.0078065675 -0.07977887 -0.08287562 -0.086502954
0001f0 34 73 b7 bd fc b2 d2 bd 6a bb 15 3d b0 bc e1 3d
       -0.0895752 -0.10288045 0.036555685 0.110223174
000200 09 29 ae 3d 17 f8 db 3c 78 17 bd 3c 0e 7c c9 3d
       0.085039206 0.026851697 0.02308248 0.09838115
000210 e0 d0 ad bc 61 7c 72 bd de 8d e7 3c ab 0c 9e bd
       -0.021217763 -0.05920065 0.02826589 -0.0771726
000220 cb 70 fc bd e7 5b 5e bd 42 9f 96 3d 43 b6 66 bd
       -0.12326201 -0.054286864 0.07354595 -0.056326162
000230 21 0c 96 bd 6a 41 8a bd f4 63 a6 3c 28 86 04 be
       -0.07326532 -0.06750758 0.020311333 -0.12941802
000240 73 16 d9 3c fe 45 ff bc e2 bc b8 3c 83 04 9d 3d
       0.026499962 -0.031161305 0.022551004 0.07666876
000250 9c 06 bb 3d 12 b5 c0 3b 4b 44 a1 bd 6c 3d b4 3d
       0.0913212 0.0058809603 -0.07874354 0.08800778
000260 ab e5 81 3d 85 90 d6 bd 78 54 78 3d 79 61 a1 3d
       0.06342634 -0.10476784 0.06062743 0.078799196
000270 13 b7 36 bd d5 45 6b bd 84 ba ad 3d 2d 51 14 3d
       -0.044608187 -0.057439644 0.08482841 0.036210228
000280 82 2f a5 3d a8 2e c0 3d 4c 09 6d bb bb 0a e1 bb
       0.08065702 0.09383899 -0.0036168871 -0.0068677342
000290 ad 9b 96 bc 40 17 d8 bd e6 fd e9 bd 05 37 67 3c
       -0.018384779 -0.105513096 -0.114253804 0.014112239
0002a0 43 d9 8c b7 40 b9 4e bd 8f 32 af 3d 53 27 0a 3e
       -1.679047e-05 -0.050469637 0.08554565 0.13491563
0002b0 05 89 e7 3d 39 f5 68 bc 06 da 75 bc 43 e1 e4 3d
       0.11305431 -0.014218622 -0.015005594 0.11175778
0002c0 1c fa d2 bd 82 90 ac bd 98 74 a8 3d 30 ff f0 bd
       -0.10301611 -0.08426 0.082253635 -0.11767423
0002d0 35 27 b1 bd 68 2b d3 3d 54 5f 0d be 01 d3 b0 bd
       -0.08650056 0.103110135 -0.13805896 -0.08633996
0002e0 83 99 7c 3c 15 bd 8a 3d 70 b6 a5 3d 00 10 2f bd
       0.015417459 0.06774346 0.08091438 -0.04273987
0002f0 f2 e2 65 3d ca 7a 39 3d 7c 49 88 3d e0 f4 ab 3d
       0.056124635 0.045283116 0.06654641 0.083963156
000300 41 84 ab 3d 53 91 1b bc 2f ef d9 bd 4d a5 48 3d
       0.08374835 -0.009495097 -0.10641324 0.048985768
000310 33 88 07 3c 0f d2 85 3d c4 e5 0f 3d 3f 7a 37 bd
       0.0082722185 0.06534206 0.03513123 -0.044794317
000320 dd 93 16 3d f1 32 04 bc ac f6 6b 3d e5 a3 82 3d
       0.036762107 -0.008068786 0.05760829 0.06378917
000330 55 dc c9 3c c4 e5 ea ba dd 7f e9 bd 3f 3c d0 bd
       0.024641195 -0.0017921259 -0.11401341 -0.10167741
000340 47 b2 c4 bd a0 8a 97 3d cb 30 dc bd 9b f6 bb 3d
       -0.09604316 0.073994875 -0.10751494 0.09177896
000350 75 e8 1d 3c c2 fa 3d 3d b5 7d a0 bd fe f6 b0 bd
       0.009637942 0.04638172 -0.07836477 -0.0864086
000360 10 c0 cb 3d 70 6d 5d bd 43 e4 ff bd e7 17 c6 3d
       0.099487424 -0.054059446 -0.12494709 0.09672528
000370 a6 5c 02 be 9a 6e 4a 3d 26 1b 34 bd a5 b8 05 be
       -0.12730655 0.049421884 -0.043971203 -0.13058718
000380 9a b2 c4 3d 4a 35 a4 bd 78 c2 97 3c 52 17 9e 3d
       0.09604378 -0.080179766 0.018525347 0.07719292
000390 59 ce d0 3d 86 9d c6 3b a3 c0 7e 3d 85 cd 21 3c
       0.10195608 0.0060612587 0.06219543 0.00987566
0003a0 45 37 9a 3d a8 1a aa bd fb 7d d2 bd c6 84 5e bd
       0.07530073 -0.083058655 -0.10277935 -0.05432584
0003b0 b1 fc aa bc 0d 51 1d bc d5 14 82 3c 7d 0b 00 bc
       -0.020872446 -0.009601844 0.015879074 -0.007815239
0003c0 cf 04 75 3d 13 14 08 3c 5f 20 b6 bd f4 b9 3c bd
       0.05981904 0.008305567 -0.08892893 -0.046075776
0003d0 2d 5a a2 3d 12 84 d2 bd 2c 1b 30 3d cb af 75 bc
       0.07927356 -0.10279097 0.042994663 -0.014995526
0003e0 87 cc e2 bc d6 4f b3 bd 72 df 92 3c 32 5b 23 bd
       -0.027685417 -0.08755462 0.017928813 -0.039881893
0003f0 31 4f 82 3c e7 46 be 3c 32 ea 52 bd 59 d1 a4 3d
       0.015906902 0.023227168 -0.051492877 0.080477424

encoder.fc2.bias f4 [16]
000000 3c 4e 81 3d 7f 34 9d bc d2 c0 d9 bd a6 e7 72 bd
       0.0631375 -0.019190071 -0.10632481 -0.05930295
000010 89 64 a1 3d fa 6c 05 bd b9 50 af 3d 09 53 8e bd
       0.07880504 -0.03257463 0.085603185 -0.069494314
000020 ee 83 09 bd 58 ed 08 bc f9 dd a1 bc f8 08 03 3e
       -0.033573084 -0.008357368 -0.019759165 0.1279639
000030 31 4a a8 3c 5a 98 90 3d 78 b1 c9 3d 90 5d b1 3c
       0.02054319 0.07060309 0.098483026 0.02165106

encoder.fc21.weight f4 [4, 16]
000000 9d 29 ed 3d d6 31 20 bd 3a 5c ad bc 45 2d 45 be
       0.11580203 -0.039110027 -0.021162141 -0.1925555
000010 c9 0f 3a 3e ac 0a a2 3d 44 14 55 b9 5a e0 45 be
       0.18170084 0.07912192 -0.00020320812 -0.19323865
000020 52 24 b1 3d ca 63 77 bd ef 16 06 be 8f 67 b3 bd
       0.08649506 -0.0603979 -0.13094686 -0.087599866
000030 01 30 55 be f2 58 2b 3e da 0d 09 3e f3 4a bc bc
       -0.20819093 0.16733149 0.1338419 -0.022984957
000040 06 e7 b4 bd 26 80 f9 3c e2 03 ba 3d 8f 5b ae bc
       -0.08833127 0.030456614 0.09082772 -0.021283893
000050 c9 56 8d 3c 08 62 9d bd 9e 79 de bd 71 58 69 3e
       0.017253296 -0.076847136 -0.108630404 0.22787644
000060 49 03 0a 3e a8 36 53 be e8 53 56 be 2c 97 32 3d
       0.13477816 -0.20626318 -0.20930445 0.0436012
000070 bb 44 dd bd 51 9b ab 3d dc 7d eb 3d e3 30 88 3e
       -0.10804125 0.08379234 0.11498615 0.26599798
000080 84 c1 3a 3e 57 72 19 3e ff 80 65 3d 51 39 eb 3d
       0.18237883 0.14985023 0.056031223 0.114855416
000090 5d b8 d2 bd de d1 39 be 46 ea 2e 3d 26 fa 18 be
       -0.10289071 -0.18146464 0.04270389 -0.14939174
0000a0 97 24 8d bd 47 ad 2b 3e 32 c7 76 3e d7 a5 2e 3e
       -0.068917446 0.16765319 0.24099424 0.1705545
0000b0 95 09 5d be b1 c7 5b be b4 c9 58 be 47 1d 3b 3e
       -0.21585687 -0.21462895 -0.21170694 0.18272887
0000c0 b1 03 3a be 4e ed 34 be 17 32 36 be 3d c0 4a 3e
       -0.1816547 -0.1766865 -0.17792545 0.19799896
0000d0 88 ae 12 3e d1 e2 80 3d 2d ff 2a bc 69 fe 8c bd
       0.14324391 0.06293262 -0.010436815 -0.068844624
0000e0 c6 97 27 be 6f 47 aa bc 81 9b 3f 3e 39 fb 2e be
       -0.1636649 -0.020786015 0.18711664 -0.17088021
0000f0 5c 7e 38 be 0f bf 6d 3e ac 45 9c 3d ba 6c 99 3d
       -0.18016952 0.23217414 0.07630476 0.07491441

encoder.fc21.bias f4 [4]
000000 87 85 7f be 38 3c 05 3e 1d 27 4e bd eb 18 52 bb
       -0.2495328 0.13011253 -0.05033027 -0.003205831

encoder.fc22.weight f4 [4, 16]
000000 91 e7 6e be cc 1e d3 bc ec f3 48 bd 63 e7 82 be
       -0.23330523 -0.025771521 -0.049060747 -0.2556716
000010 8c 3e 63 3d 67 ad 9f 3d c8 6f 34 bd 3d 55 07 3e
       0.05547957 0.07796746 -0.044051915 0.1321611
000020 b6 79 be bd ff 90 3f be 30 ac a2 bd 50 65 8d be
       -0.09300558 -0.18707655 -0.079429984 -0.27616358
000030 14 e6 c6 be b2 25 15 3e 88 f0 82 be 4d 29 8b be
       -0.3884741 0.14565161 -0.25574136 -0.27179947
000040 54 8c 1e 3e 35 93 b6 3d c1 ed a5 bd 41 db 98 be
       0.15483218 0.08914796 -0.081019886 -0.29854777
000050 8f 3a 82 be 61 4d f6 3d 96 46 8e bd d6 cc c1 3d
       -0.25435302 0.120264776 -0.06947057 0.094628975
000060 06 34 9d 3d a0 9b 97 3d a8 c5 95 be 17 16 97 be
       0.07675938 0.0740273 -0.29252362 -0.2950904
000070 f7 c0 96 3c f8 de d6 bd d5 b0 af 3d 73 a5 3e be
       0.01840256 -0.10491747 0.0857865 -0.18617801
000080 b3 98 94 be 02 e7 53 be cf df 25 3e 8a 5c 35 be
       -0.2902275 -0.20693591 0.16198657 -0.17711082
000090 91 29 6c be a5 96 8d be ef 2c b6 be b8 65 1b 3e
       -0.23062731 -0.27653995 -0.35581157 0.15175521
0000a0 3e 08 23 3c cb c0 73 be 43 dc 21 be b7 d1 51 bd
       0.009950696 -0.23804013 -0.1580668 -0.05122539
0000b0 75 b9 56 be b0 94 c1 3d 4e 4a 1d be ba 43 be 3d
       -0.20969184 0.09452188 -0.15360376 0.092902616
0000c0 65 19 1a 3e 99 c5 18 be 11 93 eb bd e1 60 82 3d
       0.1504875 -0.14919128 -0.1150266 0.063661344
0000d0 e9 09 ab be 0f 55 00 3e a9 9d a2 be 9c 51 44 3d
       -0.33405998 0.12532447 -0.3176091 0.04792939
0000e0 62 2f 8a be 9e d3 bf 3a 4d df 5c be 32 aa a7 bb
       -0.26989275 0.001463521 -0.21569557 -0.0051167244
0000f0 42 b7 06 bc 72 42 93 be 53 4b 2a 3e 5b 0d 6d be
       -0.008222403 -0.2876163 0.16630296 -0.23149626

encoder.fc22.bias f4 [4]
000000 8a a3 a6 bc 02 a2 a3 bd d1 1b ff bc d6 9e dc bc
       -0.020341653 -0.07989885 -0.031141194 -0.026931208

encoder.bn1.weight f4 [16]
000000 81 c0 74 3f eb fd 77 3f 00 00 80 3f 13 23 79 3f
       0.9560624 0.96871823 1.0 0.97319144
000010 60 34 6f 3f 00 00 80 3f 71 85 74 3f 0a c0 76 3f
       0.9343929 1.0 0.95516115 0.9638678
000020 7b 43 79 3f 0a 4e 76 3f 00 00 80 3f 0e a7 78 3f
       0.9736859 0.9621283 1.0 0.97129905
000030 21 37 73 3f 00 00 80 3f 09 bf 72 3f 54 3a 78 3f
       0.95005995 1.0 0.94822747 0.96964

encoder.bn1.bias f4 [16]
000000 49 45 0b bd 29 08 d8 bc 1c 28 f9 3c 8c 4e 11 bd
       -0.034001622 -0.026371079 0.030414633 -0.0354753
000010 f7 64 31 3d 7b 26 5a bc e7 c9 df bc 03 1e 05 bc
       0.04330918 -0.0133148385 -0.027317954 -0.008124831
000020 72 a0 45 bc 7c 4e bc bb d4 63 15 3d 1b 32 b4 bc
       -0.012062179 -0.0057466608 0.036472157 -0.021996548
000030 43 e7 1a bd 71 1b e8 3c 37 a9 fa 3c 8c be 72 3c
       -0.037818205 0.028333398 0.030598266 0.014815938

encoder.bn1.running_mean f4 [16]
000000 d9 2e 28 3f 60 de 11 3f 00 00 00 00 d9 53 3c 3d
       0.65696484 0.5697994 0.0 0.0459784
000010 39 27 0f 3d 00 00 00 00 e0 dc 07 3f 88 29 bb 3e
       0.034949515 0.0 0.53071404 0.36555123
000020 11 cf 4a 3f 4a 40 76 3d 00 00 00 00 22 0d 65 3e
       0.7922221 0.060119905 0.0 0.22368291
000030 ec af d3 3e 00 00 00 00 48 1a b7 3e fa 72 9c 3c
       0.41345155 0.0 0.35762239 0.019097794

encoder.bn1.running_var f4 [16]
000000 95 c8 fa 3d 2f 0b b0 3d 1c 1f c5 25 c0 35 0f 3c
       0.12245289 0.08595883 3.4195133e-16 0.008740842
000010 28 6f 85 3a 1c 1f c5 25 9f ca 47 3d a8 ea c6 3d
       0.0010180222 3.4195133e-16 0.04877722 0.09712726
000020 87 8c 98 3d a4 de 9c 3b 1c 1f c5 25 03 66 92 3d
       0.074486785 0.004787283 3.4195133e-16 0.071483634
000030 1f ce 9a 3d 1c 1f c5 25 3b a7 49 3d d4 aa c5 3a
       0.07558846 3.4195133e-16 0.04923175 0.0015080818

encoder.bn2.weight f4 [16]
000000 c6 b1 69 3f 20 f8 72 3f 04 09 74 3f 4c d4 78 3f
       0.91286886 0.9490986 0.95326257 0.9719894
000010 87 7c 6a 3f e8 5a 7a 3f 53 96 78 3f eb a3 7b 3f
       0.91596264 0.9779496 0.97104377 0.98296994
000020 1c be 78 3f 23 7b 74 3f 3a b1 7a 3f c2 31 72 3f
       0.97165084 0.9550039 0.97926676 0.94607174
000030 bf 42 78 3f 98 19 73 3f a1 26 69 3f 18 de 7b 3f
       0.96976846 0.9496093 0.9107457 0.98385763

encoder.bn2.bias f4 [16]
000000 57 6a 20 3b 9e 90 ac 3c d3 e5 d3 3b 0e cd fb bb
       0.0024477446 0.021065053 0.006466606 -0.0076843565
000010 a1 61 25 3d d8 b4 e2 3c 25 52 8d 3c c8 50 af bc
       0.04037631 0.027674124 0.017251084 -0.021400824
000020 d2 e8 ef 3c e6 dc e4 39 b9 3c 29 bb fb 6a 9f 3c
       0.029285822 0.0004365213 -0.0025823547 0.019460192
000030 ed ee 8a bc 72 7f 02 3d 16 34 44 3d 70 79 8f bb
       -0.016959632 0.031859823 0.047901236 -0.00437849

encoder.bn2.running_mean f4 [16]
000000 7d 82 b0 3d e4 95 39 3e 04 7f 18 3e c5 20 ac 3e
       0.08618639 0.18123585 0.14892203 0.3361875
000010 58 6d 4c 3e 27 9e d3 3e c3 df 47 3e 2b 4c a9 3e
       0.19963586 0.41331598 0.19518952 0.33065924
000020 7a 28 84 3e d1 1b 22 3e d8 f4 60 3e 0c 9c 38 3e
       0.2581213 0.15830924 0.219684 0.18028277
000030 d8 21 2e 3e 5b 74 8c 3e 02 91 b6 3d 6f 45 9e 3e
       0.17005098 0.27432522 0.08914377 0.3091235

encoder.bn2.running_var f4 [16]
000000 62 85 19 3d db 70 04 3e d1 f0 ad 3d 2a b7 a0 3e
       0.03748072 0.12933676 0.08493198 0.31389743
000010 48 a2 ba 3d b0 2e 08 3f 1f b1 a7 3d f4 4b 8c 3e
       0.09112984 0.5319624 0.0818808 0.27401698
000020 e1 da 70 3e cb 92 c1 3d 0d b6 c1 3d b1 d7 ba 3d
       0.23520996 0.09451827 0.094585516 0.09123171
000030 6e 21 ea 3d 90 c7 21 3e 69 b1 c5 3c 4e 52 2a 3e
       0.114321575 0.15798783 0.024132447 0.16632959

encoder.bn3.weight f4 [32]
000000 48 3a 6e 3f c1 fe 76 3f f1 db 7f 3f c9 d5 7d 3f
       0.9305768 0.96482474 0.9994498 0.99154335
000010 0e 5e 7b 3f e4 6c 74 3f b5 f4 7a 3f f8 6d 6e 3f
       0.9819039 0.95478654 0.98029643 0.9313655
000020 91 66 80 3f ce 63 7b 3f d7 6a 74 3f 54 d2 83 3f
       1.0031301 0.98199165 0.95475525 1.0298562
000030 66 53 77 3f 1e a1 71 3f a2 30 7f 3f 24 be 80 3f
       0.9661163 0.9438647 0.9968358 1.0058026
000040 32 ed 70 3f 11 65 85 3f 4a 9f 79 3f bc 9f 70 3f
       0.9411193 1.0421468 0.9750868 0.93993735
000050 ad 86 7c 3f 45 72 70 3f 83 9b 7f 3f 1d 73 7c 3f
       0.98643 0.9392436 0.9984667 0.9861315
000060 29 9b 72 3f f4 ba 85 3f 2e 84 77 3f 6e 31 7c 3f
       0.94768006 1.0447679 0.96686065 0.98512924
000070 16 b4 74 3f 82 84 7a 3f 87 89 7d 3f f8 0c 72 3f
       0.9558729 0.9785844 0.99037975 0.9455104

encoder.bn3.bias f4 [32]
000000 e0 dc 49 3d 87 ca ec bc 61 27 3b bd 51 7e 93 bc
       0.04928291 -0.028905166 -0.04569185 -0.018004568
000010 12 63 40 bd 7f 9d 8e bc df a4 38 bb 4f 08 02 bc
       -0.04696948 -0.017409084 -0.0028174443 -0.007936551
000020 8b 45 2a 3c fb 99 89 bc 67 d9 a0 3c 74 11 77 bd
       0.010392557 -0.016797056 0.019634916 -0.06031938
000030 57 31 d2 bc 1c c0 2a bc d9 0e c0 bc f9 29 28 bc
       -0.025658293 -0.010421779 -0.02344458 -0.010263913
000040 c3 5b 08 ba ea 42 51 bd b2 01 f9 3c 58 3b 91 3b
       -0.0005201662 -0.051089205 0.030396316 0.004432123
000050 07 eb 41 bd a9 b1 1e 3d 8c 24 19 bd b6 7e a4 bc
       -0.04734328 0.03874365 -0.03738837 -0.020079952
000060 14 70 dc bc 4d 4a 98 bd 34 06 3c 3c c7 75 3a bc
       -0.026908912 -0.07436047 0.011476088 -0.011380619
000070 e6 00 0d bc 23 f9 fb bc aa d5 4a bc ce 4a 3a 3c
       -0.008606171 -0.030758446 -0.012380043 0.011370374
