results/_mar_fptra_0.5_1000_VAE_model.pt (torch, 228240 bytes, 61 tensors)

encoder.conv1.weight f4 [16, 1, 2]
000000 e3 83 ef 3e da 94 d0 3e ae 2a f8 be fb 45 9e be
       0.4678031 0.40738565 -0.48470062 -0.30912766
000010 1b 65 90 3e 0a 7b 90 be 27 bf 8f be 14 ab 49 be
       0.28202137 -0.2821887 -0.28075525 -0.19694167
000020 2d 49 a2 3e 42 68 36 3e 9e 38 1e 3f e5 97 39 bf
       0.31696454 0.17813209 0.6180514 -0.724974
000030 b7 8c 23 3e 09 8d 21 3f 70 20 1b 3e d8 a1 92 be
       0.15971647 0.6310583 0.15149093 -0.28639102
000040 6a 37 96 3c 2c 5c 50 be a8 96 f0 be 96 78 98 3e
       0.01833697 -0.20347661 -0.46989942 0.297795
000050 3e e8 54 3e 20 a9 9d 3e f3 e2 09 3e 12 58 20 3f
       0.20791718 0.30793095 0.1346548 0.62634385
000060 64 ef d4 be 87 c1 28 3f 4c 62 96 3e 00 d6 5f be
       -0.4158889 0.659203 0.2937187 -0.21858978
000070 16 b6 23 bc 79 d1 aa be c9 e0 01 be 97 df d5 3e
       -0.009992143 -0.3336294 -0.12683405 0.41772148

encoder.conv1.bias f4 [16]
000000 c8 69 45 be 95 02 78 3e 1b 39 39 3e b5 b6 bc be
       -0.19278634 0.24219735 0.1808819 -0.36858144
000010 b1 39 04 be 2a e2 bd 3d 8d 98 b7 3d 32 51 0b bf
       -0.12912633 0.09271653 0.089646436 -0.5442077
000020 16 b0 19 3e c9 ae f6 bd 77 b0 2e be 96 87 2c bf
       0.15008578 -0.120450564 -0.17059503 -0.6739439
000030 24 59 31 3d 10 9c 32 3d 39 2c 3f 3d ae 75 86 3d
       0.0432979 0.043605864 0.046673033 0.06565414

encoder.conv2.weight f4 [16, 16, 2]
000000 ba ac 91 bd af 61 39 3e 21 50 2f 3c a2 fe 17 be
       -0.07113023 0.1810367 0.010700257 -0.14843228
000010 a9 ec ba 3c e0 83 cb 3c f2 65 6d bd c2 0c ba bc
       0.022817926 0.024843156 -0.05795855 -0.022711162
000020 04 41 32 bd f4 aa 47 3d 92 ea 7f bd 46 34 08 be
       -0.043519035 0.048747018 -0.062479563 -0.1330119
000030 18 d5 f6 bd 49 7d c8 3d f9 92 27 be a3 11 43 bd
       -0.12052363 0.09789521 -0.1636466 -0.04762424
000040 17 92 0b 3d 38 3f 2c bd 23 a3 c7 bd 2f 29 e3 3b
       0.03407487 -0.042052478 -0.09747913 0.0069323997
000050 0e 78 a2 3d 82 1e d0 3d ac 0c 05 3e 18 de 3b 3e
       0.07933055 0.10162069 0.12993115 0.18346441
000060 89 78 f7 3d e9 dc dd bd 68 ec 41 bc 47 f7 97 3d
       0.12083537 -0.10833151 -0.011836149 0.07420211
000070 9b 96 fc bc e9 2b 55 bd cb d1 b2 bd fe d3 0d bd
       -0.030833533 -0.05204383 -0.08731421 -0.034626
000080 2e 8b 89 3d 98 e6 ba bd e3 38 ee bd 55 9d 31 be
       0.067159995 -0.091260135 -0.11631944 -0.17345174
000090 f4 2b 19 be 53 27 3c 3e b4 91 37 3e a3 47 8a bd
       -0.14958173 0.18374376 0.17926675 -0.06751945
0000a0 ae e2 8c 3d db ef c3 3d 60 07 9f bd 55 f9 c8 bc
       0.06879173 0.09567233 -0.077650785 -0.024532953
0000b0 e5 85 22 3e af f4 c2 bd d7 21 42 bb 57 13 c1 3d
       0.15871389 -0.09519326 -0.002962222 0.09427517
0000c0 f4 4c b2 3d 6b 6b 14 3e b4 be 41 bd b1 36 8f bd
       0.08706084 0.14494102 -0.04730101 -0.069928534
0000d0 a1 9a 90 bd a7 05 ab 3d e4 ff f0 bd ff 9b 29 3e
       -0.07060743 0.083506875 -0.11767557 0.16563414
0000e0 55 dd 07 3e 06 82 ab 3d 89 3a de 3c 79 54 c0 3d
       0.13268025 0.083744094 0.027127521 0.09391112
0000f0 77 4b 1e be 19 9e e8 3d 2e b7 9e bd b8 fb 2f bd
       -0.15458475 0.1135828 -0.077497825 -0.042964667
000100 9a f4 54 3e 0f cd 0e 3d 58 e0 88 3d b0 20 85 bd
       0.20796433 0.034863528 0.06683415 -0.06500375
000110 ae 76 e5 bd b2 61 ab bd af c4 02 3e 0c b7 c0 3c
       -0.11204277 -0.08368243 0.12770341 0.023524784
000120 85 13 1c 3e d5 32 11 bc 36 f6 30 be 91 7d 49 3d
       0.15241821 -0.008862217 -0.17281422 0.049192015
000130 cb 32 b3 3d a7 11 ba 3c 60 aa 3d 3d b1 3d 7c bd
       0.08749922 0.022713495 0.04630506 -0.06158227
000140 08 f5 16 bd a3 9b dc bd a0 b6 d5 3d be c2 61 be
       -0.036854774 -0.10771873 0.104352236 -0.22046944
000150 ad 4c 07 bc 84 2e f5 3d e2 bb b1 3d 1e d5 ed 3d
       -0.008258027 0.11971763 0.08678414 0.116129145
000160 62 5c a6 bb dd bb 55 3b 01 8d 30 3d fa fb f3 3d
       -0.005076931 0.0032613196 0.04310322 0.11913295
000170 6a 78 e4 bd cd b0 62 bd 72 12 3a 3d 56 84 b8 39
       -0.1115578 -0.05534439 0.045427747 0.00035193813
000180 a5 53 01 bc 0d 8d 62 3d 81 c8 d1 bd 4e 89 56 bc
       -0.007893478 0.055310298 -0.10243321 -0.013094259
000190 cc 05 84 bd 57 41 1d 3d c7 b3 f5 3d 13 ac a0 3d
       -0.06446418 0.03839239 0.119971804 0.078453206
0001a0 f8 6a 28 bd 6f 91 32 3d 98 9e af bc d3 88 f1 bd
       -0.04111764 0.043595728 -0.021437928 -0.11793675
0001b0 ff a4 27 3e 46 7e 81 3d b7 71 34 3c 65 cc 09 be
       0.16371535 0.06322913 0.01101344 -0.13456877
0001c0 a0 30 1e be 8d 37 01 be c1 50 21 3e 4a b3 05 be
       -0.15448236 -0.12618847 0.15753461 -0.13056675
0001d0 05 d4 c5 38 38 19 6d bd 4a 14 0f bd 71 d9 a8 bb
       9.433184e-05 -0.05788538 -0.03493146 -0.005152874
0001e0 45 7b 08 3e c2 14 ac bd c4 3b 0c be e3 21 3f bd
       0.13328274 -0.08402397 -0.13694674 -0.046663176
0001f0 86 b0 5e 3c 75 ba e3 3a f3 8e ae bb bc e7 95 3d
       0.013591891 0.0017374294 -0.0053270995 0.073195904
000200 36 31 93 bd d7 7b a6 bc c4 ad e0 bd 53 ff 48 bd
       -0.071871206 -0.020322723 -0.10970643 -0.04907162
000210 89 22 1e 3d 95 ca 0d 3e ab dd be 3d 60 79 a0 bd
       0.038607154 0.1384681 0.093196236 -0.078356504
000220 f5 fa 21 be c1 3f 40 3e 15 df 98 3d 06 af 12 3d
       -0.15818389 0.1877432 0.074644245 0.035811447
000230 5f 1a b2 3d 74 54 b1 bd 93 94 0a 3e c2 2b 3b 3e
       0.08696436 -0.08658686 0.13533239 0.18278411
000240 5d fc d2 bd 4f 4d a9 3d d5 d6 0a 3e 43 e0 45 bc
       -0.10302041 0.082666986 0.13558514 -0.012077394
000250 64 3d 8a bd 5c fc 03 3e 2a 78 be bd b7 a3 a4 3d
       -0.067499906 0.12889236 -0.09300263 0.08039039
000260 61 d3 3d bd 8d dd b3 bd ca 50 40 be 8a fe 73 bd
       -0.046344165 -0.08782492 -0.18780819 -0.05956892
000270 9d bf 7b 3c e7 70 13 be 76 c7 14 3e 14 ac 97 3d
       0.015365508 -0.14398538 0.14529213 0.07405868
000280 ce 00 10 3e a2 5c 08 be d5 0f 24 be 7e 3d 11 3d
       0.14062807 -0.13316587 -0.16021664 0.035459034
000290 46 72 76 bc 3d 0e 13 be 3e 98 8f bc 47 19 a7 3d
       -0.015041893 -0.143609 -0.01752865 0.08159118
0002a0 bc a6 2e 3d cf 99 bd bd b6 8d dc 3d 12 f7 90 bd
       0.04263948 -0.09257852 0.10769217 -0.07078375
0002b0 36 51 a0 3d 1c 1e 03 3e 24 dd 3b bd d2 f6 93 3c
       0.0782799 0.12804455 -0.045865193 0.018062029
0002c0 5a 93 92 bd 9c 3f 01 bd 99 61 4a bd 31 79 52 3d
       -0.07157011 -0.031554803 -0.049409483 0.05138511
0002d0 b2 24 7e bd 98 a7 2c 3d 43 67 13 be f3 23 57 3d
       -0.062046714 0.042152017 -0.1439486 0.05252452
0002e0 ae 2f 10 be 7d ec 14 bd 17 67 9b 3d d3 fd 10 be
       -0.14080688 -0.036358345 0.07588022 -0.14159326
0002f0 ea 36 9a 3c b2 23 7e 3d d4 f4 b9 bd 5b d0 24 bd
       0.018825013 0.06204576 -0.090799004 -0.040237766
000300 c4 0e 34 bd 50 d6 5c 3d f6 b5 8e bc 42 0a 85 3d
       -0.043959394 0.05391532 -0.01742075 0.06496097
000310 7b fe 00 3c 55 48 e7 3d 0e ce 7a bd 6b 41 40 3d
       0.007873173 0.11293093 -0.061231665 0.046937387
000320 fd 46 b1 3d f0 e5 e4 3d 8f 57 86 bd 89 5c 48 3d
       0.08656118 0.111766696 -0.06559669 0.048916373
000330 66 39 1d bc ae e3 d0 bd f1 26 6c 3d 4a 92 f7 3d
       -0.009596204 -0.101996765 0.057654325 0.12088449
000340 6c 41 81 bd b3 e6 7d bd 62 8c 42 3d 18 22 3b 3c
       -0.06311306 -0.06198759 0.04749716 0.011421703
000350 f0 8b aa 3d a5 02 86 3d e4 d0 ca 3d cc 71 57 be
       0.08327472 0.06543473 0.09903124 -0.21039504
000360 2b 75 a5 bc ca 4e 9d bd 59 66 06 be a0 cf 55 3d
       -0.020197472 -0.076810434 -0.1312498 0.05219996
000370 4e 1e 1b bd 31 e4 0a 3e 5d 5d f3 3d 90 e8 3d bd
       -0.037870698 0.1356361 0.11883042 -0.046364367
000380 fe 0b 30 bd 8a cf 1a be 68 99 fa 3d ba 2c c4 bd
       -0.042980187 -0.15118232 0.12236291 -0.095788434
000390 14 3a 94 bd ac 0b 8b 3c 3d b1 9a 3d f3 01 a2 bd
       -0.0723764 0.016973339 0.07553337 -0.07910528
0003a0 37 12 dd bd f8 3d a5 3d 22 de 33 bd ef dd ef bd
       -0.1079449 0.0806846 -0.043913014 -0.11712252
0003b0 49 4a 1a be 86 2e c1 bc 7b c1 2d be 17 31 96 3d
       -0.150674 -0.023581754 -0.16968338 0.07333582
0003c0 f6 15 26 3d 11 45 86 bd 3a 2d 1c be 07 5d 2f 3d
       0.040548287 -0.06556142 -0.15251628 0.042813327
0003d0 ab ca 33 3d 7c b2 b5 3d 6b a3 34 be 89 2e 11 be
       0.04389445 0.08871934 -0.17640464 -0.14177908
0003e0 33 78 03 be 24 54 30 3c 13 3f 4a bd 36 13 e8 bc
       -0.12838821 0.010762248 -0.04937656 -0.028329473
0003f0 38 4d 32 3e 61 f8 9c bd ea 9a 1a be 58 18 71 3d
       0.17412269 -0.07664562 -0.15098158 0.058861107

encoder.conv2.bias f4 [16]
000000 ac 2c 8b bd 20 25 97 3d 18 0d 97 bd 31 c1 98 bd
       -0.0679563 0.07380128 -0.07375544 -0.07458723
000010 75 51 a7 3d 7f 7b 02 be 30 b8 fd 3d 41 12 f7 3d
       0.081698336 -0.12742423 0.123886466 0.120640285
000020 6e 44 a4 3b 2e 4b 9d 3d 40 17 b1 bd 1e ec f2 bd
       0.0050130403 0.07680355 -0.08647013 -0.11861442
000030 82 de b7 bd db 5b 08 be 03 85 c4 3d 98 28 03 be
       -0.08977987 -0.1331629 0.095956825 -0.12808454

encoder.conv3.weight f4 [32, 16, 2]
000000 f9 85 76 3d 32 7a 50 bd 2e f6 24 be 3f 03 a9 3d
       0.06018636 -0.050897785 -0.16109535 0.08252572
000010 c5 84 7a bc 0c 32 e8 bd df d1 7a 3d d1 81 f8 3d
       -0.015290444 -0.11337671 0.061235305 0.121341355
000020 02 73 a7 3d 84 b3 e6 bc e0 57 10 3d c7 d9 28 be
       0.08176233 -0.028161772 0.035240054 -0.16489325
000030 8f c2 59 3d da 04 05 bb 98 bd b2 bd 08 7d e4 bd
       0.05316406 -0.0020297081 -0.087275684 -0.1115666
000040 58 d7 31 3d ca 84 25 3e 7b e4 02 3d 4d 99 4a bd
       0.04341826 0.16163936 0.031956177 -0.049462605
000050 2e b0 4a 3d f6 21 14 3e 4d d4 06 be e4 6d 24 3e
       0.049484424 0.1446608 -0.13166924 0.16057545
000060 1b 3c e5 3d 73 d9 78 bd 21 4f 88 3d 85 4a 35 3e
       0.11193105 -0.06075425 0.06655718 0.17704208
000070 2a 3b 13 3e f0 39 0d be 5c 51 f3 3d 39 52 fd bd
       0.14378038 -0.13791633 0.118807524 -0.12369198
000080 58 f2 2b 3b bd 29 ec 3d 4f c8 08 be 8f f4 ee bd
       0.0026236977 0.115313984 -0.13357662 -0.116677396
000090 6e 6a e4 bd 14 5a 53 bc 7a 70 9d bd b2 33 8c 3c
       -0.11153112 -0.012899894 -0.07687469 0.017114494
0000a0 f2 50 06 be 1e 9c 5b bd 2b c8 c8 bd 9d a4 9d bd
       -0.13116816 -0.05361568 -0.09803804 -0.07697413
0000b0 45 39 fa bc da 4b a4 bc 98 24 a8 3d db 62 51 bc
       -0.030544886 -0.0200557 0.08210105 -0.012779917
0000c0 2c da 24 3d 14 f5 b4 3c de 6d b5 bc 53 64 c4 3d
       0.040247127 0.022089519 -0.022147115 0.09589448
0000d0 c4 25 6e 3b 66 b3 9e 3b 24 7e 90 3c 91 57 02 bd
       0.0036338428 0.0048431633 0.017638274 -0.03182179
0000e0 4b de b6 3d 1e 9c 9f 3d e7 12 e3 bd 6b 63 1c be
       0.08929118 0.07793449 -0.1108759 -0.152723
0000f0 6a 4e 1d 3e 2d bd dd 3d 3e 75 2b bd 67 a5 2f 3d
       0.15361944 0.10827098 -0.041859858 0.04288235
000100 6f 0a 4c 3d 14 1d 20 be e7 57 9a bd 1a 88 a2 bd
       0.049814638 -0.15636092 -0.07536297 -0.079361156
000110 56 6f 89 bd 97 7d 17 bb a8 e7 ac bd ed fe e4 3d
       -0.06710689 -0.002311563 -0.084426224 0.11181436
000120 4f 1b e4 3d 2f 70 c9 3c 35 29 03 3e 99 95 d3 bd
       0.11138021 0.024589626 0.12808688 -0.10331268
000130 09 6e 08 3e e0 f8 16 3d dd 59 03 3e af da cc bd
       0.13323225 0.03685844 0.12827249 -0.10002648
000140 c5 d1 9d 3d dd 98 f7 3d 58 34 74 bb f2 82 30 3d
       0.07706026 0.12089703 -0.0037262645 0.04309363
000150 73 b1 13 be 62 01 7c bd 82 d7 2c bb 6d 72 39 3d
       -0.1442316 -0.061524756 -0.002637357 0.04527514
000160 44 31 49 bc e3 cc 0a 3d 28 f9 e4 bd b9 7f c7 3d
       -0.012279812 0.0338868 -0.11180335 0.09741158
000170 61 16 bd bd 12 d9 f8 bc 91 bc 96 3d 64 56 e7 3d
       -0.09232784 -0.030376945 0.07360185 0.112957746
000180 e3 f9 14 3e ea 0e 8f 3d b2 5a 00 3e 1d 57 10 3d
       0.14548449 0.069852665 0.12534598 0.035239328
000190 b0 fe d5 3d eb 01 a7 3d a0 84 94 3c d4 a6 c9 bd
       0.104489684 0.08154663 0.018129647 -0.09846273
0001a0 71 cf 43 3d 92 8d fe 3d ec 97 82 bc 89 e1 39 be
       0.047805253 0.12429346 -0.015941583 -0.18152441
0001b0 68 be f5 bc 65 1c 04 bd 93 de f8 3c a1 e4 3e bd
       -0.02999802 -0.03225364 0.03037957 -0.046604756
0001c0 77 a4 88 3d 54 a2 91 bc b4 63 64 bd 55 8a ae bd
       0.06671994 -0.0177776 -0.055759147 -0.085224785
0001d0 19 0f 5e 3d e6 24 b2 bd b5 58 0e be a7 55 83 bd
       0.054213617 -0.08698444 -0.13901027 -0.06412821
0001e0 e9 2c 97 bd 1c 2c 35 3e 23 ae 22 3d da f1 0c 3d
       -0.07381613 0.17692608 0.03971685 0.034410335
0001f0 4c 42 08 be e2 f9 00 bc 7c a6 da bd 2f b1 d3 3d
       -0.1330654 -0.007872077 -0.106762856 0.103365295
000200 75 46 2d 3e 6b ed 4a 3b cd a8 be 3c 53 59 16 bd
       0.16921408 0.0030964266 0.02327385 -0.03670628
000210 35 fc 1b 3e 66 85 ec bd aa 70 00 be 01 91 20 3d
       0.15232928 -0.11548881 -0.12542978 0.039200787
000220 34 6c b7 bc 81 0c c0 3d 66 50 07 be 3e 46 f6 3d
       -0.022390462 0.09377385 -0.13214263 0.120251164
000230 69 70 81 3d fc 0d a2 bd 3a 17 87 3d 1d 36 b2 bd
       0.06320269 -0.079128236 0.06596227 -0.087017275
000240 bb 77 2a be 48 c5 8d bb a8 4f bd 3d 77 1b 54 3d
       -0.16647236 -0.0043264963 0.09243709 0.051784005
000250 b2 cd cb 3d 5b 52 4b 3e d1 ad 93 3d 17 7a c0 3d
       0.09951343 0.19855635 0.07210887 0.09398287
000260 0e cd 2e be 4c 24 12 3d 04 35 2a bd 2e 89 8f bd
       -0.1707041 0.035679147 -0.041554466 -0.07008587
000270 ea 11 22 be 47 a2 a1 bd 43 1a e9 bc 86 78 2e bd
       -0.15827146 -0.0789228 -0.028454905 -0.04259541
000280 74 0f d2 bd ab 65 01 3e 12 6a d1 3d f7 11 a3 3d
       -0.10256854 0.1263644 0.102253094 0.07962411
000290 78 48 02 3e 01 34 20 3e 37 4d 12 3e ca 1f 32 be
       0.12722957 0.15644838 0.14287268 -0.17394939
0002a0 e1 69 dc 3d 03 07 39 be fa b4 dd bd e6 04 a8 3d
       0.10762382 -0.18069081 -0.10825534 0.08204059
0002b0 b6 1d f9 3d 52 23 02 3e ce b8 4e be a5 7d 0a be
       0.1216387 0.12708786 -0.20187685 -0.13524492
0002c0 b0 ab a6 bd c4 31 be 3c 98 a2 82 bd 10 d4 29 bd
       -0.081382155 0.02321709 -0.063786685 -0.041462004
0002d0 88 9d 4d 3c fd 75 2a 3e 34 53 0b be 42 81 00 3e
       0.012549765 0.16646571 -0.13605958 0.12549308
0002e0 77 30 00 3d fe a9 99 bd 69 e2 fe bc 72 0e 1d bd
       0.03129622 -0.075031266 -0.03111382 -0.038343854
0002f0 b1 33 8c 3d 94 cb 04 be 6a 5c e4 bb 34 92 fd 3d
       0.06845797 -0.12968284 -0.0069690244 0.12381402
000300 2f ee f2 bd 8f 1d 26 3e 42 83 a5 3d e8 c8 6d bd
       -0.11861836 0.16222213 0.08081676 -0.058052927
000310 e1 d8 0b 3d 3f 6b d1 bc ae f8 3a 3e 60 1c 0c 3e
       0.03414238 -0.025563834 0.18258926 0.13682699
000320 b3 ca e6 3c a6 f6 0e 3e 5c d4 2a 3d 85 7a 93 bd
       0.028172826 0.13961276 0.041706428 -0.07201103
000330 14 85 18 be a7 67 b3 bd 1a a4 82 bd 38 9a ec bc
       -0.14894515 -0.087600045 -0.06378956 -0.028882131
000340 46 0f 0b 3d 9b 15 b3 3d 49 f7 0c 3e 63 d9 24 be
       0.033950113 0.08744355 0.13766207 -0.16098551
000350 d6 3d 06 3e 99 60 b1 bd 42 0d a4 3a 23 7d d2 3d
       0.13109526 -0.08661003 0.0012516158 0.10277774
000360 77 9a f9 3d 2c ce 3a bc 15 2a 51 be 64 1d ad bd
       0.12187665 -0.011401694 -0.2042621 -0.084528714
000370 7f 73 d0 bd 5a fa b5 bd b3 05 60 bc 65 3f 98 bd
       -0.10178279 -0.088856414 -0.013673234 -0.074339665
000380 f0 15 0a be 84 ef 8a 3c 36 44 fd bc 77 88 16 3d
       -0.13484931 0.016959913 -0.030916315 0.036751237
000390 1b b2 0e be 9c a9 bf 3c 49 ce 74 be 45 85 e0 3d
       -0.1393513 0.023396306 -0.23906817 0.10962919
0003a0 82 cd 5f bd 89 5a fa bc 07 30 0d 3e 86 c2 b8 bd
       -0.054639347 -0.030560749 0.13787852 -0.090214774
0003b0 9f e8 f9 bd 54 bb 4f bd 97 14 36 3d 58 5c 94 bd
       -0.12202572 -0.05071576 0.04445323 -0.07244176
0003c0 63 f6 ad bd b3 08 02 be 54 42 05 3d c6 78 77 3c
       -0.0849426 -0.12698631 0.03253396 0.015104478
0003d0 41 34 20 3d c0 77 ed bd 04 32 51 bd de 06 81 3d
       0.039112333 -0.11595106 -0.05107309 0.06300138
0003e0 84 a0 43 bc 46 00 08 be 42 a9 77 bd 15 d1 ac bd
       -0.011940125 -0.13281354 -0.06046415 -0.08438317
0003f0 d6 ae 85 3d 61 30 00 be 41 8a d7 bc c8 b5 a9 bd
       0.06527488 -0.12518455 -0.026311042 -0.08286625

encoder.conv3.bias f4 [32]
000000 b5 f7 bf bd 0d dc d7 bc f7 85 2a 38 be d8 0c 3d
       -0.09373418 -0.026350046 4.0655923e-05 0.03438639
000010 99 11 eb 3c be 80 46 bd 38 73 0b 3e fe e8 46 3e
       0.028694915 -0.048462622 0.13618171 0.19424817
000020 25 cf ff 3d ee 83 c0 3d 09 95 08 be b6 ae 5a bd
       0.124906816 0.094001636 -0.13338102 -0.053389274
000030 d3 0a 94 3d 6a a0 ae bb 4a e6 e8 3d 30 25 a2 bd
       0.07228627 -0.0053291814 0.11372049 -0.07917249
000040 1e 04 4e bd 6e 51 21 be dc e5 b2 3d ce 5a 96 3d
       -0.050296895 -0.15753719 0.087352484 0.07341538
000050 3b 87 12 3e 9c 3d 0c bd 29 d0 b5 3d ac df b5 3d
       0.14309399 -0.034238443 0.08877594 0.08880553
000060 db 83 1a 3e 72 3f c0 bd 93 19 22 be 40 02 eb 3c
       0.15089361 -0.09387101 -0.15830068 0.028687596
000070 57 f7 1c bd c5 c0 b8 3d 95 2a e7 3d 37 f4 49 bc
       -0.03832182 0.09021143 0.11287419 -0.012326292

encoder.conv4.weight f4 [32, 32, 2]
000000 73 d9 29 bd f8 b8 e3 bd 36 ad 03 be e8 e8 b9 bd
       -0.04146714 -0.11119264 -0.12859043 -0.090776265
000010 a4 80 c9 3c 66 c4 9b bd 3d 95 92 bd 85 a8 af 3b
       0.024597473 -0.076058194 -0.07157371 0.0053606653
000020 04 c7 8d 3d c0 3d b7 bd 83 23 61 bd e0 37 82 bd
       0.06922725 -0.08947325 -0.054965507 -0.063583136
000030 fb c4 fb bd e0 ea bd 3d 47 51 27 bd 58 b0 cb 3d
       -0.122934304 0.092733145 -0.040848996 0.09945744
000040 6d 5b 30 3d ec 84 80 bc 1d ce dc bd d6 ac 70 bc
       0.04305594 -0.015688382 -0.107815005 -0.014689645
000050 5d f0 5f 3d 6a 0d 8e bd 99 c0 49 bd be 79 27 3c
       0.054672588 -0.06936152 -0.04925594 0.010221897
000060 0e af 9c 3d 54 f1 00 be 1c 6d ea bb 20 00 31 3d
       0.076505765 -0.1259206 -0.00715412 0.04321301
000070 d1 46 78 3d 90 b2 22 3d 33 f0 ff 3b cf 01 bb bc
       0.06061441 0.03972107 0.0078106164 -0.02282801
000080 a4 fe 09 3d 86 7d cf bd 63 4e 5a 3d da dd 3b 3c
       0.03369011 -0.101313636 0.05329741 0.011466468
000090 e4 46 ca bc 4d 34 80 bc 3f 7d da bd 75 97 85 3d
       -0.024692006 -0.015649939 -0.1066842 0.06523029
0000a0 09 ea b5 3d b9 c6 ee bd 20 f9 9f 3c 5f 75 c2 bd
       0.08882529 -0.11658997 0.019527972 -0.09495043
0000b0 2f 98 b7 3d 28 37 7c bd 21 d9 04 bd 9e 64 9b bd
       0.089645736 -0.06157604 -0.032433633 -0.075875506
0000c0 1a 9f a6 3d 65 c5 bb bd 8e 7d 92 bd ed 87 69 3a
       0.08135815 -0.091685094 -0.07152854 0.0008908499
0000d0 cb 0d b5 bb c4 c1 6f 3d dd 57 f9 3d 54 33 67 3c
       -0.005525326 0.0585344 0.12174962 0.014111359
0000e0 9e 34 02 3b c8 6e 5e 3b 53 82 8b bb e8 42 db bd
       0.0019867788 0.0033940542 -0.004257479 -0.10706121
0000f0 af 28 33 3c 0f 90 d5 bd 04 af 8c 3a 4d 49 d1 bd
       0.010934993 -0.104278676 0.0010733311 -0.10219059
000100 17 fd 8c bd 20 db 53 bc e0 4c 2c 3c d5 3d 09 bd
       -0.068842106 -0.012930661 0.010516375 -0.033506233
000110 8c 57 c0 3c 6b e5 c3 bd de 54 89 bd f8 2b c3 bd
       0.023479246 -0.095652424 -0.0670564 -0.09529871
000120 3b 78 6b ba a7 12 d4 bd 6d f9 85 3d c3 c4 18 be
       -0.00089824543 -0.1035512 0.06541715 -0.14918809
000130 e5 8e 95 bd 12 e5 d4 3a f1 21 8e 3c 91 09 72 bc
       -0.073026456 0.0016242585 0.017350169 -0.014772789
000140 e7 87 09 3c d2 f0 8c bc e3 58 d9 bd 0a bb fe bc
       0.008394218 -0.017204676 -0.10612657 -0.031095047
000150 dc 88 19 be 92 ef f3 bd f6 0d 6c 3d c0 ef 1f be
       -0.14993614 -0.11910929 0.0576305 -0.15618801
000160 30 9c aa bb 46 ff 9c bd af 88 03 3d 06 f3 1e bd
       -0.0052066073 -0.07665877 0.032112774 -0.038805984
000170 4c 02 9c 3d 0a f1 ae 3c bd 20 02 3d b6 ba ae 3d
       0.076176256 0.02135517 0.031769503 0.08531706
000180 d0 5f 9f bd 97 37 89 bd 69 2f 76 bd 16 05 88 3d
       -0.07781947 -0.06700056 -0.060103808 0.06641595
000190 a8 e0 bf bd a8 1d e1 bd 9b 51 4c ba c8 ff 53 bd
       -0.09369022 -0.109919846 -0.00077941426 -0.051757604
0001a0 61 4b 17 bd 81 82 2d 3d 17 dc d1 3d ed ea e8 bc
       -0.03693712 0.042360786 0.10247057 -0.028432334
0001b0 b6 7f 92 3d 5f 2d 10 bd e7 24 41 bd b4 e8 fa 3d
       0.07153265 -0.03519952 -0.047154333 0.12251416
0001c0 28 29 04 3d ec 67 23 be fa 52 ce bc 6c 55 45 bb
       0.032265812 -0.15957612 -0.02518605 -0.003011073
0001d0 69 b8 06 bc 24 3e 4f bd 74 2c 47 bd 3b 13 19 be
       -0.008222678 -0.05059637 -0.04862638 -0.14948742
0001e0 4c 40 68 bd 28 c8 dd 3c 81 b5 97 bc 3c 99 35 bc
       -0.056701943 0.027072981 -0.018519165 -0.011083897
0001f0 90 69 73 bc f4 5a 3d bd bf be c1 3d 60 72 1a bd
       -0.014856711 -0.046229318 0.0946021 -0.037706733
000200 7c f5 df 3c 40 46 21 3d 03 f7 96 bd 42 f4 d2 bd
       0.027338736 0.039373636 -0.073713325 -0.10300495
000210 04 41 74 3d 45 50 53 3d 61 68 af 3d 89 e2 01 bd
       0.059632316 0.051590223 0.085648306 -0.03171018
000220 8f 28 a9 bd 78 0f cb 3c 11 ed 03 3d 3e 91 0e bb
       -0.08259689 0.02478765 0.032208506 -0.0021754052
000230 8c 12 a7 bc e7 a7 c4 3d 01 68 ed 3b ee f7 08 bd
       -0.020394586 0.09602337 0.0072450642 -0.03343957
000240 1a 75 0b bd d9 9f b1 3d 2d 63 8c 3c a8 e1 7f bd
       -0.034047224 0.08673067 0.017137134 -0.062471062
000250 ac fa 40 3d d2 62 69 bd 26 1f ce 3a 69 71 0a bd
       0.04711406 -0.056979008 0.0015725836 -0.033799563
000260 ff f7 aa bc 49 37 fb bc 56 ae 35 bc a0 76 c9 bd
       -0.020870207 -0.03066601 -0.011088928 -0.09837079
000270 70 da 94 3d fb f5 dd bc 02 85 e8 3d a6 99 c0 bd
       0.07268226 -0.027094832 0.11353494 -0.09404306
000280 8a 20 20 bd 40 b9 a0 3a 81 08 d4 3c 85 d5 f4 3c
       -0.03909353 0.001226224 0.025882961 0.02988697
000290 1a 23 cc 3d 00 d3 b9 3c c7 14 d7 3c f7 ce 0a bd
       0.099676326 0.02268362 0.026255025 -0.033888783
0002a0 5f cc e3 bd d7 69 fe bd 5e 61 89 bb 24 2f 83 bd
       -0.11122965 -0.12422531 -0.0041925153 -0.06405476
0002b0 8c da e2 bd 8a 1e 94 bd 07 5d 02 3d f7 cf aa 3d
       -0.11076841 -0.07232387 0.031827 0.083404474
0002c0 07 08 94 bc 3e 22 77 bd 3a d0 a3 bd 00 76 7a 3c
       -0.018070234 -0.06033539 -0.079987004 0.015286922
0002d0 ea da dc bc 38 cd be bd 26 6b a7 bd 23 25 8c 3d
       -0.026959855 -0.09316486 -0.08174734 0.06843021
0002e0 76 59 c4 bd 97 22 f8 3c d9 2e aa bd 81 2d c2 3c
       -0.09587376 0.030289931 -0.08309717 0.023703339
0002f0 59 13 ac 3d 02 fa ab 3d 0d 54 b3 bc 76 f6 8c 3d
       0.08402128 0.083972946 -0.021890664 0.06882946
000300 e6 6f e3 bc bb ec be 3b 34 35 81 3d 7b f4 7c bc
       -0.027763318 0.0058265603 0.06308976 -0.015439148
000310 ba 9a 69 bd b7 38 90 3d 3f 24 04 bd 07 14 73 bd
       -0.057032324 0.070420675 -0.03226113 -0.05934527
000320 99 d3 77 bc 3b 4f 12 bd 7c 65 3e be 50 70 1e be
       -0.015126132 -0.03572009 -0.185934 -0.15472531
000330 0c 4c 88 3a a5 d4 96 3c 46 d0 0b 3d 8c 3a 80 3d
       0.001039864 0.018411944 0.034134172 0.06261167
000340 a0 d2 db bd c9 0e 8b bd a2 cb 0c bd 2b 35 a6 3c
       -0.10733533 -0.067899294 -0.034373887 0.020289024
000350 1e 4f 31 be d4 59 d0 bc 43 3d 2f ba d6 29 2d be
       -0.17315337 -0.025433458 -0.0006684849 -0.1691049
000360 30 65 08 be 8b 09 d5 bd f1 74 32 bc d3 1a 8f bd
       -0.1331985 -0.10402211 -0.010892139 -0.06987538
000370 71 a6 05 be ed 14 e4 bd 07 0f 10 3d 52 fd 6d bc
       -0.13051774 -0.11136804 0.03517058 -0.014525728
000380 f2 ac 95 bd 9e e6 9a 3d e8 f6 07 be 42 48 01 3d
       -0.07308377 0.07563518 -0.13277781 0.03156305
000390 e6 ef 2f bd 60 d9 43 bd 29 8a 00 3d 54 f6 bb bc
       -0.042953394 -0.047814727 0.03138176 -0.022944607
0003a0 c7 b4 c6 bd 0c 89 45 bd 6c 9a 31 3d 29 5b 0b bd
       -0.09702449 -0.0482264 0.04336016 -0.034022484
0003b0 c1 da a4 bd 0c 51 53 bd a7 30 87 3d fb e5 a2 bd
       -0.080495365 -0.051590964 0.066010766 -0.079540215
0003c0 4d 68 36 be 27 41 82 bd d5 9c 8e bd 30 71 69 3d
       -0.17813225 -0.06360083 -0.06963507 0.05699271
0003d0 61 18 0c be 9b bf 0c bc 75 10 d4 bd 4e 20 1f be
       -0.13681175 -0.008590604 -0.103547014 -0.15539667
0003e0 d3 23 42 3d 65 e3 8e 3d 09 73 22 be c8 3e be bc
       0.047397446 0.06976966 -0.15864195 -0.023223296
0003f0 bd e9 d7 3d 3b 97 9a bd 25 34 2d bd 7c 42 b5 bc
       0.10542629 -0.07548376 -0.042286057 -0.022126429

encoder.conv4.bias f4 [32]
000000 c9 3a 83 3d ab 28 ff 3d e6 e3 dd bc 4a bf 14 3e
       0.06407697 0.12458929 -0.02708621 0.14526096
000010 4b 32 03 3e b8 85 ea 3c 90 ce ea bd fa 2a 04 3e
       0.12812154 0.028628215 -0.1146518 0.1290702
000020 35 b2 52 bd 92 09 22 3c 9e 80 33 bd 38 91 07 3c
       -0.051439483 0.009889977 -0.04382383 0.008274369
000030 6a 94 40 3d 85 cc 9e 3c af 99 6c 3c d2 0d 6f 3d
       0.04701654 0.019384632 0.014440938 0.05836279
000040 6d 4e 39 3e ac 8c b1 3d 7c 50 b7 bb 51 02 0b 3e
       0.18096323 0.08669409 -0.0055943113 0.13575102
000050 2c 03 09 3e 99 25 54 bc 8f c6 69 3d f8 69 0f 3c
       0.13380116 -0.012948417 0.057074126 0.008753292
000060 09 4e 26 3c 1e 85 32 bd 88 91 cb 3c b2 a0 6b 3d
       0.010150441 -0.04358398 0.024849668 0.057526298
000070 c9 a6 14 3e 79 ac 4a 3d 29 29 25 be f3 a1 f8 3d
       0.14516748 0.04948089 -0.16128983 0.12140264

encoder.fc1.weight f4 [64, 608]
000000 a9 69 35 3b 66 2e b8 bc c2 de 9a bb b0 db 56 3c
       0.0027681387 -0.022483062 -0.004726262 0.013113901
000010 b0 84 39 bd ea 85 d5 3b fc f0 1e bd 1d a3 9a bc
       -0.045292556 0.006516208 -0.03880404 -0.018876607
000020 80 8f 0f bc 81 9b 2a bc 84 a6 63 3d 61 12 83 bd
       -0.00876224 -0.010413052 0.055578724 -0.0639999
000030 f7 74 12 bd ec 2c 34 bd 8f 1c 29 bc 94 a5 a3 bc
       -0.035756078 -0.043988153 -0.01032175 -0.019976415
000040 89 03 55 bd 92 21 d5 bc 50 cf ce 3b 53 5d d2 bc
       -0.052005325 -0.026016984 0.0063113347 -0.025679266
000050 9b e9 d7 bb 5a 40 50 bc 9e 31 e5 bb 19 1b d0 ba
       -0.0065891272 -0.012710655 -0.00699444 -0.0015877216
000060 67 14 b8 bc 18 45 36 bd 54 02 3a 3b dd db 8d bb
       -0.022470666 -0.044499487 0.0028382735 -0.0043291883
000070 b7 a1 2b 3c df ff 9e bb 9d 19 08 3b 94 90 e8 3c
       0.010475568 -0.0048522796 0.002076722 0.028389253
000080 cf f3 38 bd 48 df 01 bd 51 0a db 3c 44 f2 20 3d
       -0.04515439 -0.03170708 0.026738318 0.039293543
000090 3d d3 08 bd 9b b5 4b bc a9 c8 86 bc dc 82 30 bd
       -0.033404578 -0.012433435 -0.016453104 -0.043093547
0000a0 62 f0 19 bb 00 da 0c 3d 89 59 ae bb f8 a6 ff 38
       -0.0023489227 0.03438759 -0.005320732 0.00012190448
0000b0 07 84 04 bc bc 99 93 3c 2f b4 15 3d 85 11 84 3c
       -0.008088118 0.018017642 0.03654879 0.016121635
0000c0 0c 12 20 3c 64 18 07 3d aa ea 02 bd 04 72 64 3d
       0.009769928 0.032982245 -0.031962074 0.055772796
0000d0 7b 12 3f bc 74 da 16 3c a2 2d ee 39 c7 18 80 3c
       -0.011662121 0.009207357 0.00045428897 0.015636815
0000e0 db 6c 81 bc 64 14 ad bc 9e 55 f9 bc 4b 76 0d bc
       -0.015798977 -0.021127887 -0.030436333 -0.00863416
0000f0 3b ea 01 bd b2 23 b3 bc eb ec b5 3c 50 38 45 3c
       -0.03171752 -0.021867607 0.022207698 0.012037352
000100 9d df 01 bd 73 1d 4b bd f8 a2 c6 bd fa 9e c3 bc
       -0.031707395 -0.04958863 -0.096990526 -0.023879517
000110 49 d2 27 bc 5d be 33 3d 6a 72 01 3d ba df e1 bc
       -0.010243007 0.043882716 0.031603254 -0.027572501
000120 fd 7e ca 3b 0b b2 d5 3b e5 d8 15 3d bc 13 f1 3c
       0.006179689 0.0065214685 0.0365838 0.029428355
000130 19 c3 0a bd db 79 36 3c 47 e5 b3 3b 8d 62 58 3b
       -0.033877466 0.011137451 0.0054899785 0.0033017725
000140 5d 0f bb 3c c6 15 31 3c 89 61 31 3c 37 c8 22 bd
       0.022834474 0.010808414 0.010826477 -0.03974172
000150 90 ef 01 3d 7b 4f 91 bc bb d7 e3 3b 09 91 1e bd
       0.031722605 -0.017738095 0.0069532073 -0.038712535
000160 53 96 bd 3c 6b df 08 bc e0 ad aa 3c e2 01 ea 3b
       0.02314297 -0.008354048 0.020834863 0.0071413377
000170 a2 68 4f bb 0a 8b ef 3c 93 5e 0e 3b 82 23 4c bb
       -0.003164806 0.029241104 0.002172385 -0.0031149094
000180 a2 ec 7d 3b 6e 57 53 bc b6 fe 5f 3d e4 b3 a2 bc
       0.003874578 -0.012899263 0.05468627 -0.01986117
000190 7a 27 07 3d 4b be 11 bc ce 3b 4a bc 89 c7 97 bc
       0.032996632 -0.008895467 -0.01234336 -0.018527763
0001a0 dc 7f 48 bd 3b c9 00 3d 8c a8 bd 3c b0 ed 89 bb
       -0.04895006 0.03144191 0.023151658 -0.0042092428
0001b0 29 0b 02 3c d8 4f ef bb e5 df 2d 3d 43 55 13 ba
       0.007937231 -0.0073032193 0.04244985 -0.000562031
0001c0 16 45 99 ba 1b 0d 59 3c 45 ef 02 bd 6a 9e a0 ba
       -0.0011693563 0.0132477535 -0.031966466 -0.0012254242
0001d0 c3 45 1c 3d a2 0a 2d 3c 28 c6 40 bd aa b9 f0 3c
       0.038152467 0.010561617 -0.047063977 0.029385407
0001e0 dc 3e 3b 3b 12 dc eb bc 0c 1a 63 bb c6 90 11 bd
       0.0028571403 -0.028791461 -0.0034652976 -0.035538457
0001f0 e7 3b 1e 3c 9f 11 75 bc a1 60 cf 3a 9d b3 8a 3b
       0.0096578365 -0.0149578145 0.0015821644 0.0042328374
000200 d5 d4 05 3c 57 d6 dd bc 99 81 77 3b dd 1f 53 39
       0.008168419 -0.027079744 0.0037766455 0.00020134398
000210 0f bb 33 3b 3d 92 22 3b d7 32 0e bc 34 e5 88 bb
       0.0027424728 0.0024806403 -0.008679113 -0.0041777138
000220 d0 e6 8f bc e3 17 29 3b 7e f0 ef bb b6 f1 8a bb
       -0.017566115 0.002580159 -0.00732237 -0.00424024
000230 70 5c 96 bc f5 32 05 3d 3a 66 66 bc b4 84 46 3d
       -0.018354625 0.0325193 -0.014062459 0.0484664
000240 8a 99 a5 bd f1 de bd bc 3e b8 1c 3b 48 0d 39 3c
       -0.08085926 -0.023177596 0.0023913528 0.01129467
000250 ca 01 35 3c 0b 18 18 bd 3b 7c f0 3c 3d 58 95 bd
       0.01104779 -0.037132304 0.029356113 -0.07292221
000260 31 70 2d bd c4 b8 05 bc cb 96 1d bc 25 3b 40 3b
       -0.042343322 -0.008161727 -0.009618471 0.0029332128
000270 16 d6 ec 3b 73 2e 2a 3d 25 aa b8 3c d1 9a 20 3c
       0.0072276695 0.041548204 0.022542069 0.009802536
000280 2c 82 30 3d 39 f2 08 bd f7 48 15 bc c1 23 f5 3a
       0.04309289 -0.033434127 -0.009111634 0.0018702672
000290 45 a2 ee 3c f3 83 e3 3c eb 39 27 bd ec d7 b8 bc
       0.02913011 0.02777288 -0.04082672 -0.022563897
0002a0 d2 7b bc 3c c2 a6 5b bc a2 2e 78 3c 4d 89 62 bc
       0.02300826 -0.013406457 0.015147837 -0.01382668
0002b0 c9 a5 d6 3c f9 4a f9 bc 35 bd 6e bd 71 80 15 bd
       0.0262021 -0.030431258 -0.05828591 -0.036499444
0002c0 4e 21 a0 3c f5 50 79 3b 06 db 27 bd 3e 50 db bc
       0.01954713 0.003804264 -0.04098036 -0.02677166
0002d0 b3 ce 28 bc 50 18 02 bd 93 99 a7 3c 6e 3b d6 bc
       -0.010303187 -0.031761467 0.020458972 -0.026151385
0002e0 d7 43 64 bc d3 be 46 3c 5f e9 9d bc 10 68 0a 3d
       -0.01393219 0.012130457 -0.01927632 0.033790648
0002f0 a6 01 08 3c a4 91 0c bc d8 6b ed 3c cc 39 af bc
       0.008301174 -0.008579645 0.028982088 -0.021389864
000300 10 61 d4 3c c7 7e d6 bc a5 10 15 bd 36 69 8a 3c
       0.02592519 -0.026183499 -0.036392827 0.016895872
000310 a5 d4 0e 3d 49 9f 20 3d 06 bc c2 bc 95 d5 6c b9
       0.034870762 0.039214406 -0.023771297 -0.0002258628
000320 f1 af 91 bc 3a f3 fc bb 02 ef 8e 3c 9a 6c 7f 3c
       -0.01778409 -0.0077194246 0.017447952 0.0155898575
000330 06 e3 46 bd 83 dd 5a bc 15 07 ea 3b 28 30 4d bc
       -0.04855635 -0.013358477 0.0071419575 -0.012523688
000340 91 6e 50 39 a9 a2 dc 3c d7 33 f5 bb 1e 97 8e bc
       0.00019877615 0.026933031 -0.0074829864 -0.017406043
000350 35 23 ba bb 55 de fa bc ff 8d 19 bc 8c d7 ea bb
       -0.0056804665 -0.030623594 -0.009372233 -0.0071668085
000360 84 b4 34 3d d7 44 37 bc eb bb 19 bc 05 11 0d 3d
       0.044117466 -0.011185846 -0.009383182 0.03444006
000370 df d8 11 bc 6c f5 dc bc ac 0c c8 bc 52 57 9f 3c
       -0.008901804 -0.026972495 -0.024420105 0.019450817
000380 4e 49 87 bc c6 cd d9 3c 9c d3 e1 3c c2 f8 20 bd
       -0.016514447 0.026587378 0.027566724 -0.039299734
000390 7a b4 04 3d 59 e0 c8 3c 1d d7 0e bd 29 39 11 3c
       0.03239868 0.02452104 -0.034873117 0.008863726
0003a0 cf d3 88 3c 8d ae 7f ba d8 6a 35 3d c3 ae 62 3b
       0.01670256 -0.0009753488 0.044291347 0.003458903
0003b0 75 3c fc bc 45 06 f2 ba 1c 5a a6 3c ba ac 22 3d
       -0.030790547 -0.0018465003 0.02030664 0.039715506
0003c0 01 ba 1f 3d 12 fa 86 3c 0a 28 e5 3b 5a aa 06 bc
       0.038995747 0.016476665 0.0069932984 -0.008219326
0003d0 16 b1 3b bd 8e 58 a5 bc fc 20 cf 3c 55 36 6f 3c
       -0.04582318 -0.020183828 0.025284283 0.014600356
0003e0 5b 20 d5 bb 41 ef e1 ba 31 ce 15 bc 00 db a7 3c
       -0.006504101 -0.0017237441 -0.009143398 0.02049017
0003f0 f1 3d 65 3c 89 2f ae bc b6 80 6b bd b9 07 73 bd
       0.013991819 -0.0212629 -0.057495795 -0.059333537

encoder.fc1.bias f4 [64]
000000 a2 39 58 3d 5e cb b8 3d c9 fd 7a 3d 6e 5f 87 3c
       0.052789338 0.09023164 0.061277185 0.016524997
000010 49 70 c1 bc 7a ea e1 3c 43 4b b7 3c 7c 86 6d 3d
       -0.023613112 0.027577627 0.022374755 0.057989582
000020 b5 26 2d 3d a0 08 5a bd 72 71 36 bd aa b7 bf bc
       0.042273242 -0.05323088 -0.044541784 -0.023403008
000030 83 e8 38 3d 0a 90 d1 bc 33 06 8e bc b2 96 f8 bc
       0.045143615 -0.025581378 -0.01733694 -0.030345295
000040 b9 e8 2b bc 12 e1 c8 bb ef 7e be bd 50 e7 39 bd
       -0.010492497 -0.006130346 -0.093015544 -0.045386612
000050 13 65 82 bc c7 fa c8 ba f3 6d 2d 3d 4f 53 ab 3c
       -0.015917337 -0.0015333527 0.042341184 0.020913748
000060 22 77 d5 3d 0f d7 c5 bb c2 d0 cf bc 5a 19 f0 3c
       0.104231134 -0.0060376 -0.025368098 0.029308964
000070 25 96 b8 bb 99 47 03 bd 5d b0 85 bd 1f 7b 39 bc
       -0.005633133 -0.032050703 -0.06527779 -0.011320858
000080 52 49 8f 3c 0f 78 96 bb 71 15 cb bc e3 55 95 bc
       0.017491017 -0.004591949 -0.024790497 -0.01822943
000090 ab 81 36 bc bc 9b 1d 3d 6a 3b 54 bc 5d a9 dc ba
       -0.011139314 0.038478598 -0.012953619 -0.0016835142
0000a0 b0 fb be bc d2 03 9f 3d 34 d5 21 bd ce 82 25 3d
       -0.023313373 0.077644005 -0.039509967 0.04040795
0000b0 15 f2 c3 bd bb 4c 99 3d b1 ae 85 bd ac b0 a5 bc
       -0.09567658 0.07485338 -0.0652746 -0.020225845
0000c0 42 50 37 bd 12 95 88 3d e4 b9 92 bd 94 c3 64 3a
       -0.044754274 0.06669058 -0.07164362 0.0008726653
0000d0 a8 e1 54 3c 24 ae ea bb 9e fa 73 bd bf 86 7d bc
       0.012993254 -0.0071618725 -0.05956518 -0.0154740205
0000e0 5d d1 8d 3d bb ea 77 bd de d3 b2 ba 9d 6f e3 3c
       0.069246985 -0.06052659 -0.0013643464 0.027763182
0000f0 4e e5 74 3c 31 81 27 3d e8 5d 32 bd 90 a9 cd 3c
       0.014947249 0.04089469 -0.043546587 0.025105268

encoder.fc2.weight f4 [16, 64]
000000 11 c2 25 bd a0 70 e8 3d b2 c1 9e bc 1e f9 aa bd
       -0.04046828 0.113496065 -0.01937947 -0.083482966
000010 c4 e3 ee bc 34 dc dc bd 09 ec 26 3d 55 c5 11 3d
       -0.029161341 -0.10784188 0.040752444 0.03558858
000020 5e 39 c1 bd f5 60 a1 3d 68 b5 0a 3e 1d fd 8d 3d
       -0.0943477 0.07879821 0.13545763 0.06933043
000030 ab f6 a0 bd 5c c2 65 bd 11 8d 1b 3d 4f 31 f7 3d
       -0.07859548 -0.05609356 0.03797633 0.12069952
000040 6c 64 c9 bd f5 6a 80 3d e2 a9 90 3d 2c ef cd 3d
       -0.09833607 0.062704004 0.070636526 0.10055384
000050 57 56 6f bd e2 bf c9 3d 24 5c aa bd 06 71 de bd
       -0.05843195 0.09851052 -0.08318356 -0.10861401
000060 39 68 cd bd 5d d9 99 bd ff 08 8e bd 08 be c2 3d
       -0.100296445 -0.07512162 -0.069353096 0.09508902
000070 e6 cf a2 3d 5a 7d 8e bd 98 74 ad 3d b1 a4 03 be
       0.0794981 -0.06957503 0.08469504 -0.12855794
000080 0c 87 51 bd 4f 62 f8 bd 02 94 aa bd 6f 91 27 3c
       -0.05115418 -0.12128126 -0.083290115 0.010227545
000090 c2 b9 02 3d 7d 24 72 3c 93 74 cb 3d b3 1b e6 3d
       0.031915434 0.014779207 0.09934344 0.11235752
0000a0 da ec fe bc 7e 8e f8 bd 90 0a f8 bd e4 72 4c 3d
       -0.031118799 -0.12136553 -0.1211139 0.049914256
0000b0 c9 75 92 bd da 8d dd bd 64 09 9f bd c8 ad b9 3d
       -0.07151372 -0.10818072 -0.07765463 0.09066349
0000c0 d1 3a 0f bd 36 c5 cb 3c 68 4b 14 3d 64 a1 e0 bc
       -0.0349682 0.024874311 0.036204726 -0.027420707
0000d0 5f 4f 63 bd b0 a0 d0 3d 1f 8f 8c bd 9a 0b e4 3d
       -0.055495616 0.10186899 -0.06863236 0.11135025
0000e0 1e ec 01 bb ee b4 20 3d d9 6d d1 38 d8 7b 27 bd
       -0.0019824575 0.039235048 9.986357e-05 -0.04088959
0000f0 cd 56 54 bd d2 ea d3 3c 18 55 ff bd 20 f8 61 bd
       -0.051840592 0.025868807 -0.12467402 -0.05516827
000100 fd b7 04 bc 05 f8 99 3d 8f ad fa 3d 27 96 c9 3d
       -0.008100507 0.07518009 0.12240135 0.098430924
000110 1e 97 16 bd 91 ae ce 3d de 34 f8 3d f9 9d dc 3d
       -0.03676521 0.1009189 0.121194586 0.107723184
000120 d4 8a ab bd d1 67 ac 3d e9 34 83 bd 49 f1 4d 3c
       -0.08376089 0.08418239 -0.06406576 0.012569734
000130 d2 b3 59 bd ba bc 9e 3d b1 91 78 3d e1 70 0c bd
       -0.053150006 0.077508405 0.060685817 -0.034287337
000140 31 73 30 bd 3d 49 30 bd 50 43 92 bd 50 4d a3 bd
       -0.043078605 -0.043038595 -0.07141745 -0.079737306
000150 72 f4 92 3d 4f 48 d5 3b 7b c4 bf 3d 6c 0a 3b bd
       0.071755305 0.006508864 0.093636476 -0.045664236
000160 3d 89 ef 3d de f2 9d 3d ce 41 fa 3b 80 f1 13 3e
       0.11696098 0.07712339 0.007637239 0.14447594
000170 3f 1e bd 3d bb 6b 8a 3c bb cb 49 3b af e9 80 bd
       0.092342846 0.016897073 0.00307916 -0.062945716
000180 37 ab c3 3d 00 fd d7 bd 7b d9 ba bd 2a fd ca bd
       0.09554141 -0.10546303 -0.09123512 -0.099115685
000190 61 ed 85 3b 51 08 bc 3d bb 63 ab 3c ef 99 f6 3c
       0.0040871357 0.09181274 0.020921579 0.030102698
0001a0 89 be 88 bc 4a 7d 97 3d 69 c1 19 3c 92 eb c0 3c
       -0.016692417 0.07396944 0.0093844915 0.023549829
0001b0 c8 d4 1e be b4 1d 5e 3d a1 d0 ec bc ee 65 a5 bc
       -0.15510857 0.054227546 -0.028908076 -0.020190205
0001c0 1a bb 78 bd 92 4e 98 3d 80 d9 04 be 09 17 28 bc
       -0.06072531 0.07436861 -0.12973595 -0.010259398
0001d0 3a d6 71 bd 5c 5b 35 3d 54 56 af bd 6e 5c 98 3c
       -0.059042193 0.04427658 -0.08561388 0.018598761
0001e0 c1 58 e5 3c 7e 8a 2e bd 09 24 0e be 48 c7 43 bb
       0.027996423 -0.042612545 -0.13880934 -0.002987342
0001f0 8b c8 87 bc a6 ac 95 3c 5c 0e 85 bd b1 b7 85 bd
       -0.016575119 0.018270802 -0.064968795 -0.06529177
000200 2e 51 99 bd 65 4d d2 3d 5d f9 4e 3d 6c 80 83 3d
       -0.07486187 0.10268668 0.05053078 0.06420979
000210 03 a5 eb bd f0 63 16 3c 35 e2 da 3d 15 c4 7b bc
       -0.11506083 0.0091791 0.10687677 -0.015366574
000220 cb c4 81 bd 69 3b 3d bd 49 49 05 be 01 61 de bd
       -0.063363634 -0.046199236 -0.13016237 -0.10858346
000230 be cd 11 3e 7d 9b a6 bd cf 53 be bd b2 49 46 3b
       0.1423864 -0.08135126 -0.09293329 0.0030256328
000240 54 36 a3 bd 4d 4a dd 3c b2 38 bd 3d c5 53 bb 3d
       -0.07969347 0.027012968 0.092393294 0.09146837
000250 6e 2e 83 bd 92 7c c4 bc 33 35 99 3d 06 82 fd 3c
       -0.0640534 -0.023985181 0.0748085 0.03094579
000260 0c 3f ab 3d 46 ce 52 3d 1e f0 0f 3d 29 5d b7 3d
       0.083616346 0.05146625 0.035141103 0.08953316
000270 9e 0e 73 bd 60 14 27 3d 12 b0 01 3e 81 72 bc 3d
       -0.059340112 0.040790915 0.12664822 0.092015274
000280 dd 76 5d bd de f3 5f bd 40 a4 d7 bd 37 29 03 3e
       -0.054068435 -0.05467593 -0.10529375 0.12808691
000290 69 ef 5f 3b b9 4d 9b 3d 60 60 de 3d f0 45 de 3d
       0.00341698 0.07583184 0.10858226 0.10853183
0002a0 11 97 98 3c 2c 85 ae 3d 14 0b da bd c6 59 62 3d
       0.018626722 0.08521494 -0.10646644 0.055261396
0002b0 6d ed 07 bd a6 8e 0c bd a4 a7 9c bd 0d cb a2 bd
       -0.03318541 -0.034315728 -0.076491624 -0.07948885
0002c0 e3 55 65 3d b9 88 af 3d 52 49 f2 bd 73 ec 7f 3d
       0.05599011 0.08571 -0.11830391 0.062481355
0002d0 8f a0 00 bd b3 67 68 bd f6 69 3f 3c 1f cc d8 bd
       -0.03140312 -0.05673952 0.011682978 -0.10585808
0002e0 5d 5e 55 bd 95 8a 47 3d b8 d9 8f 3b 86 64 8b bc
       -0.052091945 0.048716146 0.004389968 -0.017015707
0002f0 25 4b d7 3d c9 8d 77 3d 3e 08 96 3d 89 88 05 bd
       0.105123796 0.06043795 0.07325791 -0.032600913
000300 79 20 9c 3d 3e 7e 9e 3d 83 4c c7 bd 4c 99 88 bd
       0.07623381 0.077389225 -0.0973139 -0.06669864
000310 75 13 16 bd 3c 7d c3 bc c9 61 d5 bd 6e 81 b2 bd
       -0.03663965 -0.023863427 -0.10419042 -0.08716093
000320 38 68 55 3d 79 9d ae 3d f6 93 04 3e 36 ef 5c 3d
       0.052101344 0.08526129 0.12947068 0.053939067
000330 ea 30 dc bd d3 68 8a bc 3d ca ff bc f7 3a ca 3d
       -0.10751517 -0.016895687 -0.031224364 0.09874528
000340 fb ee e5 bd 37 25 07 bd 19 b6 38 bd 6c 06 fe 3d
       -0.112272225 -0.032994475 -0.045095537 0.124035686
000350 0f 78 d4 3d da 8e a3 bd 39 96 21 ba 2c 8b 31 bc
       0.10374462 -0.07986231 -0.00061640475 -0.010836404
000360 bd a6 d1 bc 3d a8 2b bc 41 58 68 3d 09 6f cc 3c
       -0.025592202 -0.010477123 0.05672479 0.02495529
000370 7f 99 bd 3d 7d 80 01 3e e2 8b 40 bd 35 a2 80 bc
       0.09257793 0.1264667 -0.047008403 -0.015702346
000380 94 f6 f7 bc 13 02 94 bd 74 35 10 bd 7d 92 34 3b
       -0.030268945 -0.07226958 -0.035207227 0.0027553134
000390 14 55 20 bd 8f fe eb 3c e6 1a ba bc f6 eb 02 bd
       -0.039143637 0.028807906 -0.022717904 -0.03196331
0003a0 71 f2 80 bc d2 ed 07 bd eb 17 47 3d 23 b8 eb bb
       -0.015740605 -0.033185787 0.048606794 -0.0071935817
0003b0 df 59 00 3e 17 96 41 bd 99 26 d4 3c 80 05 0b bd
       0.12534283 -0.047262277 0.025897311 -0.033940792
0003c0 c7 39 14 be ca d2 a1 bc 97 f0 fe bb af 83 dc bd
       -0.14475165 -0.019753832 -0.0077801454 -0.10767304
0003d0 e3 07 c8 bd 51 1a c3 3d a7 4a cd 3d 4d 24 50 bd
       -0.09767129 0.09526504 0.100240044 -0.05081587
0003e0 c2 23 60 3d ab 5f b9 3d 1c 83 65 bd b7 15 ec 3c
       0.0547216 0.0905145 -0.05603324 0.028818948
0003f0 04 c0 cf 3a ab 92 2e bd c8 04 69 3d e2 1b 09 bc
       0.0015850072 -0.042620342 0.056889325 -0.008368464

encoder.fc2.bias f4 [16]
000000 c7 3f f7 bc 3a 39 d5 3d 7f f8 15 3e 7c dd a1 bc
       -0.030181779 0.10411306 0.14645575 -0.019758932
000010 5b d5 c4 3c b7 3a 10 3c 8b cd 24 bd b5 e6 b9 3d
       0.024027517 0.008803061 -0.040235084 0.09077207
000020 c5 7c 99 b7 37 36 85 bd f6 2b d8 3c 60 93 ec 3c
       -1.8297122e-05 -0.06504481 0.02638815 0.028878868
000030 7e 83 4e 3b ef 4c b2 3d ba 67 8c 3b 02 0a 36 3d
       0.003151148 0.0870608 0.004284826 0.044443138

encoder.fc21.weight f4 [4, 16]
000000 32 d9 44 3d e4 f3 47 be 9f 9b d8 bd 42 df 61 3c
       0.048058696 -0.1952663 -0.10576557 0.013786139
000010 41 fd 18 be c4 4a 02 3e da bd f7 bd d4 ba d4 3d
       -0.14940359 0.12723833 -0.12096758 0.10387197
000020 b5 92 fd 3d cf 08 6f 3e 31 f5 38 be 57 7b 18 3e
       0.12381498 0.23343204 -0.18062283 0.148908
000030 9a 9b 45 bd 77 84 79 be b5 8a 18 3e 79 42 81 bd
       -0.048244096 -0.24366938 0.14896663 -0.06311507
000040 85 c4 3e bd e4 3d 29 bc 3e 39 b9 bd 52 9a 04 3e
       -0.046574134 -0.010329697 -0.09044121 0.12949494
000050 19 78 3d 3e 7e e1 f4 bd cb d1 69 be cb 30 cd bd
       0.18502845 -0.11957072 -0.22833936 -0.10019072
000060 4b 35 86 bc 03 f7 9c bd 23 eb bf 3d f8 36 ce bd
       -0.016382834 -0.07664301 0.09371021 -0.10069078
000070 51 a0 aa 3c 89 a8 f4 bd b2 31 ba bd 2d 74 3c 3e
       0.020828398 -0.11946208 -0.0909151 0.18403693
000080 15 e3 c4 3d cf fb 46 be 3c 4b 3d 3e 03 ee 67 3d
       0.09613625 -0.19431995 0.18485731 0.05662347
000090 a4 28 c6 bd 0a bd 23 3e 10 d5 a4 3d 83 9a 18 3e
       -0.0967572 0.15990081 0.08048451 0.14902692
0000a0 02 86 35 be 63 f5 82 3d 3f 9c fd bd 5b ad 01 3e
       -0.17726901 0.0639446 -0.12383317 0.12663786
0000b0 fb 3d a5 3d 0a 43 a5 3a d9 f2 a8 bc 9a 32 74 3c
       0.080684625 0.001260848 -0.020623611 0.0149046425
0000c0 a3 ad 63 3e bc 8d 5e 3e 4a d3 05 be 37 11 10 be
       0.22234206 0.21733755 -0.13068882 -0.14069067
0000d0 e6 3a ff 3d c2 41 b1 bc 35 60 23 3e 97 59 40 3e
       0.12462406 -0.021637801 0.15954669 0.18784176
0000e0 16 72 cf bd 6e 0a e6 bd 83 93 9b bd 1b 50 04 be
       -0.10129182 -0.11232458 -0.07596495 -0.12921183
0000f0 b1 99 f9 bc c0 a9 ee 3c 40 4d 9d 3b 5e 84 42 be
       -0.030468794 0.029133677 0.0048004687 -0.18995807

encoder.fc21.bias f4 [4]
000000 96 e6 72 be be 27 37 3d db d3 05 be 7a 8f b2 bd
       -0.23720774 0.044715635 -0.13069098 -0.08718772

encoder.fc22.weight f4 [4, 16]
000000 36 68 24 bd 01 74 65 be f7 f9 20 be a1 e3 b2 3d
       -0.040138446 -0.22407533 -0.15720354 0.08734823
000010 ea b0 82 bd a4 ae 55 be dc 63 67 3c 35 0d 8d bd
       -0.063814 -0.20867401 0.014122929 -0.06887285
000020 84 dd 3e be 13 21 4b be d2 16 b5 bd 6b fc 52 bc
       -0.18639189 -0.19836836 -0.08842243 -0.012877564
000030 8b 80 d5 3d f3 17 f6 bd 13 fe 7a be ba 41 9f 3d
       0.10424908 -0.12016287 -0.24510984 0.07776208
000040 7b f8 a3 3c ad ff 60 be d9 9f 41 3c b2 b0 18 3e
       0.020015946 -0.21972533 0.011817896 0.14911154
000050 36 04 37 be 04 55 ac be 54 cf 25 3d d3 7a 31 3e
       -0.178727 -0.33658612 0.040480927 0.1733201
000060 85 27 4b be 09 b9 34 be 62 b7 54 bd 10 48 7f be
       -0.19839294 -0.1764871 -0.0519327 -0.24929833
000070 1e 76 13 bd 4f 64 e2 3d 33 5b 20 3e 76 78 60 3d
       -0.036001317 0.110542886 0.1565979 0.05480238
000080 c3 48 a6 3d 82 c0 59 be 4b 3a cf bd 05 e9 00 bd
       0.08119347 -0.21264842 -0.101185404 -0.031472225
000090 1c 23 92 be ee e0 2f be b5 a5 7e 3c 75 1b fd bc
       -0.2854241 -0.17175648 0.015542437 -0.030896882
0000a0 3e 07 f8 bb 33 9b 90 bd 7f 2f 82 be 73 46 cf 3c
       -0.0075692227 -0.07060852 -0.25426862 0.025302147
0000b0 5d a4 47 3e 24 6c 2e bd d7 4f b6 3d 1e b4 01 3e
       0.19496293 -0.0425836 0.08901947 0.12666366
0000c0 5b ad 4e bc b7 31 61 be 69 f3 5a be c0 de 4e be
       -0.012614573 -0.21991621 -0.21381916 -0.2020216
0000d0 27 03 a3 be 95 12 6e bc 28 53 83 3b f3 ee f0 3c
       -0.31838343 -0.0145307975 0.0040077157 0.029410815
0000e0 eb a2 2f 3c 0c 91 0b be fc 31 4c be f0 05 97 be
       0.010719995 -0.1362955 -0.19940943 -0.29496717
0000f0 4b 5e 58 bd cb 21 62 be 65 a2 06 3e fa b8 e3 bc
       -0.0528243 -0.22083203 0.13147886 -0.027798165

encoder.fc22.bias f4 [4]
000000 69 59 3c be 75 24 c9 bd 26 47 8a 3d fd 98 00 be
       -0.18393482 -0.09821407 0.06751852 -0.1255836

encoder.bn1.weight f4 [16]
000000 c5 0e 6d 3f 93 0c 6d 3f 08 ee 6a 3f 00 00 80 3f
       0.9260066 0.9259731 0.91769457 1.0
000010 17 c8 6f 3f c7 b6 77 3f 89 34 67 3f 00 00 80 3f
       0.9366469 0.9676327 0.9031454 1.0
000020 c7 5f 64 3f a0 8f 7b 3f f8 66 6d 3f ac b1 7c 3f
       0.89208645 0.9826603 0.9273524 0.98708606
000030 13 4c 6e 3f 22 4a 70 3f 8f ce 76 3f de 1a 73 3f
       0.9308483 0.9386312 0.96408933 0.9496287

encoder.bn1.bias f4 [16]
000000 cc d3 e8 3c a1 be ad 3c a1 f7 c8 38 73 ba f3 3c
       0.028421305 0.021209063 9.582868e-05 0.029751992
000010 83 ce 21 3c cf 7e eb bc 74 c1 f8 3b 62 65 5b bc
       0.009875896 -0.02874699 0.007591421 -0.013390871
000020 fb bc 3c 3d 03 12 3f 3b d0 c8 73 3c 9e 88 82 3c
       0.046078663 0.0029155023 0.01487942 0.015934285
000030 bf 5a 85 3c 73 61 10 3b 49 e9 11 3a 47 ce 4e bb
       0.016278623 0.002203074 0.0005566073 -0.0031556056

encoder.bn1.running_mean f4 [16]
000000 a2 29 71 3e 02 a1 02 3e 14 29 7b 3e 00 00 00 00
       0.23551038 0.12756732 0.24527389 0.0
000010 20 fe 06 3e 8e ff 71 3e 3d ea c3 3e 00 00 00 00
       0.13182878 0.23632643 0.38264647 0.0
000020 22 35 ec 3d 59 4d 41 3d 20 34 d9 3d f6 c7 54 3c
       0.11533572 0.047192905 0.10605645 0.0129871275
000030 a5 4c 4a 3e bd 38 a1 3d a1 e4 fa 3c d5 d4 35 3e
       0.197558 0.0787215 0.030626597 0.1775697

encoder.bn1.running_var f4 [16]
000000 3c 7b 83 3d 2a 67 a6 3c 47 54 09 3d 1c 1f c5 25
       0.064199895 0.020312864 0.03352764 3.4195133e-16
000010 43 ee b4 3c ac 57 b6 3d 29 2b ee 3d 1c 1f c5 25
       0.022086268 0.08903441 0.11629326 3.4195133e-16
000020 f6 aa db 3b c6 f2 ff 3b 4b 18 a0 3c de 5b ae 3a
       0.0067037297 0.0078109233 0.019542834 0.0013302525
000030 d8 53 a8 3d 96 11 77 3c fe dc 29 3a 22 fc 2f 3d
       0.08219117 0.015079876 0.0006479769 0.042965062

encoder.bn2.weight f4 [16]
000000 37 c3 73 3f 1d 33 62 3f 85 79 7d 3f 10 60 72 3f
       0.9521975 0.8835924 0.9901355 0.9467783
000010 26 da 6c 3f a6 1a 71 3f b8 1a 79 3f 48 0b 82 3f
       0.9252037 0.9418129 0.97306395 1.0159693
000020 cd 39 65 3f 99 4f 6e 3f f6 a4 65 3f 8f 37 64 3f
       0.8954132 0.93090206 0.89704835 0.89147276
000030 a3 47 61 3f 18 09 75 3f 9c 00 64 3f 9e 5d 70 3f
       0.87999934 0.95717 0.8906343 0.9389285

encoder.bn2.bias f4 [16]
000000 3e 82 ce bc 6e a5 70 3d 36 fb 68 3c 98 8a a9 3a
       -0.025208589 0.058751516 0.01422005 0.0012934981
000010 ef bd a2 bb 45 e8 8b bb a7 96 97 3b 18 02 55 bd
       -0.0049664895 -0.004269632 0.0046261135 -0.05200395
000020 79 f0 06 bd df 50 29 bd 0a 25 36 3d c4 75 84 3c
       -0.032944176 -0.04133689 0.044468917 0.016169436
000030 1b ee 25 3d 45 e3 a4 3c 9a 16 3d 3c 18 7a bb 3c
       0.04051028 0.020127902 0.011541033 0.022885367

encoder.bn2.running_mean f4 [16]
000000 43 68 37 3e 52 80 84 3e 01 ec 59 3e 95 e5 6c 3e
       0.17910866 0.2587915 0.21281435 0.23134454
000010 cb 35 85 3e ba fb 52 3e e6 f2 89 3e 6b 7b e3 3e
       0.26017603 0.20603839 0.2694313 0.44430098
000020 ee 81 8a 3e 6c a5 a0 3e 9d 5e 30 3e 6e aa c4 3d
       0.27052253 0.31376207 0.17223592 0.096028194
000030 65 f1 4a 3e 5c 4c 48 3e 00 ce 8f 3e 1b 9c 7d 3e
       0.19818647 0.19560379 0.28086853 0.24766581

encoder.bn2.running_var f4 [16]
000000 75 d1 f3 3d e9 db fe 3d 4e 22 24 3e 19 51 39 3e
       0.11905185 0.12444288 0.16028711 0.18097343
000010 2b 09 fd 3d 53 28 eb 3d cd 50 21 3e 11 a5 ad 3e
       0.12355264 0.114823006 0.1575348 0.33914998
000020 b7 39 da 3d 25 63 48 3e f7 e1 da 3d 0b cd 01 3d
       0.106555395 0.1956907 0.106876306 0.031689685
000030 79 ec c1 3d 7f f6 dd 3d 5d 9e e6 3d 39 6f f1 3d
       0.09468932 0.10838031 0.11260674 0.11788792

encoder.bn3.weight f4 [32]
000000 76 aa 68 3f 64 b6 65 3f 55 3d 6c 3f ce 7a 74 3f
       0.908851 0.8973143 0.92281085 0.95499885
000010 0a 5f 77 3f 4b 81 82 3f ac 73 6a 3f 29 2e 80 3f
       0.96629393 1.0195707 0.9158275 1.0014087
000020 21 fb 74 3f 5c 44 75 3f a5 27 7f 3f cc d3 7c 3f
       0.9569569 0.95807433 0.9966987 0.98760676
000030 0f 25 7b 3f 7e 02 6f 3f 68 80 6f 3f 5f c4 71 3f
       0.9810342 0.9336318 0.9355531 0.94440264
000040 c3 29 71 3f d8 13 6f 3f 2a d1 69 3f 5f 2a 6a 3f
       0.9420435 0.93389654 0.91334784 0.91470903
000050 a9 49 70 3f cf 3d 77 3f 59 bb 70 3f 54 a3 80 3f
       0.93862396 0.9657869 0.9403587 1.0049844
000060 ff 7b 80 3f 30 bb 74 3f 1e 8d 76 3f e6 0b 7b 3f
       1.0037841 0.95598125 0.9630908 0.9806503
000070 84 00 79 3f a5 05 81 3f 6f de 66 3f ec 5c 73 3f
       0.9726641 1.0079848 0.90183157 0.9506366

encoder.bn3.bias f4 [32]
000000 37 7f 3a 3d 54 a6 2a 3c 8a c2 14 bd 57 e3 b9 bb
       0.045531478 0.010415632 -0.03631834 -0.005672853
000010 05 57 2f 3b 8f a7 9f 3b 12 c6 42 3c cd 53 51 bd
       0.0026754749 0.0048722695 0.011888044 -0.05110531
000020 c5 6c 8b 3c be a6 25 3c a4 bc 57 bd ec 87 71 bd
       0.017019639 0.010110555 -0.052670136 -0.058967516
000030 3f 3b f3 bc 84 14 0c bd e0 0c 07 3d a8 68 42 bc
       -0.029691337 -0.034199253 0.032971263 -0.011865772
000040 33 4d 34 bd 4a 81 5f ba e4 8b 88 bc 32 37 47 bc
       -0.044018935 -0.00085260405 -0.016668268 -0.012159156
000050 80 3c c4 bc 2f 4c d1 bb 0e 5e 0a 3d ce d3 ca bd
       -0.02395463 -0.0063872556 0.033781104 -0.0990368
000060 6d 9b b5 bc 20 1d 45 3c 9c 27 9d bc 09 1e 79 bd
       -0.02216884 0.01203087 -0.019183926 -0.06081966
000070 7c b5 97 ba f1 60 5b bd 6f ad ac bc dc c8 c6 b9
       -0.0011574472 -0.053559247 -0.021078793 -0.00037915155
