results/_mar_fptra_0.9_1000_VAE_model.pt (torch, 228240 bytes, 61 tensors)

encoder.conv1.weight f4 [16, 1, 2]
000000 12 2f d6 bd ad 4f c6 be 69 79 b3 bd c1 f5 c5 3e
       -0.10458197 -0.38732663 -0.087633915 0.38664058
000010 76 f1 14 bf 37 ea 17 3f 6a db 0f bf 3e e5 11 bf
       -0.5818094 0.5934176 -0.56194174 -0.5699042
000020 fb 8b e4 be f6 60 d9 bd 8d 87 a3 bd e8 45 0a 3f
       -0.44638047 -0.10614197 -0.07984839 0.5401292
000030 86 f9 05 3f b4 76 57 be fd 4b 13 bf 13 96 28 bf
       0.5233387 -0.21041375 -0.57537824 -0.65853995
000040 a0 90 73 3d 2f 17 0e 3f f2 ff 92 bc f9 c9 8a be
       0.059464097 0.55504125 -0.01794431 -0.27107218
000050 4b 2f 53 3e 4d 92 fa be 4f 52 f7 3e a3 bd 46 be
       0.2062351 -0.48939744 0.48304984 -0.19408278
000060 25 db 2e bf d8 de 63 3e 0e 91 b3 be 8b 93 14 3f
       -0.6830314 0.22252977 -0.35071605 0.5803763
000070 1f df 2f bf 52 30 d9 3e 29 c8 fe 3c 57 1b ac 3d
       -0.6869983 0.42419678 0.031101303 0.08403652

encoder.conv1.bias f4 [16]
000000 36 f8 2e 3f 33 cb 19 3f 44 b6 13 3f 4e 03 cf 3e
       0.6834749 0.6007568 0.5769999 0.4043221
000010 c5 2e 8e 3e 19 d9 33 be 06 a2 d2 be 16 5e cd be
       0.27770057 -0.17563285 -0.4113924 -0.40110844
000020 aa 1d ad 3e cd 2d 1b 3e 88 10 ab 3e 96 cc 92 3e
       0.33811694 0.1515419 0.3341105 0.28671712
000030 91 c0 96 3e 4a aa 2e bf da cc 08 3f b0 90 fe 3e
       0.29443792 -0.6822859 0.5343758 0.49719763

encoder.conv2.weight f4 [16, 16, 2]
000000 7f 36 0b be 9a e1 bb 3d e1 0b 8f 3d 87 78 22 3e
       -0.13595007 0.091738895 0.069846876 0.1586629
000010 4d a4 23 3c 13 11 77 bc 51 25 d7 bd 99 ce df 3c
       0.009987903 -0.015079754 -0.105051644 0.027320193
000020 8e 2d 20 3e a5 81 07 3e fd b0 0c be 7e e5 b3 3d
       0.15642378 0.13233049 -0.1373939 0.087840065
000030 37 23 28 3d 52 aa 99 3d f1 f7 fd 3a 7c 0b 24 bd
       0.04104921 0.07503189 0.001937626 -0.040050015
000040 9d 86 9f bd d1 69 d6 bd f7 27 ac 3c 01 79 03 3e
       -0.07789347 -0.10469402 0.02101515 0.12839128
000050 6a 48 da 3d 68 53 63 bd 4c 46 9f bc 30 e3 24 bd
       0.10658343 -0.055499464 -0.0194427 -0.040255725
000060 29 70 12 be a7 ac 17 3d 31 80 c4 3c 5a 1f 5c bd
       -0.14300598 0.03702989 0.023986908 -0.053740837
000070 05 d0 cd bd a5 b1 49 3d 1f 44 f5 3d 23 8b f7 bc
       -0.10049442 0.04924168 0.11975884 -0.030217713
000080 9f f8 5e 3d fa 57 06 be 86 b5 2d bd ba a6 09 be
       0.054436322 -0.13119498 -0.042409442 -0.13442507
000090 e1 ff bb 3d 8a 0d 42 bd 31 40 e3 3d 83 80 ef bc
       0.091796644 -0.047376193 0.11096228 -0.029236084
0000a0 1e b8 d2 bd 3d 52 2b 39 32 b4 23 be 27 8e 07 3e
       -0.10289024 0.00016338467 -0.15986708 0.1323782
0000b0 6d 34 0b 3e 8e e1 7d 3d 1c af cd 3c 45 87 34 bd
       0.13594218 0.061982684 0.025107913 -0.044074316
0000c0 06 6b 67 bc 64 28 7c 3d 9b 15 bf 3d 4b a6 0c 3e
       -0.0141246375 0.061561957 0.09330293 0.1373531
0000d0 73 e8 2e 3e 92 22 ad bb 90 94 9a ba 72 99 01 be
       0.1708086 -0.005283662 -0.0011793543 -0.12656191
0000e0 a4 82 ee 3d b1 04 26 be 29 74 9f 3d 28 e0 06 bd
       0.116460115 -0.16212727 0.07785828 -0.032928616
0000f0 2b f2 12 bb be 04 3c 3d d9 78 df bd d2 6c 2a be
       -0.0022422175 0.04590296 -0.10911722 -0.16643074
000100 63 45 e7 3d d6 fa 23 3d 80 ad 1d 3e e0 4d bb bd
       0.11292531 0.040034138 0.15398216 -0.09145713
000110 47 18 74 bd 7b 60 2b 3d 04 2c 03 3d 01 6a ea bd
       -0.059593465 0.041840058 0.0320244 -0.11446
000120 f7 a6 a5 3c 42 bf 15 3e 0b e6 06 3e 6c 3f 06 3e
       0.020221217 0.1462374 0.13173692 0.13110131
000130 af b8 f7 3b 59 c8 02 3e be 9d f9 bd 5e 0c 07 3e
       0.007559858 0.12771739 -0.1218829 0.13188311
000140 df 5d b2 bd f0 55 ae bd 1c d4 1f be 8f f8 6a bc
       -0.08709311 -0.08512485 -0.15608257 -0.014341488
000150 13 2c ff bb 60 07 f7 bc 50 68 f3 bb 49 d7 7e 3d
       -0.0077872365 -0.030154884 -0.0074282065 0.06221703
000160 bb 6e 8b bd 8d 10 08 be 17 01 0e be 84 13 43 be
       -0.068082295 -0.13287564 -0.13867603 -0.19050413
000170 7f 06 9c bd ef d6 1f 3e bf 91 c2 bd 0a a8 a3 3d
       -0.076184265 0.15609334 -0.09500455 0.07991035
000180 ed d7 8d bd 87 ee 31 be 67 f7 b6 3d dd f1 8c 3d
       -0.0692595 -0.17376147 0.08933907 0.06882069
000190 b6 b1 cd 3d 1a 84 36 3b 92 2d 6f 3b d5 2a 12 3e
       0.10043661 0.0027849735 0.0036495668 0.14274152
0001a0 9e 73 d1 3d 63 de 14 be 1a fa f9 3c f9 d4 13 3d
       0.1022713 -0.14537959 0.030514766 0.03609178
0001b0 d3 57 f7 bc c4 6e 78 bc ca 54 ef bd f6 4b f9 3d
       -0.030193245 -0.015163127 -0.11686094 0.121726915
0001c0 8d b6 f6 bd be 09 c8 3d 46 a3 05 bd 41 fa 94 3c
       -0.120465375 0.09767483 -0.032626413 0.018185737
0001d0 80 da ee bd af 75 a7 bd c2 18 9e bd 9a fa 15 3e
       -0.11662769 -0.08176743 -0.07719566 0.14646378
0001e0 a6 a1 13 3e 22 81 78 bc da 9a 2a 3e ad a7 04 3e
       0.14417133 -0.015167506 0.16660634 0.12954588
0001f0 36 80 9d bd 80 be 61 3d 01 ad 88 3c fc f4 38 3e
       -0.0769047 0.055113316 0.016684057 0.18062204
000200 45 fb fc bd bf c6 2b be 85 ac 06 3e ed 61 c6 bd
       -0.12352613 -0.16775034 0.13151748 -0.096866466
000210 3d fb 45 3c ac f0 d3 3d 39 b4 77 3d 62 dc c2 bc
       0.012083826 0.10348639 0.060474608 -0.023786727
000220 fa c3 0d be cd 71 b2 bc 15 2f 4f bd c7 b3 c1 3d
       -0.1384429 -0.02178278 -0.05058201 0.09458118
000230 ca 6b c9 bd a7 58 06 be 31 f9 8e bd ff f6 54 bd
       -0.09835012 -0.13119756 -0.06981123 -0.051993366
000240 83 bf 16 3e 3b 2a 1b 3e a8 6d 2d be 5b 71 17 be
       0.14721493 0.15152828 -0.16936362 -0.14789335
000250 c6 35 0b be fd b7 01 be 14 56 ce bc 58 10 0d 3c
       -0.13594732 -0.12667842 -0.02518753 0.008609854
000260 98 53 bb 3c b1 ec 17 3e 19 ab fc bd 25 3e ed 3d
       0.022867009 0.14836384 -0.12337322 0.11584119
000270 71 48 3e 3d 65 47 38 be 4d aa c4 3d 8b 85 8b bc
       0.046455804 -0.17995985 0.09602795 -0.017031452
000280 1a e3 ae 3d d7 28 1a bd 19 b8 92 bc 9d 9c c0 3d
       0.0853941 -0.037636604 -0.01791005 0.094048716
000290 3a a5 e8 3c 1e a8 17 3e fa 35 15 3d d6 37 a8 3d
       0.028399099 0.14810225 0.03642843 0.08213775
0002a0 a7 45 26 3d ba 2c 22 3e 44 8f cf bc 23 7b ab 3c
       0.04059377 0.15837374 -0.025336869 0.02093274
0002b0 f4 37 46 bd d7 64 26 bd 3e 3f 2d be 21 76 17 be
       -0.048393205 -0.040623512 -0.16918656 -0.14791156
0002c0 ee c0 d1 bd f9 97 04 3e e0 cc 2b be 7b 24 e1 bd
       -0.102418765 0.12948598 -0.16777372 -0.10993286
0002d0 71 52 15 3e b2 e8 b8 3d 12 dc 55 bd 6d f2 7f 3d
       0.1458223 0.09028758 -0.05221183 0.062487055
0002e0 96 8f e0 bd 4c 50 f2 bd 70 5c ab bc f4 e4 80 3b
       -0.10964887 -0.11831722 -0.020918101 0.0039335433
0002f0 e2 0e 04 3e dd a6 8a bd 45 ed ed 3d 50 9f d1 3d
       0.12896302 -0.06770108 0.11617521 0.102354646
000300 dd 46 36 3e 2b 93 c1 3d 80 c9 c8 bd 31 ad 1f bd
       0.1780047 0.09451898 -0.09804058 -0.038983528
000310 63 2d 18 be b1 9a 16 3e e1 4a e2 bd 99 01 25 3d
       -0.14861064 0.14707448 -0.11049438 0.040284727
000320 8f 06 af bd ab aa 85 bd e7 07 52 3d a6 01 16 bd
       -0.08546173 -0.06526693 0.051277068 -0.036622666
000330 a8 ab fc bd 90 e3 66 3d 28 a5 93 bd 9e f5 e4 bd
       -0.12337428 0.056369364 -0.072092354 -0.1117966
000340 04 cd aa bd 88 b5 eb 3d 67 5f 24 3e 73 83 ad 3d
       -0.08339885 0.11509234 0.16052018 0.084723376
000350 60 34 07 3e c2 aa b9 3d e5 5e f5 3c ac ab 23 be
       0.13203573 0.090657726 0.029952476 -0.15983456
000360 95 74 cd bd d2 c0 f8 3d f0 8e 0b 3e 83 75 a5 3d
       -0.10032002 0.121461526 0.13628745 0.08079054
000370 84 14 83 3d e3 2c f9 3d 3e d3 3e bd 1d cc a2 3c
       0.064003974 0.121667646 -0.046588175 0.01987272
000380 26 cd 12 bd 2f e8 29 be 11 98 0d be e4 c4 88 bd
       -0.035840176 -0.16592477 -0.1382754 -0.06678179
000390 8f a5 e9 3d 17 fa 04 bc 3f d8 16 be 59 70 a7 bc
       0.11408531 -0.008116267 -0.14730929 -0.020439314
0003a0 3e 09 13 3d 86 c2 b7 3c b2 16 ea bd 77 0d 24 3e
       0.035897486 0.022431623 -0.1143011 0.16020761
0003b0 76 34 12 bd 7c d1 23 be 68 7a 27 be c9 14 e0 bd
       -0.035694562 -0.1599788 -0.16355288 -0.109414645
0003c0 1b 69 ee bc f6 b1 ab bd d6 9a 2c be 08 bb 19 be
       -0.029102853 -0.08383553 -0.1685594 -0.15012753
0003d0 7c a6 9b 3d 4a e2 31 3e 29 d6 32 3d fb 2d 4d 3c
       0.07600114 0.17371479 0.04366127 0.01252317
0003e0 70 fd cf bd 3a a2 fb bd 91 c3 4c bd bb 04 db 3d
       -0.10155761 -0.12286802 -0.049991194 0.10694262
0003f0 4b a6 21 be de 16 69 3d b0 2f c1 3c 0a 35 32 be
       -0.15786092 0.056906573 0.02358231 -0.17403045

encoder.conv2.bias f4 [16]
000000 8a 0e a6 3b 84 e5 97 bd fe 39 08 3e c7 e4 b5 3d
       0.005067651 -0.074168235 0.13303372 0.088815264
000010 5b 6e 8a bc 3a 34 5f 3d 96 b4 c4 bd 74 ba 7d bd
       -0.016898325 0.054493167 -0.096047565 -0.061945394
000020 bd f2 d9 3d 2f 1c 96 3c 0f 83 01 3d 12 e6 42 3d
       0.10642002 0.018323986 0.031619128 0.047582693
000030 fd 39 de 3d 43 35 8a bd c7 40 ea bb d4 ca cc bd
       0.10850904 -0.0674844 -0.0071488353 -0.09999624

encoder.conv3.weight f4 [32, 16, 2]
000000 6d f2 68 bd 1a 4c bc bc bd 52 06 be 05 26 95 3c
       -0.05687182 -0.022985507 -0.131175 0.018206606
000010 13 d0 ab bd 6d bc 95 3d 39 c4 0b be bd 71 0e 3e
       -0.083892964 0.0731133 -0.13649072 0.13910575
000020 09 3c 97 bc 20 8c 01 be a4 c6 89 bc 27 63 82 bd
       -0.018461244 -0.1265111 -0.016818352 -0.06366568
000030 9b e5 ee bc dd 39 a0 3d b3 90 92 bd 5d f7 9c 3d
       -0.029162219 0.078235365 -0.071565054 0.07664368
000040 a9 7e d3 bc 38 59 da 3c 5d 11 1b be 5e 74 05 3d
       -0.025817232 0.026653871 -0.15143342 0.03258168
000050 8b 69 85 3d a1 f4 a8 bc 1d cb e4 3a 01 12 9a bd
       0.06514271 -0.02062446 0.0017455552 -0.07522965
000060 79 8a da 3d 1e 51 03 be 7f 9d 0c be f6 65 2a 3e
       0.10670943 -0.12823913 -0.13731955 0.16640458
000070 8f 98 19 3e f6 e7 29 3e f2 52 85 3d cf 00 10 3e
       0.14999603 0.16592392 0.06509961 0.14062808
000080 3a 08 6c bd 13 27 1d be 56 53 f9 3d c4 b1 5e 3c
       -0.057625033 -0.15346937 0.12174098 0.013592187
000090 8e 89 29 be a8 ef d2 bd e8 3d 30 be 07 1a 25 3e
       -0.16556379 -0.10299617 -0.17211115 0.1612321
0000a0 99 48 bd 3d b7 0e 82 3d 04 ee 8b bd db b4 eb bd
       0.092423625 0.06350463 -0.06832507 -0.11509105
0000b0 3b 1c 63 bc 31 0d a8 bd a0 f0 9b bd 00 36 8a bb
       -0.013861711 -0.08205641 -0.07614255 -0.004217863
0000c0 28 ff 10 3e 9b 03 b4 bd 50 7c f6 bc 66 1b 12 bd
       0.14159834 -0.0878975 -0.030088574 -0.03567066
0000d0 3a 7d 20 be 9b 32 83 bd 00 49 d7 3d 28 b1 0d be
       -0.1567277 -0.064061366 0.105119705 -0.13837111
0000e0 20 a6 06 3e 84 85 37 bd 6d dc 24 be 69 87 87 bd
       0.13149309 -0.044805065 -0.16099711 -0.06617624
0000f0 fc 9f d5 3d 77 3e 2f be af c1 76 ba d3 7e 07 3e
       0.10430905 -0.17113672 -0.00094130164 0.13231973
000100 1f b2 24 3e ef 0f b5 3d cf 57 6f bd 80 65 56 3c
       0.16083573 0.0884093 -0.05843335 0.013085723
000110 7f 43 d2 3d 3e a7 18 3d 5f 59 0c be c4 f2 f7 3d
       0.1026678 0.03726887 -0.13705967 0.12106851
000120 8d 61 fb 3d d8 34 e1 bd 0c af eb bd 55 c4 03 be
       0.12274466 -0.10996407 -0.11507997 -0.12867863
000130 83 e4 82 3d a2 cf 23 3e 82 ce 0b be 9b a8 2e be
       0.063912414 0.15997174 -0.13652995 -0.17056505
000140 b1 a9 14 3e dd 9d 11 3c 5f b5 d5 3c 2b a6 ea 3d
       0.14517857 0.008887735 0.026087461 0.11457475
000150 8a 41 19 3e 5d 94 cd bd 00 75 97 3d e0 db 89 3c
       0.14966407 -0.10038064 0.07395363 0.016828477
000160 9d 53 26 be 0b 83 e2 bd 3a 1d 8b bd e7 dd 02 be
       -0.16242833 -0.11060151 -0.06792684 -0.12779962
000170 59 ba f1 3c c5 55 0b 3e 02 48 b1 3d 93 d1 93 3d
       0.029507803 0.13606937 0.086563125 0.072177075
000180 98 a4 95 bd 60 a1 2a 3d 72 21 b6 bc dc 42 b2 3d
       -0.073067844 0.041657805 -0.022232745 0.08704159
000190 c1 e8 3b 3d ce 62 1a be 58 dc dc bc d7 94 6b bc
       0.04587627 -0.15076753 -0.026960537 -0.014378748
0001a0 05 5a 07 3e 3a 4c b3 3c 81 f8 b8 bc 97 0d b1 bc
       0.13217933 0.021886934 -0.022579433 -0.021612925
0001b0 60 45 df bd 75 c5 fe bd 41 a3 df bc 8b 48 a9 bc
       -0.10901904 -0.12440006 -0.027299525 -0.020664474
0001c0 4e 9a 86 bd 2b a7 14 bd 5c 46 36 3e 42 e0 a4 3c
       -0.065724 -0.036292236 0.17800277 0.020126466
0001d0 a7 10 d7 bd 59 25 24 3e 3f d8 41 bd d9 12 b8 bd
       -0.10501223 0.16029872 -0.04732537 -0.0898797
0001e0 8a 1c 66 3a 17 ca 03 be 52 61 0c 3e 44 27 15 be
       0.00087780564 -0.1287006 0.13709 -0.1456576
0001f0 79 b3 bc 3b e4 54 02 be af d6 b4 3d 8a f4 c4 3d
       0.0057586995 -0.12727696 0.0883001 0.096169546
000200 dd 34 6a 3d 81 3a 07 3e ec d7 ba 3c a0 22 42 bd
       0.05717932 0.13205911 0.022808038 -0.047396302
000210 fd b9 b5 3c 8a ea 1d 3d 26 fd fe 3c 7f 04 af 3d
       0.022183413 0.038553752 0.03112657 0.085457794
000220 af ed 1e be 92 52 da bd c6 8d ed 3d 7c ff 94 3d
       -0.15520357 -0.1066028 0.11599307 0.07275292
000230 b9 89 69 bd 01 fb c8 3d 18 ed 37 bd 66 99 b1 bd
       -0.05701611 0.098135 -0.044903845 -0.086718366
000240 46 4f 10 3e 95 ce 21 3e f5 21 57 3d 86 71 03 be
       0.1409274 0.15801461 0.05252262 -0.12836275
000250 b1 34 b8 bd 8c 04 be 3b b5 42 29 3e 52 7d 10 be
       -0.08994425 0.005798882 0.16529353 -0.14110306
000260 18 1d 03 be de 66 11 be a0 a4 15 be 01 ac 08 be
       -0.12804067 -0.14199397 -0.1461358 -0.13346864
000270 5d 3b 2a bd a6 f6 9e bd ed 11 69 3c f2 e8 14 bd
       -0.04156052 -0.07761888 0.014225465 -0.036354966
000280 f9 bc 18 be 8c 28 b8 3d df 75 3a be 4e 61 5d 3c
       -0.14915837 0.08992109 -0.18209027 0.013511969
000290 cd e8 b5 bd 51 b7 b3 3d 78 e1 27 bd 0a e8 23 3e
       -0.08882294 0.08775199 -0.040986508 0.16006485
0002a0 84 88 d2 3c 85 ae d1 3d a9 64 9a bd 3d 7d 6c 3c
       0.025699861 0.10238365 -0.07538731 0.014434156
0002b0 e7 fe 33 be 5e bd 69 3d 57 b5 1c bd 1f 77 b2 3d
       -0.17577706 0.05706536 -0.038258877 0.08714127
0002c0 8e ae 82 3c 56 41 24 3c 13 5e f9 bd 21 49 0f 3e
       0.015952375 0.010025343 -0.12176146 0.1399274
0002d0 28 56 c4 bc e0 11 9a bd 2a 55 11 be 72 cc 0d 3e
       -0.023966864 -0.07522941 -0.14192644 0.13847521
0002e0 6e 72 b7 bd 0f 87 08 3e 7a c0 13 bd d5 a4 d7 3d
       -0.089573726 0.13332771 -0.03607223 0.10529486
0002f0 cf e8 0b be 6c 1f 41 3c 31 6d 0a 3e 6f af 1a be
       -0.13663028 0.011787277 0.13518216 -0.15105985
000300 64 60 54 3d 77 7b 05 3d d6 95 e9 3d 43 e0 02 be
       0.051849738 0.03258845 0.11405532 -0.12780862
000310 98 46 d6 3c e8 4a 11 3e 35 0a 2c be e3 43 e1 bc
       0.026156709 0.1418873 -0.16800769 -0.027498191
000320 9e 6a 2a bd 28 97 e8 bd 99 15 29 bb bc 4b 04 3e
       -0.041605584 -0.11356956 -0.0025800227 0.12919515
000330 06 8b c8 bc 93 61 af bd 14 bc 2c be d5 86 95 3c
       -0.024480354 -0.08563533 -0.16868621 0.01825277
000340 1b 3a 8c bb 5c 38 45 bd b8 31 c1 3d 1b cd ab 3d
       -0.0042793876 -0.04814945 0.09433311 0.0838873
000350 b6 9a bd 3c ac 5e ac bc 8c 1b 97 bd 1f 3d f3 3d
       0.023145061 -0.021041237 -0.07378301 0.11876892
000360 a0 9c b5 bd 37 56 b7 bc f4 36 b3 3d 3c ac 94 bb
       -0.088677645 -0.022379978 0.08750716 -0.0045371335
000370 8f b3 f2 bd 26 ec 10 bd 47 be 12 3e d2 07 16 3e
       -0.11850654 -0.03538146 0.14330398 0.1465142
000380 27 d7 1f be e2 e0 51 bd 9c 9e 8f 3d f9 5c 29 3d
       -0.15609418 -0.051239856 0.07012674 0.04134843
000390 50 90 f6 3d 2c 40 52 bd 77 f0 c9 bc ca 33 8e 3a
       0.12039244 -0.05133073 -0.024650795 0.0010849175
0003a0 06 24 e3 3d 7a 07 0f be 42 6f 21 3e a6 0a ae bd
       0.11090855 -0.13967696 0.15765098 -0.08498125
0003b0 35 fc a7 3d c2 29 68 bc 70 31 ab bd 19 73 df 3d
       0.082024015 -0.014170112 -0.08359039 0.10910625
0003c0 9c 69 72 3d 76 a4 06 be d1 25 17 3d d4 7d 98 bc
       0.05918275 -0.13148674 0.0369013 -0.018614687
0003d0 ac d4 23 3d 6d 8a 66 3a 2c 73 a8 3d c1 a9 bb 3d
       0.03999774 0.0008794431 0.08225092 0.09163237
0003e0 83 97 20 bd cc fd 87 3b 77 c4 c7 bd 3f 9e 8a bd
       -0.039206993 0.004150128 -0.097542696 -0.06768464
0003f0 61 29 8f 3d ec 88 17 3e b4 90 e9 3d 95 8a fe 3d
       0.06990314 0.14798325 0.11404553 0.12428776

encoder.conv3.bias f4 [32]
000000 45 4e 64 3d e8 62 e3 3d 0b 41 61 bd ab a8 af bd
       0.055738706 0.11102849 -0.05499367 -0.08577093
000010 43 ec da 3d 57 da 9b 3a ce 62 9d bb 33 53 40 bd
       0.106895946 0.0011890632 -0.004803038 -0.046954345
000020 06 8a 11 3e 8a 82 ac bb a8 48 03 be b7 e4 87 bd
       0.14212808 -0.005264585 -0.12820685 -0.06635421
000030 67 40 be bc b5 32 1c 3e 80 bb 5c 3d 55 97 c8 bc
       -0.023224069 0.15253718 0.05388975 -0.024486223
000040 81 06 2e bd f7 da be bd 8c e5 57 3d e1 61 7d bd
       -0.04248667 -0.09319108 0.052709147 -0.061860923
000050 24 25 a5 bd 2f ad 2b 3d 46 04 53 3d 0d d0 c1 ba
       -0.08063725 0.041913208 0.051517747 -0.0014786735
000060 03 e6 0a 3e 31 49 ae 3d f9 86 0d be 12 fb 1d be
       0.13564305 0.08510054 -0.13821019 -0.15427807
000070 b0 81 cf 3d 47 bf 04 3c 3f 9a 26 3d 55 70 4f bc
       0.10132158 0.008102245 0.040674444 -0.012661059

encoder.conv4.weight f4 [32, 32, 2]
000000 69 c5 f5 3d fd e9 a4 3c c8 06 be bd d4 d3 86 bd
       0.120005436 0.020131106 -0.09278637 -0.06583372
000010 67 35 50 3d 9e f7 c0 3c 9f 2e 3b 3d 96 7d 80 bc
       0.05083218 0.023555573 0.04569876 -0.015684884
000020 d5 a5 4e bc e2 57 e1 3b 61 3b 58 bd a4 2b 92 bc
       -0.01261278 0.0068769315 -0.052791003 -0.017843075
000030 84 0a dc 3d 3c 70 e4 3d 02 ce df 3d b7 fe d4 bd
       0.10744193 0.111542195 0.10927965 -0.104001455
000040 5b 97 96 bd b1 74 ba 3d 54 a7 c4 3d a1 10 3e 3a
       -0.073530875 0.09104288 0.09602228 0.00072504027
000050 a8 97 78 3d ef bf 8a bd 92 5b 6d 3a 02 17 62 bd
       0.060691506 -0.0677489 0.00090544776 -0.055197723
000060 1d 7f 88 3d c5 f4 8a bd 36 84 be 3c 43 a0 85 bd
       0.0666487 -0.06784967 0.023256402 -0.06524708
000070 10 30 a1 bd a4 3a 35 3d 6d e5 8f bd 0b 65 57 3c
       -0.07870495 0.044245377 -0.07026181 0.013146649
000080 ec a2 b5 bd 64 a4 8e 3d 81 e2 e2 bc f1 ef 81 bc
       -0.088689655 0.06964949 -0.027695896 -0.015861483
000090 d3 b2 a8 bc 03 9d e9 bd 74 0e 2b 3d 82 9b 0e 3d
       -0.020593083 -0.11406901 0.04176183 0.034816273
0000a0 14 f4 8d bd 8a 97 a8 bd 62 b9 cf bd 68 09 88 bd
       -0.0693132 -0.08232029 -0.10142781 -0.06642419
0000b0 43 f7 e1 bd 86 cc 56 bd 89 3b bd bd 02 a6 03 3d
       -0.110334896 -0.052441142 -0.09239871 0.03214074
0000c0 07 86 f3 3c 64 21 7c 3c fb 80 9e bd c3 89 a2 bd
       0.029726995 0.01538882 -0.07739445 -0.07936432
0000d0 37 97 93 3d 65 3f 09 bd 96 94 be 3d 36 19 a6 bd
       0.07206576 -0.033507723 0.09305684 -0.08110277
0000e0 4a e5 c0 bd 82 3a 53 bb b0 a2 cc bd f2 f8 c3 bd
       -0.094187334 -0.0032230918 -0.09991968 -0.09568967
0000f0 26 72 f5 bd 82 64 a7 3d 56 6e 84 bd e5 07 d5 3d
       -0.11984663 0.08173467 -0.064663574 0.104018964
000100 5d aa c0 3d 89 cc f3 3c 64 cc c9 bb 56 2a cf bd
       0.09407494 0.029760616 -0.0061583985 -0.10115497
000110 8c 91 0f bd 12 dd b9 bd 51 b1 fa bd 01 cb dd 3c
       -0.035050914 -0.09075369 -0.12240852 0.027074339
000120 51 fb ca 3d c2 36 b5 3d 93 7a 19 3d 1f e4 41 3c
       0.09911216 0.08848335 0.03747041 0.011834173
000130 ec 38 80 3d 9a 26 fa 3d 6b c9 eb bd 50 45 2e 3d
       0.06260857 0.12214394 -0.11513027 0.04254657
000140 27 3f f2 bd d8 2e b7 3d f1 8e 1e 3d bb cf f3 bd
       -0.118284516 0.089444816 0.03871054 -0.11904856
000150 d2 87 7d bd 68 25 0b bd 02 24 c1 3d 1d ce 8f bc
       -0.061897106 -0.03397122 0.09430696 -0.017554337
000160 69 ca 3e 3d 20 85 4d 3c a4 46 8e 3c b6 e4 9d 3d
       0.046579752 0.0125439465 0.017367668 0.07709639
000170 69 fe f4 3d eb 5b af 3d 2e 98 41 bd 48 2c 9d bc
       0.119625874 0.08562454 -0.04726427 -0.019186154
000180 c8 fd 96 bd a5 33 e6 bd e4 94 80 3d 4f cc 2e 3d
       -0.07372624 -0.11240319 0.06278399 0.042675313
000190 06 b4 e7 3c bc ac ea bc 97 c3 7a 3d a6 0b 33 ba
       0.028284084 -0.02864682 0.061221685 -0.0006830044
0001a0 d8 1f 97 bc 23 c4 81 bd f2 73 e4 3d 69 e5 80 3c
       -0.018447801 -0.06336238 0.11154927 0.015734391
0001b0 e6 17 0d 3d bd 8f 8e bd f9 50 2f 3d 6c 80 8b bd
       0.03444662 -0.0696101 0.04280183 -0.06811604
0001c0 3f 21 2e bd 0b ad b7 3d 16 4d 92 bd f1 65 9b 3d
       -0.042512175 0.08968552 -0.07143609 0.07587803
0001d0 20 fb 2a 3d 37 91 05 bd 0f eb 73 bd 94 52 4f bd
       0.041743398 -0.03260919 -0.05955034 -0.050615862
0001e0 89 8c e2 bd e1 e4 f8 bd a6 03 74 bc 91 be 89 3d
       -0.11061961 -0.1215303 -0.014893448 0.06725801
0001f0 6d 2e 9b 3d f1 9b ca bd 8f 42 fe 3c 30 bb b3 bd
       0.075772144 -0.09893025 0.031037597 -0.087759376
000200 d1 52 d6 3d b0 d8 f7 bc 20 9a 6c bd ac 2b a2 bd
       0.10465015 -0.030254692 -0.057764173 -0.07918486
000210 5d c3 dc 3d d4 cd e5 3d b5 17 d5 3d 13 56 94 bd
       0.1077945 0.11220899 0.104049124 -0.0724298
000220 2d aa dc 3d 9b ae 02 3e 6a 57 fa bd b2 a7 88 bd
       0.10774646 0.12761919 -0.12223704 -0.0667261
000230 ac 4d ac 3c fd 5d dd 3d fb a4 f4 bd fa 69 ea 3d
       0.02103313 0.108089425 -0.1194553 0.11445995
000240 2f 1b b2 bd 74 31 9a 3d 60 a9 b7 3d b9 fc 92 3c
       -0.08696591 0.07528964 0.089678526 0.017942773
000250 37 6d 94 bd cd ef 21 3d 23 4c 82 bd 88 4a 4c bc
       -0.072473936 0.039535332 -0.06362178 -0.0124689415
000260 6e 76 eb 3d 4f 69 1d bd ef 60 05 3d 25 80 ac bb
       0.11497198 -0.03843051 0.032563146 -0.0052642995
000270 44 6f f2 3d d3 97 5e bb 5f d3 2c bd 92 4e dc bd
       0.118376285 -0.0033965006 -0.042193767 -0.107571736
000280 8e b8 42 3d 96 2e aa bd 03 67 da bd a6 f2 80 bd
       0.047539286 -0.08309667 -0.10664179 -0.062962815
000290 87 e1 da bc 40 ed 83 3d 53 c2 21 3d 76 30 bb 3d
       -0.026718868 0.06441736 0.039491963 0.091401026
0002a0 19 48 d3 3d 7c 1e 8c 3d 66 cb 3c bd 21 7f 45 bd
       0.10316486 0.06841752 -0.046092413 -0.048216943
0002b0 86 a8 2a bc 1b 61 d8 bd 37 51 c9 3d 12 83 38 3d
       -0.010416156 -0.105653964 0.098299436 0.045046873
0002c0 59 0b 90 bd c5 d5 fe 3c 8d b1 8f 3d 47 98 bd 3d
       -0.070334144 0.031107793 0.07016287 0.0925756
0002d0 4e a1 f2 3d 01 ee b7 3d f0 07 cc 3d 72 13 af bd
       0.11847173 0.089809425 0.099624515 -0.08548631
0002e0 61 93 73 3b 2a 9e 9c bc 0c b9 39 3c 69 5b 8d 3d
       0.0037166702 -0.019118387 0.0113356225 0.06902201
0002f0 53 44 f7 bd 16 26 bb bd 8e a8 d3 3a f7 89 98 bd
       -0.12073579 -0.09138124 0.0016148256 -0.0744819
000300 97 60 a3 bc ca 5c 8c 3d 49 d9 0d bd ce 81 e0 bc
       -0.019943519 0.068536356 -0.034631047 -0.027405646
000310 44 4a 72 3d c4 db cc 3c f9 31 15 bd 88 db 6a bd
       0.059152856 0.025007136 -0.03642461 -0.057338268
000320 df f4 4a 3d a4 33 98 3a 20 8d be bd da 84 ff 3d
       0.049549934 0.001161207 -0.09304261 0.12476511
000330 d2 3d 8d 3c 62 e1 a3 3d 62 bc 7e 3d dd 70 ca 3c
       0.017241392 0.08001973 0.062191375 0.02471202
000340 4c c6 eb bd e8 10 bc bd 56 42 b6 bd 04 95 d5 bd
       -0.115124315 -0.09182912 -0.08899371 -0.10428813
000350 90 d9 a1 3d 7b e8 aa 3d ca 7a 2f bd 94 92 1c bc
       0.07902825 0.083451234 -0.04284171 -0.009556431
000360 4b 27 25 3d 82 80 a0 bd 0a b5 e0 3d 1f 55 b3 bd
       0.040320676 -0.07837011 0.109720305 -0.0875647
000370 cc f7 cc bd 37 e6 ca 3c 43 d0 9a bd 92 31 60 bd
       -0.10008201 0.024767978 -0.07559254 -0.054734774
000380 64 45 ac 3c 31 2c b9 3d e2 6f 98 bd 64 b5 b0 3d
       0.021029182 0.09041632 -0.07443215 0.086283475
000390 df fe cd 3d f8 da 5f bd 51 ab de 3d 9f 38 13 3c
       0.100583784 -0.054652184 0.1087252 0.0089856675
0003a0 80 90 74 3c 44 a6 2e 3d 17 3c d7 3c e6 8b fc 3c
       0.01492703 0.042639032 0.02627377 0.030828428
0003b0 d1 2d 69 3d cd c0 50 bc 99 d3 d8 bd fd 7a 89 3d
       0.05692846 -0.01274128 -0.10587234 0.06712911
0003c0 56 d3 d4 bd 87 7d 4d 3b 50 32 5b bd 56 48 91 3d
       -0.10391872 0.0031355338 -0.05351478 0.07093875
0003d0 ea 36 84 bc 27 39 e9 3d 40 8f 23 bd a0 54 af bd
       -0.016139466 0.11387854 -0.039931536 -0.08561063
0003e0 18 e1 62 bd b5 aa c4 bd 44 10 c4 3d 31 f7 84 bd
       -0.055390447 -0.09602872 0.09573415 -0.064924605
0003f0 8c f6 a6 bd 3f 7a dd bc 37 75 d5 3c 02 75 ee 3d
       -0.08152494 -0.02703583 0.026056869 0.11643411

encoder.conv4.bias f4 [32]
000000 59 94 a2 3d 59 2d bc 3d 77 52 13 3d c9 dd de bd
       0.07938451 0.09188337 0.035967316 -0.10882146
000010 02 aa f5 bd f0 4f bd bd 7d aa e9 bb 2e 50 b3 3d
       -0.11995317 -0.092437625 -0.0071309195 0.087555274
000020 96 66 19 3e 25 e3 ac 3d 37 cb 19 bd be c6 9b bd
       0.1498054 0.08441762 -0.037547316 -0.076062664
000030 1c 00 8f bd 06 10 a5 bd 12 28 73 bd e8 e1 1d 3d
       -0.06982443 -0.08059697 -0.059364386 0.03854552
000040 c9 de 11 3e ba 9e c2 3d 6b ed 61 bc d1 4a d2 3b
       0.14245142 0.09502931 -0.013789515 0.00641761
000050 2f e4 cf bd dc 36 84 3d 15 72 15 3e 62 fd 94 3d
       -0.101509444 0.06455776 0.145943 0.072748914
000060 3d 2c 13 bd 82 9e 36 bd 53 54 c3 3c 62 e9 a0 bd
       -0.03593086 -0.04458476 0.02384392 -0.07857014
000070 79 4b 94 bc 2e 4e b0 bd cb f8 97 3c 6d 67 16 3d
       -0.018102394 -0.086086616 0.01855125 0.03671973

encoder.fc1.weight f4 [64, 608]
000000 3d 88 37 39 f0 e5 9c bc 0b ad ba bc ef 65 1c 3d
       0.00017502993 -0.019152611 -0.022787591 0.03818315
000010 14 21 e9 3c c6 4e 5e bc c9 24 d0 3b f0 3e c6 3c
       0.028458156 -0.013568586 0.0063520414 0.024199933
000020 c1 9a 09 3d bf d7 2f 3c 3f 63 cf 3c 91 5e 06 bd
       0.03359485 0.01073259 0.025315879 -0.03280503
000030 b0 47 96 bc fc c1 af bc 11 ec bc bc b6 26 72 bc
       -0.01834473 -0.021454804 -0.023061784 -0.014779737
000040 ab 83 df 3c 04 21 83 bc 34 f0 83 bb 80 5d 97 3b
       0.027284464 -0.016006954 -0.004026437 0.0046193004
000050 38 f3 c8 3c b1 84 18 bd 8c a3 5c bc 8f 87 8f bc
       0.024530038 -0.03723592 -0.013466727 -0.017520694
000060 bb 1f 1d bd 3c 40 5d 3c 81 b3 07 bd f4 a1 e1 bc
       -0.03836034 0.013504084 -0.033130173 -0.027543046
000070 20 6c 19 bc d9 b5 17 bd 80 1c 50 3c 80 7b 53 bc
       -0.009364158 -0.037038658 0.012702107 -0.012907863
000080 47 64 0f bd 80 ec c1 3c 55 3d 24 3c 77 72 e7 b8
       -0.03500774 0.023672342 0.010024388 -0.00011036259
000090 aa 58 86 3a 78 ab a4 3c 13 4f 08 bc 71 60 a9 bc
       0.0010249813 0.020101294 -0.008319634 -0.02067587
0000a0 36 d1 72 3c 6e 42 c5 bc 78 5c d4 bc 6e 14 ec 3c
       0.014820388 -0.024079528 -0.025922999 0.028818335
0000b0 76 06 e4 bb be 16 69 3c 94 bd 10 3d 2f da 1f bd
       -0.006958778 0.014226614 0.035337046 -0.039026435
0000c0 cc 22 1d bc 0b f8 58 bc ea 99 2f bc b9 b3 9e bc
       -0.009590816 -0.013242732 -0.010717848 -0.019372808
0000d0 1e 55 1a bd 31 c6 c3 3a 9b 39 10 3d 2d f5 8f bc
       -0.03767883 0.0014936385 0.035211187 -0.017572964
0000e0 12 64 0b bd 7e 69 cd bc 4a e7 39 3c b5 ee c8 bc
       -0.03403098 -0.025074717 0.0113466475 -0.024527887
0000f0 7a 5c d3 3c 15 58 25 3d b2 b6 0f bd 41 bf 32 3c
       0.025800932 0.040367205 -0.03508634 0.010909856
000100 7b 87 03 3d 71 c5 b4 3c e2 33 fd bc d8 7a 16 bb
       0.032111626 0.022066804 -0.030908529 -0.0022961404
000110 10 c6 49 3b 85 73 bb 3a e1 2a bc bc 44 41 f5 3c
       0.003078822 0.0014301395 -0.022969665 0.029938348
000120 49 2a f4 3c e2 75 16 3c 05 e8 46 3c 08 5f 42 3c
       0.02980532 0.009183379 0.012140279 0.0118634775
000130 42 8f ed bb 49 a2 62 bb 72 4f 50 3d 39 f1 0a 3d
       -0.0072497437 -0.0034581593 0.050857015 0.033921454
000140 94 97 a9 bb 65 57 f9 3c 3a db 96 bc 2f d3 96 bc
       -0.00517554 0.03043718 -0.018415082 -0.018411247
000150 5c 1a a1 3c 60 36 1a 3d 62 08 1e bc f1 c1 79 bc
       0.01966589 0.037649512 -0.009645553 -0.015243993
000160 5d a5 8e 3c a0 59 79 bb 84 7b f6 bc cd 9d 0f bb
       0.017412836 -0.0038047805 -0.030088194 -0.0021914125
000170 00 82 08 3d f4 a0 b4 3c 67 6f cf 3c 0d fb b0 3a
       0.033327103 0.022049405 0.025321675 0.0013502553
000180 a0 55 57 bc a5 7c 8f bb 12 bf dc bc 40 0c 1e 3a
       -0.013142973 -0.0043788725 -0.026946578 0.0006029047
000190 30 98 fb 3c 75 b6 45 3c 8c ba 3e bb 1d e2 1a bd
       0.030712217 0.012067427 -0.002910289 -0.037813295
0001a0 3c 30 28 3d e8 55 f9 3c 0a 28 dd 3c 61 fc f8 3c
       0.041061625 0.030436471 0.026996631 0.030393781
0001b0 b0 cb e2 bc a9 af 5b 3c 93 40 49 bc de 40 0f bd
       -0.027685016 0.01340858 -0.012283462 -0.03497397
0001c0 9e 0a 17 bd d5 6b ae 3c b1 f1 16 bd 7a ae a7 3c
       -0.03687536 0.021291653 -0.03685159 0.02046894
0001d0 12 d2 ce 3c 6a ad 98 3c 9d fe ad bc 25 bb c6 3c
       0.025246654 0.018637378 -0.021239573 0.02425916
0001e0 1e 74 1c 3b bb 97 05 bd dd 06 74 3c 9d b8 4d 3c
       0.0023872922 -0.032615405 0.014894214 0.012556222
0001f0 03 d2 07 3d ef e1 04 bc 4c 07 80 bc 12 86 d6 bb
       0.033159267 -0.008110507 -0.01562848 -0.006546744
000200 14 47 1b bd 35 d8 24 3c b0 64 ac 3c e3 aa 0e 3d
       -0.037909582 0.010061313 0.021044105 0.03483094
000210 c1 0e 36 bd e9 69 07 bb 5c c2 81 bc 5c 5d ae bb
       -0.044447664 -0.0020662493 -0.015839748 -0.005321188
000220 8f f9 28 bd 56 a5 77 bc 4e ab 33 3c 2a 6c 44 3c
       -0.041253623 -0.015115103 0.010966135 0.011988679
000230 8b 93 d8 3c 4f 67 d6 3c 0b a3 b0 bc 24 b4 82 3c
       0.026437541 0.026172308 -0.02156212 0.015955038
000240 07 21 77 3b bc e1 aa bc 3a 76 93 bc a1 03 1d bc
       0.0037708895 -0.020859592 -0.01800071 -0.009583385
000250 e7 f3 27 bd 16 de 1f 39 98 2a 23 bc c0 17 e6 bc
       -0.041004088 0.00015246155 -0.009958886 -0.028087497
000260 6f 28 b9 3c 58 56 0f 3d ce d8 11 bb 3e 71 0d bc
       0.022602288 0.034994453 -0.002225447 -0.008632956
000270 ce ef 27 3d 41 4f 0e 3d 20 66 81 bb 8a 08 f4 bc
       0.04100018 0.03474355 -0.003948942 -0.029789228
000280 90 bb 00 3d 76 2a 09 bd 3e 2e 25 bd e9 cd 73 bb
       0.031428874 -0.03348776 -0.040327303 -0.003720159
000290 3f 1b 0f 3d 7b b6 dc bc ea e2 1a bd 63 f9 96 3c
       0.034938093 -0.026942482 -0.03781406 0.018429464
0002a0 06 c4 01 bd 48 57 f4 bc 67 bd 84 3c 73 09 0f 3d
       -0.031681083 -0.029826775 0.016203595 0.03492112
0002b0 7a fd e0 bc 3f a9 2e bc 80 85 a5 ba 0e a4 7b 3c
       -0.027464617 -0.010660469 -0.0012628287 0.015358938
0002c0 ce 1e 9b bc d5 7a c0 bc ae d2 2a bc 46 71 bc 3c
       -0.018935587 -0.02349607 -0.0104262065 0.023003232
0002d0 e2 04 fb 3c 58 4d 72 bc 5b 1a 90 bc c9 c2 56 bb
       0.030641977 -0.014788948 -0.017590692 -0.003276991
0002e0 91 64 24 bc 2f 84 65 bc c3 7e e3 3c 77 4f dc bc
       -0.0100337425 -0.014008566 0.027770406 -0.02689336
0002f0 a7 47 8b 3c 82 ef 31 bd ea f1 8a bb b1 d1 02 3d
       0.01700194 -0.043441303 -0.004240264 0.03193826
000300 64 06 b9 bc f8 82 12 3d 27 b4 dc bc 0a ef 8c 3c
       -0.022586055 0.035769433 -0.026941372 0.017203826
000310 62 f3 fe 3c 7c d0 9a ba bf 36 a7 3b b6 c3 02 bd
       0.031121913 -0.0011811401 0.005102962 -0.031924926
000320 ee 82 d1 bb 0c 52 ca 3c db b0 37 3c f5 54 d6 bc
       -0.006393782 0.024697326 0.011211599 -0.026163558
000330 1c 46 b0 3c b4 8e 18 bd f1 c1 c7 bc f4 39 77 3c
       0.021517806 -0.037245467 -0.02438447 0.015089501
000340 3c d0 ad bc a8 0d ff 3c e7 c4 ae bc f4 4e b3 3c
       -0.021217458 0.031134441 -0.021334125 0.021888234
000350 62 52 d7 3b cb ff 09 3d 99 a8 8d 3c aa 8f 16 3c
       0.0065711 0.03369121 0.017292308 0.009189526
000360 c0 c1 7d 3c 3a b8 0b 3d eb 16 0e 3b 59 1f b3 bc
       0.015488088 0.03411124 0.002168114 -0.021865534
000370 3b a9 a2 bb 3a e7 19 bd 9f d5 1d bc 4a cb 73 bc
       -0.0049640215 -0.03757403 -0.009633451 -0.014880011
000380 b8 7b cd 3c 66 10 c5 bb ec 4a 97 bb ec e3 20 3c
       0.025083408 -0.0060139177 -0.0046170857 0.009819966
000390 ac cc 48 3c 87 d7 10 bc eb 4b 26 bc a7 3f 1a 3d
       0.012255829 -0.008840448 -0.010149936 0.03765836
0003a0 3c 05 f4 3c e5 a6 c3 bc 59 91 63 bc fa b0 b3 3b
       0.029787652 -0.023883292 -0.013889634 0.0054837437
0003b0 c8 c9 c3 3c a9 a8 69 bc f1 c4 33 bc df ce 0a bb
       0.023899928 -0.014261403 -0.010972247 -0.0021180434
0003c0 86 f8 1d 3d 90 db c8 39 5c 75 ba bb 18 7c 07 3d
       0.03856709 0.0003831056 -0.00569026 0.03307733
0003d0 09 82 a1 3b 61 75 a6 bb 77 4a 98 3c fc de 71 bb
       0.0049288315 -0.0050799106 0.018590195 -0.003690659
0003e0 0d 3f 08 3d 22 0a dc 3c 63 cf 25 bd 3e b0 e6 3b
       0.033263255 0.0268603 -0.040480983 0.0070400527
0003f0 42 c7 d0 bc 42 07 02 bd 37 4c 82 3c 52 0e b6 3c
       -0.025485639 -0.031745203 0.015905483 0.022223625

encoder.fc1.bias f4 [64]
000000 26 fe e3 3c 47 fb b9 3b ea 71 1b bc dc 2a f7 3c
       0.027831148 0.0056757065 -0.009487608 0.030171804
000010 16 31 58 bc 20 3c 4c 3d 29 37 6b bd a8 40 3e 3d
       -0.013195297 0.049862027 -0.05742565 0.04644838
000020 5a f7 37 3d 57 16 f7 3c 61 c4 ff bb 2c 6d 42 3c
       0.044913627 0.03016202 -0.0078053926 0.011866849
000030 b4 4c b1 3d a0 48 8c bd 96 dc 2b 3d 91 38 16 3d
       0.08657208 -0.068497896 0.041958414 0.03667504
000040 cf e5 1e bd a2 63 4b bd f9 4d 8d 3d f9 96 8f bc
       -0.03879338 -0.049655564 0.06899638 -0.017528044
000050 0f 2c e1 3c c5 39 b4 bb 49 50 32 bd 94 28 1c 3d
       0.02748683 -0.0055000507 -0.043533597 0.038124636
000060 00 8b 83 3c 62 ca 3d bb 1c 10 ff 3c e4 09 db 3c
       0.016057491 -0.002895974 0.031135611 0.026738115
000070 63 4c b3 3c ee 63 d3 bc 87 8c c9 bc a4 99 84 3c
       0.02188701 -0.025804486 -0.024603141 0.016186543
000080 df 8c 28 3d 15 31 4c 3b 02 e1 35 3a 6b cc 73 3d
       0.04114997 0.0031157185 0.0006938131 0.05952112
000090 fa fa 4f 3c 25 e4 7c bd 72 4b 1c bd 13 66 0d 3c
       0.012694115 -0.061741013 -0.038157888 0.008630293
0000a0 02 8b 1d bd e0 ed 0d 3d f6 4e e6 3b ab 83 24 bd
       -0.038462646 0.034650683 0.007028456 -0.04016463
0000b0 76 e3 c1 bc 24 38 da b9 8e 48 f2 bc 13 03 05 3d
       -0.023668032 -0.00041622028 -0.029575612 0.032473635
0000c0 85 90 05 bd dd b2 d6 bb 4c 01 1d 3d 86 ba 58 3c
       -0.032608528 -0.006552084 0.038331315 0.013228064
0000d0 6a 9c 7a 3c 30 3c 49 3b fa 51 9b 3b 2d 31 3a bd
       0.015296081 0.003070604 0.004739997 -0.045457054
0000e0 1d 4b c2 3b 8e aa 85 bd 53 da 17 bd 18 7a db 3c
       0.0059293644 -0.06526671 -0.037073445 0.026791617
0000f0 71 74 11 3d 84 13 a4 bc d5 57 ee bb 8f 78 a7 ba
       0.035511438 -0.020028837 -0.007273654 -0.0012777018

encoder.fc2.weight f4 [16, 64]
000000 1e e7 c8 bd 11 3c c7 3c 52 d6 96 bd c6 c0 e6 3c
       -0.09809707 0.024320634 -0.07365097 0.028168093
000010 ae 31 5f 3d 59 f8 a9 bd 84 9c b2 3d bb b5 4b bd
       0.054490738 -0.08299322 0.08721259 -0.04973386
000020 25 b3 75 bd 8a 35 48 bc b7 fd db bd cb 57 3b bd
       -0.0599853 -0.012219796 -0.10741752 -0.045738023
000030 b9 c6 c4 bd c0 56 cd 3d 64 53 6a 3d 6a 62 a0 bc
       -0.09608216 0.10026312 0.057208434 -0.019578177
000040 5c 77 64 3d 7f 1b d9 3d 32 31 b3 bd fa 51 94 bd
       0.055777892 0.106009476 -0.08749618 -0.07242198
000050 45 0a a3 3d 40 5f 97 3d cd 12 93 bb 6d ff a1 3d
       0.07960943 0.07391214 -0.004488325 0.07910047
000060 fc e6 b8 bd 32 41 a0 3d 58 2e 7f bd f7 e2 21 bb
       -0.09028432 0.07824935 -0.062300056 -0.0024701932
000070 f9 75 d7 bd 7f ab 54 bd bd 4e 98 bd 7b cc c6 3c
       -0.105205484 -0.051921364 -0.07436893 0.024267426
000080 9e f0 c9 bd 02 97 3a 3b f8 70 d2 bc 57 3f 65 bd
       -0.09860347 0.0028471355 -0.025688633 -0.05596861
000090 84 c0 51 3d ee 2d 9a bd 7d b7 91 3d b7 47 ed 3b
       0.051208988 -0.07528292 0.07115076 0.007241215
0000a0 32 0c b3 bd 55 ca 29 3d 45 29 90 bd 38 46 a2 3b
       -0.087425604 0.041452724 -0.070391215 0.0049522184
0000b0 6a 17 5f bc d5 97 ab 3d ed 19 bc 3c ae b2 ba bd
       -0.013616422 0.08378569 0.022961581 -0.09116112
0000c0 f5 ca 92 3d 51 16 e7 bd 73 77 a5 3c f5 7d a8 ba
       0.07167617 -0.112835534 0.02019856 -0.0012854921
0000d0 42 d1 5e bc 04 c8 04 3c 7d b7 ab 3d 29 03 2f bb
       -0.013599696 0.008104328 0.08384607 -0.0026704764
0000e0 3b a1 6e 3c 61 a6 72 bd d8 9e cb bd eb d9 fd 3b
       0.0145648075 -0.059240703 -0.099424064 0.007746925
0000f0 78 c0 e3 3d ac fd aa 3d 09 f3 b8 bb 36 d9 ea 3c
       0.11120695 0.08349165 -0.0056442064 0.028668027
000100 f3 46 b1 bd 7a b1 06 3d 1d 68 df 3c 14 51 4d ba
       -0.086561106 0.0328841 0.027271325 -0.0007832211
000110 eb e8 14 bc e8 d5 f1 bd fb 05 7e bd a1 2b e3 bd
       -0.009088735 -0.118083775 -0.062017422 -0.11092306
000120 ad a5 b7 3c 16 90 b9 3c 7b 28 10 3c ce ac 4d bd
       0.022417868 0.022651713 0.008798714 -0.050213628
000130 9b 1e 9b bd f6 ec ac 3a 56 88 2e 3d 36 9d c7 3c
       -0.07574197 0.0013193178 0.04261049 0.024366956
000140 5e de c7 bc 3c 55 52 3c 6a 96 9d bd c3 49 e7 bc
       -0.024398025 0.012837704 -0.07694705 -0.028233415
000150 1b f4 f8 3d 8d a6 a0 bd d9 dc c8 bd 8b 56 d3 3d
       0.121559344 -0.07844267 -0.09807748 0.10319241
000160 18 0d d6 bd c3 54 9f 3d 06 d7 00 3e 60 a0 8d bd
       -0.10451716 0.07779839 0.12582025 -0.06915355
000170 b1 45 0f 3d 3e 38 ab bd a1 dd a6 3c 61 c8 ff bd
       0.034978572 -0.08360337 0.020369353 -0.12489391
000180 69 ac da 3d d2 6c 65 3c cb 48 90 3d e4 70 90 3d
       0.10677416 0.014002996 0.07045134 0.07052782
000190 1e 4c af 3d b9 66 26 3d 9e 83 44 3c f7 03 b7 bd
       0.0855944 0.040625308 0.011994271 -0.08936303
0001a0 29 e8 a3 bc e6 9f b7 3c 39 cd e3 3d ca de ed bd
       -0.020008164 0.022415113 0.111231275 -0.11614759
0001b0 32 8d f3 bd 0d 68 cc 3d 87 5f 89 bc 8b 17 56 3d
       -0.11892165 0.099807836 -0.016769184 0.052268546
0001c0 7a 29 82 3d de 7d b4 bc d3 b0 1c 3d a9 f3 79 bd
       0.06355567 -0.022032674 0.03825457 -0.061023388
0001d0 12 66 98 3d ba 02 a6 3d b1 6c f1 bd 1b a3 19 3d
       0.07441343 0.08105989 -0.11788309 0.037509065
0001e0 42 84 19 3d 98 09 63 bc 77 5e 5b bd 17 c7 88 3d
       0.037479647 -0.013857268 -0.053556886 0.066785984
0001f0 2a aa 96 bd 17 d4 0f bd 09 4a 9a bd 03 fb bf 3d
       -0.07356675 -0.035114374 -0.07533652 0.093740486
000200 be 49 9a bd 99 b7 f0 bd 66 dd f0 3d 3e 2b 6e bd
       -0.075335965 -0.117537685 0.117609784 -0.058146708
000210 2b 2a 18 3d cc cd 95 bd 3a 8d 14 bc be 69 d6 bc
       0.03714959 -0.07314643 -0.009066874 -0.026173469
000220 2e b0 a2 bb 2d 48 e6 3d 6b 2b 1f 3d a7 d8 2d bc
       -0.00496485 0.11244235 0.038859766 -0.010610736
000230 93 4c f2 bd 7d 47 4f bd e8 b9 10 3d d1 da 17 3c
       -0.118310116 -0.050605286 0.035333544 0.0092684785
000240 4e 1d b8 3d de 5e b4 3d f0 cd fe ba 31 5b 5b bc
       0.089899644 0.08807157 -0.0019440036 -0.013388441
000250 d8 37 e4 3d 12 5b a0 bd 44 54 af bc 62 b5 4f bd
       0.11143464 -0.0782987 -0.021402486 -0.05071009
000260 cc 5e 25 bd 35 30 a5 bd 5d 6e fb bd 87 ff 9d 3d
       -0.04037361 -0.080658354 -0.122769095 0.077147536
000270 e4 5e da bd b0 a1 92 3d d1 0f cd 3d 03 32 fc bc
       -0.1066263 0.07159746 0.10012782 -0.030785566
000280 59 ce c3 bc e0 7b c6 bd 2c 85 e2 3d 21 68 bc 3d
       -0.023902105 -0.09691596 0.11060557 0.091995485
000290 47 61 87 3d ed 10 50 bc 84 2a 9a 3d 5c 49 db bc
       0.06610351 -0.012699348 0.075276405 -0.026768379
0002a0 f1 43 14 bd 4b 6d 6e bd 32 59 b7 bd d8 35 86 3c
       -0.036197606 -0.0582097 -0.089525595 0.016383097
0002b0 b1 08 9f 3b 7a d9 c9 3d 64 df 83 bc aa fa 30 3d
       0.004853331 0.098559335 -0.016097732 0.043207802
0002c0 d4 30 97 3d cc 8d 4d 3d fe 76 60 bd 6f 03 48 bd
       0.0738236 0.050184056 -0.05480098 -0.0488314
0002d0 ff 7e bf bd e6 b4 1b 3d 96 e1 de 3c 0f ab c3 bd
       -0.093503945 0.038014315 0.027207177 -0.09554111
0002e0 9f ee 95 3d aa 8e a5 3d a7 3f 8e 3d b1 bd a8 3d
       0.07320904 0.08083852 0.069457345 0.08239306
0002f0 b7 52 a4 3c 4b 36 dc 3d 6f 50 02 3c 3b 6c 31 bd
       0.020058973 0.10752543 0.007953747 -0.043316107
000300 72 bd 42 3d 53 d7 80 bd 60 56 c3 3d 81 0c 99 bd
       0.04754395 -0.0629107 0.09537959 -0.07473088
000310 24 47 92 3c 45 21 a1 bd 2b 3a 7e 3c dc 81 32 3d
       0.017856188 -0.07867674 0.015516798 0.043580875
000320 77 3f b5 bc 9f 34 b2 3c 2a a6 15 bd 7a 14 a1 bd
       -0.022124989 0.021753607 -0.03653542 -0.07865234
000330 30 31 40 3d 4f c4 cb 3c a6 86 92 bd 03 8e c2 3d
       0.04692191 0.02487388 -0.071545884 0.09499743
000340 2a 64 ba 3d e7 22 8c bd 76 66 3d bd 9f 1f 79 bd
       0.09101136 -0.068425946 -0.046240292 -0.06082117
000350 20 14 93 3d 67 0f 00 bd 16 98 e1 bd 3b f1 a3 bd
       0.07181573 -0.03126469 -0.11015336 -0.080049954
000360 bc dd 53 bc b5 27 4b 3d dd c1 c8 bd 35 93 3f 3d
       -0.012931284 0.049598414 -0.098026015 0.046771247
000370 61 b0 c7 bd 46 10 a6 bd d4 6c 94 bd de 04 55 3d
       -0.097504385 -0.08108573 -0.0724732 0.052006595
000380 d9 04 88 3d ef 1d e7 3d 72 0a 17 bd 98 23 5b 3d
       0.066415496 0.11285006 -0.036875196 0.05350074
000390 7a 1c a0 bd 96 87 d6 3d 31 4a d3 bc 39 c8 5f 3d
       -0.078179315 0.1047508 -0.025792213 0.054634307
0003a0 52 05 b4 bd 25 18 f2 bd 87 7a 61 bb 02 63 86 3c
       -0.08790077 -0.118210115 -0.0034405307 0.016404632
0003b0 e0 5a c7 3d 0c 04 96 bd 0b 3c a0 3d 92 c7 a1 3c
       0.0973413 -0.07324991 0.07823952 0.019748483
0003c0 85 7c a6 bd 72 8a d5 3d 5a 6e 3c bd 1a 63 8f bd
       -0.08129219 0.10426797 -0.046003677 -0.07001324
0003d0 dc 5d 92 bd fb 1b 5a bb 2a ee b6 3d 60 9c 78 bd
       -0.071468085 -0.0033280838 0.08932145 -0.060696006
0003e0 39 f4 6c 3d 7b 51 01 be 25 3b 27 bb db 57 ba 3c
       0.057850096 -0.12628739 -0.002551743 0.02274697
0003f0 4f e6 e6 bd 0b 6c 6e bd 06 51 59 3d e3 d6 f3 bd
       -0.11274397 -0.058208507 0.053055786 -0.11906221

encoder.fc2.bias f4 [16]
000000 b9 5e 5c bd 4f fd b7 3d 66 72 45 bd d7 1b da bd
       -0.053801272 0.08983862 -0.048204802 -0.10649841
000010 5d 15 17 3e 9b 61 35 3d c7 78 69 bd ba 7a c2 3d
       0.14754243 0.044282537 -0.056999948 0.094960645
000020 1f ef 93 3c 1f a5 2e bc 28 f3 d8 3d c3 3c 23 bd
       0.018058358 -0.010659485 0.105932534 -0.03985287
000030 47 7c f9 3c 1b cf 25 bd a2 d0 0c 3d 62 97 79 3d
       0.030454768 -0.040480714 0.034378655 0.060935386

encoder.fc21.weight f4 [4, 16]
000000 e2 c5 cf bd 29 e0 6c bd 1f 62 2c 3e 17 39 5a be
       -0.10145165 -0.057830963 0.16834305 -0.2131084
000010 87 82 1a bd 36 f8 ed 3b 66 d3 62 bd ba d5 73 be
       -0.037722137 0.007262255 -0.055377387 -0.23811999
000020 e0 df 85 be ed e3 23 3e 6d 66 82 be 54 f5 4b 3e
       -0.26147366 0.16004916 -0.2546877 0.19917804
000030 f9 77 18 be 8a aa 02 3c b3 bc 7d be b7 19 9a bd
       -0.14889516 0.00797523 -0.24779014 -0.07524436
000040 41 b8 93 3d e0 63 05 bd 65 7a 38 be 0c 1b 7a 3d
       0.07212878 -0.03256595 -0.1801544 0.06106095
000050 78 86 0b bd e1 8d c6 bd f2 fb 09 3e 48 15 13 3e
       -0.034063786 -0.0969503 0.13475016 0.14363587
000060 e8 77 15 be c8 dc 2f 3e 4f b9 29 bd 08 0d 6f be
       -0.14596522 0.17174065 -0.04143649 -0.23344815
000070 35 f7 11 3d 9e e1 c4 3d da 2e c6 3d 56 04 e6 3d
       0.035636146 0.096133456 0.09676905 0.11231296
000080 8d 1b 47 3e f5 f3 04 be 5c 48 80 be 73 b8 18 be
       0.19444104 -0.12983687 -0.25055206 -0.14914112
000090 a3 f8 0d be a7 77 fe bd e8 3d 03 3e 33 71 2f 3e
       -0.13864379 -0.124251656 0.12816584 0.17133026
0000a0 a6 a7 1b be 7e de 57 be b9 02 6a be 3d 8f 9e bd
       -0.15200672 -0.21080968 -0.22852601 -0.07742164
0000b0 b7 da eb 3d 82 cc 7b bd 86 5d 6c be 9a 00 01 3e
       0.11516326 -0.06147433 -0.23082551 0.12597886
0000c0 a5 9f 29 bd 2f 63 56 3e 86 b1 64 be 73 2a 53 3e
       -0.041412015 0.20936273 -0.22333345 0.20621662
0000d0 80 02 54 3e 55 45 64 3e 66 c7 a2 3d c8 71 24 be
       0.20704079 0.22292073 0.079481885 -0.16059029
0000e0 b9 ef df bd e5 c5 4c be 92 86 35 be 88 d9 06 be
       -0.10934395 -0.19997366 -0.17727116 -0.13168919
0000f0 21 b9 6e 3e 0b fd 61 ba 79 09 39 be 4c 85 2b be
       0.23312809 -0.0008620775 -0.1807002 -0.16750067

encoder.fc21.bias f4 [4]
000000 71 49 cc 3d a3 92 59 be 00 76 99 bd 85 11 84 3c
       0.09974945 -0.21247344 -0.0749321 0.016121635

encoder.fc22.weight f4 [4, 16]
000000 73 3d 9e bc 51 d7 38 be 01 f2 6c 3e 71 47 d4 3d
       -0.01931641 -0.18050887 0.23139192 0.10365189
000010 1a be 81 bd fb 00 4b be d8 e0 16 3d 18 9c 3d 3e
       -0.06335087 -0.19824593 0.03683552 0.18516576
000020 00 e6 84 bd 5d 4f 0e 3d 77 0f 08 be cb 24 06 bd
       -0.064891815 0.034743655 -0.1328715 -0.032749932
000030 09 9a 23 3e 4b 00 04 be fb f0 e7 3d 4b 7e 0d 3e
       0.15976728 -0.12890737 0.1132526 0.13817708
000040 a0 b4 03 3e f2 13 e6 3d 08 1c 28 bc d5 c8 47 bd
       0.12861872 0.11234273 -0.010260589 -0.048775513
000050 cb 36 5e be 05 65 a7 3d 5e f3 53 3e 67 e3 82 be
       -0.2170059 0.08173565 0.20698306 -0.2556412
000060 a8 99 1d 3e 70 71 68 be cf 1e 31 be 1c ea 2f 3d
       0.15390646 -0.22699523 -0.17296909 0.042947873
000070 86 32 c6 3d 3d 25 7a be b1 b1 d5 bd 39 5c 24 3e
       0.09677605 -0.24428268 -0.104342826 0.16050805
000080 06 01 2e 3d 2b e0 85 bd 99 47 6e bd a5 69 7f bd
       0.042481445 -0.06536897 -0.05817375 -0.06235661
000090 31 37 a3 bd 7a 2c 58 3e 04 3b 82 bd f5 10 42 3e
       -0.07969511 0.21110716 -0.063589126 0.18951781
0000a0 8e 82 82 bd 0e f8 0c 3e e0 53 57 bd 7a 4e 4b be
       -0.063725576 0.137665 -0.052570224 -0.19854155
0000b0 27 bd 29 3e e7 f0 53 be fc 40 04 3e be e0 db bd
       0.16576062 -0.20697366 0.12915415 -0.107362255
0000c0 b6 14 15 3e 34 e8 27 be f4 47 5c 3e 43 17 61 3d
       0.14558682 -0.16397172 0.21511823 0.054953825
0000d0 d4 6f e2 bd bb b2 42 be 02 97 1e 3e 6c 4a ef 3d
       -0.11056486 -0.19013493 0.15487292 0.11684117
0000e0 34 cb 92 be cf 6b d3 bc ac 05 99 be d3 b9 be bd
       -0.28670657 -0.025808243 -0.2988714 -0.09312787
0000f0 fe 83 20 3e 63 48 55 3c 95 ff 3d be f5 e6 eb 3b
       0.15675351 0.013017747 -0.18554528 0.007199163

encoder.fc22.bias f4 [4]
000000 b8 80 71 bb bc ab 24 3e 34 62 1d 3e 5c 22 64 3d
       -0.0036850404 0.16081136 0.15369493 0.05569683

encoder.bn1.weight f4 [16]
000000 51 9e 80 3f ca 1a 80 3f 96 b2 7f 3f 06 e0 7e 3f
       1.0048314 1.0008175 0.99881876 0.9956058
000010 c6 17 7e 3f 6b c5 7c 3f 6b ce 7e 3f 00 00 80 3f
       0.99255025 0.98738736 0.9953372 1.0
000020 fc 7a 7d 3f 34 f2 7e 3f 8d 4a 80 3f 9e 27 7f 3f
       0.99015784 0.9958832 1.0022751 0.99669826
000030 6f 3c 7c 3f 00 00 80 3f d6 af 7e 3f f4 5c 80 3f
       0.98529714 1.0 0.99487054 1.0028367

encoder.bn1.bias f4 [16]
000000 db 39 a8 bc 1f b2 bf bb 67 59 3b 3c e0 8e 71 3c
       -0.0205354 -0.005850091 0.011434889 0.014743537
000010 6c f7 b1 bc dd 59 41 ba 49 0e 9f bc a8 9e 89 3b
       -0.021724425 -0.00073757564 -0.019415991 0.0041998215
000020 a0 56 85 3c ca 59 1a 3c b8 af 9b 3b 78 62 0d 3c
       0.016276658 0.009420821 0.004751172 0.008629434
000030 ae 0e 9d 3c 61 6e 32 3c a1 7c f4 bb fd 81 76 bb
       0.019172039 0.010890574 -0.007461146 -0.00376141

encoder.bn1.running_mean f4 [16]
000000 09 d0 fb 3e 7c 7c 41 3f 30 a9 11 3f f8 53 e7 3d
       0.49182156 0.75580573 0.56898785 0.11295313
000010 80 4e 0b 3e 7c ec 2e 3e 14 db 16 3d 00 00 00 00
       0.13604164 0.17082399 0.036830023 0.0
000020 dc 0d 1b 3f 77 1c 95 3d 93 1f 76 3e d0 55 d0 3e
       0.6056802 0.0728082 0.24035482 0.4069047
000030 32 01 57 3e 00 00 00 00 8b 74 eb 3e fd 44 0f 3f
       0.2099655 0.0 0.45987353 0.5596464

encoder.bn1.running_var f4 [16]
000000 39 9e 11 3d 5c ef 25 3d 5f 24 28 3e f2 cb 04 3d
       0.035551284 0.040511474 0.16420124 0.03242106
000010 34 14 90 3c 9f 32 09 3d 9d 5e 87 3b 1c 1f c5 25
       0.017587759 0.03349554 0.004131152 3.4195133e-16
000020 cb 7d 9d 3d d6 ff 9b 3b 2b 43 3f 3d 21 4a 89 3d
       0.07690009 0.0047607226 0.046694916 0.06703592
000030 0b 15 3c 3d 1c 1f c5 25 5c 09 02 3e 27 54 12 3b
       0.045918506 3.4195133e-16 0.12698883 0.002232799

encoder.bn2.weight f4 [16]
000000 d8 4b 7f 3f 2f 2f 80 3f 57 19 7f 3f 8c bc 80 3f
       0.99725103 1.0014399 0.9964804 1.005754
000010 f7 c1 7b 3f d1 d4 7e 3f 99 0a 80 3f 06 b8 7c 3f
       0.9834284 0.9954348 1.0003234 0.987183
000020 4d 4d 7e 3f ee a8 7f 3f f6 93 7d 3f e4 3a 7f 3f
       0.993367 0.9986714 0.99053895 0.99699235
000030 08 d4 7d 3f e6 ab 7e 3f 2b 11 7f 3f a0 1c 7c 3f
       0.9915166 0.99481046 0.9963557 0.9848118

encoder.bn2.bias f4 [16]
000000 7c 7c 37 bc b1 07 67 bb 42 9f a4 bc be 9e 95 3c
       -0.011199113 -0.0035252387 -0.020095471 0.01826417
000010 35 7e ea 3c b3 ae 80 bc 06 a4 98 3b f2 7a ad 3c
       0.028624633 -0.015708303 0.004658225 0.021176789
000020 29 ec a4 bc 04 f3 22 bc 4b f1 f7 3b d3 00 7a bc
       -0.020132141 -0.009945635 0.007566606 -0.015258986
000030 23 09 2a 3c 73 f8 56 3b cc 4a 1d bc 01 8f 50 bb
       0.010378155 0.0032801896 -0.0096003525 -0.0031823518

encoder.bn2.running_mean f4 [16]
000000 6f ed 8c 3e 36 78 86 3e 59 63 75 3e b1 de b1 3e
       0.27524897 0.2626359 0.2396368 0.34740213
000010 ac 57 d4 3e a6 c6 94 3e 59 1b c3 3e 3a 07 31 3e
       0.41473138 0.29057807 0.38106802 0.17287913
000020 cb 69 81 3e c0 50 2a 3e e4 15 52 3e bd 4c 67 3e
       0.25276026 0.16632366 0.20516163 0.22587867
000030 69 e4 a3 3e 10 dd 2c 3e 06 f2 b6 3e ec 3f 32 3e
       0.320102 0.16881204 0.35731524 0.17407197

encoder.bn2.running_var f4 [16]
000000 99 0c 05 3e a4 ee f8 3d 0e 3e 96 3d 74 15 75 3e
       0.12993087 0.12154892 0.07336055 0.23933965
000010 dc 2f c9 3e c1 ba 03 3e 56 78 62 3e 72 ab 90 3d
       0.39294326 0.1286421 0.22116217 0.070639506
000020 37 18 b9 3d 70 41 6f 3d 62 5a b4 3d dd 2c b1 3d
       0.09037822 0.058412015 0.08806302 0.08651135
000030 4d 1b 27 3e a7 48 8d 3d e1 83 89 3e 0a 39 94 3d
       0.16319008 0.06898623 0.26858428 0.07237442

encoder.bn3.weight f4 [32]
000000 59 bf 7d 3f 66 56 80 3f 44 03 7c 3f dd 77 7d 3f
       0.991201 1.0026367 0.9844248 0.9901102
000010 cc d0 7f 3f d9 f6 7f 3f 77 9f 80 3f 3b 48 7e 3f
       0.99927974 0.99986035 1.0048665 0.99328965
000020 c5 d8 7e 3f 8b 1e 7e 3f 33 66 7c 3f ce a6 7f 3f
       0.99549514 0.99265355 0.98593444 0.998639
000030 0b 3d 7d 3f 16 24 7e 3f 28 77 7d 3f df ad 7d 3f
       0.9892127 0.9927381 0.99009943 0.9909343
000040 b2 8c 7f 3f 5b a8 7d 3f 2a bd 7c 3f d8 4f 7d 3f
       0.9982406 0.99085015 0.9872614 0.98949957
000050 41 3b 7c 3f 93 78 7d 3f d3 25 7e 3f 84 fd 7e 3f
       0.98527914 0.99012107 0.99276465 0.99605584
000060 67 87 7d 3f 00 74 7d 3f 70 17 7f 3f 9e 1a 80 3f
       0.9903473 0.99005127 0.9964514 1.0008123
000070 4d f1 7d 3f 39 44 80 3f a0 bd 7c 3f e9 8e 7d 3f
       0.9919632 1.002082 0.98726845 0.9904619

encoder.bn3.bias f4 [32]
000000 74 ee d3 bc 4d 06 0d 3d 69 1e 9c bb 72 6b 84 3c
       -0.02587054 0.034429837 -0.0047643674 0.016164515
000010 59 e2 dc bc 3f 99 0c 3d 6f a4 64 bc b0 e7 87 3b
       -0.0269634 0.034325834 -0.01395522 0.0041474923
000020 12 32 8f bc b9 95 8c b9 6a 92 9a bc f8 7c 15 bc
       -0.01747993 -0.00026814433 -0.018868644 -0.009124033
000030 3a 21 d3 3c c9 be 6e 3c 09 9c 56 3c f8 47 2e 3c
       0.02577268 0.014571854 0.013098725 0.010637276
000040 a4 4a 87 bc 37 53 a7 bc c7 52 2d 3a 03 fe 5b ba
       -0.016515084 -0.020425422 0.0006611761 -0.00083920377
000050 01 29 2a 3d 4f 90 43 bc 4a f5 02 3d da 6c 0d 3b
       0.04154301 -0.011936261 0.031972207 0.0021579773
000060 8b c0 63 3b 2d 72 34 3c 0e fb ea bc 68 60 fa 3c
       0.0034752216 0.01101355 -0.028684165 0.030563548
000070 f6 63 92 3c e5 7b 8e bc b3 b8 01 3c b1 a9 f3 b8
       0.01786993 -0.017393062 0.007917571 -0.000116187504
