results/_mar_fptra_0.7_1000_VAE_model.pt (torch, 228240 bytes, 61 tensors)

encoder.conv1.weight f4 [16, 1, 2]
-0.41231763 -0.35176712 0.5610806 -0.22463605 0.38409123 0.56964743 0.41599724 -0.31207255
-0.34096944 -0.08306712 -0.52928436 0.070691586 0.27238572 0.06103628 -0.28235167 -0.44787002
-0.1787689 0.25639468 0.10900582 0.020360839 -0.46403793 0.6449561 0.55584526 0.2997824
-0.6281564 -0.59142995 -0.61383766 -0.5521002 -0.4872464 -0.1905871 0.67071646 -0.6555772
00000000: 4c1b d3be d21a b4be faa2 0f3f fe06 66be
00000010: 9ba7 c43e 6ad4 113f 97fd d43e f9c7 9fbe
00000020: 8c93 aebe 181f aabd 2e7f 07bf c0c6 903d
00000030: 2476 8b3e 2e01 7a3d 6690 90be 384f e5be
00000040: 320f 37be 2a46 833e 713e df3d c6cb a63c
00000050: 6196 edbe d81b 253f e04b 0e3f 147d 993e
00000060: dcce 20bf f467 17bf 7724 1dbf 7056 0dbf
00000070: 5c78 f9be 4429 43be 13b4 2b3f e8d3 27bf

encoder.conv1.bias f4 [16]
-0.08510715 0.29947698 -0.19891614 0.39425436 -0.43613467 -0.2728076 0.4215304 0.6878848
-0.02716608 0.6367282 0.19793738 0.4165218 0.41856518 0.106446505 -0.5200112 -0.637641
00000000: a84c aebd 0c55 993e acb0 4bbe b5db c93e
00000010: 0b4d dfbe 70ad 8bbe d5d2 d73e 3819 303f
00000020: 668b debc 9f00 233f 19b0 4a3e 5842 d53e
00000030: 2d4e d63e a000 da3d 741f 05bf 713c 23bf

encoder.conv2.weight f4 [16, 16, 2]
0.013958912 0.19443211 0.06721268 0.021261746 0.08671718 -0.0363583 -0.14436983 -0.0877649
0.083898775 0.04727493 -0.02026199 -0.0028303962 0.014052309 0.11367938 -0.16025236 -0.0855717
0.058291093 0.02873558 0.12195504 0.1674343 0.018571861 0.021645624 -0.07349506 0.098724246
-0.12522727 0.12861289 0.11145303 0.03131423 -0.0972156 0.029400855 0.02270999 0.041157085
-0.06976464 -0.11028706 0.017415967 0.089098185 -0.1625883 -0.10097896 -0.1299076 0.085160926
0.09823542 0.0045753075 -0.07922465 -0.13641676 -0.0694177 -0.10029374 0.10072057 0.17136481
0.013821102 0.07311858 -0.019434445 0.058636136 0.024683509 -0.048496973 0.025014574 0.087851785
-0.036818884 -0.08651423 -0.01226552 0.07173522 -0.00026839407 0.047511615 0.048994556 0.1587509
0.014575048 -0.09155318 0.085689396 -0.09152239 -0.059917428 -0.12610142 -0.08714384 0.06408299
-0.091302946 -0.07864028 0.14970736 -0.10137924 -0.02005662 -0.17086433 -0.12305973 0.10192271
-0.038058676 -0.014617344 0.12381003 -0.009462951 -0.15062214 0.15078983 -0.13865659 -0.023952037
0.10610025 -0.058148798 -0.0007469673 0.09832815 0.040849935 -0.024457984 0.05900212 -0.033113655
-0.05714628 -0.1391913 -0.16547453 -0.15566467 0.07108787 -0.05111767 -0.03721304 0.14132887
0.025324138 -0.030081602 0.05189531 -0.04893307 -0.070827134 0.08183587 0.115404256 0.022792721
0.07050655 -0.012845738 -0.1122436 0.18927793 0.18334329 -0.1147932 0.074551836 -0.061632827
-0.15661217 -0.02712755 0.10794436 -0.19657785 0.05749726 0.12569493 -0.07489564 -0.0066510187
0.0807887 -0.1128962 0.11529491 -0.11439541 -0.11733692 -0.012512061 0.11283849 0.1135506
0.15267015 -0.11382816 -0.16823909 -0.15774791 -0.0103463335 -0.11083778 0.015533096 0.06785107
0.08274194 0.0061273687 0.00045482884 0.12259577 0.07615907 -0.057188224 0.00609668 -0.026929174
-0.15682785 0.13812114 -0.0012974608 0.091632545 -0.090924256 -0.0062051513 0.0239014 0.106886074
0.14108773 -0.040170513 0.032576222 0.13223462 -0.10040851 0.011173612 0.0012208449 5.1828367e-05
-0.067757085 0.044509053 -0.08412805 -0.18324848 -0.07754931 -0.04373973 -0.10700975 -0.15645961
-0.026048928 -0.017743558 -0.08712483 0.16516742 0.13369517 -0.16178538 0.15439835 0.1491957
-0.022643348 -0.102032796 -0.18539321 -0.11708005 -0.10785303 0.13862391 -0.16111112 0.07217454
-0.06466502 0.09343004 0.010973001 0.054870937 -0.08587133 0.10667553 0.12183392 -0.055462684
-0.0031743993 0.11667571 0.024696365 -0.1467402 -0.007163555 0.01605029 0.07904059 0.03267855
-0.08768944 0.088436864 0.06730798 0.13378589 -0.15255925 -0.060994208 -0.10667087 -0.11691958
0.01762861 -0.07957505 0.043613933 -0.12402205 0.12117587 -0.15835413 0.14400826 -0.10515701
-0.03413982 -0.1484509 -0.06673125 -0.11682304 0.036114078 0.03255321 -0.0783008 -0.017995909
-0.07748371 -0.019693026 -0.07621767 0.112653755 -0.029355764 0.105164394 0.13569446 0.07010754
0.08656597 0.13696623 -0.14894499 -0.13517672 -0.069129206 -0.018263906 -0.08865469 0.024603777
0.05409598 0.080148704 0.16677436 0.07782385 -0.034426447 0.10498518 0.041345704 -0.09205377
00000000: ecb3 643c 3619 473e cda6 893d 1d2d ae3c
00000010: c798 b13d 71ec 14bd afd5 13be 15be b3bd
00000020: 1fd3 ab3d 5ba3 413d 79fc a5bc 2b7e 39bb
00000030: a83b 663c bcd0 e83d 3219 24be 3740 afbd
00000040: a4c2 6e3d e166 eb3c 90c3 f93d e673 2b3e
00000050: 0424 983c 2a52 b13c 9484 96bd f02f ca3d
00000060: 943b 00be 19b3 033e 7c41 e43d 5a43 003d
00000070: f918 c7bd 10da f03c 4d0a ba3c 5594 283d
00000080: c3e0 8ebd 2fde e1bd eeab 8e3c 1c79 b63d
00000090: 8c7d 26be 0fce cebd 7f06 05be da68 ae3d
000000a0: a72f c93d 76ec 953b 8940 a2bd d6b0 0bbe
000000b0: de2a 8ebd ce66 cdbd 9646 ce3d 427a 2f3e
000000c0: e771 623c 32bf 953d fc34 9fbc 722c 703d
000000d0: 1235 ca3c c3a4 46bd 5deb cc3c a3eb b33d
000000e0: 66cf 16bd 5f2e b1bd 52f5 48bc eae9 923d
000000f0: 3eb7 8cb9 8a9b 423d 84ae 483d 998f 223e
00000100: 2fcc 6e3c 3c80 bbbd ec7d af3d 1770 bbbd
00000110: fa6b 75bd bb20 01be 7878 b2bd f13d 833d
00000120: 0afd babd 280e a1bd e34c 193e eb9f cfbd
00000130: c84d a4bc 0ff7 2ebe bd06 fcbd dbbc d03d
00000140: 6ae3 1bbd 967d 6fbc 1d90 fd3d 7e0a 1bbc
00000150: b13c 1abe a668 1a3e fefb 0dbe 1037 c4bc
00000160: 164b d93d 6f2d 6ebd 20d0 43ba 4560 c93d
00000170: 4352 273d 1c5c c8bc 35ac 713d 2fa2 07bd
00000180: 3812 6abd 2a88 0ebe 2872 29be 8f66 1fbe
00000190: 8496 913d c360 51bd b36c 18bd 84b8 103e
000001a0: 9174 cf3c b16d f6bc 2d90 543d 0b6e 48bd
000001b0: d10d 91bd 9199 a73d 1159 ec3d cdb7 ba3c
000001c0: bd65 903d ee76 52bc f9df e5bd 13d2 413e
000001d0: 58be 3b3e b218 ebbd a2ae 983d b472 7cbd
000001e0: f15e 20be 993a debc ef11 dd3d b44b 49be
000001f0: 3f82 6b3d 2cb6 003e e362 99bd caf0 d9bb
00000200: 8c74 a53d 1f36 e7bd bd1f ec3d 2448 eabd
00000210: 574e f0bd 63ff 4cbc de17 e73d 388d e83d
00000220: 9055 1c3e bd1e e9bd de46 2cbe ab88 21be
00000230: ab83 29bc ebfe e2bd 877e 7e3c 80f5 8a3d
00000240: 9b74 a93d 18c8 c83b 1876 ee39 7e13 fb3d
00000250: 49f9 9b3d 333e 6abd a9c6 c73b 929a dcbc
00000260: 7b97 20be a16f 0d3e 8f0f aaba d8a9 bb3d
00000270: 7f36 babd 9554 cbbb decc c33c 16e7 da3d
00000280: 4d79 103e d689 24bd a56e 053d 8368 073e
00000290: faa2 cdbd 8711 373c c204 a03a 4962 5938
000002a0: 3ac4 8abd 204f 363d 544b acbd 7da5 3bbe
000002b0: 2cd2 9ebd 6e28 33bd ee27 dbbd f336 20be
000002c0: 9064 d5bc f05a 91bc 816e b2bd a621 293e
000002d0: 63e7 083e 11ab 25be 9a1a 1e3e c2c6 183e
000002e0: 8b7e b9bc 92f6 d0bd b8d7 3dbe aac7 efbd
000002f0: 0de2 dcbd 6df3 0d3e 50fa 24be 3fd0 933d
00000300: 186f 84bd 4058 bf3d 1ac8 333c 59c0 603d
00000310: 4fdd afbd b378 da3d 1084 f93d d72c 63bd
00000320: 9509 50bb adf3 ee3d 0850 ca3c 1043 16be
00000330: 41bc eabb e67b 833c 08e0 a13d f1d9 053d
00000340: 8596 b3bd 631e b53d c4d8 893d 2bff 083e
00000350: 7e38 1cbe 10d5 79bd 4276 dabd 8873 efbd
00000360: e069 903c 3ef8 a2bd 86a4 323d 46ff fdbd
00000370: 0e2b f83d 9627 22be e776 133e 8f5c d7bd
00000380: 32d6 0bbd 8303 18be 65aa 88bd eb40 efbd
00000390: 5bec 133d 8456 053d 2b5c a0bd 286c 93bc
000003a0: c8af 9ebd 4553 a1bc 0318 9cbd 03b7 e63d
000003b0: 807b f0bc 6e60 d73d 7df3 0a3e 8b94 8f3d
000003c0: 8049 b13d e040 0c3e 0985 18be c46b 0abe
000003d0: 9d93 8dbd 309e 95bc 9790 b5bd dc8d c93c
000003e0: bf93 5d3d 0125 a43d e6c6 2a3e 1c62 9f3d
000003f0: bf02 0dbd 7802 d73d 1d5a 293d b086 bcbd

encoder.conv2.bias f4 [16]
-0.0630139 0.023213271 0.069386244 -0.15030968 -0.11492371 -0.00048847473 0.042974256 -0.04513064
-0.059450205 0.16262376 -0.14356554 -0.10064973 -0.13891768 -0.049520448 -0.07520734 -0.105489686
00000000: 6e0d 81bd c229 be3c 601a 8e3d c8ea 19be
00000010: 1f5d ebbd fc0c 00ba c605 303d e8da 38bd
00000020: 0f82 73bd d886 263e d802 13be 7221 cebd
00000030: 7040 0ebe f4d5 4abd 4e06 9abd fa0a d8bd

encoder.conv3.weight f4 [32, 16, 2]
0.009877955 -0.15447217 0.14204745 0.11116117 -0.06560045 0.0063058347 -0.067183375 -0.0040244735
0.033600558 -0.108987786 -0.049537435 -0.08195462 -0.14939322 -0.06527522 0.08900336 -0.13396332
-0.026462346 -0.06487402 -0.07689458 -0.058169935 -0.013133995 -0.0027395282 -0.03331175 -0.07729451
0.049456824 -0.1490232 0.09843024 0.0129034035 -0.14358577 0.100969106 -0.12133255 -0.008276138
0.08725343 -0.09903755 -0.09723882 0.029100442 -0.10176076 0.010404405 0.010972803 0.05495487
0.055570602 -0.073548526 0.17040926 0.10844351 -0.10534888 0.0042610313 -0.16511513 -0.16736351
-0.113004856 -0.060246773 0.1329891 0.06413428 -0.08229691 0.11335459 0.06797962 -0.13653223
0.13907945 0.050038647 -0.049018897 -0.08426358 -0.13396987 0.098387375 -0.108909585 0.15142855
-0.124304704 0.071110666 -0.10173755 -0.07650658 0.111654215 0.021158434 -0.15477754 -0.14253731
-0.040751725 0.11599097 0.100815505 -0.12228417 -0.1206163 0.052448317 -0.05085065 0.11524619
0.122748725 -0.10702596 -0.16519652 -0.06615265 -0.0429587 0.08401213 -0.1479127 -0.0066357437
-0.013200048 -0.14592603 0.05631217 -0.13992035 -0.0011475604 -0.009305596 0.009180478 0.09194708
-0.11078206 0.018924508 -0.022445694 0.09633614 0.08472363 -0.15409821 0.090232 0.08655205
-0.047951173 -0.026076462 0.07541554 -0.02281929 0.040752225 -0.18850608 -0.10121404 -0.06329102
-0.12819694 -0.056566007 0.13846603 0.015781077 0.0067604873 0.06870316 0.08173568 -0.11203528
-0.028947776 -0.018578792 -0.0068361647 0.11035709 0.009806934 -0.061663326 0.13823478 0.044055488
-0.027686693 0.14596601 -0.18608487 0.08723837 -0.08000731 0.09361462 0.09918054 0.051362433
-0.020601375 0.084942825 -0.041069757 -0.03141906 -0.12981507 -0.12578562 0.1257938 -0.14326622
-0.16077857 0.10960437 0.030752618 0.18637319 -0.09723116 -0.02741087 0.06259208 -0.040261243
-0.04106821 0.10658662 0.0867386 0.12680991 -0.014655668 -0.052479394 0.06687671 -0.072579205
-0.116717435 0.075421 -0.06552678 -0.01220647 -0.013614089 -0.041050177 -0.096731864 0.10500935
-0.05913021 -0.046383616 0.11687672 -0.07814969 -0.13043857 0.10095299 0.012178648 -0.072304524
-0.10516966 -0.06450063 -0.01789055 0.15886076 0.06907846 -0.12603803 -0.13444856 -0.14144152
-0.04898876 -0.11394853 -0.018065916 -0.009772036 0.006995293 0.1338304 -0.02966046 0.14456476
-0.08124025 -0.011178777 0.16323756 -0.08863836 -0.10782307 0.09986078 0.0871552 -0.031211248
-0.07912972 -0.0090515595 0.14703931 -0.14660285 -0.13838334 0.03710628 -0.05908543 -0.056225777
-0.08442515 0.04450256 0.110365696 -0.028627453 0.050141733 0.0031135657 0.078481816 0.13842037
-0.13733026 0.07878428 -0.048873298 0.12080792 0.08946821 0.015604155 -0.075447135 0.11170763
-0.074838445 -0.09290557 0.104777925 -0.13900147 0.055156793 0.0107534705 -0.067626305 -0.201064
-0.117019124 -0.0812183 0.07289497 -0.13404414 -0.1694852 0.02721706 0.0024792845 0.025958417
0.078725256 -0.068240546 -0.01215589 -0.030335335 0.05814541 0.04661586 -0.10405321 -0.12951222
0.03041972 -0.2144928 0.027086748 -0.0134625975 -0.066249155 -0.027242145 0.011254259 -0.061064593
00000000: 25d7 213c f42d 1ebe e374 113e 78a8 e33d
00000010: 8759 86bd 2da1 ce3b 7097 89bd bbdf 83bb
00000020: bda0 093d fd34 dfbd c4e7 4abd d3d7 a7bd
00000030: 89fa 18be 04af 85bd 6547 b63d ae2d 09be
00000040: 90c7 d8bc acdc 84bd e87a 9dbd 9943 6ebd
00000050: f82f 57bc a889 33bb e771 08bd 964c 9ebd
00000060: 3d93 4a3d 8a99 18be cb95 c93d cc68 533c
00000070: 2608 13be e4c8 ce3d 337d f8bd a498 07bc
00000080: edb1 b23d 33d4 cabd 2525 c7bd 0d64 ee3c
00000090: f267 d0bd 3d77 2a3c 46c7 333c 5c18 613d
000000a0: 009e 633d 9ca0 96bd c47f 2e3e a217 de3d
000000b0: 27c1 d7bd 1fa0 8b3b f113 29be 5761 2bbe
000000c0: 176f e7bd 52c5 76bd 4b2e 083e d558 833d
000000d0: 488b a8bd 7426 e83d e638 8b3d 1bcf 0bbe
000000e0: d86a 0e3e 53f5 4c3d 0ac8 48bd 6292 acbd
000000f0: 662f 09be 527f c93d fd0b dfbd 1610 1b3e
00000100: 7793 febd 78a2 913d c75b d0bd 7baf 9cbd
00000110: f7aa e43d 7454 ad3c 017e 1ebe 4df5 11be
00000120: 48eb 26bd ac8c ed3d 5c78 ce3d 1f70 fabd
00000130: ae05 f7bd 0cd4 563d c548 50bd 3206 ec3d
00000140: af63 fb3d 6d30 dbbd 4729 29be 0a7b 87bd
00000150: 76f5 2fbd 8d0e ac3d 6d76 17be a770 d9bb
00000160: 0445 58bc a26d 15be 97a7 663d 4847 0fbe
00000170: bd69 96ba 8076 18bc b769 163c c04e bc3d
00000180: b4e1 e2bd 9207 9b3c 08e0 b7bc e24b c53d
00000190: 9583 ad3d eccb 1dbe 8ecb b83d 3442 b13d
000001a0: 7368 44bd 4e9e d5bc 7673 9a3d 85ef babc
000001b0: ceeb 263d bd07 41be 4e49 cfbd b99e 81bd
000001c0: 0f46 03be c2b1 67bd 0aca 0d3e 5147 813c
000001d0: 1487 dd3b 3eb4 8c3d 0965 a73d c172 e5bd
000001e0: e323 edbc 8d32 98bc e801 e0bb e602 e23d
000001f0: 43ad 203c af92 7cbd 6b8d 0d3e 8773 343d
00000200: 34cf e2bc 1d78 153e 088d 3ebe 08aa b23d
00000210: dfda a3bd 06b9 bf3d 2b1f cb3d 6a61 523d
00000220: 37c4 a8bc 81f6 ad3d c338 28bd 46b1 00bd
00000230: 3eee 04be f2cd 00be 17d0 003e 61b4 12be
00000240: 23a3 24be 4278 e03d eaec fb3c 9dd8 3e3e
00000250: 2121 c7bd c38c e0bc 4730 803d f9e8 24bd
00000260: 2437 28bd 164a da3d 02a4 b13d 75da 013e
00000270: 541e 70bc a2f4 56bd a8f6 883d 68a4 94bd
00000280: 8d09 efbd 5376 9a3d e832 86bd a5fd 47bc
00000290: a10d 5fbc 3b24 28bd 5b1b c6bd 240f d73d
000002a0: 8532 72bd bffc 3dbd 105d ef3d f20c a0bd
000002b0: b091 05be 71c0 ce3d f488 473c 6514 94bd
000002c0: 3163 d7bd e818 84bd 348f 92bc 65ac 223e
000002d0: 0279 8d3d 1d10 01be e2ac 09be 0cd6 10be
000002e0: 70a8 48bd d95d e9bd f9fe 93bc e41a 20bc
000002f0: c538 e53b d60a 093e 7efa f2bc c908 143e
00000300: 4a61 a6bd 3027 37bc bf27 273e 0788 b5bd
00000310: 57d2 dcbd cf83 cc3d 6d7e b23d bbae ffbc
00000320: c30e a2bd fe4c 14bc 7991 163e 0f1f 16be
00000330: 5db4 0dbe c1fc 173d 9003 72bd 004d 66bd
00000340: 18e7 acbd 5148 363d 6907 e23d 1f84 eabc
00000350: 6b61 4d3d f70c 4c3b 13bb a03d 12be 0d3e
00000360: 4ea0 0cbe a759 a13d 5e2f 48bd 256a f73d
00000370: 1c3b b73d 92a8 7f3c 0784 9abd f8c6 e43d
00000380: e644 99bd 4745 bebd cf95 d63d 6756 0ebe
00000390: 17ec 613d 532f 303c a97f 8abd b9e3 4dbe
000003a0: b9a7 efbd c855 a6bd f549 953d de42 09be
000003b0: 878d 2dbe 50f6 de3c 7e7b 223b bfa6 d43c
000003c0: b53a a13d b3c1 8bbd 8029 47bc cf81 f8bc
000003d0: e229 6e3d 46f0 3e3d d919 d5bd da9e 04be
000003e0: c732 f93c 00a4 5bbe 07e5 dd3c 3a92 5cbc
000003f0: a3ad 87bd eb2a dfbc c963 383c de1e 7abd

encoder.conv3.bias f4 [32]
-0.15536067 0.067907915 0.13350922 -0.06500342 0.0662398 -0.10449493 -0.0067845187 0.08884602
-0.24558285 0.067418024 -0.08091885 0.030016635 -0.14086853 0.14017087 0.11430016 -0.052077323
-0.014687788 -0.006923093 0.041718896 0.14628136 -0.1748796 -0.033004705 -0.09062964 -0.050343804
0.13673045 0.11497235 -0.0986177 -0.014995574 0.108311206 -0.20733283 -0.03507599 -0.113221854
00000000: de16 1fbe 4e13 8b3d a4b6 083e 8320 85bd
00000010: bba8 873d 7001 d6bd ab50 debb e7f4 b53d
00000020: 127a 7bbe 7612 8a3d c8b8 a5bd 72e5 f53c
00000030: d73f 10be f488 0f3e 3416 ea3d 084f 55bd
00000040: 0ca5 70bc 1ddb e2bb 6fe1 2a3d c8ca 153e
00000050: a313 33be f12f 07bd 089c b9bd 4e35 4ebd
00000060: 1103 0c3e a076 eb3d 14f8 c9bd ffaf 75bc
00000070: 44d2 dd3d 0f4f 54be d7ab 0fbd dce0 e7bd

encoder.conv4.weight f4 [32, 32, 2]
0.099547006 -0.033930276 0.023992293 -0.075876065 0.06340378 -0.11415237 0.04921598 0.11001852
-0.025172845 0.04275179 0.013272759 -0.06171924 0.08412487 -0.07744157 0.013083631 -0.051662307
-0.05627409 0.01951887 -0.00986955 0.0477317 0.10968457 -0.023471491 -0.039380003 -0.013031781
0.005464503 -0.078693785 -0.030742614 -0.032708198 -0.07639292 -0.0849228 0.08572592 -0.06353636
0.08859355 0.07706033 0.09442773 0.022721402 -0.008715861 -0.06669571 0.071821295 0.0056465315
0.08342065 -0.083839215 0.05401428 -0.02017214 0.010885127 0.089480214 -0.09552713 0.09879711
0.004884079 -0.078355476 -0.044576637 0.089228354 -0.025914295 0.044322558 -0.03847465 0.031423334
0.10743694 -0.01741432 0.085389175 0.06474014 0.059171923 -0.12055363 -0.09118298 0.006175637
0.03289814 -0.06235667 0.056290742 0.024565049 0.01409078 -0.04272046 -0.031308882 -0.017048167
0.02688353 0.080951475 0.09642916 0.072696336 -0.019933475 -0.123716824 -0.09843992 -0.028186418
-0.05292743 -0.10918413 -0.0695612 -0.015998462 -0.10022314 0.003461316 -0.024880324 -0.04768058
-0.063737094 -0.021765105 0.07504515 0.09408356 0.0067187157 0.057328362 0.06525908 -0.12862061
0.061477862 -0.029967314 0.06369782 -0.092868075 0.1325054 -0.11537044 -0.05700579 -0.10645381
0.00051823107 0.110612646 0.07006427 -0.02070636 0.018334268 -0.07863171 0.11607246 0.021287309
-0.041807078 0.08014381 0.055217054 -0.092436105 -0.010678244 0.09420694 -0.0142632425 -0.03225027
0.0041929693 -0.033313468 -0.10598615 -0.09353126 -0.06446291 0.096264094 0.10423803 0.062536664
0.13000366 0.05629461 -0.08075254 -0.064630285 0.07100527 0.035960138 0.04249381 -0.09151443
0.041319788 0.09617998 0.097038284 -0.1034786 0.025194518 0.10093236 -0.00028267165 0.018208232
0.039164644 -0.056977645 0.0040034447 0.02941295 -0.1077531 0.06310987 0.0737196 0.07485546
-0.032543074 0.09427581 -0.014435164 -0.03645262 0.10802963 -0.036507968 0.004753169 -0.10938833
0.018592926 -0.050327487 0.00035205955 -0.025741588 -0.043096 -0.075280964 -0.12270325 0.068563946
0.035251953 -0.036098473 -0.05659305 -0.107917696 0.005942119 -0.11426283 -0.050247207 0.08418989
-0.14817923 0.09770101 0.10309988 -0.12085948 -0.11553524 0.013648296 -0.04828007 -0.028238388
-0.10824983 0.07720593 0.06748352 0.084081955 0.012951941 -0.08942116 -0.05703154 0.12621087
-0.06660623 -0.01625557 0.08363404 -0.042951696 0.039755464 0.10836295 -0.04545778 0.046901032
-0.034847047 -0.09961696 0.043321457 -0.0024891684 0.025092188 -0.0687415 0.058401383 -0.03727333
-0.06863936 -0.10999884 -0.0053350907 -0.10559393 0.09676988 0.043760266 0.032173704 0.029287523
0.08455434 -0.0072057866 0.098745696 -0.13702099 0.11326858 -0.101302505 -0.052229535 0.0370979
-0.08420328 0.10389032 -0.027203437 -0.081270486 -0.04879628 -0.04919091 0.07155998 0.12868284
-0.026136165 -0.13670887 0.016096015 -0.07451172 -0.03418441 0.035519075 0.03691844 -0.12058591
-0.025320396 0.06951468 0.089670196 0.1039399 -0.0008125591 0.038244423 -0.038992837 0.04308928
0.07481398 0.013364742 0.01167434 -0.10688613 0.057901606 -0.08356199 -0.03568581 -0.0073557347
00000000: 4ddf cb3d 79fa 0abd 7c8b c43c e964 9bbd
00000010: d7d9 813d b8c8 e9bd b296 493d 6451 e13d
00000020: 4837 cebc 801c 2f3d fc75 593c 50cd 7cbd
00000030: a949 ac3d b099 9ebd ba5c 563c db9b 53bd
00000040: a97f 66bd 0ae6 9f3c e5b3 21bc 5182 433d
00000050: 4ea2 e03d 4947 c0bc ed4c 21bd 4083 55bc
00000060: 930f b33b 352a a1bd efd7 fbbc 08f9 05bd
00000070: e473 9cbd 01ec adbd 1291 af3d 5a1f 82bd
00000080: 8970 b53d ced1 9d3d 5363 c13d 3c22 ba3c
00000090: f8cc 0ebc c397 88bd 0b17 933d 8a06 b93b
000000a0: 72d8 aa3d e5b3 abbd 143e 5d3d 0b40 a5bc
000000b0: 8857 323c 6741 b73d baa3 c3bd 2456 ca3d
000000c0: a00a a03b d678 a0bd fe95 36bd 5bbd b63d
000000d0: 374a d4bc 928b 353d 9897 1dbd c1b5 003d
000000e0: e607 dc3d 7aa8 8ebc 85e0 ae3d 7b96 843d
000000f0: 425e 723d d2e4 f6bd 24be babd ff5c ca3b
00000100: 33c0 063d b569 7fbd 1f91 663d a43c c93c
00000110: 04dd 663c a6fb 2ebd be3d 00bd 99a8 8bbc
00000120: d93a dc3c e3c9 a53d a77c c53d d1e1 943d
00000130: 874b a3bc 3f5f fdbd de9a c9bd 34e7 e6bc
00000140: 6fca 58bd ee9b dfbd 1a76 8ebd 350f 83bc
00000150: ca41 cdbd 3fd7 623b d2d1 cbbc b64c 43bd
00000160: 9888 82bd bc4c b2bc 46b1 993d e2ae c03d
00000170: ac28 dc3b 25d1 6a3d 8da6 853d 1fb5 03be
00000180: 36d0 7b3d 037e f5bc 0174 823d 9e31 bebd
00000190: 7faf 073e 5647 ecbd e77e 69bd 7504 dabd
000001a0: e6d9 073a e288 e23d db7d 8f3d 62a0 a9bc
000001b0: bf31 963c a909 a1bd 66b7 ed3d b962 ae3c
000001c0: e63d 2bbd 7022 a43d 472b 623d 244f bdbd
000001d0: cdf3 2ebc 91ef c03d 60b0 69bc dc18 04bd
000001e0: 2d65 893b b473 08bd 440f d9bd 518d bfbd
000001f0: 2105 84bd 1c26 c53d c07a d53d 3913 803d
00000200: ae1f 053e 2d95 663d 9661 a5bd e25c 84bd
00000210: 366b 913d f04a 133d fd0d 2e3d eb6b bbbd
00000220: f03e 293d 02fa c43d 02bc c63d 97ec d3bd
00000230: bc64 ce3c a0b5 ce3d 8c33 94b9 6e29 953c
00000240: 1b6b 203d 6461 69bd 542f 833b 6df3 f03c
00000250: a8ad dcbd bf3f 813d 4dfa 963d d24d 993d
00000260: e34b 05bd ad13 c13d 7781 6cbc 584f 15bd
00000270: a33e dd3d 6189 15bd 79c0 9b3b fd06 e0bd
00000280: 3150 983c 3224 4ebd a294 b839 06e0 d2bc
00000290: 6e85 30bd e82c 9abd d74b fbbd 416b 8c3d
000002a0: 5a64 103d fedb 13bd 1dce 67bd f403 ddbd
000002b0: 1bb6 c23b a102 eabd 04d0 4dbd c06b ac3d
000002c0: 4cbc 17be 7817 c83d 0826 d33d 2d85 f7bd
000002d0: bd9d ecbd 1a9d 5f3c 53c1 45bd 3154 e7bc
000002e0: 16b2 ddbd 251e 9e3d cd34 8a3d 2933 ac3d
000002f0: 6134 543c 7122 b7bd e799 69bd 6c3d 013e
00000300: d968 88bd 672a 85bc 5348 ab3d 1eee 2fbd
00000310: a0d6 223d 65ed dd3d f031 3abd 4c1b 403d
00000320: c7bb 0ebd fa03 ccbd d771 313d 5121 23bb
00000330: 228e cd3c 58c8 8cbd 4a36 6f3d ebab 18bd
00000340: cb92 8cbd 1247 e1bd fcd1 aebb a141 d8bd
00000350: 492f c63d f73d 333d 93c8 033d 63ec ef3c
00000360: d32a ad3d 851e ecbb 2f3b ca3d 3b4f 0cbe
00000370: 5bf9 e73d b077 cfbd a3ee 55bd f8f3 173d
00000380: c572 acbd 73c4 d43d bed9 debc 2471 a6bd
00000390: 9cde 47bd 687c 49bd 0a8e 923d 6fc5 033e
000003a0: 831b d6bc 69fd 0bbe cadb 833c 9a99 98bd
000003b0: f404 0cbd 737c 113d ca37 173d bff5 f6bd
000003c0: b86c cfbc b65d 8e3d 02a5 b73d 71de d43d
000003d0: eb01 55ba 2fa6 1c3d f4b6 1fbd 637e 303d
000003e0: 1238 993d caf7 5a3c bb45 3f3c 1ee7 dabd
000003f0: 3c2a 6d3d 8c22 abbd 492b 12bd 6008 f1bb

encoder.conv4.bias f4 [32]
0.045957718 0.074842475 -0.08088879 -0.08596561 -0.02580309 0.08896878 -0.06683269 0.08940581
0.071139336 0.067718156 -0.12631844 -0.0074014976 0.041302633 -0.048489816 0.006449891 0.06805276
0.07393521 -0.10135615 -0.0037185624 -0.0205614 -0.01897169 0.053005327 -0.045037106 -0.02622084
-0.06381799 0.076673895 0.07473816 -0.004756812 0.053525593 0.03657529 -0.021425275 0.0005101197
00000000: 293e 3c3d 0347 993d 06a9 a5bd bd0e b0bd
00000010: 0061 d3bc 4435 b63d 94df 88bd 651a b73d
00000020: 80b1 913d d1af 8a3d 9f59 01be 4388 f2bb
00000030: f32c 293d 429d 46bd 9b59 d33b 3f5f 8b3d
00000040: 586b 973d d093 cfbd 20b3 73bb 6270 a8bc
00000050: 856a 9bbc 1d1c 593d d478 38bd 16cd d6bc
00000060: 02b3 82bd 3407 9d3d 5210 993d 08df 9bbb
00000070: a73d 5b3d f9cf 153d 0f84 afbc 8eb9 053a

encoder.fc1.weight f4 [64, 608]
0.020785106 -0.0007086943 0.013563409 -0.010450382 0.016335987 -0.03469926 0.009810486 -0.015833084
0.024998566 -0.003496947 -0.020462474 -0.04064329 -0.0067727515 -0.021300886 -0.03370495 -0.03029961
-0.034359783 0.023998825 -0.04822764 -0.011025867 0.021028569 0.051992264 0.057897516 0.032708652
0.04007096 -0.00885534 0.013267807 0.036971994 -0.015546632 0.022885276 -0.0056837625 -0.02993032
-0.027364027 -0.025013741 -0.017412065 -0.022462433 -0.011821526 -0.042888038 0.03694978 0.026511716
-0.012612944 0.015472749 0.031175904 0.05750713 -0.03043922 0.028036337 0.031060247 -0.039512143
-0.031078832 0.049097903 0.02193927 -0.029318873 -0.048883937 0.021221133 -0.024888417 -0.0028217782
0.013088741 -0.004102727 0.026899563 0.03408835 0.025693381 0.012543051 0.023067346 0.024968209
0.02766437 -0.016201409 0.0023831257 0.014058698 -0.028721264 0.033205777 0.0028367783 -0.016564006
-0.020584852 -0.042967208 -0.05839649 0.024387572 0.014898928 -0.023851682 -0.023870809 -0.02489818
-0.011412384 -0.01661889 -0.050445765 -0.002916639 -0.04633839 -0.024337716 0.033615857 0.0051782895
-0.059872255 -0.0068640937 -0.0057253325 -0.039506618 0.01801841 0.0053307177 -0.047766183 0.05400613
0.031485334 0.00068077724 -0.004782214 -0.03984207 0.017281188 0.042633284 0.021402886 0.043096714
0.033616215 0.016538855 -0.009616614 0.012398242 0.020111222 0.009224148 0.035142917 -0.044810172
0.024909766 0.0073991087 0.024539255 -0.015613113 0.063356794 0.04204659 -0.028308723 -0.043371532
-0.022959612 0.000861054 0.0028818795 -0.0073452047 0.013537655 0.03119977 -0.010131766 0.012250399
0.012018868 0.012759719 -0.023534184 0.008584906 0.024213068 0.046902783 -0.013787276 0.027240856
-0.0045763734 0.017853767 -0.04096539 -0.012956184 -0.018856067 0.011093645 -0.01888531 0.02659699
-0.018490188 0.012105812 -0.024217417 0.0014342997 -0.04407269 0.00070403883 0.03953146 0.0006947149
-0.033439517 0.028684264 0.01508786 0.012180758 -0.018653326 -0.0066228295 -0.048152078 0.04688987
0.03139112 -0.014662779 0.02960714 -0.0067413966 -0.03761532 -0.03441762 0.0410514 0.017067688
-0.0032257847 0.0035829388 -0.02404981 0.0017671692 0.0015703422 0.016910136 -0.032806065 0.014333456
0.008549914 -0.017464794 -0.01196877 0.018374177 -0.021028113 -0.0073855845 -0.07971515 0.035275646
-0.015148372 -0.015389965 0.058580764 -0.02420184 -0.018287642 0.034304984 0.019518582 -0.013226017
0.0124841025 0.012220419 -0.04315821 -0.010237284 0.01311273 -0.006660045 0.037078615 -0.033815455
-0.010996714 -0.038597815 -0.03380886 0.022331325 0.012111054 -0.016939431 -0.05683589 -0.06273416
0.022330305 0.037589803 0.042898674 -0.008154839 0.013026856 0.0033306126 -0.015518275 0.0027129848
-0.030753065 0.021030804 0.02080013 0.028732942 0.014146372 0.01131162 -0.016051706 0.029054683
0.00059305906 0.011104861 -0.023413295 0.048892118 0.014209259 0.02558566 -0.025003795 0.042268883
-0.0043873047 0.028146086 0.017662577 -0.026014274 -0.0089013595 0.009300194 0.020771617 0.040621333
-0.014062066 -0.0028512303 -0.0034603535 -0.022595664 0.043263264 -0.020580187 -0.025669087 -0.02048307
0.004600426 -0.019683596 0.038892865 0.04214092 -0.030782975 -0.023758298 0.03758707 0.014004397
00000000: 8745 aa3c abc7 39ba 1039 5e3c 1438 2bbc
00000010: 0cd3 853c d020 0ebd 29bc 203c 62b4 81bc
00000020: cbc9 cc3c 092d 65bb eba0 a7bc 9479 26bd
00000030: f5ed ddbb 327f aebc 340e 0abd e336 f8bc
00000040: d8bc 0cbd 2f99 c43c 598a 45bd d7a5 34bc
00000050: 1b44 ac3c d7f5 543d f225 6d3d 82f9 053d
00000060: 7221 243d fd15 11bc 3761 593c f26f 173d
00000070: 4db7 7ebc e779 bb3c db3e babb 6e30 f5bc
00000080: 862a e0bc 9ee9 ccbc bfa3 8ebc 2303 b8bc
00000090: 13af 41bc 5eab 2fbd a758 173d 192f d93c
000000a0: 85a6 4ebc 6a81 7d3c 9c64 ff3c 998c 6b3d
000000b0: ac5b f9bc 76ac e53c 0f72 fe3c 7cd7 21bd
000000c0: 0999 febc e21a 493d fcb9 b33c 222e f0bc
000000d0: 863a 48bd f1d7 ad3c cbe2 cbbc 95ed 38bb
000000e0: 2972 563c 2b70 86bb 795c dc3c 3aa0 0b3d
000000f0: ed7a d23c 5e81 4d3c bbf7 bc3c 218a cc3c
00000100: 64a0 e23c d1b8 84bc 372e 1c3b 7456 663c
00000110: db48 ebbc c802 083d 3ee9 393b 3db1 87bc
00000120: 90a1 a8bc 62fe 2fbd 2831 6fbd 72c8 c73c
00000130: a21a 743c 9a64 c3bc b78c c3bc 45f7 cbbc
00000140: 02fb 3abc 5724 88bc 38a0 4ebd 1525 3fbb
00000150: 53cd 3dbd e45f c7bc c8b0 093d a4ae a93b
00000160: 9c3c 75bd 31ec e0bb 929b bbbb b1d1 21bd
00000170: 589b 933c 4dad ae3b 79a6 43bd 8835 5d3d
00000180: c4f6 003d 3076 323a 1eb4 9cbb 7031 23bd
00000190: 4791 8d3c 3da0 2e3d 1b55 af3c 2e86 303d
000001a0: 28b1 093d 7e7c 873c 018f 1dbc ff21 4b3c
000001b0: 4ac0 a43c e120 173c 05f2 0f3d df8a 37bd
000001c0: 910f cc3c 3974 f23b 8c06 c93c 24ce 7fbc
000001d0: 35c1 813d 0c39 2c3d b2e7 e7bc 59a6 31bd
000001e0: cc15 bcbc 5bb8 613a eadd 3c3b 0bb0 f0bb
000001f0: 0acd 5d3c a996 ff3c b5ff 25bc e6b5 483c
00000200: c9ea 443c 240e 513c c3ca c0bc b5a7 0c3c
00000210: 7c5a c63c 221d 403d 07e4 61bc 3728 df3c
00000220: 67f5 95bb 1042 923c 53cb 27bd 2d46 54bc
00000230: 0a78 9abc 1fc2 353c 5eb5 9abc eee1 d93c
00000240: bc78 97bc 7557 463c 9b63 c6bc 1dff bb3a
00000250: 9185 34bd 3f8f 383a bdeb 213d 871d 363a
00000260: e0f7 08bd 43fb ea3c 1233 773c cd91 473c
00000270: dcce 98bc 5204 d9bb 1d3b 45bd 980f 403d
00000280: fa93 003d 273c 70bc ac8a f23c efe6 dcbb
00000290: 8612 1abd 7ef9 0cbd 8325 283d 89d1 8b3c
000002a0: b067 53bb bdcf 6a3b 1b04 c5bc 5ca0 e73a
000002b0: f1d3 cd3a 2087 8a3c a75f 06bd dfd6 6a3c
000002c0: f014 0c3c 5412 8fbc a918 44bc 7185 963c
000002d0: 2643 acbc c602 f2bb b241 a3bd 327d 103d
000002e0: e130 78bc 3126 7cbc 62f2 6f3d f042 c6bc
000002f0: f7cf 95bc 6283 0c3d 6fe5 9f3c f0b1 58bc
00000300: 1f8a 4c3c 2738 483c aac6 30bd 48ba 27bc
00000310: c7d6 563c 823c dabb bfdf 173d 1382 0abd
00000320: 902b 34bc be18 1ebd 297b 0abd 2ff0 b63c
00000330: 716d 463c 90c4 8abc c0cc 68bd c47a 80bd
00000340: 0bee b63c c4f7 193d 85b6 2f3d e09b 05bc
00000350: 986e 553c 6846 5a3b 5d40 7ebc 55cc 313b
00000360: daed fbbc cb48 ac3c 0965 aa3c 5961 eb3c
00000370: 2fc6 673c 5f54 393c de7e 83bc 1604 ee3c
00000380: 8577 1b3a 2af1 353c 3dcd bfbc 1a43 483d
00000390: f4cd 683c 0599 d13c c2d4 ccbc 2322 2d3d
000003a0: 61c3 8fbb 9f92 e63c 1cb1 903c e31b d5bc
000003b0: 02d7 11bc d75f 183c 3d29 aa3c 8e62 263d
000003c0: 9464 66bc b5db 3abb 19c7 62bb 8b1a b9bc
000003d0: d234 313d c897 a8bc fa47 d2bc 1ccc a7bc
000003e0: 2cbf 963b 7e3f a1bc 204e 1f3d f59b 2c3d
000003f0: 942c fcbc c3a0 c2bc e6f4 193d b372 653c

encoder.fc1.bias f4 [64]
0.07915619 0.048061285 -0.009961946 -0.023706492 0.0081240805 0.024139669 0.026035095 -0.05944718
0.012533755 -0.010704238 0.011578411 0.010466971 0.0070025874 0.007974743 -0.0024920308 -0.03707966
-0.013350817 0.0043720254 -0.0294648 -0.002074632 -0.021531483 0.023349665 0.0077641923 -0.049260847
-0.016243324 -0.06418889 0.028381795 -0.01832254 0.02674267 0.040768575 0.005526955 -0.07476693
-0.007840656 0.060561992 -0.012421559 0.00345165 -0.011870201 0.026168853 0.015539695 0.0086982865
-0.016687265 0.01442675 0.020681059 -0.008230816 0.06052111 0.11175579 -0.06677558 -0.04907823
0.050021697 -0.053111155 -0.03243291 -0.055026084 -0.022942642 0.022762192 0.025338503 -0.012773399
-0.09407167 0.09227554 -0.009542866 0.12559536 -0.0063530486 -0.021322228 0.046719175 0.029750649
00000000: a41c a23d e9db 443d 6e37 23bc 1e34 c2bc
00000010: dd1a 053c 8ec0 c53c 8d47 d53c e37e 73bd
00000020: 615a 4d3c d460 2fbc 60b3 3d3c a97d 2b3c
00000030: f675 e53b 7fa8 023c 5751 23bb d7e0 17bd
00000040: 63bd 5abc 3543 8f3b 2a60 f1bc 8df6 07bb
00000050: cb62 b0bc cc47 bf3c c46a fe3b bec5 49bd
00000060: b810 85bc 7775 83bd f080 e83c 2719 96bc
00000070: 7213 db3c f3fc 263d 751b b53b 671f 99bd
00000080: 1876 00bc da0f 783d cb83 4bbc 1435 623b
00000090: 3b7b 42bc 1060 d63c 349a 7e3c 4283 0e3c
000000a0: bbb3 88bc 2d5e 6c3c 536b a93c 8bda 06bc
000000b0: fce4 773d 38e0 e43d a3c1 88bd 4106 49bd
000000c0: 8de3 4c3d 158b 59bd 5fd8 04bd 0863 61bd
000000d0: 35f2 bbbc c777 ba3c b192 cf3c 8547 51bc
000000e0: a6a8 c0bd f5fa bc3d ae59 1cbc 129c 003e
000000f0: 3c2d d0bb f4ab aebc 9b5c 3f3d a2b7 f33c

encoder.fc2.weight f4 [16, 64]
0.1092063 0.012622243 0.071274616 -0.036779463 0.08930047 0.020540085 -0.07275914 -0.043171074
-0.071342066 -0.07316179 0.061348494 -0.035739206 -0.10481838 0.09752792 0.08782475 0.07081528
-0.053398006 0.0463928 -0.11066271 0.0714139 -0.08920378 0.053268746 0.09531668 -0.09131298
0.01625296 0.04123364 0.0624556 -0.03983817 -0.11723752 -0.053386312 0.07892735 0.11809073
-0.055263422 0.06509512 0.05167013 0.04487483 -0.122375116 0.026763702 0.10840106 -0.0022159843
-0.115598924 0.03797753 -0.024038916 -0.024105553 -0.13135134 0.035370048 0.08697565 -0.02259983
0.06231746 0.011990047 0.102262184 0.08770442 -0.04364691 0.073915586 -0.115961544 -0.13254361
0.10247814 0.030654678 -0.03681501 -0.029497746 0.005467895 0.0009408433 -0.12583274 -0.11215413
-0.05835639 -0.0049622627 0.10969791 0.028430799 -0.039593674 0.033623815 -0.020733602 0.056822184
-0.09587358 0.020823186 0.0761433 0.05922996 -0.046427183 -0.018506765 -0.058766924 0.0927269
0.027656402 0.033085648 0.007085931 0.0630859 0.09991285 0.03616742 -0.051129114 0.03308528
0.09731576 -0.010552018 -0.06110735 -0.0144600235 -0.00899734 0.1005013 -0.0076110316 -0.13205075
0.1288953 0.031899303 0.09482935 -0.13575387 0.05227238 -0.0073970957 0.035708178 -0.07729063
-0.062211514 0.053359084 -0.08390783 -0.098362796 -0.0899326 0.07864182 0.09343375 0.12992077
0.12449608 0.016694322 0.074870065 -0.11930971 -0.100192964 -0.07621374 -0.008991596 -0.026476698
-0.061501864 0.10404918 -0.07190596 0.030378727 -0.03752771 0.044645313 0.10311523 -0.10380767
0.0034875413 -0.013672139 -0.01345661 0.050469823 -0.07300094 0.03567635 0.047515523 0.07084952
-0.071433306 0.0859264 0.016053747 0.0096464 -0.024952792 0.00058074296 -0.12156411 0.081167914
0.027465563 0.04619441 -0.034444693 -0.10183385 0.044378202 -0.019472376 -0.02648498 -0.12954803
-0.035109106 -0.0571779 -0.13772725 -0.1369972 0.052800443 -0.07562485 0.07973828 0.10527235
-0.017116545 -0.11149346 0.10998824 0.004407458 0.0779833 -0.09947284 0.031236432 0.05577075
0.042373933 -0.026643476 0.012728 -0.035605393 0.040516745 -0.020312944 0.12682031 0.001563133
0.04647722 -0.08466226 -0.024463372 -0.09238589 0.052845813 -0.06293877 0.021955421 -0.050274048
0.1135421 0.022387473 0.09353694 -0.049433917 -0.018547146 -0.0719982 -0.0055260127 0.12948999
0.09685544 -0.028145744 -0.12570977 0.06784249 0.025769707 0.09972096 0.09823553 0.09452407
0.02218198 0.09217342 0.051250994 0.110562645 0.0043294895 0.031595577 0.042440888 0.13363348
0.053072322 0.034647763 -0.09955398 -0.13207285 -0.015512959 -0.07169397 -0.080161236 -0.02846935
0.09030205 0.038169213 -0.13690339 -0.121298134 -0.06676846 -0.011790006 -0.02226321 -0.03762836
-0.09757981 -0.023654038 -0.04681532 -0.03310345 -0.061448462 0.00878605 0.07819196 -0.108237684
-0.014469769 -0.035841357 0.0008661014 -0.07420373 0.10812707 0.005592514 0.03675524 -0.1156359
-0.09564734 0.121304534 -0.12006963 -0.102135204 -0.014395295 -0.036677975 -0.045198817 -0.038157124
-0.077674575 -0.051336993 0.04890603 0.03655317 -0.103797875 -0.07350102 0.037649103 0.10732625
00000000: 8da7 df3d 86cd 4e3c 6df8 913d 10a6 16bd
00000010: 2ae3 b63d ae43 a83c be02 95bd 27d4 30bd
00000020: ca1b 92bd d9d5 95bd 8f48 7b3d 4663 12bd
00000030: 05ab d6bd b8bc c73d 76dd b33d 9a07 913d
00000040: deb7 5abd 6006 3e3d 22a3 e2bd 7341 923d
00000050: 79b0 b6bd 5430 5a3d 6435 c33d 4d02 bbbd
00000060: ed24 853c 9be4 283d 71d1 7f3d 592d 23bd
00000070: 3a1a f0bd 9bab 5abd aaa4 a13d 8dd9 f13d
00000080: e65b 62bd 9750 853d 0fa4 533d abce 373d
00000090: ce9f fabd 8d3f db3c 6001 de3d 0c3a 11bb
000000a0: 21bf ecbd 548e 1b3d 43ed c4bc 0279 c5bc
000000b0: f780 06be 2fe0 103d 4a20 b23d 4723 b9bc
000000c0: 9840 7f3d e771 443c d66e d13d 609e b33d
000000d0: 1ac7 32bd 0e61 973d 3f7d edbd 83b9 07be
000000e0: 0fe0 d13d 851f fb3c 56cb 16bd 42a5 f1bc
000000f0: 072c b33b eda2 763a 4cda 00be 11b1 e5bd
00000100: 1c07 6fbd 7a9a a2bb 4ca9 e03d b5e7 e83c
00000110: fa2c 22bd 20b9 093d 84d9 a9bc 61be 683d
00000120: 5e59 c4bd 6395 aa3c 05f1 9b3d 1d9b 723d
00000130: 6e2a 3ebd 809b 97bc 96b5 70bd 9ae7 bd3d
00000140: ae8f e23c d184 073d 1931 e83b 2e33 813d
00000150: 1c9f cc3d 4a24 143d c36c 51bd 6e84 073d
00000160: 7c4d c73d 5fe2 2cbc b34b 7abd bce9 6cbc
00000170: 9469 13bc a0d3 cd3d f665 f9bb 5038 07be
00000180: 21fd 033e d8a8 023d e435 c23d 1003 0bbe
00000190: 901b 563d 5663 f2bb bd42 123d 8d4a 9ebd
000001a0: 80d1 7ebd 0e8f 5a3d ded7 abbd 6f72 c9bd
000001b0: 952e b8bd f60e a13d 325a bf3d f309 053e
000001c0: cdf7 fe3d 88c2 883c 7a55 993d a658 f4bd
000001d0: f831 cdbd f315 9cbd 7d51 13bc a9e5 d8bc
000001e0: 61e9 7bbd bd17 d53d 6f43 93bd cfdc f83c
000001f0: a8b6 19bd 01de 363d 142e d33d 1e99 d4bd
00000200: 3c8f 643b 1b01 60bc 1d79 5cbc 72b9 4e3d
00000210: 8481 95bd 5d21 123d a39f 423d 8e19 913d
00000220: a04b 92bd 2efa af3d 2683 833c ef0b 1e3c
00000230: cc69 ccbc 003d 183a 9bf6 f8bd 5d3b a63d
00000240: 76ff e03c 5a36 3d3d e115 0dbd 448e d0bd
00000250: ebc5 353d 8884 9fbc 07f7 d8bc 3da8 04be
00000260: 91ce 0fbd 6033 6abd 5f08 0dbe fe48 0cbe
00000270: 4745 583d 34e1 9abd d34d a33d 0899 d73d
00000280: ff37 8cbc af56 e4bd 8441 e13d 706c 903b
00000290: b5b5 9f3d 6bb8 cbbd 8ce3 ff3c df6f 643d
000002a0: 4a90 2d3d 6b43 dabc 1a89 503c f6d6 11bd
000002b0: e3f4 253d 5567 a6bc 2fdd 013e 0ae2 cc3a
000002c0: e65e 3e3d 6863 adbd 6967 c8bc d034 bdbd
000002d0: da74 583d 0be6 80bd dbdb b33c 29ec 4dbd
000002e0: c388 e83d ef65 b73c 4c90 bf3d 387b 4abd
000002f0: 2ff0 97bc cb73 93bd 8e13 b5bb 0699 043e
00000300: 255c c63d e791 e6bc 10ba 00be 01f1 8a3d
00000310: fe1a d33c 813a cc3d b62f c93d d695 c13d
00000320: fcb6 b53c 6bc5 bc3d 90ec 513d ab6e e23d
00000330: 64de 8d3b 5d6a 013d 7fd6 2d3d 37d7 083e
00000340: 5d62 593d d0ea 0d3d f5e2 cbbd 1b3e 07be
00000350: 112a 7ebc 4ad4 92bd 932b a4bd 8e38 e9bc
00000360: 48f0 b83d 5257 1c3d 6730 0cbe 286b f8bd
00000370: e7bd 88bd df2a 41bc 5661 b6bc 3220 1abd
00000380: ecd7 c7bd 1dc6 c1bc 6cc1 3fbd 7c97 07bd
00000390: 62b1 7bbd 5df3 0f3c 1b23 a03d b8ab ddbd
000003a0: 9c12 6dbc 63ce 12bd 150b 633a 20f8 97bd
000003b0: ba71 dd3d 6841 b73b aa8c 163d 84d2 ecbd
000003c0: c1e2 c3bd 836e f83d 11e7 f5bd 432c d1bd
000003d0: 3eda 6bbc a53b 16bd 6522 39bd a54a 1cbd
000003e0: d913 9fbd bd46 52bd b051 483d c7b8 153d
000003f0: fb93 d4bd b487 96bd f235 1a3d ddcd db3d

encoder.fc2.bias f4 [16]
0.08217638 0.0475657 -0.13647562 0.09030184 0.11985075 0.04646266 -0.039202906 -0.0020077303
0.0071072336 -0.06520698 -0.044341035 -0.119544715 0.028489621 0.0055078724 -0.030448446 0.07394322
00000000: 174c a83d 40d4 423d 44c0 0bbe 2cf0 b83d
00000010: 4f74 f53d a14f 3e3d 3a93 20bd 2094 03bb
00000020: cce3 e83b 3d8b 85bd f29e 35bd dcd3 f4bd
00000030: 1163 e93c 627b b43b 056f f9bc 8b6f 973d

encoder.fc21.weight f4 [4, 16]
-0.21237358 0.15510058 0.17120445 -0.13007978 0.11851787 0.19749509 -0.07284737 0.09437033
-0.017518565 0.0016570933 0.10154594 0.21979056 -0.22054385 0.079404384 0.17410338 -0.1177702
-0.081752956 -0.1409718 0.040103838 -0.14107774 0.17540127 -0.026236355 -0.18780658 0.13412946
0.15975927 -0.059255272 0.23408349 -0.110639244 -0.048252076 0.13158639 0.05416439 -0.17194512
-0.049443837 0.14998652 -0.06293849 -0.004124826 0.054287847 -0.12601228 -0.04410415 0.1789087
0.050627727 0.05436434 0.18995908 -0.06911884 -0.1868344 -0.16658162 0.0062534413 -0.039465282
0.052331608 -0.1128319 -0.017038478 -0.20386043 0.21549357 0.014430581 0.022311764 -0.009104124
0.10613754 -0.076279566 -0.08977446 0.24829853 -0.11515466 -0.04373545 0.09167599 0.03839189
00000000: 7678 59be b0d2 1e3e 3850 2f3e a233 05be
00000010: 7fb9 f23d 273c 4a3e 0031 95bd 3b45 c13d
00000020: 1883 8fbc d332 d93a 51f7 cf3d c710 613e
00000030: 3fd6 61be c49e a23d 2848 323e 8131 f1bd
00000040: 186e a7bd e95a 10be ec43 243d af76 10be
00000050: 649c 333e a0ed d6bc 5e50 40be 3c59 093e
00000060: ef97 233e a8b5 72bd 95b3 6f3e d496 e2bd
00000070: f8a3 45bd 95be 063e 7bdb 5d3d 6212 30be
00000080: 9f85 4abd 1196 193e e5e5 80bd 8c29 87bb
00000090: ef5c 5e3d 5d09 01be 8ea6 34bd d833 373e
000000a0: 055f 4f3d 24ad 5e3d a284 423e 2e8e 8dbd
000000b0: 8451 3fbe 5f94 2abe abe9 cc3b 59a6 21bd
000000c0: ab59 563d 6914 e7bd 4794 8bbc cac0 50be
000000d0: 59aa 5c3e 3e6e 6c3c 29c7 b63c 7729 15bc
000000e0: a35e d93d 7638 9cbd acdb b7bd f841 7e3e
000000f0: 35d6 ebbd f123 33bd 9fc0 bb3d d040 1d3d

encoder.fc21.bias f4 [4]
-0.22740917 0.16729532 -0.18586822 0.06469471
00000000: f3dd 68be 774f 2b3e 3d54 3ebe a97e 843d

encoder.fc22.weight f4 [4, 16]
-0.24686973 0.051541846 0.16753852 0.042559195 0.0034900042 -0.27452335 0.09627355 -0.07936473
0.08620007 0.1148916 -0.25372124 0.006219244 -0.13863376 -0.06769766 0.10246709 -0.3029059
-0.12804116 0.0972997 0.16551667 -0.13617687 0.13100299 -0.22587655 -0.21153778 -0.21489686
-0.0625495 0.032907024 -0.31489187 -0.10770426 -0.085466854 0.1404316 -0.026781524 -0.14312173
0.076692246 -0.29752395 0.18837197 0.09940124 -0.12613879 -0.261531 0.026830517 -0.0015321303
-0.12848765 -0.031659782 -0.0478411 0.045634206 -0.20946403 -0.055389144 -0.03676171 -0.034325194
0.12054682 -0.2288296 -0.104543224 -0.30294606 -0.06844696 0.05544151 -0.26290584 0.10777896
0.014284284 -0.25126675 -0.09397288 -0.013119701 -0.20429276 -0.22119536 -0.19131261 -0.09677262
00000000: 6bcb 7cbe 8b1d 533d 388f 2b3e 8d52 2e3d
00000010: 8eb8 643b 538e 8cbe 112b c53d fa89 a2bd
00000020: aa89 b03d 4a4c eb3d c0e7 81be cdca cb3b
00000030: 02f6 0dbe 12a5 8abd 44da d13d 7b16 9bbe
00000040: 391d 03be 1145 c73d 347d 293e f371 0bbe
00000050: a625 063e 2f4c 67be 5c9d 58be ec0d 5cbe
00000060: f419 80bd 84c9 063d 8239 a1be 0d94 dcbd
00000070: 3f09 afbd 4dcd 0f3e ed64 dbbc 818e 12be
00000080: d310 9d3d 0f55 98be 95e4 403e e192 cb3d
00000090: 872a 01be 64e7 85be accb db3c c3d1 c8ba
000000a0: 4492 03be b0ad 01bd 07f5 43bd efea 3a3d
000000b0: bd7d 56be badf 62bd 7293 16bd 9398 0cbd
000000c0: 40e1 f63d 4f52 6abe c21a d6bd bf1b 9bbe
000000d0: eb2d 8cbd a316 633d 989b 86be 37bb dc3d
000000e0: a108 6a3c 09a6 80be da74 c0bd 04f4 56bc
000000f0: 1f32 51be 0981 62be 74e7 43be b930 c6bd

encoder.fc22.bias f4 [4]
-0.09694914 0.106605716 -0.19241393 0.059845675
00000000: 458d c6bd 1954 da3d 2808 45be bd20 753d

encoder.bn1.weight f4 [16]
1.0 0.9691816 0.95613 0.9478904 1.0 1.0 0.9511301 0.9613214
0.9557888 0.95118004 0.9519749 0.94011897 0.96194303 0.9823505 1.0 0.9811019
00000000: 0000 803f 491c 783f f0c4 743f f2a8 723f
00000010: 0000 803f 0000 803f 437d 733f 2919 763f
00000020: 93ae 743f 8980 733f a1b4 733f a3ab 703f
00000030: e641 763f 537b 7b3f 0000 803f 7e29 7b3f

encoder.bn1.bias f4 [16]
0.04087161 -0.004055289 -0.0017858314 -0.020609379 -0.010765189 -0.0071066404 0.0054510753 -0.010999567
-0.009037012 0.004715676 -0.0006923703 -0.0037369113 0.017672831 -0.0044179885 -0.020185284 0.015780408
00000000: fd68 273d 3be2 84bb 8f12 eaba 00d5 a8bc
00000010: 7a60 30bc d2de e8bb ef9e b23b 8737 34bc
00000020: fa0f 14bc f585 9a3b 2f80 35ba f8e6 74bb
00000030: 9dc6 903c c6c4 90bb 9c5b a5bc ea45 813c

encoder.bn1.running_mean f4 [16]
0.0 0.43605492 0.28919035 0.46641096 0.0 0.0 0.55059457 0.4140953
0.06470498 0.69960296 0.34890923 0.79658973 0.15598243 0.047911357 0.0 0.0113861
00000000: 0000 0000 9742 df3e c210 943e 6bcd ee3e
00000010: 0000 0000 0000 0000 c4f3 0c3f 4d04 d43e
00000020: 0b84 843d 2e19 333f 3ba4 b23e 4eed 4b3f
00000030: dcb9 1f3e b33e 443d 0000 0000 c48c 3a3c

encoder.bn1.running_var f4 [16]
3.4195133e-16 0.09462604 0.0813221 0.07436945 3.4195133e-16 3.4195133e-16 0.022792015 0.06914153
0.010829888 0.005369445 0.10372115 0.11309896 0.04344605 0.004099022 3.4195133e-16 0.0004161801
00000000: 1c1f c525 4ccb c13d 338c a63d 034f 983d
00000010: 1c1f c525 1c1f c525 52b6 ba3c 139a 8d3d
00000020: d86f 313c 2bf2 af3b c16b d43d 6da0 e73d
00000030: 7cf4 313d 1751 863b 1c1f c525 bf32 da39

encoder.bn2.weight f4 [16]
0.94469833 0.93353593 0.93619865 0.9683009 0.9332057 0.9999564 0.9265518 0.98528
0.9431676 0.96560675 0.9121721 0.94488084 0.9724014 0.97984177 0.95260143 0.94584244
00000000: c0d7 713f 36fc 6e3f b7aa 6f3f 91e2 773f
00000010: 92e6 6e3f 25fd 7f3f 8032 6d3f 4f3b 7c3f
00000020: 6f73 713f 0132 773f 1c84 693f b6e3 713f
00000030: 4cef 783f e9d6 7a3f b0dd 733f bb22 723f

encoder.bn2.bias f4 [16]
-0.015678247 0.021714605 0.006385775 -0.0006427861 0.020223387 -0.030620689 0.033118036 -0.015753606
-0.015891667 0.020829458 0.046835147 0.0127382735 -0.00960153 -0.0077718757 -0.00072008546 0.021606581
00000000: ab6f 80bc d4e2 b13c c33f d13b a580 28ba
00000010: 84ab a53c 3dd8 fabc c7a6 073d b50d 81bc
00000020: 3e2f 82bc 8aa2 aa3c 36d6 3f3d 31b4 503c
00000030: bc4f 1dbc 38ab febb 1ec4 3cba 4900 b13c

encoder.bn2.running_mean f4 [16]
0.1861115 0.20797227 0.23654483 0.23888172 0.16336007 0.4626148 0.18047473 0.24076045
0.17665987 0.33573398 0.11161795 0.1505919 0.24112251 0.2684868 0.16900715 0.35607207
00000000: 0394 3e3e aff6 543e cf38 723e 699d 743e
00000010: dd47 273e d9db ec3e 5ece 383e e889 763e
00000020: 53e6 343e 53e5 ab3e f497 e43d c334 1a3e
00000030: d2e8 763e 1a77 893e 3610 2d3e 144f b63e

encoder.bn2.running_var f4 [16]
0.08465426 0.0844166 0.07849506 0.14731455 0.058188483 0.37943563 0.059004825 0.103718154
0.060236715 0.21592915 0.032599263 0.054799266 0.13421948 0.116099514 0.07410605 0.2481751
00000000: 365f ad3d 9ce2 ac3d 05c2 a03d a0d9 163e
00000010: 0c57 6e3d 6345 c23e 0baf 713d 2f6a d43d
00000020: c6ba 763d 881c 5d3e ce86 053d 3275 603d
00000030: d570 093e 95c5 ed3d eac4 973d 9d21 7e3e

encoder.bn3.weight f4 [32]
0.9602362 0.99312294 0.97416735 0.94492006 0.98420817 0.93011844 0.9871119 1.0288129
0.98433363 0.93312985 0.9636917 0.9872366 0.943405 0.95613974 0.97715324 0.98612237
0.95665026 0.98414534 0.9451018 1.0164162 1.0084113 0.9501585 0.9725221 0.95367146
1.0173202 0.9591047 1.0024401 0.9296104 0.97307366 0.9340846 0.9517731 0.99397254
00000000: 0ad2 753f 4e3d 7e3f 0863 793f 48e6 713f
00000010: 11f5 7b3f 3e1c 6e3f 5eb3 7c3f 24b0 833f
00000020: 4afd 7b3f 99e1 6e3f 80b4 763f 8abb 7c3f
00000030: fd82 713f 93c5 743f b726 7a3f 8472 7c3f
00000040: 08e7 743f f3f0 7b3f 31f2 713f ed19 823f
00000050: 9f13 813f 963d 733f 35f7 783f d023 743f
00000060: 8c37 823f e387 753f f54f 803f f2fa 6d3f
00000070: 5b1b 793f 2b20 6f3f 67a7 733f fc74 7e3f

encoder.bn3.bias f4 [32]
-0.03752536 -0.011686746 0.0051503396 0.0492699 -0.011093148 0.03268586 -0.0125015145 -0.024019856
-0.064569935 0.0456806 0.025095118 -0.046780873 -0.019087387 0.0030679873 0.03738999 -0.0025789218
-0.031348627 -0.011666523 -0.008702295 -0.03325634 -0.038666703 -0.007282994 -0.028659532 -0.00065335596
0.0032534732 0.021256039 -0.03240587 -0.008992251 -0.0051278793 -0.035206772 -0.040026322 -0.023507107
00000000: 31b4 19bd c479 3fbc 2ec4 a83b 3ccf 493d
00000010: 09c0 35bc 9ce1 053d 27d3 4cbc 4ac5 c4bc
00000020: 3e3d 84bd 951b 3b3d 4794 cd3c 4d9d 3fbd
00000030: 275d 9cbc 4910 493b 3f26 193d 2103 29bb
00000040: 6b67 00bd f224 3fbc 1294 0ebc cd37 08bd
00000050: fa60 1ebd 2fa6 eebb 65c7 eabc fa45 2bba
00000060: 3938 553b 2521 ae3c 04bc 04bd 3c54 13bc
00000070: c507 a8bb fa34 10bd a4f2 23bd fa91 c0bc

encoder.bn3.running_mean f4 [32]
0.19037367 0.38251603 0.2964061 0.18527807 0.27973977 0.18353924 0.2932785 0.3088565
0.16815113 0.28022358 0.19808388 0.2997519 0.1776388 0.31176272 0.34693575 0.24331221
0.31468576 0.23335229 0.29373485 0.38859653 0.2777649 0.22576423 0.1799206 0.27537093
0.41154796 0.364271 0.25089234 0.22103181 0.32478324 0.16687968 0.26443517 0.21389678
00000000: 51f1 423e 24d9 c33e 8ac2 973e 89b9 3d3e
00000010: 0d3a 8f3e b6f1 3b3e 9928 963e 7022 9e3e
00000020: cf2f 2c3e 7779 8f3e 80d6 4a3e 1579 993e
00000030: f2e6 353e 5d9f 9f3e 90a1 b13e d626 793e
00000040: 7e1e a13e e7f3 6e3e 6a64 963e 20f6 c63e
00000050: 3337 8e3e bd2e 673e 1b3d 383e 6bfd 8c3e
00000060: 6ab6 d23e ba81 ba3e f674 803e 2a56 623e
00000070: fd49 a63e 82e2 2a3e 0c64 873e c207 5b3e

encoder.bn3.running_var f4 [32]
0.08780975 0.29642996 0.123881765 0.08193827 0.15352796 0.09570151 0.21792641 0.14029999
0.09560775 0.14185068 0.10091972 0.21523239 0.08885212 0.17264603 0.23527606 0.12898001
0.20829964 0.11189959 0.15881184 0.25920287 0.19229235 0.10880653 0.085239515 0.18364052
0.22750872 0.20330995 0.1878127 0.09253874 0.18326275 0.07791889 0.17369445 0.13918376
00000000: 99d5 b33d abc5 973e b9b5 fd3d 40cf a73d
00000010: 6f36 1d3e 27ff c33d 1a28 5f3e cdaa 0f3e
00000020: ffcd c33d 4e41 113e 00af ce3d e165 5c3e
00000030: 1af8 b53d 1fca 303e 35ec 703e 5613 043e
00000040: 804c 553e 9d2b e53d 929f 223e 3db6 843e
00000050: 49e8 443e f5d5 de3d 0e92 ae3d 430c 3c3e
00000060: 0cf8 683e 7c30 503e f951 403e f384 bd3d
00000070: 3ba9 3b3e f093 9f3d f5dc 313e 3086 0e3e

encoder.bn4.weight f4 [32]
0.96227163 0.95438457 0.98047054 0.9894053 0.96309173 1.0067881 0.94176984 1.0039202
0.9568967 0.99008137 1.0234547 0.98193455 1.022229 0.999329 0.9859302 0.95890063
0.99498904 0.9836623 1.0122089 0.9932293 0.9827762 1.001461 0.983148 0.96073514
0.98321867 1.0189937 0.9804248 0.9773951 0.99781704 0.97783333 0.9989292 0.97735715
00000000: 6f57 763f 8c52 743f 1e00 7b3f aa49 7d3f
00000010: 2e8d 763f 6fde 803f d417 713f 7580 803f
00000020: 2ff7 743f f975 7d3f 9000 833f 1060 7b3f
00000030: 66d8 823f 06d4 7f3f ec65 7c3f 837a 753f
00000040: 9ab7 7e3f 4bd1 7b3f 1090 813f 4744 7e3f
00000050: 3997 7b3f e02f 803f 96af 7b3f bdf2 753f
00000060: 38b4 7b3f 636e 823f 1ffd 7a3f 9136 7a3f
00000070: f070 7f3f 4953 7a3f d3b9 7f3f 1434 7a3f

encoder.bn4.bias f4 [32]
-0.043086782 0.04348159 -0.010488144 -0.04910578 -0.08980491 0.021961918 0.024859305 -0.0355206
0.0004836705 0.019791003 -0.09295922 0.0029092166 0.019970391 -0.04030881 -0.0454996 -0.014531037
-0.0805523 0.03762151 -0.018971384 -0.10545676 -0.07773806 -0.028072527 -0.07676572 0.04374749
-0.025654456 -0.022641223 0.05459068 -0.005213908 0.0048663802 0.0010816563 -0.051096953 0.008013387
00000000: c47b 30bd c019 323d 77d6 2bbc 2423 49bd
00000010: a3eb b7bd 7be9 b33c bea5 cb3c 0c7e 11bd
00000020: 2895 fd39 be20 a23c 6761 bebd 8ea8 3e3b
00000030: f298 a33c da1a 25bd ca5d 3abd 9613 6ebc
00000040: 9bf8 a4bd 0319 1a3d e069 9bbc b7f9 d7bd
00000050: 2235 9fbd 5bf8 e5bc 5937 9dbd 9130 333d
00000060: 4b29 d2bc 167a b9bc 7a9a 5f3d 6ed9 aabb
00000070: 2876 9f3b 5dc6 8d3a 0a4b 51bd 954a 033c

encoder.bn4.running_mean f4 [32]
0.28702542 0.28788552 0.25493062 0.25898996 0.2824164 0.30773696 0.20222265 0.2937823
0.2922193 0.31104255 0.23297283 0.2520673 0.27545583 0.24552363 0.24831496 0.3228076
0.3109474 0.1985832 0.26743075 0.2849875 0.3181194 0.26447082 0.2911426 0.20812325
0.22882685 0.3127311 0.27093163 0.24862339 0.31278163 0.25711086 0.29447418 0.25994083
00000000: fff4 923e bb65 933e 4486 823e 559a 843e
00000010: e298 903e b38f 9d3e 7413 4f3e a26a 963e
00000020: c59d 953e f840 9f3e 6e90 6e3e f70e 813e
00000030: 8c08 8d3e 8c6a 7b3e 4746 7e3e 0a47 a53e
00000040: 7f34 9f3e 6559 4b3e afec 883e e2e9 913e
00000050: 8ce0 a23e b868 873e a510 953e 431e 553e
00000060: 9651 6a3e 4a1e a03e 8db7 8a3e 2197 7e3e
00000070: ea24 a03e 09a4 833e 52c5 963e f716 853e

encoder.bn4.running_var f4 [32]
0.1669895 0.19540532 0.17561263 0.19835018 0.15663756 0.16814281 0.10409928 0.18820758
0.16586098 0.18814324 0.1361906 0.16896679 0.18107645 0.19533367 0.12516996 0.21492724
0.14690335 0.10936301 0.14948407 0.1613105 0.19764094 0.13903296 0.17833677 0.10455719
0.13058156 0.19535626 0.14453973 0.1541718 0.21329811 0.13253152 0.18501976 0.17371088
00000000: 4cff 2a3e 5518 483e ccd3 333e 4f1c 4b3e
00000010: 9965 203e a12d 2c3e 0132 d53d 7db9 403e
00000020: 76d7 293e 9fa8 403e 8c75 0b3e a105 2d3e
00000030: 1b6c 393e 8d05 483e 8e2c 003e e315 5c3e
00000040: d56d 163e b7f9 df3d 5a12 193e 942e 253e
00000050: 6362 4a3e a85e 0e3e ea9d 363e 1422 d63d
00000060: 2cb7 053e 790b 483e 3902 143e 36df 1d3e
00000070: d26a 5a3e 58b6 073e d275 3d3e 44e1 313e
