results/_qm_fptra_0.3_1000_VAE_model.pt (torch, 166416 bytes, 61 tensors)

encoder.conv1.weight f4 [16, 1, 2]
0	0x3efce53d	0.49393645
1	0x3e89d063	0.269168
2	0xbe9b32e7	-0.30312273
3	0xbeee0b83	-0.46493158
4	0xbf27901d	-0.65454274
5	0x3f21dd94	0.63228726
6	0x3ee81991	0.45332006
7	0xbd482b8b	-0.04886965
8	0x3eae5f18	0.34056926
9	0xbdab2b31	-0.083578475
10	0xbf2e1899	-0.68006283
11	0xbdaf41e1	-0.08557487
12	0x3e4787cf	0.194854
13	0x3e9a7c00	0.3017273
14	0xbf143629	-0.5789514
15	0x3e98b5a5	0.29826084
16	0x3f184486	0.5947956
17	0x3f0e07ad	0.5548046
18	0xbf0b736a	-0.5447298
19	0xbedc8a86	-0.43074435
20	0xbf008b6e	-0.5021275
21	0xbe2115f3	-0.15731029
22	0x3e8991b8	0.26868987
23	0xbecc650b	-0.3992084
24	0xbe58f3c8	-0.21186745
25	0x3e780330	0.24219966
26	0x3d65e3e9	0.056125555
27	0xbe97e4b5	-0.29666677
28	0x3eab3fce	0.33447117
29	0xbe829c02	-0.2550965
30	0xbea7a47d	-0.32742682
31	0xbe787a10	-0.24265313

encoder.conv1.bias f4 [16]
0	0xbe464697	-0.19362865
1	0xbdd6e0b8	-0.104920805
2	0xbe91735a	-0.2840832
3	0x3d922246	0.071354434
4	0x3dc7760a	0.09739311
5	0x3ebe8027	0.37207147
6	0xbd556769	-0.052100573
7	0x3dbc1676	0.091839716
8	0x3f2d62c9	0.6772886
9	0x3f07fba9	0.5311838
10	0x3ec4609b	0.38354954
11	0x3df06401	0.11737824
12	0x3e97b301	0.29628757
13	0xbd1556c6	-0.036459707
14	0xbea4e897	-0.32208702
15	0xbea11cb3	-0.31467208

encoder.conv2.weight f4 [16, 16, 2]
0	0xbcb89cd4	-0.022535719
1	0x392005e4	0.00015260983
2	0x3e0e49c6	0.1389533
3	0xbcf07051	-0.029350432
4	0x3ce4bcac	0.027921997
5	0xbe3cc81a	-0.18435708
6	0xbddce53e	-0.10785912
7	0xbda3827c	-0.07983872
8	0xbe1c29ff	-0.15250395
9	0xbd93b64c	-0.07212505
10	0x3e1f0cf0	0.15532279
11	0xbdb3e21c	-0.08783361
12	0x3d777baf	0.06042069
13	0xbe0f3439	-0.13984765
14	0x3e323687	0.17403613
15	0xbaed87ca	-0.0018122133
16	0xbd56aef4	-0.052412942
17	0x3d359ca1	0.044338826
18	0xbd3986cb	-0.045294564
19	0xbcd5a78d	-0.026080871
20	0x3e09b3cf	0.13447498
21	0x3dcb6859	0.09932012
22	0xbb36707c	-0.0027838042
23	0x3c7efc11	0.015563027
24	0x3e29e152	0.16589859
25	0xbe25c9d6	-0.16190276
26	0x3c82a298	0.015946671
27	0xbd64de56	-0.0558761
28	0x3db35d02	0.08757974
29	0x3cd96548	0.026537552
30	0x3dc507ee	0.09620653
31	0xbd56f5d0	-0.05248052
32	0x3e00ece5	0.12590368
33	0x3e0ba942	0.13638785
34	0xbdf34a0c	-0.11879358
35	0x3d8b672b	0.06806787
36	0xbe087724	-0.13326699
37	0x3d673fe2	0.056457408
38	0x3d5d15d4	0.053975895
39	0x3d985064	0.07437208
40	0x3d18983c	0.037254557
41	0xbd95ccba	-0.07314439
42	0xbcdf3b01	-0.027249815
43	0xbe160235	-0.1464928
44	0x3dda65c9	0.10663945
45	0x3e048db0	0.12944674
46	0xbe0a9c94	-0.13536292
47	0xbd988314	-0.07446876
48	0x3dc0df9a	0.094176486
49	0x3d6969eb	0.056985777
50	0xbdec14eb	-0.11527427
51	0xbe008faf	-0.12554811
52	0x3d435ed7	0.04769787
53	0xbd0825d7	-0.033239212
54	0xbdc5fbc7	-0.09667163
55	0xbe10e783	-0.14150815
56	0x3ca1dbc8	0.01975812
57	0x3df90fd3	0.12161221
58	0x3c4e56df	0.012593954
59	0xbd8a8439	-0.06763501
60	0x3d498306	0.04919722
61	0x3d68a435	0.056797225
62	0xbdbde88c	-0.092728704
63	0xbe318945	-0.1733752
64	0xbce91453	-0.028452074
65	0xbdcdb6fe	-0.100446686
66	0x3e150399	0.14552154
67	0xbafdf3f0	-0.0019375067
68	0x3dc3015b	0.09521743
69	0xbd947559	-0.07248945
70	0x3db38532	0.08765639
71	0xbd2ee646	-0.042700075
72	0xbd9b3566	-0.07578544
73	0xbd27322d	-0.040819336
74	0xbdf36d9b	-0.1188614
75	0x3c90a03c	0.01765453
76	0x3dd55d22	0.10418154
77	0x3d121aa6	0.035669945
78	0xbde8078d	-0.11329565
79	0x3afb31ef	0.0019164662
80	0x3db57c27	0.08861571
81	0xbd8f6891	-0.07002366
82	0xbb850a44	-0.0040600616
83	0xbdcf2a7b	-0.101155244
84	0x3dabe2f0	0.08392894
85	0xbdf7c361	-0.120978124
86	0xbe1e5e81	-0.15465738
87	0xbe1cd602	-0.15316013
88	0x3d1310c5	0.035904665
89	0x3dee36ca	0.11631544
90	0xbe2d516d	-0.16925593
91	0xbce12960	-0.02748555
92	0xbe114556	-0.14186606
93	0xbe39f823	-0.18161063
94	0x3e2551f6	0.16144547
95	0xbd88917f	-0.06668376
96	0xbcecdf39	-0.028915035
97	0x3cb8832f	0.02252349
98	0xbe1e9947	-0.15488158
99	0xbcbee2c7	-0.023301495
100	0xbe028920	-0.12747622
101	0xbdddae77	-0.10824292
102	0x3c6d4a19	0.014482998
103	0x3d018904	0.03162481
104	0x3de00018	0.10937518
105	0x3de93cd0	0.11388552
106	0x3d866fed	0.06564317
107	0x3d1b296c	0.0378813
108	0xbd8b6ff0	-0.0680846
109	0x3ce4cdca	0.02793016
110	0xbda0e6fe	-0.07856558
111	0xbdbc71ff	-0.092014305
112	0x3d0d0458	0.03442797
113	0xbd9e1bce	-0.07720147
114	0x3d8ccc5e	0.068749174
115	0x3bfacc28	0.007653732
116	0xbe0575d6	-0.13033232
117	0x3daddde1	0.08489586
118	0x3d70ca4a	0.058786668
119	0x3e090b02	0.13383105
120	0xbd025c13	-0.03182609
121	0xbdfeb59e	-0.124369845
122	0xbd8e6c1f	-0.06954216
123	0x3d744e79	0.05964515
124	0xbbc2a5d7	-0.00594018
125	0x3dd8cb3d	0.105856396
126	0xbd976ab7	-0.07393401
127	0x3d9dc4bb	0.07703539
128	0x3c814849	0.015781539
129	0xbd4d06ce	-0.050055318
130	0xbe09b92a	-0.1344954
131	0x3cf5e25a	0.03001516
132	0xbde9f132	-0.114229575
133	0x3d471412	0.048603125
134	0xbd63e8eb	-0.05564205
135	0xbe0541e5	-0.13013418
136	0x3cefb29e	0.029259976
137	0xbc7402cc	-0.014893245
138	0xbd9b4b15	-0.0758268
139	0xbdf9bd74	-0.121943384
140	0x3ddbcb04	0.107320815
141	0xbe415bb6	-0.18882641
142	0x3b8f5884	0.0043745656
143	0x3d05d965	0.032678027
144	0x3db92ec8	0.09042126
145	0xbdf2fd4f	-0.11864721
146	0xbdf322c6	-0.11871867
147	0xbc98c837	-0.018650157
148	0xbe07eb99	-0.13273467
149	0xbd8223e0	-0.06354499
150	0x3d72cf6a	0.059279837
151	0xbb830a8d	-0.0039990605
152	0x3dcb8a43	0.09938481
153	0xbd2fbf1d	-0.04290687
154	0x3e1e904d	0.15484734
155	0xbda178eb	-0.078843914
156	0x3d475cd5	0.048672516
157	0x3d6f0320	0.05835259
158	0xbda9e1eb	-0.082950436
159	0xbdd6e847	-0.10493522
160	0x3d822940	0.06355524
161	0x3d793d9b	0.060849767
162	0xbd52e3cf	-0.051486786
163	0xbc609eb5	-0.013709714
164	0x3ddbc155	0.107302345
165	0xbcfcba99	-0.030850695
166	0x3d418590	0.047246516
167	0xbd3a820f	-0.04553419
168	0x3d08364b	0.033254903
169	0x3d960a93	0.073262356
170	0xbbafc4c0	-0.0053640306
171	0xbd7f5118	-0.062333196
172	0x3e1bda0f	0.15219902
173	0x3e3f1569	0.18660511
174	0xbd5f6469	-0.054539118
175	0xbd3e2a02	-0.04642678
176	0x3b859929	0.004077096
177	0x3e25813b	0.16162579
178	0xbbf9d562	-0.007624314
179	0xbe08e328	-0.13367903
180	0xbdcce225	-0.10004071
181	0xbd104390	-0.035220683
182	0x3cf25758	0.029582664
183	0xbd9daabd	-0.07698581
184	0x3d5d5e3c	0.054044947
185	0xbdbde125	-0.092714585
186	0x3d55a928	0.052163273
187	0xbe3e3d66	-0.18578109
188	0xbd643853	-0.055717777
189	0xbd4b4130	-0.049622715
190	0x3bbfabb9	0.0058493284
191	0x3e0e9bbb	0.13926594
192	0xbca54907	-0.020176424
193	0x3d956084	0.072937995
194	0x3d7ced29	0.06174961
195	0xbe1badff	-0.15203093
196	0x3dea3e5c	0.11437675
197	0xbd1487e6	-0.036262415
198	0x3c47894b	0.012178729
199	0x3e1d2ece	0.15349886
200	0xbdef5436	-0.11685984
201	0x3e1cac84	0.15300184
202	0xbd59fed1	-0.053221527
203	0x3d770ea4	0.060316697
204	0x3dd4e2e3	0.10394838
205	0x3d262ca1	0.040569905
206	0xbb92e145	-0.0044824206
207	0xbdb1178a	-0.08647068
208	0x3e1ac84e	0.15115473
209	0x3e378424	0.17921501
210	0x3cde3149	0.02712311
211	0xbd95673e	-0.072950825
212	0xbd7972d5	-0.060900528
213	0x3dc7cf09	0.09756286
214	0x3d8803d5	0.06641356
215	0xbd2a884b	-0.041633885
216	0x3d3da448	0.04629925
217	0xbdc2bb5c	-0.09508392
218	0xbde032b5	-0.109471716
219	0xbdf6ddc4	-0.12054017
220	0xbd63deef	-0.055632528
221	0x3d2f82f7	0.042849507
222	0x3e09a464	0.13441616
223	0x3d2702cd	0.040774155
224	0x3d6deecf	0.058089074
225	0x3e06fd5d	0.13182588
226	0x3c195ebd	0.009360966
227	0x3dd33366	0.10312538
228	0xbdadbd20	-0.08483338
229	0xbc9cf217	-0.019158406
230	0x3dacec78	0.0844354
231	0x3dfbe462	0.1229942
232	0x3db15fc1	0.08660842
233	0x3db38a7e	0.0876665
234	0x3c61abc6	0.013773864
235	0xbdd098df	-0.10185408
236	0xbcfa452c	-0.030550562
237	0x3e13f21e	0.14447829
238	0x3e0e7cac	0.13914746
239	0xbe18f4c9	-0.14937128
240	0x3d5e7c34	0.054317668
241	0x3e5acf5e	0.21368167
242	0xbd9c518c	-0.07632741
243	0x3b4984fb	0.0030749429
244	0xbd75cf51	-0.060012165
245	0xbd4c446d	-0.049869943
246	0xbe32667c	-0.17421907
247	0xbd3830ae	-0.0449683
248	0xbd76e1eb	-0.060274046
249	0xbdbdc043	-0.09265187
250	0x3ac20e30	0.0014805254
251	0x3dc46a3e	0.095905766
252	0xbde35553	-0.11100259
253	0xbdc06096	-0.09393422
254	0xbe626522	-0.22108892
255	0xbe41c7d5	-0.18923886

encoder.conv2.bias f4 [16]
0	0x3d9868fc	0.07441899
1	0xbe04a328	-0.12952864
2	0xbe67fdbf	-0.2265539
3	0x3e080663	0.13283686
4	0x3da83dc9	0.082149096
5	0x3e50137c	0.20319933
6	0x3e2acd00	0.16679764
7	0x3e0ddefd	0.13854595
8	0xbd28686d	-0.041115213
9	0x3cd1efd1	0.025627049
10	0xbddf8940	-0.1091485
11	0x3e3914f1	0.18074395
12	0x3ca868f9	0.020557867
13	0x3dfa8a8a	0.122334555
14	0xbc778727	-0.015107906
15	0x3e239fb2	0.15978888

encoder.conv3.weight f4 [32, 16, 2]
0	0xbd538601	-0.051641468
1	0xbcf1a84c	-0.029499196
2	0x3ddbda1c	0.107349604
3	0x3ce63f8c	0.028106473
4	0xbde86665	-0.11347655
5	0xba599855	-0.00083005923
6	0xbd35983f	-0.044334646
7	0x3e019c8c	0.12657374
8	0x3d9d9d23	0.07695987
9	0x3e190316	0.14942583
10	0x3cfa0376	0.030519228
11	0xbd41bcbc	-0.04729913
12	0x3e1f6834	0.15567094
13	0xbdb2149b	-0.086953364
14	0xbd849b3f	-0.06474923
15	0xbd51eae1	-0.05124939
16	0x3be09450	0.0068536177
17	0x3e290a3b	0.16507809
18	0xbd8ce570	-0.06879699
19	0xbc573652	-0.01313551
20	0x3e0a70d2	0.135196
21	0xbd3ebcbe	-0.046566717
22	0x3c4d9e14	0.012549896
23	0xbd961cc8	-0.07329708
24	0x3de60454	0.11231294
25	0x3da3da3d	0.0800061
26	0x3dbee6fa	0.09321399
27	0xbd8cda77	-0.06877606
28	0x3e18d52b	0.14925067
29	0x3d30cadf	0.043162223
30	0xbddb25ce	-0.1070057
31	0x3dde8698	0.108655155
32	0x3e03c76c	0.12869042
33	0x3d33f564	0.043935195
34	0xbdbd3adc	-0.09239742
35	0x3c1db927	0.009626663
36	0xbdf20a0c	-0.118183225
37	0x3ac62f15	0.0015120233
38	0xbc4c8a8e	-0.012484206
39	0xbdace13c	-0.084413975
40	0xbde88d42	-0.11355068
41	0xbc9771be	-0.018486854
42	0x3cffd818	0.031230971
43	0xbddde8d7	-0.10835426
44	0xbd7cae57	-0.0616897
45	0xbe20624e	-0.156625
46	0x3d83b82d	0.06431613
47	0xbe1af2dc	-0.15131706
48	0xbe600143	-0.21875481
49	0x3d718019	0.058960054
50	0x3d856ccf	0.06514894
51	0x3d8bb720	0.06822038
52	0xbd1206f4	-0.035651162
53	0x3dac4b89	0.08412845
54	0xbe373f2b	-0.1789519
55	0x3de0bdb0	0.1097368
56	0xbe43776a	-0.19088522
57	0x3cf0e56b	0.02940627
58	0xbb4e8d37	-0.0031517276
59	0xbe5451ce	-0.20734331
60	0x3df6653b	0.12031027
61	0xbdeab4d1	-0.11460269
62	0xbdc07888	-0.093979895
63	0xbd1868e9	-0.037209425
64	0xbc6faa8b	-0.014628063
65	0xbd338fd5	-0.04383834
66	0x3e1d9529	0.15388931
67	0xbdfe30b3	-0.124116324
68	0xbd624d08	-0.055249244
69	0xbe194c53	-0.14970522
70	0x3ddefaf0	0.10887706
71	0x3e36fac8	0.17869103
72	0xbd2fbdf9	-0.04290578
73	0x3d0d3d00	0.034482002
74	0x3b2877e2	0.0025706221
75	0xbda16d61	-0.078821905
76	0xbc8136ef	-0.015773265
77	0xbdc57ecd	-0.09643326
78	0x3e0a88f0	0.135288
79	0x3c245812	0.010030763
80	0x3d67da14	0.05660446
81	0xbd869b91	-0.06572641
82	0x3dee2f5a	0.11630125
83	0x3e14cb94	0.14530784
84	0xbe4b3360	-0.19843817
85	0x3c937c88	0.018003717
86	0x3b8f3b9a	0.0043711187
87	0xbd62d578	-0.05537936
88	0xbc06c1f6	-0.008224955
89	0x3e14ed8b	0.1454374
90	0x3dedd6bf	0.11613225
91	0x3dd2e1cb	0.10296973
92	0xbdd5f3ee	-0.104469165
93	0x3e024370	0.12721038
94	0x3d5ce77d	0.053931702
95	0xbd95d8af	-0.0731672
96	0x3c3b5b08	0.011435278
97	0xbde42c34	-0.111412436
98	0x3d3810df	0.044937965
99	0xbcfe959f	-0.031077204
100	0x3cfe51a7	0.031044794
101	0xba9849f2	-0.0011618717
102	0x3e1105f5	0.14162429
103	0xbca9dfe5	-0.020736644
104	0x3d857b64	0.065176755
105	0x3d0792cc	0.03309898
106	0x3c9ebcfe	0.019377228
107	0xbe1fba04	-0.15598303
108	0xbd8dcbd4	-0.06923643
109	0xbe01dd46	-0.12682065
110	0x3de70fd4	0.11282316
111	0xbe70e306	-0.23524103
112	0xbd4a7e84	-0.04943706
113	0xbdad874f	-0.08473074
114	0x3db1a5af	0.0867418
115	0xbc9be439	-0.019029723
116	0xbd265096	-0.040604196
117	0xbd19e299	-0.037569616
118	0xbcb77b54	-0.022397675
119	0x3dc69389	0.09696109
120	0x3c34ad40	0.011027634
121	0xbe014f1e	-0.12627837
122	0x3e06a60d	0.13149281
123	0xbe41bcae	-0.18919632
124	0xbdc5f67e	-0.09666155
125	0xbe46a033	-0.19397049
126	0xbded034d	-0.11572895
127	0x3dcac3f3	0.099006556
128	0x3e12dd24	0.14342171
129	0xbb7cd7f2	-0.0038580862
130	0xbd040bb0	-0.03223771
131	0xbcffa5dd	-0.03120702
132	0x3c75032d	0.01495437
133	0x3d816a1a	0.063190654
134	0x3dd84bbb	0.105613194
135	0xbd51b4f5	-0.051197965
136	0xbe1322dc	-0.14368767
137	0xbd2efa71	-0.04271931
138	0xbdeb15bc	-0.11478755
139	0xbd9039f6	-0.07042305
140	0x3b53809c	0.0032272702
141	0xbd5f66bf	-0.054541346
142	0xbd55db6e	-0.052211218
143	0xbd5564a4	-0.05209793
144	0xbd0272fa	-0.03184793
145	0xbdb1c34a	-0.086798266
146	0xbe0959d9	-0.1341318
147	0xbdf56431	-0.119820006
148	0xbdc041ca	-0.09387548
149	0x3c881d78	0.016615614
150	0xbe40c528	-0.18825209
151	0xbd643fe6	-0.055725
152	0x3d4c62f7	0.049899068
153	0x3dc92ef3	0.09823408
154	0x3e189232	0.14899519
155	0xbd51fa06	-0.05126383
156	0x3d267920	0.040642858
157	0xbdad8d7d	-0.084742524
158	0xbe162aba	-0.14664736
159	0x3e289eb7	0.16466795
160	0x3dfec035	0.12439004
161	0xbe4a2741	-0.19741537
162	0xb9e8c430	-0.0004439666
163	0x3d8f275d	0.0698993
164	0x3e08c392	0.13355854
165	0x3c867170	0.016411513
166	0xbd77a772	-0.060462423
167	0x3e0a07aa	0.13479486
168	0x3e0d6f18	0.1381191
169	0x3c2d6a52	0.010584431
170	0x3ccd9898	0.025097176
171	0x3c57dfa3	0.013175878
172	0x3e1de4ed	0.1541936
173	0x3e04c638	0.1296624
174	0x3e248d5c	0.1606955
175	0x3db3e544	0.08783963
176	0xbb1425ef	-0.0022605618
177	0x3da3e266	0.080021665
178	0x3bdb06a5	0.0066841417
179	0x3da6c3c6	0.081428096
180	0xbe47de86	-0.1951848
181	0x3ce12be2	0.027486745
182	0xbd1bdef6	-0.03805443
183	0xbd752a6a	-0.059854902
184	0xbd86dcb5	-0.06585065
185	0x3ce14eb9	0.027503358
186	0x3d518a0b	0.05115704
187	0xbd229607	-0.03969386
188	0x3d415463	0.047199618
189	0xbce1a67c	-0.027545206
190	0xbe176042	-0.14782813
191	0xbde3821d	-0.111088015
192	0x3dccbd48	0.0999704
193	0x3db0f6f3	0.08640852
194	0xbd2bc9fd	-0.041940678
195	0xbdaeb316	-0.08530252
196	0x3bcc5bc4	0.0062365253
197	0xbd9f63e3	-0.07782724
198	0xbaaffe02	-0.0013427141
199	0xbe115785	-0.14193542
200	0xbde43ba4	-0.11144188
201	0x3e099627	0.13436185
202	0xba7e29ff	-0.0009695589
203	0xbc93a734	-0.018024065
204	0xbc312156	-0.010811171
205	0xbd80135a	-0.06253691
206	0x3debf117	0.115205936
207	0x3bd3f628	0.006468553
208	0x3de019e4	0.10942438
209	0x3da6d39a	0.081458285
210	0x3cad0587	0.0211208
211	0xbe563627	-0.20919095
212	0xbd92a147	-0.071596675
213	0xbe81a3df	-0.25320336
214	0xbe0a0c87	-0.13481341
215	0x3b613538	0.0034363996
216	0x3d812c5c	0.06307289
217	0xbd2e4089	-0.042542014
218	0xbd04fe7d	-0.03246926
219	0xbe0eff4e	-0.13964579
220	0xbb51d4d2	-0.003201772
221	0xbd524e67	-0.0513443
222	0xbdc33757	-0.095320396
223	0x3e08323e	0.13300416
224	0xbde04e24	-0.10952404
225	0xbda41a21	-0.08012796
226	0x3d504651	0.05084831
227	0xbc32a30c	-0.010903131
228	0xbb5daa48	-0.003382342
229	0xbdb28171	-0.08716095
230	0xbde01864	-0.10942152
231	0xbc29bc79	-0.010359877
232	0x3db97091	0.090546735
233	0xbe558d32	-0.20854643
234	0xbe0acc2a	-0.13554445
235	0xbe4ce329	-0.2000853
236	0xbdbb5524	-0.09147099
237	0xbe204476	-0.15651116
238	0xbd2ded43	-0.0424626
239	0x3d1c8e92	0.038221903
240	0x3de6ccff	0.11269569
241	0xbde79fd7	-0.11309784
242	0xbc19550d	-0.009358657
243	0x3dcdcdda	0.10049029
244	0x3dd4d973	0.10393038
245	0xbb84869e	-0.004044368
246	0xbd80a3be	-0.06281231
247	0xbda6ecab	-0.081506096
248	0x3cbdd331	0.023171993
249	0xbe00d3b4	-0.12580758
250	0xbd358017	-0.04431161
251	0xbe2fbe15	-0.17162354
252	0xbd49814e	-0.04919558
253	0xbd357f97	-0.044311132
254	0xbe00a671	-0.12563492
255	0x3d6676be	0.056265585

encoder.conv3.bias f4 [32]
0	0xbdf8ae97	-0.12142675
1	0x3c4c5003	0.012470248
2	0xbda30bf5	-0.07961265
3	0xbcb11ba1	-0.02161962
4	0xbe16edd8	-0.14739168
5	0x3d06f916	0.03295239
6	0xbd4342b9	-0.047671054
7	0xbc9142a2	-0.017731968
8	0x3c9f66be	0.019458171
9	0xbe5e632a	-0.21717516
10	0x3e431aa4	0.19053131
11	0xbddaba58	-0.106800735
12	0xbc620ebc	-0.013797458
13	0xbdd14591	-0.10218347
14	0xbda2841b	-0.07935353
15	0x3e00b162	0.12567666
16	0xbe2aa3bf	-0.16664027
17	0xbe1c7dd5	-0.15282376
18	0xbc71bf4b	-0.01475508
19	0x3d583bb0	0.052791297
20	0x3d8c65d4	0.0685536
21	0x3d9bb58c	0.07602987
22	0x3e12591d	0.14291807
23	0xbdd82149	-0.10553224
24	0xbc3a9082	-0.011386992
25	0xbdfee2c4	-0.12445596
26	0xbd3ee698	-0.04660663
27	0x3e3b87fd	0.18313594
28	0xbe24558c	-0.16048259
29	0xbe228f97	-0.15875088
30	0x3c3f469f	0.011674552
31	0x3d556ad3	0.05210383

encoder.conv4.weight f4 [32, 32, 2]
0	0xbd0529db	-0.03251062
1	0x3d964054	0.07336488
2	0xbd6d3b74	-0.057918027
3	0x3d4dc677	0.0502381
4	0x3d8ee937	0.06978076
5	0x3d84eac5	0.06490091
6	0x3d307977	0.043084588
7	0xbd0173b1	-0.031604473
8	0xbdb2f88d	-0.087388135
9	0xbdfd9eae	-0.123837814
10	0x3d6c026e	0.057619505
11	0xbd334e1a	-0.043775655
12	0xbd97cfd8	-0.0741269
13	0xbe32a445	-0.17445476
14	0x3d277b04	0.0408888
15	0xbca51854	-0.020153202
16	0x3d4cb9b6	0.049981795
17	0xbdf8ca1e	-0.12147926
18	0x3d29aa3c	0.041422114
19	0xbd3e27c6	-0.04642465
20	0x3d6b4d98	0.057447046
21	0xbd722341	-0.059115652
22	0x3b04445a	0.0020182342
23	0xbd618b0c	-0.055064246
24	0x3c8262b9	0.015916215
25	0xbe8a604d	-0.27026597
26	0x3cc9516f	0.024574963
27	0xbdc4aab3	-0.09602871
28	0x3d84b7ee	0.06480394
29	0xbc5a4c66	-0.013323879
30	0xbd1867b2	-0.037208267
31	0x3d8b4de7	0.06801968
32	0xbd181a6b	-0.03713457
33	0xbcf07c64	-0.02935619
34	0x3ce83e96	0.028350156
35	0xbdc6d41c	-0.097084254
36	0xbd4caeb3	-0.049971294
37	0x3c851364	0.016244598
38	0x3da2622a	0.079288796
39	0xbe0ddc4a	-0.13853565
40	0xbd9cf663	-0.07664182
41	0x3e26ccdc	0.16289085
42	0xba9b2424	-0.0011836332
43	0x3b45c3f7	0.0030176619
44	0xbb10c080	-0.0022087395
45	0x3cd5c5dc	0.026095323
46	0xbd45e5e1	-0.048314933
47	0xbceac936	-0.028660398
48	0x3c9a153c	0.018808953
49	0x3c83eb2f	0.016103355
50	0x3d582be9	0.05277625
51	0x3b8fe569	0.0043913615
52	0xbda72618	-0.08161563
53	0x3dcfed5c	0.101526946
54	0xbc353ea4	-0.011062298
55	0xbe595837	-0.21225058
56	0xbd5adf1f	-0.05343544
57	0xbd1338ea	-0.03594295
58	0x3c3186b4	0.010835338
59	0x3d950d51	0.072779305
60	0xbbc7fd06	-0.006103161
61	0x3b24951b	0.0025113288
62	0x3dc3f29a	0.09567757
63	0x3c1a5203	0.009418967
64	0xbd9659e4	-0.07341364
65	0xbd09ea77	-0.03367087
66	0x3db48c92	0.08815874
67	0x3d2ede5f	0.04269254
68	0x3d1d1e12	0.038358755
69	0x3de3fd44	0.11132291
70	0x3c515894	0.012777466
71	0xbdc2e9b0	-0.095172286
72	0x3ce7cbce	0.028295424
73	0x3b3dc64f	0.0028957312
74	0xbd042601	-0.032262806
75	0xbcac0a96	-0.021001142
76	0xbd821ac6	-0.06352763
77	0xbd993aa0	-0.07481885
78	0xbcfe94ef	-0.031076876
79	0x3beec68c	0.007286852
80	0x3d125fed	0.035736013
81	0x3ce70661	0.028201284
82	0x3ce99b9c	0.028516583
83	0x3d997a1e	0.07493995
84	0x3dab0ba2	0.08351828
85	0x3c887f9c	0.016662411
86	0x3d8d970a	0.06913574
87	0xbdf666c2	-0.12031318
88	0xbc6abf10	-0.014327779
89	0xbd80c39e	-0.06287311
90	0x3d6c9237	0.05775663
91	0x3bb28050	0.005447425
92	0xbe0d23a8	-0.13783133
93	0xbd0d1028	-0.034439236
94	0x3db89af7	0.09013932
95	0x3b840061	0.0040283655
96	0x3ccd7d49	0.025084155
97	0xbd118aa1	-0.035532597
98	0x3d07dfab	0.03317229
99	0xbdcf5c05	-0.10124973
100	0x3cf07d4c	0.029356621
101	0x3db0815e	0.08618425
102	0x3da1ce2a	0.07900651
103	0xbd76c270	-0.060244024
104	0x3d01a39c	0.03165017
105	0xbd8d7ed6	-0.06908958
106	0xbd9bec35	-0.07613412
107	0xbdbbc60a	-0.09168632
108	0x3d3fa093	0.046783995
109	0x3c8fa08a	0.017532606
110	0xbc82a1fc	-0.01594638
111	0xbb535642	-0.0032247459
112	0xbd6fdb7b	-0.058558922
113	0x3da0594c	0.07829532
114	0xbd1752a5	-0.03694405
115	0xbd03d5d1	-0.032186333
116	0x3ad475c2	0.0016209411
117	0x3cbfada6	0.023398232
118	0x3b0bfafd	0.0021359317
119	0xbdefe26b	-0.11713108
120	0xbdbaa2d5	-0.09113089
121	0xbe26eca1	-0.16301204
122	0x3dae0625	0.08497266
123	0xbda65177	-0.08121007
124	0xbd8e637b	-0.06952568
125	0xbc1a541e	-0.009419469
126	0xbd5ae8fa	-0.05344484
127	0xbc24ebc0	-0.010065973
128	0xbdb2219f	-0.08697819
129	0xbd8d23e2	-0.0689161
130	0x3cda5698	0.02665262
131	0xbd9e0f3f	-0.07717752
132	0xbe08e55c	-0.13368744
133	0xbd6a348a	-0.05717901
134	0xbca00b1a	-0.019536544
135	0x3da09c14	0.078422695
136	0x3d55731b	0.052111726
137	0x3cf66a25	0.03007991
138	0xbe2356ab	-0.1595103
139	0xbde5bb65	-0.11217383
140	0xbda235a0	-0.079203844
141	0x3d825a7d	0.063649155
142	0x3dbece16	0.093166515
143	0xbd15c8ef	-0.03656858
144	0xbd9bd90b	-0.07609757
145	0x3d0c3a31	0.034235183
146	0x3c82b453	0.015955126
147	0xbd864a87	-0.06557184
148	0xbdff7ba0	-0.124747515
149	0xbd876310	-0.066106915
150	0xbc791cb9	-0.015204602
151	0xbd395421	-0.045246247
152	0x3c00ffcb	0.007873486
153	0xbd2005e7	-0.03906813
154	0xbdfe399b	-0.12413331
155	0x3cc0cadd	0.023534233
156	0x3d9d9542	0.07694484
157	0xbc4522d0	-0.012032226
158	0xbd7da0a0	-0.061920762
159	0xbe1264a5	-0.14296205
160	0xbe21c391	-0.15797259
161	0xbd9a73b6	-0.07541601
162	0x3c845da7	0.016157938
163	0xbde4e7a8	-0.111769974
164	0x3ba68a2e	0.0050823903
165	0x3d9c337b	0.076270066
166	0x3c30449a	0.010758543
167	0xbcddc474	-0.027071215
168	0xbc9387a9	-0.018009024
169	0xbd13d1c6	-0.036088727
170	0xbc2511d1	-0.010075049
171	0xbc9d49e1	-0.019200267
172	0x3ddaa2e6	0.10675602
173	0xbca8df30	-0.020614237
174	0xbd8e6ca6	-0.06954317
175	0xbdb80a33	-0.0898632
176	0xbdf512c1	-0.11966468
177	0xbe046f0c	-0.12932986
178	0xbcdedcfa	-0.02720498
179	0x3d295346	0.04133918
180	0xbc8fc51a	-0.01755004
181	0x3d75f0eb	0.06004421
182	0xbcd0a83e	-0.02547085
183	0x3d22436d	0.039615083
184	0x3dcd6ed9	0.10030908
185	0x3dbe41f7	0.092899255
186	0x3ca104a4	0.019655533
187	0x3c44460c	0.011979591
188	0x3da52390	0.08063424
189	0xbd13dc0f	-0.036098536
190	0xbc098965	-0.008394574
191	0xbdc8a96b	-0.09797939
192	0xbdc1dfaa	-0.09466489
193	0xbde657f6	-0.11247246
194	0x3d9305dc	0.07178852
195	0xbe019d18	-0.12657583
196	0xbd367930	-0.044549167
197	0x3d8e199c	0.06938478
198	0x3baacd5c	0.005212469
199	0xbcf90ce6	-0.030401658
200	0xbd84da0f	-0.06486904
201	0xbc6a873f	-0.014314472
202	0xbde301ad	-0.11084304
203	0x3d847cbc	0.06469104
204	0x3c707c57	0.014678082
205	0xbcf8c1c9	-0.030365841
206	0x3d81a30a	0.06329925
207	0x3d1fa758	0.03897795
208	0x3d1970e9	0.037461195
209	0xbd1120e3	-0.035431754
210	0x3b7fb47b	0.0039017487
211	0xbd16dc43	-0.03683115
212	0xbe04b73d	-0.12960525
213	0xbca2c149	-0.019867556
214	0xbe4293c7	-0.19001685
215	0x3d054cc3	0.03254391
216	0x3d20981a	0.039207555
217	0x3c87319d	0.01650315
218	0x3d9fa660	0.077954054
219	0xbd472d17	-0.048626985
220	0x3cb1a826	0.021686625
221	0xbc05b161	-0.008159966
222	0xbe0625fd	-0.13100429
223	0x3cc4ed25	0.02403886
224	0xbdfe4aaf	-0.124165885
225	0xbd98213b	-0.07428213
226	0xbd82753d	-0.06370018
227	0xba7ae51b	-0.00095708825
228	0xbb82e6d3	-0.0039948015
229	0xbd705e07	-0.05868342
230	0xbdb15e7b	-0.08660599
231	0x3c2678a4	0.010160599
232	0x3d562ba3	0.05228771
233	0xbdeb9e98	-0.11504859
234	0xbc59e027	-0.013298071
235	0xbd8e2b13	-0.069418095
236	0xbcf423e4	-0.02980227
237	0xbced24f8	-0.028948292
238	0x3c9267f1	0.017871829
239	0xbdf83e0a	-0.12121208
240	0xbb802f5d	-0.003911896
241	0x3d67a476	0.056553327
242	0x3ac03b5a	0.0014666126
243	0xbd8d2791	-0.06892312
244	0xbd13e62d	-0.036108185
245	0x3cfb7286	0.030694257
246	0xbdc95d6e	-0.098322734
247	0xbcc66fe1	-0.02422327
248	0x3d51d9bb	0.051233035
249	0xbd251fe1	-0.040313605
250	0xbd2760bc	-0.040863737
251	0x3d1823b2	0.037143417
252	0xbcea722e	-0.028618898
253	0x3d408443	0.047001135
254	0xbd1f9825	-0.038963456
255	0x3d6d5e94	0.057951525

encoder.conv4.bias f4 [32]
0	0x3dba2529	0.09089119
1	0x3daee5a7	0.085398965
2	0x3cfe6f50	0.031058937
3	0x3de6e614	0.11274353
4	0xbe0fab05	-0.14030083
5	0x3e263ba0	0.16233683
6	0x3e6d4b32	0.23173216
7	0x3de0feb8	0.10986084
8	0x3e11a572	0.14223269
9	0x3dd77183	0.105196975
10	0x3d93a28b	0.07208737
11	0x3e26f780	0.16305351
12	0xbcfdc69d	-0.030978495
13	0x3cb485ce	0.02203646
14	0xbdbc3f9a	-0.091918185
15	0x3c5e5b22	0.013571532
16	0x3d225ebf	0.03964114
17	0x3e24eca4	0.16105896
18	0x3e5120c8	0.20422661
19	0xbd68fdb6	-0.056882583
20	0x3c9a129d	0.018807704
21	0x3d567156	0.05235418
22	0xbd065865	-0.032799143
23	0xbca9f82c	-0.02074822
24	0x3d8d0be9	0.06887037
25	0x3d60c68d	0.054876853
26	0x3d60e661	0.054907206
27	0x3dfb85f8	0.12281412
28	0x3dd4a65e	0.103832945
29	0xbcc40588	-0.023928419
30	0x3da404ca	0.08008726
31	0x3d95e18c	0.0731841

encoder.fc1.weight f4 [64, 384]
0	0x3c5e136c	0.013554435
1	0xbca11245	-0.019662032
2	0x3c2abfdc	0.010421719
3	0x3cb479b9	0.022030698
4	0xbbe40abd	-0.006959288
5	0x3c95798a	0.01824643
6	0x3c6a4871	0.014299498
7	0x3d461498	0.048359483
8	0x3d712594	0.058873728
9	0xbc1ca11c	-0.009559896
10	0x3c75a504	0.014992956
11	0x3d977958	0.07396191
12	0x3d5775de	0.05260264
13	0xbccfffd1	-0.025390537
14	0x3bcaeec8	0.0061930157
15	0x3ceed583	0.029154545
16	0xbb1fce7e	-0.0024384554
17	0xbd013c29	-0.031551514
18	0x3bcd3c64	0.0062633026
19	0xbd3d759c	-0.04625474
20	0xbcbcafd9	-0.02303307
21	0xbce65415	-0.028116265
22	0xbcfee98f	-0.031117229
23	0xbd3ceb3c	-0.046122774
24	0xbe002791	-0.12515093
25	0xbd0a9698	-0.033835024
26	0x3d355377	0.04426905
27	0x3cc6c421	0.024263443
28	0x3d5258a5	0.05135407
29	0x3d1f6ed2	0.038924046
30	0xbcdba378	-0.026811346
31	0x3cfb609f	0.030685721
32	0xbc4d91ad	-0.012546939
33	0x3d39c9ff	0.045358654
34	0x3cb3cf79	0.021949517
35	0x3d3fc620	0.046819806
36	0xbd9a34ac	-0.075295776
37	0xbd989b4c	-0.074514955
38	0xbc3a3c69	-0.011366942
39	0x3d541a5b	0.051782947
40	0xbc5fdd1c	-0.013663556
41	0xbc148b08	-0.009066351
42	0x3d17d98e	0.03707271
43	0xbd46fef5	-0.04858299
44	0xbcf3ee85	-0.02977682
45	0xbc2274fb	-0.009915586
46	0x3d1279f9	0.035760853
47	0xbc24d757	-0.010061107
48	0x3ca015f6	0.019541722
49	0x3c948074	0.018127657
50	0xbb44d035	-0.0030031328
51	0x3d259ffe	0.040435784
52	0x3c60b6c7	0.0137154525
53	0xbd16bca7	-0.036801007
54	0x3c7771cf	0.015102818
55	0xbc75ded5	-0.015006741
56	0x3c00adc4	0.007853929
57	0xbc15863a	-0.00912624
58	0x3cb8253c	0.022478692
59	0xbcac769a	-0.021052647
60	0xbac45141	-0.0014977829
61	0xbd9dfa48	-0.07713753
62	0xbcddb190	-0.027062207
63	0x3d202d1c	0.03910552
64	0x3c014eac	0.007892292
65	0xbc25fe0a	-0.010131368
66	0x3ada9258	0.0016675694
67	0xbb01dd0a	-0.0019815587
68	0xbcc8b201	-0.024498941
69	0xbb24dbc8	-0.0025155414
70	0xbc29aa92	-0.010355609
71	0x3d3a737c	0.04552029
72	0xbdeec3c4	-0.11658433
73	0xba807237	-0.0009799664
74	0x3cdd406e	0.027008262
75	0x3d0ab623	0.033865105
76	0x3d1c863c	0.038213953
77	0x3b8f7bdb	0.0043787784
78	0x3ce1eaa4	0.027577706
79	0xbc8615e0	-0.016367853
80	0x3cdfc143	0.027313834
81	0xbc9fa3aa	-0.01948722
82	0x3d2b0bf8	0.04175946
83	0x3b5d612c	0.0033779843
84	0x3cfdb65e	0.030970749
85	0x3d34fa97	0.044184294
86	0xbd89aacd	-0.06722031
87	0xbd6c45cf	-0.057683762
88	0xbc7b6e73	-0.015346157
89	0xbd161764	-0.0366434
90	0x3d632d89	0.055463348
91	0xbcfed714	-0.031108417
92	0xbd46584e	-0.048424058
93	0x3cc31bb5	0.023816923
94	0xbb212de0	-0.0024593994
95	0xbd4753fe	-0.048664086
96	0xbd9918b9	-0.074754186
97	0xb9fb0fb8	-0.00047886162
98	0x3c5c6124	0.0134508945
99	0xbc8962b6	-0.016770702
100	0x3c5c344f	0.013440206
101	0x3cccd666	0.025004577
102	0xbaff67b9	-0.0019485868
103	0x3ba9ead4	0.0051854644
104	0x3cbf6388	0.02336289
105	0x3ca5fda9	0.020262556
106	0x3d07e7d5	0.033180077
107	0xbcc5e529	-0.024157124
108	0x3bb9142a	0.0056481557
109	0xbd794501	-0.060856823
110	0x3ce5b246	0.028039109
111	0xbd394f26	-0.045241497
112	0x3cde1260	0.027108371
113	0xbbd25bfb	-0.0064196563
114	0x3d832bb2	0.064048186
115	0xbcf44778	-0.029819235
116	0xbcdb29f1	-0.026753398
117	0xbcf543cb	-0.029939553
118	0xbc96b479	-0.018396603
119	0xbce4712c	-0.027885996
120	0x3b05f222	0.0020438512
121	0xbc744b38	-0.014910512
122	0x3d1f39a1	0.03887332
123	0x3c14d868	0.009084798
124	0x3c465bb1	0.012106822
125	0xbc16445c	-0.009171572
126	0x3b9bed7f	0.0047585363
127	0x3d2db06e	0.042404585
128	0x3d4f6b89	0.050639663
129	0x3cb99cbc	0.022657745
130	0x3ca08d68	0.019598678
131	0x3bf83bed	0.007575503
132	0x3dc54ceb	0.096338116
133	0x3c03d25e	0.008045761
134	0x3c43394c	0.011915516
135	0xbd0c71da	-0.034288265
136	0xbd6efba5	-0.058345456
137	0x3c8ed6c2	0.017436389
138	0x3aa369fe	0.0012467501
139	0x3c823451	0.015894087
140	0x3abe0678	0.0014497777
141	0xbd3010d9	-0.042984817
142	0x3c54d49a	0.012990141
143	0xbcb9ea64	-0.022694774
144	0xbbda15b3	-0.006655419
145	0x3d0bf9fa	0.034173943
146	0x3d017c58	0.031612724
147	0xbc8dd1c9	-0.017311947
148	0x3c2092e3	0.0098006455
149	0x3c4205e9	0.011842229
150	0x3ce256cb	0.027629277
151	0xbbbd6671	-0.0057800342
152	0xbd107d86	-0.03527596
153	0xb998d1f0	-0.00029148115
154	0xbd66219d	-0.0561844
155	0x3adc747c	0.0016819383
156	0x3d1e07f8	0.03858182
157	0xbc74a379	-0.014931553
158	0xbd457cca	-0.04821471
159	0xbd41bfe3	-0.047302138
160	0x3bd89f76	0.006610806
161	0x3cd9fad8	0.02660887
162	0xbb4fa150	-0.0031681843
163	0xbd511a71	-0.051050607
164	0x3cda3b29	0.026639538
165	0xbdcc6088	-0.099793494
166	0xbd93817c	-0.072024316
167	0xbd1849ce	-0.03717976
168	0xbc1b2d9a	-0.0094713215
169	0xbbf6ff01	-0.007537723
170	0xbbbe7f43	-0.0058135106
171	0x3cfb4d60	0.030676544
172	0xbd219f43	-0.039458524
173	0x3c530ae4	0.0128810145
174	0x39aa312f	0.0003246157
175	0x3ca2ed2c	0.019888483
176	0xbcbb44e4	-0.022859998
177	0xbd10b6f8	-0.035330743
178	0x3c56df6d	0.013114792
179	0x3d2d8acd	0.0423687
180	0xbcef538e	-0.029214647
181	0xbbb68852	-0.00557045
182	0xbb99f200	-0.004698038
183	0x3c808600	0.015688896
184	0x3bc021d3	0.005863407
185	0xbca2653a	-0.01982366
186	0xbcacbdf7	-0.021086676
187	0xbd07a04a	-0.033111848
188	0xbc45b8ac	-0.012067955
189	0xbd51dbf0	-0.05123514
190	0x3c8a0a9e	0.016850766
191	0xbcc66998	-0.024220273
192	0xbcc94b38	-0.024572
193	0x3b337958	0.002738556
194	0x3d17f278	0.03709647
195	0xbc79b173	-0.015240061
196	0xbb7a9a51	-0.0038238952
197	0x3bd98a6f	0.006638817
198	0xbdae8999	-0.085223384
199	0xbbd8a6d5	-0.006611685
200	0x3ccadc70	0.024763316
201	0x3d317731	0.04332656
202	0xbc7a78a6	-0.015287554
203	0x3c0d239c	0.008614447
204	0xba0cafb8	-0.00053667603
205	0xbcbd256d	-0.023089135
206	0xbca454ae	-0.02005991
207	0xbcbdebfc	-0.023183815
208	0xbc0ee939	-0.008722597
209	0xbc240876	-0.010011783
210	0xbbe9802f	-0.0071258764
211	0xbd32722d	-0.043565918
212	0xbc305e56	-0.010764679
213	0xbc9798bc	-0.018505447
214	0x3c40c14f	0.011764838
215	0xbc7fa6a6	-0.015603697
216	0x3d79b3eb	0.0609626
217	0x3bca83b4	0.006180251
218	0xbbbae1d9	-0.0057031927
219	0x3cca166b	0.024668893
220	0x3c124f62	0.008930059
221	0x3cf4c97f	0.029881237
222	0x3cfbf960	0.03075856
223	0xbcbe58a5	-0.023235628
224	0xbd38d326	-0.04512324
225	0x3b82abc5	0.0039877617
226	0xbca4cce9	-0.02011724
227	0xbd5b2a84	-0.053507343
228	0xbc0fad4f	-0.008769347
229	0xbce39572	-0.027781222
230	0x3d080377	0.03320643
231	0x3af5a0b9	0.0018739916
232	0xbd6430b4	-0.05571051
233	0x3cc10be6	0.023565244
234	0x3cb05ea3	0.021529501
235	0xbc56d9df	-0.013113468
236	0x3c8ececd	0.017432595
237	0x3c800d80	0.015631437
238	0xbb6d323b	-0.003619327
239	0xbcf7ec4e	-0.030264046
240	0xbde3db5a	-0.11125822
241	0xbc8c007a	-0.017090071
242	0x3d3f0229	0.04663292
243	0xbc67a7f2	-0.014139162
244	0xbbae401b	-0.0053177006
245	0x3cb3805d	0.021911794
246	0x3d271f3d	0.040801276
247	0xbd3736b1	-0.044729892
248	0xbc88e9ce	-0.01671305
249	0xbc148da5	-0.009066974
250	0x3d3665e5	0.044530768
251	0x3c0f70ce	0.008754922
252	0xbce017e0	-0.027355134
253	0xbc06baca	-0.008223245
254	0xbbeaf388	-0.0071701445
255	0xbc434af4	-0.011919726

encoder.fc1.bias f4 [64]
0	0x3d44f7e9	0.048087988
1	0xbd5674f5	-0.052357633
2	0x3d9a58d5	0.075364746
3	0x3c9abfe0	0.018890321
4	0x3c322ee0	0.010875434
5	0xbc485aea	-0.012228707
6	0x3d8df253	0.06930985
7	0x3bf6ef90	0.0075358823
8	0x3d9736ca	0.07383497
9	0xbd3f8bb5	-0.046764094
10	0xbda0fc45	-0.078606166
11	0xbd68e614	-0.056860045
12	0x3cd3a2f2	0.025834534
13	0xbd940aaa	-0.072285965
14	0x3d62a821	0.05533612
15	0x3a220eee	0.0006182034
16	0xbd0ba458	-0.034092277
17	0x3d14b3de	0.036304347
18	0x3b5db0d4	0.0033827322
19	0x3e1fa22f	0.15589212
20	0xbde08033	-0.10961952
21	0xbd63f793	-0.055656027
22	0x3cca791a	0.024715949
23	0xbdd0218e	-0.1016265
24	0x3e16a093	0.14709692
25	0x3a43682d	0.0007454183
26	0x3e03e339	0.12879647
27	0xbaf55191	-0.0018716325
28	0x3dd01ca3	0.10161712
29	0x3a9917d0	0.001168007
30	0xbd976ea8	-0.07394153
31	0x3d8960c3	0.06707909
32	0x3d81e86e	0.063431606
33	0x3d2bfafe	0.04198741
34	0xbcb56253	-0.022141611
35	0xbbef993b	-0.0073119677
36	0xbd90b281	-0.07065297
37	0x3d87163c	0.06596038
38	0xba47ac0f	-0.0007616886
39	0x3d04af62	0.03239382
40	0xbcfc05f2	-0.030764554
41	0xbd907485	-0.07053474
42	0x3cbfc2a9	0.02340825
43	0x3da8dcde	0.08245252
44	0x3d01d3df	0.031696197
45	0xbe00c7b5	-0.12576182
46	0x3ce39f49	0.027785914
47	0x3cc670b3	0.024223661
48	0xbda4136f	-0.08011519
49	0xbc17dd02	-0.009269001
50	0x3ce4ec26	0.027944636
51	0xbd6cc0f7	-0.057801213
52	0x3d81a235	0.06329767
53	0xbe0ec29c	-0.13941425
54	0xbbfe8751	-0.007767596
55	0x3d8fe8f0	0.07026851
56	0xbcf238fe	-0.029568192
57	0x3c8d6251	0.017258795
58	0xbe0e8686	-0.13918504
59	0xbce5c299	-0.028046893
60	0x3c18f588	0.009335883
61	0xbcff9483	-0.031198746
62	0xbd22130a	-0.03956894
63	0xbda972a3	-0.08273818

encoder.fc2.weight f4 [16, 64]
0	0xbd8c09cb	-0.06837805
1	0x3d1fbcd8	0.038998455
2	0x3d6dce38	0.058057994
3	0xbdb0b833	-0.08628883
4	0xbc7f5ce6	-0.015586114
5	0x3de81882	0.113327995
6	0xbcd15759	-0.025554346
7	0xbd48e18b	-0.04904322
8	0xbc86e1be	-0.016465064
9	0xbd093f1f	-0.033507463
10	0xbcd05fc1	-0.025436284
11	0x3d94cd6e	0.07265745
12	0xbe19d22d	-0.15021582
13	0x3d94a7a0	0.072585344
14	0x3d38af83	0.045089256
15	0x3ca80d28	0.020514086
16	0xbdfe3d46	-0.12414031
17	0xbcafb603	-0.021449095
18	0x3d46f70c	0.048575446
19	0x3d29fbde	0.041499965
20	0xbdde14af	-0.10843789
21	0x3d5f0c24	0.054454938
22	0xbe01d838	-0.12680137
23	0xbd244319	-0.04010305
24	0x3d24bda6	0.040219925
25	0xbccb03ec	-0.024782144
26	0x3d79fa73	0.061029863
27	0x3daf0fdf	0.08547949
28	0x3ca07da0	0.019591153
29	0xbd83a8ed	-0.064287044
30	0xbdf9bdef	-0.1219443
31	0xbce93881	-0.028469326
32	0x3d8492df	0.06473326
33	0x3dd9fc84	0.10643867
34	0xbd9d6ca5	-0.07686738
35	0x3d62a4d2	0.055332966
36	0xbddb5e0f	-0.107113
37	0xbddd2040	-0.10797167
38	0xbd4bb3e7	-0.049732115
39	0xbcbecfbe	-0.023292419
40	0xbd7526b8	-0.05985138
41	0xbd3327c7	-0.043739107
42	0x3d180531	0.037114326
43	0x3dc4dfdf	0.096130125
44	0xbb6d9ce2	-0.003625684
45	0xbd953a1c	-0.07286474
46	0x3db4fbb5	0.08837072
47	0x3da6bf3b	0.08141943
48	0xbd2be30f	-0.041964587
49	0x3b941b2f	0.004519842
50	0x3b988d6d	0.004655531
51	0xbd2e49d1	-0.042550866
52	0xbcf063b7	-0.029344423
53	0xbd8dc616	-0.069225475
54	0x3d955c0d	0.07292948
55	0x3d6f8fc4	0.058486715
56	0x3d82fb11	0.06395543
57	0x3d2ab55a	0.041676857
58	0xbd28cd48	-0.041211396
59	0x3d4cedfa	0.05003164
60	0x3deffba2	0.11717917
61	0x3d056f15	0.03257664
62	0xbe06a62e	-0.1314933
63	0x3d7ef1d9	0.062242363
64	0xbd633f33	-0.055480193
65	0x3ce46e6d	0.027884686
66	0xbd91a5e7	-0.071117215
67	0xbb833127	-0.004003662
68	0xbcb27749	-0.021785395
69	0x3d4be103	0.049775135
70	0x3cee2591	0.029070647
71	0xbd94f3a0	-0.0727303
72	0xbd5b44f3	-0.053532552
73	0x3d5504ed	0.05200665
74	0xbd6bf075	-0.057602365
75	0xbd8aa11f	-0.06769013
76	0x3d739c15	0.059475023
77	0xbe05285d	-0.13003679
78	0x3c4cf9cd	0.012510729
79	0x3cbcb05f	0.023033319
80	0xbdcd8987	-0.10035997
81	0xbdd138e9	-0.10215933
82	0x3c91ab24	0.017781802
83	0x3de1380e	0.1099702
84	0x3da6c3eb	0.08142837
85	0x3e03a34e	0.12855265
86	0xbce98afd	-0.028508658
87	0x3d2c3d12	0.04205043
88	0x3d45f7a6	0.04833188
89	0x36eaaec6	6.9940897e-06
90	0xbb30c78a	-0.0026974403
91	0xbdeb117a	-0.11477943
92	0x3deb7ca3	0.11498382
93	0xbcd896f7	-0.026439173
94	0x3d62e2d4	0.0553921
95	0x3dd8e4d7	0.10590523
96	0xbd7608bf	-0.060066935
97	0x3da9deef	0.08294474
98	0x3d6e5be3	0.0581931
99	0xbd495602	-0.04915429
100	0xbc65dba6	-0.014029419
101	0xbcc334f2	-0.023828957
102	0x3d8967ff	0.06709289
103	0x3cc07803	0.023494726
104	0xbcbd654f	-0.023119597
105	0x3d0b55b9	0.0340173
106	0xbde3ca4d	-0.1112257
107	0x3ce59e2b	0.028029522
108	0xbd35a78d	-0.044349242
109	0xbcde7f62	-0.02716035
110	0xbd6e1929	-0.058129463
111	0xbd245b31	-0.04012603
112	0x3da4e687	0.08051782
113	0xbd3bd47a	-0.04585693
114	0xbd1356c3	-0.035971414
115	0x3d3ef2ee	0.046618395
116	0x3cacd125	0.021095822
117	0xbe00c43a	-0.12574854
118	0xbd3155d1	-0.04329473
119	0x3da435ea	0.08018096
120	0x3d79753b	0.060902815
121	0x3de5532b	0.11197504
122	0xbd0f2329	-0.03494564
123	0xbd7049bd	-0.058664072
124	0x3d50ffb1	0.051025096
125	0xbddc4300	-0.10754967
126	0xbdac0ffb	-0.084014855
127	0xbe1bb014	-0.15203887
128	0x3dc3d6d6	0.09562461
129	0xbdb84ec6	-0.089994
130	0xbd0d043b	-0.034427863
131	0x3db95326	0.090490624
132	0xbd838a16	-0.06422822
133	0xbd99124e	-0.074741945
134	0x3cc0d60a	0.023539562
135	0x3c85e6d4	0.016345419
136	0x3ddb256c	0.10700497
137	0xbdb3e125	-0.08783177
138	0xbdbcfde2	-0.09228112
139	0x3dc944b3	0.098275565
140	0x3c32342a	0.010876695
141	0xbe0e3bbe	-0.13889977
142	0x3c564c34	0.013079692
143	0xbe156aa3	-0.1459146
144	0xbd35b63f	-0.044363257
145	0xbe228b5e	-0.15873477
146	0x3de55bf1	0.11199177
147	0x3d7fbda1	0.062436704
148	0xbda8bed8	-0.082395256
149	0xbd969f1b	-0.07354566
150	0xbd8e8e09	-0.06960685
151	0x3d0b2d09	0.033978496
152	0x3d8b91dd	0.068149306
153	0xbda3bc60	-0.07994914
154	0x3d1ddc39	0.0385401
155	0x3d3b78fd	0.04576968
156	0xbd63d459	-0.055622432
157	0x3d8e8194	0.06958309
158	0x3c003de4	0.007827256
159	0x3d0724c2	0.03299404
160	0x3dc15c84	0.09441474
161	0xbd383e0f	-0.04498106
162	0x3d6f3180	0.058396816
163	0xbd77ac04	-0.06046678
164	0x3dab5cf3	0.08367338
165	0xbcbaede8	-0.02281852
166	0xbccad793	-0.024760997
167	0x3d5c2e09	0.05375484
168	0xbdc691a8	-0.096957505
169	0xbdb58198	-0.08862609
170	0xbb298098	-0.0025864001
171	0xbcb3c7fe	-0.02194595
172	0x3d8e03ba	0.069343045
173	0xbd9e7667	-0.07737427
174	0xbdeb6520	-0.114938974
175	0x3a517cc3	0.0007991308
176	0xbdae2e9e	-0.08504985
177	0xbe11837b	-0.14210312
178	0xbd804ee5	-0.06265048
179	0x3d8e4ee5	0.06948642
180	0x3c415030	0.011798903
181	0xbd0f847b	-0.035038453
182	0xbd2e307c	-0.042526707
183	0xbd47179f	-0.04860651
184	0x3d2f48b1	0.042793933
185	0x3d845ec7	0.0646339
186	0xbc405177	-0.011738173
187	0x3db6d1ee	0.0892676
188	0x3beffc68	0.0073237903
189	0xbc0e339a	-0.008679295
190	0xbc72b5e6	-0.014813876
191	0xbd1b271d	-0.0378791
192	0xbd0c2340	-0.034213305
193	0xbdafe8b8	-0.085893095
194	0xbde38ec0	-0.11111212
195	0xbdb392b3	-0.08768215
196	0x3daf1ac9	0.08550031
197	0xbd1b584b	-0.037926
198	0x3c1b1d8f	0.009467497
199	0xbd0d1c8c	-0.034451053
200	0xbb11b97b	-0.00222358
201	0x3da4dad0	0.08049548
202	0xbca6641a	-0.020311404
203	0xbd0e6e9a	-0.034773447
204	0x3c3331a6	0.01093713
205	0x3d94a885	0.07258705
206	0x3cb9cdd8	0.022681162
207	0x3cda3a41	0.026639106
208	0x3d54fe49	0.052000318
209	0xbbabba99	-0.00524075
210	0xbdd992d7	-0.106237106
211	0xbd0b4ddd	-0.034009803
212	0xbe02f31b	-0.1278805
213	0xbdaf4652	-0.085583344
214	0xbd3c8d7a	-0.04603336
215	0xbd95647c	-0.072945565
216	0x3d8cf92b	0.068834625
217	0xbd262445	-0.040561933
218	0xbde2a236	-0.110660955
219	0x3d2a696b	0.04160444
220	0x3dc44d1c	0.0958502
221	0xbe0709a8	-0.13187277
222	0x3d79cb38	0.06098482
223	0xbdcb3294	-0.099217564
224	0x3d4156b9	0.047201846
225	0xbd736954	-0.05942662
226	0xbc3efa7d	-0.011656401
227	0xbd57301d	-0.05253612
228	0x3c8c599f	0.017132578
229	0x3d1e47a4	0.03864254
230	0xbe2a9ca0	-0.1666131
231	0xbbe6fe2e	-0.0070493435
232	0x3da7dd49	0.08196504
233	0xbe372f95	-0.17889245
234	0xbb361825	-0.0027785387
235	0x3d986d92	0.07442774
236	0xbd0d808e	-0.034546427
237	0x3d8ac085	0.067750014
238	0x3d4f068b	0.05054335
239	0xbd10fa1f	-0.035394784
240	0x3cea932e	0.028634634
241	0x3dd9c610	0.106334805
242	0xbdbe089a	-0.09278984
243	0xbde9b527	-0.11411505
244	0x3d27d8cd	0.04097824
245	0x3ce5187f	0.027965782
246	0x3db1d579	0.08683295
247	0xbd179669	-0.037008677
248	0xbdb88c22	-0.09011103
249	0x3dc4fc01	0.096183784
250	0xbdc32edc	-0.09530422
251	0xbda00751	-0.078138955
252	0xbd956c1f	-0.07296013
253	0xbe382fe4	-0.17987019
254	0xbcdcff65	-0.02697725
255	0x3d704791	0.058662

encoder.fc2.bias f4 [16]
0	0xbdb197f1	-0.08671559
1	0x3db23581	0.08701611
2	0xbd12f1ec	-0.035875246
3	0x3dee5122	0.116365686
4	0x3d5a4b68	0.05329457
5	0x3e2999bd	0.16562553
6	0x3de525bd	0.11188839
7	0x3dc63de1	0.09679771
8	0xbd24b442	-0.04021097
9	0x3d895f0d	0.067075826
10	0x3e1aca10	0.15116143
11	0x3e056f5b	0.1303076
12	0x3d5a4ec4	0.053297773
13	0xbd8eea1f	-0.06978249
14	0x3c874c1f	0.01651579
15	0x3dcc533a	0.09976812

encoder.fc21.weight f4 [4, 16]
0	0x3d9a6176	0.075381204
1	0x3dd6d2de	0.104894385
2	0xbe570bee	-0.21000645
3	0xbd5d3abc	-0.05401109
4	0xbd5983a8	-0.053104073
5	0x3e31c4c1	0.17360212
6	0xbe258f6c	-0.16167992
7	0x3d5ecfd7	0.05439743
8	0xbd140328	-0.036135823
9	0xbe71fe04	-0.23632056
10	0xbdc477f9	-0.095931955
11	0x3e361081	0.17779733
12	0x3e2f9d37	0.17149816
13	0x3e1998ce	0.14999697
14	0xbe0271b8	-0.12738693
15	0x3e446ae2	0.19181398
16	0x3e6c36a9	0.23067726
17	0xbe1b87db	-0.15188543
18	0xbe844661	-0.25834945
19	0x3d04f283	0.03245784
20	0x3d385b22	0.045008786
21	0xbcebfe17	-0.028807683
22	0x3d8ab343	0.06772473
23	0xbd5a605c	-0.05331455
24	0xbe3487f7	-0.17629991
25	0xbd84bf73	-0.064818285
26	0x3db9bc8a	0.09069164
27	0x3e0565a2	0.13027051
28	0x3dbfc74d	0.093641855
29	0xbe1d9feb	-0.15393035
30	0x3d9f888b	0.077897154
31	0x3c5e57c0	0.013570726
32	0x3e1ce4f7	0.15321718
33	0xbdd3547f	-0.10318851
34	0xbd7b61d8	-0.061372608
35	0x3d860780	0.06544399
36	0x3e29ce6f	0.16582654
37	0xbe20a8f9	-0.15689458
38	0x3e06de38	0.13170707
39	0x3e4fe20a	0.20301071
40	0x3c4516b3	0.012029338
41	0x3dc406cf	0.09571611
42	0xbdc00f8c	-0.09377965
43	0xbdbe05d1	-0.09278453
44	0x3db2f8be	0.0873885
45	0x3e2fe445	0.17176922
46	0x3e4f2486	0.20228776
47	0xbd92e7f4	-0.07173148
48	0xbd802943	-0.0625787
49	0x3e2c0bb5	0.16801341
50	0xbe3dfc23	-0.18553214
51	0x3e44b227	0.19208585
52	0x3cd7583c	0.02628719
53	0x3d9d6e84	0.07687095
54	0xbdd89595	-0.105754055
55	0x3e311d3b	0.17296307
56	0xbe6d9ec2	-0.23205093
57	0x3d22bc69	0.039730463
58	0x3e045543	0.1292315
59	0x3d4e894a	0.050423898
60	0x3db34ac5	0.087544955
61	0x3de6c818	0.112686336
62	0xbd6a5f38	-0.057219714
63	0x3db8f364	0.09030798

encoder.fc21.bias f4 [4]
0	0x3b7dcfaf	0.0038728525
1	0x3e3718a4	0.17880493
2	0xbe4da0fa	-0.20080939
3	0xbe11cc79	-0.14238156

encoder.fc22.weight f4 [4, 16]
0	0xbe1e780e	-0.15475485
1	0xbea4b205	-0.32167068
2	0xbe328a79	-0.17435636
3	0xbea4dd71	-0.32200196
4	0x3d73e5fc	0.059545502
5	0xbe80ee1b	-0.2518166
6	0x3ae5f283	0.0017543588
7	0xbdf4a824	-0.11946133
8	0xbe277924	-0.16354805
9	0xbdb2dec3	-0.08733895
10	0xbec4a529	-0.38407257
11	0xbe99ce42	-0.30040175
12	0x3c0cab06	0.008585697
13	0xbdb97b0e	-0.09056674
14	0xbe96ff47	-0.29491636
15	0xbd591030	-0.052993953
16	0x3b838cfd	0.00401461
17	0xbe79669e	-0.24355552
18	0x3ccb6efc	0.024833195
19	0xbe7e5635	-0.24837573
20	0xbdbdbf33	-0.09264984
21	0xbe8972e8	-0.2684548
22	0xbe178be5	-0.1479946
23	0xbe0008a9	-0.12503304
24	0xbeaa2ea6	-0.33238715
25	0x3e29bee3	0.16576724
26	0xbeb0888b	-0.34479174
27	0xbe59119d	-0.21198125
28	0x3d96ea1a	0.0736887
29	0x3c4fb95c	0.01267847
30	0x3d6abb53	0.057307553
31	0xbe04c4a0	-0.12965631
32	0xbdfddbe0	-0.123954535
33	0x3e228c1d	0.15873761
34	0xbde7edec	-0.11324677
35	0xbe1f2493	-0.15541296
36	0x3d0bf795	0.03417166
37	0x3dbf87d5	0.0935208
38	0xbdb645c7	-0.08900028
39	0x3cd340cc	0.025787733
40	0xbe107e7c	-0.1411075
41	0xbd84ac3b	-0.06478163
42	0xbe86d15b	-0.263316
43	0x3defb2de	0.11704038
44	0x3d34ff63	0.04418887
45	0x3c896b2f	0.016774742
46	0xbdd94259	-0.10608358
47	0xbe078a98	-0.13236463
48	0x3d05ee0d	0.032697726
49	0xbd7a140d	-0.06105428
50	0xbe08ccc8	-0.13359368
51	0xba392e87	-0.0007064123
52	0xbdf0f138	-0.11764759
53	0xbde89cdf	-0.11358046
54	0xbdfd2fc0	-0.12362623
55	0x3db379ba	0.08763452
56	0x3da2e330	0.07953489
57	0xbc8bb569	-0.017054277
58	0xbea0d6df	-0.31413934
59	0x3d8ab9dc	0.06773731
60	0xbe1e71db	-0.1547312
61	0x3dd06d38	0.10177082
62	0xbdf341c9	-0.11877782
63	0xbd84763e	-0.064678654

encoder.fc22.bias f4 [4]
0	0xbe439cae	-0.19102737
1	0xbe27fe40	-0.16405582
2	0x3d29ee3a	0.041486956
3	0xbe77c9a9	-0.24198021

encoder.bn1.weight f4 [16]
0	0x3f6a73ac	0.9158275
1	0x3f800000	1.0
2	0x3f71bebf	0.9443168
3	0x3f644430	0.89166546
4	0x3f5c29e7	0.8600144
5	0x3f5d235a	0.8638207
6	0x3f809cce	1.0047853
7	0x3f703e02	0.93844616
8	0x3f6c4d29	0.9230524
9	0x3f7364a0	0.95075417
10	0x3f5dd8ac	0.8665874
11	0x3f6b55d4	0.9192784
12	0x3f736290	0.9507227
13	0x3f7bf8b4	0.98426366
14	0x3f6e1e89	0.9301534
15	0x3f800000	1.0

encoder.bn1.bias f4 [16]
0	0xbace0f39	-0.001572109
1	0xbd3d764b	-0.04625539
2	0xbcb019f8	-0.021496758
3	0xbcef9e75	-0.029250363
4	0x3cb89240	0.022530675
5	0x3d0b9216	0.034074865
6	0xbd31794f	-0.04332858
7	0x3c7e1675	0.015508284
8	0xbcce8d41	-0.02521384
9	0x3d9654aa	0.07340367
10	0x3d5a9af1	0.05337042
11	0x3d355461	0.044269923
12	0xbcac2ff5	-0.021018961
13	0xbc325c2b	-0.010886232
14	0x3d9b4224	0.07580975
15	0xbcc67873	-0.024227357

encoder.bn1.running_mean f4 [16]
0	0x3e153613	0.14571409
1	0x00000000	0.0
2	0x3dcec5aa	0.10096295
3	0x3e71c2ac	0.23609418
4	0x3e34763f	0.17623232
5	0x3e8735a5	0.26408115
6	0x3e39d57f	0.18147849
7	0x3e17b3f4	0.1481474
8	0x3f8c37cf	1.0954531
9	0x3e82c16c	0.25538194
10	0x3e86b698	0.26311183
11	0x3e0431e0	0.12909651
12	0x3e9352a5	0.2877399
13	0x3bc850a7	0.00611313
14	0x3b45b889	0.0030169806
15	0x00000000	0.0

encoder.bn1.running_var f4 [16]
0	0x3d4f1fce	0.05056744
1	0x2e5ec088	5.0647958e-11
2	0x3d1b3641	0.037893537
3	0x3d7dd19b	0.061967473
4	0x3d1bac93	0.038006376
5	0x3d02ee24	0.03196539
6	0x3d0849c6	0.03327348
7	0x3cd3af8b	0.025840541
8	0x3e37d56b	0.17952506
9	0x3d6e679d	0.058204282
10	0x3d081403	0.03322221
11	0x3cd6ad2d	0.026205624
12	0x3cce0dc7	0.025153054
13	0x3929448a	0.00016142629
14	0x3824ebc4	3.932022e-05
15	0x2e5ec088	5.0647958e-11

encoder.bn2.weight f4 [16]
0	0x3f5a39f2	0.8524467
1	0x3f6f717d	0.93532544
2	0x3f513aba	0.81730235
3	0x3f72d9fd	0.94863874
4	0x3f63b80b	0.889527
5	0x3f6efd2d	0.93355066
6	0x3f69420c	0.91116405
7	0x3f74cdbb	0.9562642
8	0x3f73cbac	0.95232654
9	0x3f5cb3db	0.8621194
10	0x3f7cfc54	0.9882252
11	0x3f5a74ad	0.85334283
12	0x3f6e896c	0.9317844
13	0x3f6d7b93	0.92766684
14	0x3f6ed0a2	0.932871
15	0x3f7caf23	0.9870474

encoder.bn2.bias f4 [16]
0	0xbc70beac	-0.014693897
1	0xbc72a80b	-0.014810572
2	0x3d32df6a	0.043670096
3	0x38ff0913	0.00012161038
4	0x3cbffd1f	0.023436127
5	0x3d58b515	0.05290707
6	0x3d55c2d3	0.052187752
7	0x3cd71b09	0.026258009
8	0xbb5b7e54	-0.0033492045
9	0x3cf51389	0.029916542
10	0xbd91d520	-0.071207285
11	0x3c99b0d3	0.018761074
12	0x3d534ecf	0.05158883
13	0x3c2d6dac	0.01058523
14	0x3c967cc1	0.018370034
15	0x3cc98003	0.024597174

encoder.bn2.running_mean f4 [16]
0	0x3e95a943	0.292307
1	0x3e8684dd	0.26273242
2	0x3e0a78f5	0.13522704
3	0x3e7d0412	0.24708584
4	0x3ea1a5ca	0.315718
5	0x3ebe48a8	0.37164807
6	0x3e95441e	0.29153532
7	0x3f04d680	0.518898
8	0x3e9fc798	0.31206965
9	0x3e11ce93	0.14238958
10	0x3e3a7dba	0.18212023
11	0x3e80d464	0.2516204
12	0x3ebeac5e	0.3724088
13	0x3eaf5e48	0.34251618
14	0x3e30c9c4	0.17264467
15	0x3ecf1d09	0.4045184

encoder.bn2.running_var f4 [16]
0	0x3dcf273b	0.101149045
1	0x3e5a407a	0.21313658
2	0x3d2768d2	0.04087145
3	0x3e17f821	0.14840747
4	0x3e72e3c9	0.23719706
5	0x3e752d63	0.23943095
6	0x3e226f98	0.15862882
7	0x3efec0ba	0.49756414
8	0x3e8aa3de	0.27078146
9	0x3d4cdb04	0.050013557
10	0x3dd3b2f8	0.1033687
11	0x3dcf15e1	0.10111595
12	0x3e967332	0.29384762
13	0x3e736b6b	0.23771445
14	0x3d90e6e9	0.070752926
15	0x3e1c0ffd	0.15240474

encoder.bn3.weight f4 [32]
0	0x3f724eab	0.9465129
1	0x3f80ea44	1.0071492
2	0x3f804985	1.0022436
3	0x3f7fa4ed	0.9986103
4	0x3f6f7ccd	0.93549806
5	0x3f77644c	0.96637416
6	0x3f6f9a94	0.9359524
7	0x3f762e8d	0.9616478
8	0x3f6c672c	0.9234493
9	0x3f60a52e	0.87752044
10	0x3f71212f	0.9419126
11	0x3f810f89	1.0082866
12	0x3f76b9f9	0.9637752
13	0x3f643bce	0.89153755
14	0x3f7d026e	0.9883183
15	0x3f74b156	0.95583093
16	0x3f7f68a5	0.9976905
17	0x3f754195	0.95803195
18	0x3f624846	0.8839153
19	0x3f74dfe5	0.95654136
20	0x3f83e705	1.0304877
21	0x3f7a5b31	0.977954
22	0x3f6f65f4	0.93514943
23	0x3f669f19	0.90086514
24	0x3f76aca9	0.9635721
25	0x3f77faa7	0.9686684
26	0x3f6e720a	0.9314276
27	0x3f739bca	0.9515959
28	0x3f6f2079	0.93408924
29	0x3f696779	0.9117351
30	0x3f80a5b0	1.0050564
31	0x3f6cdc7e	0.92523944

encoder.bn3.bias f4 [32]
0	0xbcee2478	-0.029070124
1	0xbd60b6dc	-0.05486189
2	0xbdb4d82c	-0.08830294
3	0xbd01d9bb	-0.031701785
4	0xbd64367f	-0.055716034
5	0x3cd358c1	0.025799157
6	0xbc8b1d31	-0.016981693
7	0xbd0d7c0c	-0.03454213
8	0x3d5536aa	0.052054085
9	0xbcc0634c	-0.023484848
10	0x3d06b151	0.032883946
11	0xbc9ac8f8	-0.018894657
12	0xbd8e45b1	-0.06946886
13	0xbc190454	-0.009339411
14	0xbd848100	-0.06469917
15	0x3d3d5ac3	0.046229135
16	0xbd4bb4e9	-0.049733076
17	0xbd5530d6	-0.052048527
18	0x3c89d10c	0.016823314
19	0xbd554368	-0.052066237
20	0xbdb61ba9	-0.088919945
21	0xbd24396e	-0.04009383
22	0xbb3c8777	-0.0028767267
23	0x3d15405b	0.036438327
24	0xba20796d	-0.00061216095
25	0xbd5a92bb	-0.05336259
26	0xbd8cf0a1	-0.06881834
27	0xbbd818cf	-0.0065947543
28	0xbb051f72	-0.0020312932
29	0xbc861455	-0.016367117
30	0xbd9a13b8	-0.07523292
31	0x3c6e383b	0.014539774

encoder.bn3.running_mean f4 [32]
0	0x3e6eb483	0.23311047
1	0x3e97a031	0.29614404
2	0x3e8235ab	0.2543157
3	0x3e5ef769	0.21774067
4	0x3e73fd3c	0.2382707
5	0x3e9d2552	0.30692536
6	0x3e675bc9	0.22593607
7	0x3e8557cb	0.26043543
8	0x3e53781a	0.20651284
9	0x3e551c94	0.20811683
10	0x3e9fb37a	0.31191617
11	0x3ea02f99	0.31286314
12	0x3e483ca1	0.19554378
13	0x3e3f9150	0.18707776
14	0x3e927d24	0.286111
15	0x3eb28c0c	0.34872472
16	0x3e6ea09d	0.23303457
17	0x3e82c0d3	0.25537738
18	0x3e6eaffa	0.23309317
19	0x3e97f53c	0.29679286
20	0x3ea0c9f3	0.31404075
21	0x3ea632a1	0.32460502
22	0x3e8d5fdd	0.276122
23	0x3e2b21dd	0.16712137
24	0x3eaa4eb2	0.33263165
25	0x3e482de3	0.19548754
26	0x3e809204	0.251114
27	0x3eb3bcc4	0.35104954
28	0x3e3072c7	0.17231284
29	0x3e4f5b03	0.20249562
30	0x3e81ff18	0.25389934
31	0x3e94a7ef	0.29034373

encoder.bn3.running_var f4 [32]
0	0x3e281487	0.1641408
1	0x3e28d95b	0.16489165
2	0x3e5b2fea	0.21404997
3	0x3df466c0	0.119336605
4	0x3de705c2	0.11280395
5	0x3e5a0181	0.21289636
6	0x3dcbd9e5	0.099536695
7	0x3e58808f	0.21142791
8	0x3dd38a43	0.10329106
9	0x3e237008	0.15960705
10	0x3e54dc8a	0.20787254
11	0x3eabd082	0.33557516
12	0x3dccb29b	0.09995004
13	0x3dcc93c4	0.099891216
14	0x3e08e463	0.13368373
15	0x3e88fa75	0.26753584
16	0x3e4b9a03	0.1988297
17	0x3e46a335	0.19398196
18	0x3dc87a0c	0.097889036
19	0x3e7011f4	0.23444349
20	0x3e8db5da	0.27677804
21	0x3e41b8b1	0.1891811
22	0x3deebe99	0.11657447
23	0x3d894d70	0.06704223
24	0x3eaffa35	0.3437058
25	0x3e0ab7cc	0.13546675
26	0x3e028ffe	0.12750241
27	0x3e5bf764	0.21481091
28	0x3da5bfb6	0.080932066
29	0x3df72cd8	0.120691
30	0x3e02effb	0.12786858
31	0x3e5d54dd	0.21614404

encoder.bn4.weight f4 [32]
0	0x3f778d3a	0.9669987
1	0x3f6be36b	0.9214389
2	0x3f7e2656	0.99277246
3	0x3f747909	0.95497185
4	0x3f67673b	0.9039189
5	0x3f7cdc38	0.9877353
6	0x3f8387aa	1.0275776
7	0x3f700db4	0.9377091
8	0x3f76c947	0.96400875
9	0x3f778d4d	0.9669998
10	0x3f726b7a	0.94695246
11	0x3f731873	0.9495918
12	0x3f6337d2	0.8875705
13	0x3f712bf3	0.94207686
14	0x3f6cd6b8	0.92515135
15	0x3f774d3e	0.9660224
16	0x3f761d53	0.96138495
17	0x3f7c6f79	0.98607594
18	0x3f752c83	0.95771044
19	0x3f79bf5c	0.97557616
20	0x3f84168c	1.0319381
21	0x3f77d610	0.9681101
22	0x3f69a086	0.91260564
23	0x3f72fec5	0.9492
24	0x3f7b47aa	0.98156226
25	0x3f7788f6	0.9669336
26	0x3f80f963	1.0076107
27	0x3f741a3d	0.95352536
28	0x3f7c46f5	0.9854577
29	0x3f70e65e	0.9410151
30	0x3f7d405e	0.9892634
31	0x3f700842	0.937626
