results/_qm_fptra_0.7_1000_VAE_model.pt (torch, 166416 bytes, 61 tensors)

encoder.conv1.weight f4 [16, 1, 2]
000000 e3 c5 0a 3f c2 f1 ab 3e 0d a1 f1 3e 9f 9c 98 3d
       0.542082 0.33582884 0.47193184 0.07451748
000010 88 d4 f4 bd 4c 07 41 be 8f 5c 2c 3f 7d e9 dc be
       -0.119545996 -0.1885044 0.67328733 -0.43146887
000020 9f 63 06 bf d2 2a 2b 3f f8 f5 82 3d c0 49 92 3c
       -0.5249576 0.66862214 0.06394571 0.017857432
000030 29 3e 14 3f 76 38 dc be a1 6b d5 3e a4 18 2a 3e
       0.5790735 -0.43011826 0.41683677 0.16610962
000040 86 b0 b7 3e 53 81 91 be 68 04 14 3f a6 ad 1f bf
       0.35876864 -0.2841898 0.57819223 -0.6237434
000050 ac fd 41 be 94 26 89 be cf 3f 64 be 61 1d c0 3e
       -0.18944424 -0.26787245 -0.22289966 0.37522414
000060 26 13 2c 3e ea 66 b3 3e 3e 1a 59 be 96 96 a7 be
       0.1680418 0.35039455 -0.21201417 -0.32732075
000070 57 32 d6 3e 48 39 ee be 33 66 e6 be b0 a5 21 3f
       0.4183528 -0.46528077 -0.44999847 0.63143444

encoder.conv1.bias f4 [16]
000000 64 d3 f4 be 0e d4 d9 3e d2 96 38 3d 97 46 0c 3f
       -0.47817528 0.42544597 0.04506571 0.5479521
000010 df f0 40 be 91 b1 9f be 6d fb a1 be 0b 89 f0 3e
       -0.18841885 -0.3119016 -0.31637135 0.46979555
000020 4c 20 2d bf db 23 11 bf f8 bf a8 be e0 5a dc 3e
       -0.67627406 -0.56695336 -0.3295896 0.43038082
000030 29 5b ca 3e b8 8f aa bd bd 80 0c 3f 9d d5 44 bd
       0.39522675 -0.083281934 0.5488394 -0.04805528

encoder.conv2.weight f4 [16, 16, 2]
000000 78 c7 63 bc 80 37 b5 3d b7 df f0 3d 45 e3 1b be
       -0.0139025375 0.088484764 0.1176142 -0.15223415
000010 88 ae 03 bd 3f c5 81 3c 94 f9 df 3d 59 c4 4c bd
       -0.032148868 0.015841125 0.10936275 -0.04999194
000020 43 88 89 bd 51 e8 f6 bc 7c c6 8f bd f6 72 07 be
       -0.06715443 -0.030140074 -0.0702028 -0.13227448
000030 17 ad b1 bd c0 88 a2 3d 39 74 ca bd e5 86 d6 bd
       -0.086755924 0.07936239 -0.09885449 -0.10474948
000040 ae 75 f2 3d a4 b4 7e 3d 09 68 ad bd 66 c7 ea bd
       0.11838852 0.06218399 -0.08467109 -0.114638135
000050 f5 b6 45 bd 2c 31 08 3d f1 c4 ae 3b d1 03 dc bc
       -0.048270185 0.03325002 0.005333536 -0.026857289
000060 e1 d8 68 3d f8 20 f8 bd a2 f7 e1 3d da 0a 03 be
       0.056847457 -0.12115663 0.1103356 -0.12797108
000070 b2 b9 e4 bd 55 d5 76 3c b5 40 dd bd 03 12 ae 3d
       -0.11168231 0.015065511 -0.108033575 0.08499529
000080 2c 8f 1c be d7 f0 66 bd 19 23 8a 3d cc 8c 9b bd
       -0.1528899 -0.056382027 0.067449756 -0.07595214
000090 c9 9e 39 bd 8f 70 8a 3c b9 b1 17 3e b8 20 a6 3c
       -0.045317445 0.016899375 0.1481389 0.020279273
0000a0 cb 63 58 3d b9 77 33 be a9 1f 38 bd 1a 60 0a 3e
       0.052829545 -0.1752614 -0.04495207 0.13513222
0000b0 8f 5e 1f 3e 88 31 d1 bd 80 29 40 3e 27 13 a2 bc
       0.15563415 -0.102145255 0.18765831 -0.019784523
0000c0 54 69 f1 bd 01 85 48 bd cf e8 b5 3d 98 38 30 bd
       -0.11787668 -0.048954967 0.08882295 -0.043022722
0000d0 d8 ad f5 bd 10 06 24 3e 82 ce 24 3e 7d 29 49 3d
       -0.11996049 0.16017938 0.16094401 0.049111832
0000e0 0b ba 27 bd 9c cd cd bb f8 fd 14 3d fb 17 a3 3d
       -0.04094891 -0.006280614 0.036375016 0.07963558
0000f0 3a 0c 28 3e b4 da da 3d c8 ae 0c 3d be 16 e4 3d
       0.16410914 0.106862456 0.034346372 0.1113715
000100 da 42 f4 3d e5 ae dc 3d b9 fe f9 3c a5 ad 07 3d
       0.119268134 0.10775546 0.030516969 0.033124585
000110 df f2 29 be c9 41 3c be 64 96 8f 3d aa 99 f9 3d
       -0.16596554 -0.1838447 0.070111066 0.12187512
000120 bd e8 10 bd e0 b3 87 3d c9 d5 3d bd 57 3a 36 3d
       -0.035378207 0.06626105 -0.04634646 0.04448923
000130 66 aa fb 3d 28 9d bf 3c 97 63 a3 3d 9a 58 b2 bc
       0.1228836 0.023390368 0.0797798 -0.021770764
000140 5e b0 7f bd 26 1f 95 3d 0f b3 03 be a7 65 e0 3d
       -0.062424056 0.07281332 -0.12861274 0.10956889
000150 70 a4 17 3e b3 5f 42 3e 7b 61 ea 3d eb b1 1a bd
       0.14808822 0.18981819 0.11444374 -0.037767332
000160 0e 2d 87 bb 71 f3 89 3c d6 6d 8a bb d5 01 6b bd
       -0.004125244 0.016839715 -0.0042245192 -0.057374794
000170 be 2a 13 3e 45 1c 42 3e 84 07 0a be 8b c1 4b be
       0.14371774 0.18956096 -0.1347943 -0.1989805
000180 3d 45 46 3e d1 30 89 bc a2 c6 02 3e 86 3f 2b bc
       0.1936235 -0.01674691 0.12771085 -0.010452157
000190 ab a0 19 3e 83 4d 09 be 56 5b 1d 3e ba c8 08 be
       0.15002696 -0.13408475 0.15366873 -0.13357821
0001a0 16 f0 01 3e 87 82 20 be dd cd 08 be e1 ff 77 3d
       0.12689242 -0.15674792 -0.1335978 0.06054676
0001b0 f4 31 35 be 29 51 b5 3d 1f 31 a5 3d 04 09 09 be
       -0.17694837 0.08853371 0.0806601 -0.13382345
0001c0 39 70 92 bd 15 07 cd bd aa e7 ba 3d 1f 4c 25 3e
       -0.07150311 -0.100111164 0.09126218 0.16142319
0001d0 97 06 9a bd 4b 9d 0b be b9 83 79 3d 68 bf 07 bd
       -0.07520788 -0.13634221 0.060916636 -0.033141524
0001e0 84 03 e5 bd 8c 54 1c 3e 76 18 ec 3d 69 2e 04 3e
       -0.11182311 0.15266627 0.11528103 0.12908329
0001f0 05 6f ff 3c 2f 21 15 3e 3e f6 db 3c 93 05 ee 3c
       0.031180868 0.1456344 0.026850816 0.029055392
000200 ef e6 cf 3d 27 b2 e0 3a 4a fb 87 bd 07 06 11 3e
       0.10151469 0.0017142937 -0.066397265 0.14162455
000210 8d ed 85 3b 1c 99 d6 3d 14 37 1a be 42 0c fb 3d
       0.004087156 0.10478422 -0.15060073 0.12258197
000220 8b cd 0c be 0c 4b ae bc 68 e3 a9 bd 2e d1 bb bc
       -0.13750283 -0.02127602 -0.082953274 -0.022926893
000230 b3 a8 e2 3d d2 30 c1 3d 18 51 ad 3d 32 af 38 3e
       0.11067333 0.0943314 0.08462733 0.18035582
000240 e3 a5 a2 3d ca eb b7 3c da f2 ad bd 87 46 ea 3d
       0.07941797 0.0224513 -0.08493586 0.11439233
000250 08 dd 1d 3e 3d fb 2e 3d 0d bb 02 be e5 41 34 bd
       0.15416348 0.04272007 -0.12766667 -0.044008154
000260 e8 e7 7f bb e9 f3 46 bd 8e f1 1e 3d e9 9f ff 3c
       -0.003904814 -0.048572455 0.038804583 0.03120418
000270 cb 9f 71 bc d1 c9 95 3d 9b a3 12 3e 63 ba 2c bd
       -0.01474757 0.07313884 0.14320223 -0.04216994
000280 3c fd 29 3e 87 06 2a 3e ad d8 07 3d 4a 92 a0 3d
       0.16600507 0.16604052 0.033165623 0.078404024
000290 2f e0 11 3e 4d 98 8a 3d 9f 1b 7f bc b9 9c b3 b9
       0.14245676 0.0676733 -0.01557055 -0.00034258308
0002a0 b0 ab 25 be fd 2e a5 bd 6d c5 a3 bb 68 68 e7 bd
       -0.16178775 -0.08065603 -0.0049979 -0.11299211
0002b0 cc f0 8b 3d 15 5e b8 3c 41 70 15 3e da df 08 be
       0.06833038 0.0225058 0.14593603 -0.13366643
0002c0 2c 23 bf 3d bf fc 1c be c7 e2 04 3e 0d 8f c9 3d
       0.093328804 -0.1533079 0.12977134 0.09841738
0002d0 59 b9 dc bd 51 06 fe bd c1 ad ac 3d 54 a9 34 3d
       -0.1077754 -0.124035485 0.084315784 0.044106796
0002e0 45 28 d6 bd 7c dc c3 bd bf 7b 26 be 89 13 a0 3d
       -0.104568996 -0.095635384 -0.16258143 0.07816226
0002f0 5a ce 32 be 1b 10 f1 3d 4f 71 22 3d b7 65 46 be
       -0.1746153 0.1177065 0.03965884 -0.19374739
000300 06 73 62 3c ac af 36 3e f0 d5 f7 3d f5 4b 2d bd
       0.013821369 0.17840451 0.12101352 -0.042308766
000310 44 12 46 3d 99 d9 9c bd 8d 96 54 bd 04 7c bc bd
       0.048357263 -0.07658691 -0.05190139 -0.092033416
000320 0d 14 ca 3d ef b8 fe 3c f6 3b 8f 3d 59 ad a1 3d
       0.09867106 0.031094043 0.069938585 0.078943916
000330 45 b9 e1 3d a5 12 30 be 73 1c 63 3d 60 ec 41 3e
       0.110216655 -0.17194612 0.055447053 0.18937826
000340 d2 87 f5 bd f6 d7 97 bd e6 d4 54 be 6f 64 96 bd
       -0.11988796 -0.07414238 -0.2078434 -0.07343375
000350 fc 2b 9a 3d c9 ad 1e 3c 30 e3 a1 3c fe e1 d7 bd
       0.075279206 0.009684988 0.019761652 -0.105411515
000360 5c 83 5d 3d 47 89 2b 3e 92 97 7a 3d 56 74 2f be
       0.054080352 0.16751586 0.061179705 -0.17134222
000370 7c 68 b5 3d 65 a6 b3 3d 30 b2 a3 bd 6f 14 cf 3c
       0.088578194 0.087719716 -0.07992971 0.025278298
000380 3e 9e bb ba 4e 08 89 3a 2f 8a bd 3d 8f 86 87 3d
       -0.0014314128 0.0010454745 0.09254872 0.06617462
000390 9c f8 fb 3d 71 ea 0e 3d e9 d2 f4 bd 98 4f 11 3e
       0.12303278 0.03489155 -0.119542904 0.14190519
0003a0 75 8e 93 bc 1d bc 24 3e e0 4b 21 3e 3d f0 22 be
       -0.018012265 0.16087385 0.157516 -0.15911956
0003b0 58 b9 eb 3d 97 a0 f8 3d bf 7c 69 3d 84 b6 2c 3b
       0.11509961 0.12140005 0.057003733 0.0026353905
0003c0 9e f6 b3 3d 74 4e fa bd 17 d0 25 3e 53 f9 20 3e
       0.08787273 -0.12221995 0.16192661 0.1572011
0003d0 34 56 1a 3e cd 28 e7 3d 5c 61 53 bd cd 0b bd bb
       0.15071946 0.11287079 -0.05160652 -0.005769229
0003e0 8e 7f 2a 3c 6f 3c cc bc 81 ca 83 3d 93 3a 10 be
       0.010406388 -0.02493116 0.06435109 -0.14084844
0003f0 43 0a db bd ee 1b 2c 3e 91 c1 d7 3c e8 cf 09 3e
       -0.10695317 0.1680753 0.026337417 0.13458216

encoder.conv2.bias f4 [16]
000000 b9 1a 0b 3e 50 9f 15 be 47 2a 93 3d 78 d4 b1 3d
       0.13584413 -0.14611554 0.07185798 0.08683103
000010 2e 48 ba 3c 65 2c dc bc f1 82 5b bd f3 b6 e4 bd
       0.022739496 -0.026876638 -0.053591672 -0.11167707
000020 e3 f1 09 3e 84 fc 06 3e 2a 7a 70 3d b7 49 9a 3d
       0.13471179 0.13182265 0.058710255 0.07533591
000030 6a 21 d5 bd 4c b4 27 be 8f d2 b1 bd 88 07 40 3e
       -0.10406764 -0.16377372 -0.08682739 0.18752873

encoder.conv3.weight f4 [32, 16, 2]
000000 65 f7 cf bc 3b 34 8c 3d 03 82 02 3e fc 0c 1a be
       -0.025386522 0.068459 0.12744908 -0.15044016
000010 c0 83 18 3e b3 1b 2e be 3b e4 93 3d dd 9c 80 3d
       0.14894009 -0.17002754 0.07221266 0.06279919
000020 54 1d 0b be 95 fb 46 be ec e3 80 bc 26 66 31 bd
       -0.13585407 -0.19431908 -0.015733682 -0.043310307
000030 44 b9 d9 bd 78 9a 99 3d cd 57 90 bc d2 30 54 bd
       -0.1063104 0.07500166 -0.017619992 -0.05180437
000040 ad eb be 3d 55 bb 87 3d 89 46 60 3d 67 c2 f8 bd
       0.09322295 0.066275276 0.054754768 -0.12146454
000050 35 b0 bc bb 2f 88 42 bd dd e3 90 bd 3c b1 d0 3c
       -0.00575831 -0.047493156 -0.070747115 0.025475137
000060 ab 33 08 be 58 d8 37 be 84 ea cf 3d cb c2 2c be
       -0.1330096 -0.17953622 0.10152152 -0.16871183
000070 12 4a 0d be e2 f4 c9 bd 1c d1 4b 3d db fc 22 be
       -0.13797787 -0.09861161 0.04975997 -0.15916769
000080 42 7f e2 bd 9a c4 02 3e 1e 2d 9b 3d 09 6f e8 3d
       -0.11059429 0.1277031 0.07576965 0.11349303
000090 d7 12 1c be e1 d7 c7 3d 70 6e f0 bd e2 ed bd 3d
       -0.15241562 0.097579725 -0.11739814 0.09273888
0000a0 3f 96 ba bc 4f 05 d4 3d f4 88 ae bc 98 bf a7 3d
       -0.022776721 0.10352575 -0.021305539 0.081908405
0000b0 11 12 a8 bb 33 89 bf bd 00 61 4c bd e7 dc 29 be
       -0.005129107 -0.093523405 -0.049897194 -0.16588174
0000c0 96 10 fb 3d 52 0c c0 3d 8c 33 5a bc cf 37 22 3c
       0.12259023 0.0937735 -0.013317954 0.009901001
0000d0 a8 18 21 3e 33 80 11 3d 58 00 98 bd e3 9e 63 3b
       0.15732062 0.03552265 -0.074219406 0.0034732155
0000e0 69 15 dd bd 32 70 bd bc fa 96 11 3e 85 63 96 3d
       -0.10795099 -0.023124788 0.14217749 0.073432006
0000f0 9b e9 a6 3d 35 d3 f3 bb e1 44 bb 3d 23 a2 13 3e
       0.081500255 -0.0074409493 0.09143997 0.14417319
000100 0e 2e 08 3e 74 6d b9 bd a4 e0 9f 3d 99 6a c7 3d
       0.13298818 -0.0905408 0.07806519 0.09737129
000110 8a 5d 23 3e 8a c8 7c 3d 61 a8 9a 3d a3 f6 1c 3e
       0.15953651 0.061714686 0.07551647 0.1532846
000120 b9 c0 38 bd c1 1a dc bd 0d d0 e6 3d cd 3c 36 3e
       -0.04510567 -0.107472904 0.11270151 0.17796631
000130 a9 cd 2b bd 32 85 e1 3d 10 a2 94 3d 9e 1d d5 bd
       -0.04194418 0.11011733 0.072574735 -0.1040604
000140 73 8b c7 bd 4e 58 a6 3d 54 88 70 bd c6 60 0b be
       -0.09743395 0.081223115 -0.058723763 -0.13611135
000150 e9 1f 9e bc 84 e6 f4 bd 44 49 ee 3d 20 72 10 be
       -0.019302325 -0.1195803 0.11635068 -0.14106035
000160 0c a5 ef 3d a0 b2 8a ba 71 63 19 3d 39 e9 1a be
       0.11701402 -0.0010581799 0.03744835 -0.1512803
000170 c7 2f a4 bd fd 3d 78 bd 1e ed 6e 3d ff af cc bd
       -0.08016925 -0.06060599 0.0583316 -0.09994506
000180 c2 7b f8 bc 41 9b 13 be 0f 6e 0a 3e f7 c3 06 3d
       -0.03033245 -0.14414693 0.13518547 0.03290173
000190 76 c8 05 3e 51 38 16 3c 68 5d 72 3c 11 77 1f 3d
       0.13064751 0.0091687 0.014792778 0.03893191
0001a0 cd b4 ae bc c3 a2 35 3e 7c 0b 16 3e e8 63 da 3d
       -0.021326447 0.1773787 0.14652818 0.10663587
0001b0 78 a7 08 3e 31 60 0f 3d d6 df 54 bd 96 29 5e bd
       0.13345134 0.035003845 -0.05197128 -0.05423888
0001c0 09 34 ba 3d 28 75 0c be ef 99 1c 3d c4 f4 3c be
       0.09091956 -0.13716567 0.03823274 -0.18452746
0001d0 df 42 1f be c6 3b 9d bd 05 17 bb 3d ce 79 0c bc
       -0.15552853 -0.076774165 0.0913525 -0.008573962
0001e0 fd db 15 3e 87 d6 19 3e 66 a0 d0 bc 3a b1 e8 3d
       0.146347 0.15023242 -0.025467109 0.11361928
0001f0 15 51 c2 3d b6 6e 96 3d 51 ed 02 3e f4 ad 06 bd
       0.094881214 0.07345335 0.12785842 -0.03288074
000200 34 25 64 bd d9 9c 00 3d c0 08 bf 3d dc af 01 bd
       -0.055699542 0.03139958 0.09327841 -0.031661853
000210 81 1d 84 bd 10 d9 b0 bd 3c 06 b5 bc 3a 9e 9d bd
       -0.0645094 -0.086351514 -0.0220977 -0.07696195
000220 31 06 84 bd 5e 07 02 3e b9 05 70 bd 48 2e 6f bd
       -0.064464934 0.12698123 -0.058599208 -0.058393747
000230 81 c8 65 3d c2 d8 22 3e 55 14 67 bd ce 91 64 bd
       0.05609942 0.15902999 -0.056415875 -0.055803113
000240 65 4c e4 bd 89 e3 88 3c 6c 78 c4 bc 06 f1 08 3e
       -0.111473836 0.01671006 -0.023983203 0.13373193
000250 51 e7 04 3e 80 58 94 3d 42 81 06 3e 9f c3 7b bd
       0.12978865 0.072434425 0.13135245 -0.061465856
000260 02 6c 32 3e 08 72 e1 3d 6b 05 ce 3d bd 09 52 3d
       0.17424014 0.11008078 0.10059627 0.05127882
000270 f2 d1 4f bb c5 2a 53 3d 4c 44 1e 3d 6c d8 ad bd
       -0.003171083 0.05155446 0.03863935 -0.08488545
000280 08 5f f2 bd 9c 5f 0e be a5 2d d1 bc c1 aa 32 3c
       -0.11834532 -0.1390366 -0.02553446 0.010904969
000290 df d4 dc 3d f0 a8 17 3e f5 bf 09 bd e3 82 05 3e
       0.107827894 0.14810538 -0.03363033 0.1303821
0002a0 48 5b 97 bd 75 17 01 3d ab 2d 1d bd 29 a8 ef bd
       -0.073904574 0.03151651 -0.03837363 -0.11701996
0002b0 7d b5 02 be e5 8d 92 bc 74 99 99 3c d2 fd 00 be
       -0.12764545 -0.017889926 0.01874993 -0.12596825
0002c0 9c f9 2d bd 32 e1 a3 bc 42 d4 9d bd 66 6c 20 3e
       -0.042474374 -0.020004842 -0.077065006 0.1566635
0002d0 93 1d 22 bd 9f 38 53 3d 68 e6 ed bd a2 b7 ab bd
       -0.039578985 0.05156767 -0.11616212 -0.083846346
0002e0 97 22 e5 bc c0 57 35 3c b6 06 d7 3d 39 25 12 be
       -0.027970595 0.0110682845 0.10499327 -0.14272012
0002f0 0f 5a 0d 3e 76 ba ce 3d d3 d1 78 bd cf 53 4d bd
       0.13803886 0.10094158 -0.06074698 -0.050128754
000300 e3 4b ad bc 9f 49 0e be cf 03 28 3e 37 66 08 3d
       -0.02115435 -0.13895272 0.16407703 0.033300605
000310 a0 a1 09 bd d7 1a 3c bd f8 63 c1 bd 6e 59 3e bd
       -0.033601403 -0.045924034 -0.09442896 -0.046472006
000320 0d 9a 89 3c 93 41 af bc 02 ab 66 bd 49 03 07 be
       0.01679709 -0.021393573 -0.05631543 -0.13184847
000330 6f 1d bf 3c fd 96 b1 3d 4a 57 2e 3e 66 c7 7a bc
       0.023329465 0.08671377 0.17025486 -0.015306329
000340 33 39 17 be b7 96 13 be 31 60 0b be 78 0a 26 3e
       -0.14767914 -0.14412962 -0.13610913 0.16214931
000350 2d 51 bd 3c be 49 91 3d 41 d5 08 3d f2 d9 de bc
       0.023109997 0.07094143 0.0334065 -0.027203534
000360 25 ed 20 3e 94 4d 53 bd 7d 15 c2 bd 0c 12 4f bc
       0.15715463 -0.051587656 -0.09476755 -0.01263858
000370 52 62 23 3e 92 fc d4 bd 1a d6 cf bd dd a5 d0 bd
       0.15955475 -0.103997365 -0.101482585 -0.10187886
000380 b4 99 ef 39 9b 69 80 3c 78 35 0e 3d 9f 63 92 3d
       0.0004570015 0.015675357 0.03471896 0.071479075
000390 c2 9f f0 bc 4d 39 1c bd f0 dd 78 bd f5 b4 eb bd
       -0.029373053 -0.038140584 -0.06075853 -0.11509124
0003a0 bb 76 89 bd 53 27 f0 bb 74 86 a4 3b 10 fc 29 3d
       -0.06712099 -0.0073289066 0.005020911 0.04150015
0003b0 02 b4 26 be de e2 c9 3b f4 ca 9e bd 51 c4 34 3d
       -0.16279605 0.006161078 -0.07753554 0.044132534
0003c0 75 ec af bd c8 ed 97 bd 6e 7b b7 bd b4 87 32 3d
       -0.085900225 -0.074184 -0.08959089 0.043586448
0003d0 a3 78 19 3e 4f 11 a8 3d c1 ce 24 3e 50 0c e7 3d
       0.14987426 0.08206426 0.16094495 0.11281645
0003e0 14 c3 d2 3d bf 62 88 bc 63 48 42 be fc dc 85 3d
       0.102911144 -0.016648648 -0.18972926 0.0653629
0003f0 72 a8 1c bd 7c fd 2f 3e 96 71 da 3c 26 7f d8 bc
       -0.03824658 0.1718654 0.02666549 -0.026427817

encoder.conv3.bias f4 [32]
000000 05 58 ac 3d b4 88 71 bd b7 71 dc bd cc 09 9f bc
       0.08415226 -0.05896826 -0.10763877 -0.019413851
000010 2b 41 08 3e 96 c8 e9 bd e6 7c f0 bb 1f 39 c4 bc
       0.1330611 -0.11415212 -0.007339108 -0.023953019
000020 49 6f b9 3c 78 55 57 bd 09 87 f1 3d 00 17 ef 3c
       0.022636073 -0.052571744 0.11793334 0.029185772
000030 db ea 49 3d 0d 16 e9 3c ce bb 9e bb ed 17 fc 3d
       0.04929624 0.028452897 -0.0048441654 0.12309251
000040 6f 83 ca bd cf fd 01 3e 79 6d b2 bd 0c 1e 1c bd
       -0.0988835 0.12694477 -0.087122865 -0.038114592
000050 dc f0 47 3c b0 1b 3b bc e4 79 e1 3d 05 ff 1f be
       0.012203421 -0.011420175 0.11009577 -0.15624626
000060 d4 a2 f7 bb 26 6c be 3d 61 db 8d bd 61 7b e4 bd
       -0.0075572524 0.092979714 -0.06926609 -0.11156345
000070 12 97 2e 3d 4a 4a 20 be 7a 0d 2e 3d ed 66 1b 3e
       0.04262454 -0.15653339 0.04249332 0.15175982

encoder.conv4.weight f4 [32, 32, 2]
000000 4d ef e0 bd ad 78 81 3d bc 78 84 bd 4a 93 65 bd
       -0.10983143 0.06321845 -0.06468341 -0.05604867
000010 c3 8a f8 bd b8 87 2b 3d 8d 6c 1a bc 25 29 72 3d
       -0.12135842 0.04187748 -0.009425295 0.05912127
000020 ed 30 9b bd d2 0b b0 3b 83 65 9a 3d e3 70 bd 3d
       -0.07577691 0.005372503 0.07538893 0.09250047
000030 61 b4 8e 3c d9 3a c1 3d af 30 22 bd ec 24 91 3d
       0.017419996 0.094350524 -0.03959721 0.070871204
000040 0d e9 63 3d 72 41 77 bd f6 bd 8b bd 28 87 40 bd
       0.055642176 -0.060365148 -0.068233415 -0.047003895
000050 7a 63 d4 3d af ca 85 3d ca cc 44 bd f1 33 ff bc
       0.10370536 0.065327995 -0.048046865 -0.031152697
000060 eb cb a7 bd 30 c4 7d bc 9b 0e b5 3c 28 61 05 be
       -0.08193191 -0.015488669 0.022101691 -0.13025343
000070 38 0a e5 3c 0b d4 38 3d 3b c0 b7 3b 5b 03 71 bd
       0.027958974 0.045124095 0.0056076325 -0.05884109
000080 9c e0 6e 3d 81 16 44 bd e5 5f 1b bd e3 b5 eb bd
       0.058319673 -0.047873024 -0.03793325 -0.115093015
000090 08 53 e3 3d 13 f8 e5 bc f1 9c 6d 3d 1b 80 8c 3d
       0.11099821 -0.028072393 0.058011 0.06860372
0000a0 c5 d8 c2 3d 82 7f d8 3d 69 ba e5 3d 82 af 9a 3d
       0.09514002 0.10571195 0.112171955 0.07553007
0000b0 71 9f 69 3d 68 a8 91 bd 43 00 c6 bc 00 f3 bd bd
       0.05703682 -0.07112199 -0.024170047 -0.09274864
0000c0 10 a1 51 3c 9d 4f b4 bd a1 5b c4 3d 2d 4a fa bc
       0.012794748 -0.088042475 0.09587789 -0.030552948
0000d0 9d 18 85 3d c0 a4 ca 3c 1c 5c 48 3d 9e 12 ea 3d
       0.06498835 0.024736762 0.048915967 0.11429332
0000e0 be fe f8 3b 7c 53 ee bb 50 63 b3 3d 30 c2 87 bd
       0.007598727 -0.0072731357 0.08759177 -0.06628835
0000f0 6b e5 b4 3d 73 5b fe 3c 7b a1 09 bd 78 d4 0a be
       0.088328205 0.031049466 -0.033601265 -0.13557613
000100 e0 57 8b 3c 85 58 a8 3c ca 0d 1d 3d 80 0b 20 bd
       0.017009676 0.020550022 0.03834323 -0.039073467
000110 95 28 6b 3d a6 bd 10 be 84 dc 38 3d 64 e1 67 bd
       0.05741175 -0.14134845 0.045132175 -0.056611434
000120 51 9d ab bd 41 46 14 3d 19 73 b7 bc 6e e1 0a be
       -0.08379615 0.03619981 -0.02239375 -0.13562557
000130 a6 a8 60 bd 60 a4 bb 3d 25 2d e2 3d fe 83 e8 bd
       -0.054848336 0.091622114 0.11043767 -0.113533005
000140 ce 52 5a 3d 2d 0c 50 3b a2 c7 d0 3b 9c e2 de bd
       0.053301625 0.0031745539 0.0063714543 -0.10883066
000150 c6 88 48 bd 41 8f e9 bc 2c 6d 89 3d 07 e9 fb 3d
       -0.048958562 -0.028510692 0.06710276 0.12300306
000160 f0 fd ab bd 31 38 c7 bd 86 30 a6 3d e1 0e 88 bd
       -0.08398044 -0.097275145 0.08114724 -0.06643463
000170 6b 36 54 3a d9 ea 5d 3c 08 b8 f2 bc e4 61 e0 bb
       0.0008095267 0.013544762 -0.029628769 -0.006847607
000180 c6 ad f0 bc d3 03 57 bc 69 8c 2d bd 53 80 03 be
       -0.029379737 -0.01312347 -0.042370234 -0.1284192
000190 bd d4 28 3d da f6 12 be 5c 69 dd 3c 87 87 23 3d
       0.041218508 -0.14351979 0.027027778 0.03992417
0001a0 59 b8 fc bd 25 30 87 bd 8c b7 9d bd e1 29 46 3d
       -0.12339849 -0.0660098 -0.077010244 0.048379783
0001b0 00 6f 9c 3d 76 05 d6 3d 42 45 24 bd 22 de ac bd
       0.07638359 0.1045026 -0.040105112 -0.08440806
0001c0 1d 41 c1 bd 20 b4 9f bc 17 2b ff 3d 71 ec 10 bc
       -0.094362475 -0.01949507 0.124593906 -0.0088454345
0001d0 13 13 f1 bd 15 16 e4 bd 37 55 5a bd e7 b8 7f 3d
       -0.11771216 -0.11137024 -0.053303923 0.062432196
0001e0 3a e3 21 bd 73 1e 08 bd bc 18 b0 3d 09 76 67 bd
       -0.03952334 -0.033232164 0.08598468 -0.05650905
0001f0 f3 16 b6 3d 21 48 9f 3d be 93 03 3c 88 31 ef bb
       0.08891096 0.07777429 0.00803083 -0.0072996058
000200 34 ad ff bb 36 b8 89 3d b8 6d 91 3d a3 02 e0 b8
       -0.00780263 0.067245886 0.07101005 -0.000106816435
000210 74 0e c9 3d 97 bd 04 be a4 19 df bc 83 40 38 3d
       0.0981721 -0.12962948 -0.027233906 0.0449834
000220 fe 57 e6 3c 1d b8 e3 bd d6 fd a2 bd 82 5b c3 bc
       0.02811813 -0.11119101 -0.079585716 -0.023847345
000230 0b 2f cc 3c a0 29 3f 3c 8b 64 a4 bd 92 05 64 3d
       0.024924776 0.011667639 -0.080269895 0.055669375
000240 28 5d 76 bd ea 83 02 be a4 80 47 3d 30 90 af bc
       -0.060147434 -0.12745634 0.048706666 -0.021431059
000250 0b 16 50 bd 5b 22 a7 3b 83 96 aa bd 7a d0 91 3d
       -0.05080227 0.005100531 -0.08329489 0.07119842
000260 31 6b b0 3d b4 5e 89 3d 6a 97 6e 3d e8 19 2c 3d
       0.08614195 0.06707516 0.05824987 0.042016894
000270 6c 1a 22 bd da 01 e4 bd ad b1 d7 bd e0 d4 fd 3c
       -0.03957598 -0.11133166 -0.10531936 0.030985296
000280 ce 0d 06 3d 52 cc 72 3d 78 21 f3 bd e8 03 65 bd
       0.03272801 0.059276886 -0.11871618 -0.05591193
000290 2c c4 16 b7 24 2a 59 3d a5 bd f5 3c d1 a5 0e bd
       -8.9863715e-06 0.053018704 0.029997656 -0.034826104
0002a0 1b 1a 68 3d 95 3c a5 bd 35 82 cb bc 9d 48 d5 3c
       0.05666552 -0.08068196 -0.024842361 0.026035601
0002b0 02 65 83 bd 8b e7 01 be f5 67 af 3c 70 23 b9 3d
       -0.0641575 -0.12685983 0.021411875 0.09039962
0002c0 c5 74 e7 3d 5d 53 ca bd d5 b5 a2 bd 25 2e e0 3c
       0.11301569 -0.098791815 -0.07944838 0.027365753
0002d0 f9 d6 ed bc 8a a0 e2 bd 95 b1 e6 bd cc 62 96 bc
       -0.029033171 -0.11065777 -0.1126434 -0.018357657
0002e0 15 31 67 bd 7d f5 7b bd d3 c6 8e bd 30 1f 81 3d
       -0.056443293 -0.061513413 -0.069715165 0.06304777
0002f0 10 c5 01 bd 64 89 a3 bc 3d 81 1a 3d bb ef ec bd
       -0.031682074 -0.019962974 0.037720907 -0.115691625
000300 a0 7b 8e bd 58 d8 b0 39 58 c2 eb 3c ad bd 9d 3d
       -0.06957173 0.00033730525 0.028779194 0.077021934
000310 1d 58 bd bd 06 c0 d8 3d 88 ab 2d bc 9f 14 ea bd
       -0.09245322 0.105835006 -0.010599978 -0.114297144
000320 e0 1e 65 3d ba 81 61 bd 93 f4 cd bd a4 4c b8 3d
       0.055937648 -0.055055358 -0.100564145 0.08998993
000330 49 ae b1 3c 14 92 41 3b 3c ca f4 bb 39 40 59 bc
       0.021689551 0.0029536532 -0.0074703973 -0.013259941
000340 4c 69 9c bb a4 6f 29 3d a9 19 a7 3c ac 0c 8a 3d
       -0.0047732946 0.041366234 0.020397978 0.06740698
000350 b5 43 6d bd 80 dd 9f 3d d6 83 0e 3d 9d 3f 5c bd
       -0.0579259 0.0780592 0.034793697 -0.053771604
000360 a4 c7 3b bd 08 64 a1 bd e6 e5 0a bd 3d 80 a1 bc
       -0.04584469 -0.078804076 -0.033910654 -0.01971447
000370 9d 73 99 3d 8f a8 1d bc 65 b6 1d bd 13 3b d1 bc
       0.074927546 -0.009622707 -0.038504023 -0.025540864
000380 09 31 a4 3d b0 7f cc 3d a0 01 7b 3b fb b8 e8 3d
       0.08017165 0.09985292 0.003830053 0.11363407
000390 fb 5c 00 be a6 c1 b5 3d b7 07 a1 bc ed 0f 7d bd
       -0.12535469 0.08874826 -0.019656999 -0.061782766
0003a0 2f 64 e0 bd a9 36 3b bd b8 ae be bd 86 2b 92 bd
       -0.109566085 -0.045706425 -0.09310669 -0.07137208
0003b0 0c cb 5c 3c ea 81 ae bd 21 ee 17 3d dc 74 7c bd
       0.0134761445 -0.08520873 0.03709233 -0.061634883
0003c0 2e 16 e1 bd 6b 7d 8e bd 66 7a 88 3c 8f 4e c4 bd
       -0.109905586 -0.06957515 0.016659927 -0.09585296
0003d0 a9 d7 b1 bc b6 1f 86 bd cb ed 16 bd c0 af 0f bd
       -0.02170928 -0.06549017 -0.03684787 -0.035079718
0003e0 00 7a 8a 3d b1 b7 1a 3c ba 61 07 bc 3c 71 de bd
       0.06761551 0.0094432095 -0.008263046 -0.108614415
0003f0 fb 30 1b 3d 72 2b 7a bc ef 02 72 3c ac e9 df bd
       0.03788851 -0.015269147 0.014771207 -0.10933241

encoder.conv4.bias f4 [32]
000000 6a 4b 5c bc f7 42 59 3c c6 1f 0f 3e d4 09 a5 bd
       -0.0134457145 0.013260595 0.13976964 -0.08058515
000010 a1 78 61 bd 6f 41 73 bd a6 5b 2b 3d 47 6b 51 3c
       -0.05504668 -0.059388574 0.04183545 0.012781925
000020 e7 bd 72 3d 09 62 70 3d 8b 5e 1c 3b d8 f3 01 3e
       0.059263136 0.058687244 0.0023860063 0.12690675
000030 c4 ce 8e 3d 40 89 23 3d a9 28 57 bb 96 85 7c 3d
       0.06973031 0.039925814 -0.0032830632 0.061650835
000040 04 42 9e bd 42 cc 58 bd c7 9c 2f 3d 8d c2 d4 3d
       -0.07727435 -0.05292917 0.042874124 0.1038867
000050 3a 7e 2f 3e 05 25 e8 bd 70 0c 39 3d 56 a7 0a 3d
       0.17137995 -0.11335186 0.045177877 0.03385099
000060 fc ef b2 3d 91 9b 2a 3d 0b ef d8 3d 9d 65 70 bd
       0.0873718 0.041652266 0.10592469 -0.058690656
000070 7a 98 09 3d 97 e4 66 bd e8 15 a1 bd 4f 14 d5 bd
       0.03359268 -0.056370344 -0.078655064 -0.10404264

encoder.fc1.weight f4 [64, 384]
000000 2b ca 06 3d f5 ad ba bb 45 ab b9 3c 56 b2 75 3b
       0.032907646 -0.005697007 0.022664675 0.003749033
000010 45 b2 11 3d b2 fa 52 3b 6b 68 e2 b9 b7 3e c0 3c
       0.0355704 0.0032192883 -0.00043183877 0.023467405
000020 2a c0 6a 3c 34 67 9b bc ea 7e 5c 39 8f bc 61 3d
       0.014328042 -0.01897011 0.00021028114 0.055111464
000030 59 7e 68 bd ae af fd 3c 71 3c 17 bd 91 dd 28 bd
       -0.05676112 0.03096756 -0.036922876 -0.041226927
000040 21 6d c7 3c 76 1c 03 3d 8e 6d 50 bc 65 33 d0 3c
       0.024344029 0.032009564 -0.012721432 0.025415132
000050 d2 d8 2a 3d 7e 17 81 bc e7 5f ea 3b 35 75 f8 3b
       0.041710682 -0.015758272 0.0071525457 0.0075823315
000060 9f 34 85 bd 0c f0 4d 3c 1a ef 45 b9 31 ae be 3c
       -0.06504177 0.012569439 -0.00018876456 0.02327642
000070 ea d3 27 bc a6 9e 1a bd 6f b3 6f bd 33 7a 83 bd
       -0.010243395 -0.037748955 -0.05852073 -0.06419792
000080 af ef 34 bc 71 ff 0d 3d b6 3f 50 bc 62 4c dd 3c
       -0.011043473 0.034667436 -0.012710502 0.027013961
000090 f4 d6 0f bd 15 67 9e 3b 06 df ab bc d1 5b 14 3d
       -0.035117105 0.0048340657 -0.02098037 0.036220375
0000a0 14 1a 86 3b 42 74 06 3d 27 c7 5c bd 02 87 f9 3b
       0.004092464 0.032825716 -0.053900864 0.007614971
0000b0 ef 26 d8 3c 8c 28 86 bb dd 3c 80 3c b6 e5 b5 3c
       0.026385752 -0.004094189 0.015654022 0.022204261
0000c0 86 ee bd bc 52 00 64 3c 69 79 2d bd 37 26 04 3c
       -0.023185026 0.013916092 -0.042352114 0.008065752
0000d0 1c 8d 51 bc f7 3f ef bc 9b 93 b1 bc 0d 95 30 bd
       -0.012789991 -0.029205306 -0.02167683 -0.043110896
0000e0 2c 1b 10 bd 66 85 9e bc 4b 04 3f bd 76 f4 52 bb
       -0.035182163 -0.019350719 -0.046634953 -0.0032189167
0000f0 52 8c 22 3d a1 8e 62 3c b2 6c e9 3c 8a ca 7e bc
       0.0396846 0.013827951 0.028494213 -0.015551219
000100 20 ef b3 bc e7 4b 07 bd dd a5 72 ba f6 d7 a0 ba
       -0.02196461 -0.03303137 -0.0009256283 -0.0012271393
000110 c0 ec da bc 46 d6 56 bd 7f 31 c3 bc 4c 78 e7 3b
       -0.02672422 -0.05245044 -0.023827313 0.007063901
000120 65 40 2f 3d 0b 95 dc 3c 5d 69 09 3c 32 11 61 3d
       0.04278602 0.026926538 0.008386937 0.05494804
000130 38 e9 55 bd 70 1f ae 3c 31 ba 91 bc 7f b8 bd 3c
       -0.052224368 0.021255225 -0.017788978 0.023159264
000140 c5 16 4d 3c 5b 9b e0 3c 15 a7 af 3c 5f 7b ec 3c
       0.012517636 0.02741783 0.021441976 0.028867422
000150 f4 70 1b 3d 2c d1 3d 3c 2b 50 1d bc f7 9d 06 bd
       0.037949517 0.011585515 -0.009601633 -0.03286549
000160 2c 9e 09 3d 5e 87 aa 3c 11 1d ac 3b 5c 26 45 3c
       0.03359811 0.020816501 0.0052524884 0.012033071
000170 ff 23 8e bc a4 ce 0c 3d 83 4c f4 3a 55 82 b5 3c
       -0.017351149 0.034376755 0.0018638525 0.022156874
000180 bf 41 12 3b e3 a1 59 3d 70 03 0c 3c 12 ce e4 bb
       0.002231702 0.053132903 0.008545741 -0.0069825733
000190 a3 14 60 bd b4 0a b9 bb 12 a0 4c 3c 38 67 34 bd
       -0.05470718 -0.005647028 0.012489336 -0.04404375
0001a0 27 dd d1 3c 62 65 36 3d a1 e4 81 3b 78 6b 38 bd
       0.025618149 0.04453028 0.0039640223 -0.045024365
0001b0 69 e1 d1 3b 15 e7 42 3d cd 7e f3 bc 2b 94 0e bd
       0.006405045 0.04758366 -0.02972355 -0.034809273
0001c0 06 d3 06 bb f1 55 41 bc aa 39 1b bd 4c 0a 44 3d
       -0.0020572557 -0.011800275 -0.03789679 0.047861382
0001d0 67 1b cd bc 7a 95 09 3c 71 7e 0e bd 18 5d 87 39
       -0.02503748 0.008397454 -0.034788553 0.00025818567
0001e0 09 d0 b1 3c 43 85 54 bc 43 19 11 bd c8 c0 5b 3d
       0.021705644 -0.012971225 -0.035424482 0.053650647
0001f0 a5 4d 31 3c 97 3f 81 bc 36 96 91 3a 6b e6 57 bd
       0.010821735 -0.015777392 0.0011107388 -0.052709978
000200 91 ea a7 3c 84 ec 06 3d d3 78 17 3c 1e d9 7a 3c
       0.020497592 0.032940403 0.009245115 0.015310554
000210 3d bb cb 3c bb 97 40 bd 30 8e 22 bd 3a e3 c3 bc
       0.024869556 -0.0470197 -0.03968638 -0.023912061
000220 0d 5a 30 bd f3 44 15 3d 83 d5 59 bb 39 9f 24 bd
       -0.04305463 0.03644271 -0.0033238835 -0.04019091
000230 d9 f6 82 bc de f3 1f bd ba c5 bd bc 9d 33 35 bd
       -0.015986847 -0.03905093 -0.023165572 -0.044238675
000240 47 ab df b9 b8 65 40 bd 3a c0 b9 3b 14 de ad bc
       -0.00042661486 -0.046972007 0.005668667 -0.02122406
000250 d0 f1 ba 3c bc 7e 26 3c e1 fd 0b bd 33 da b7 bc
       0.022820383 0.010162052 -0.034177665 -0.022442913
000260 a8 93 de ba 09 d4 42 3c 9f 85 d4 bc c7 ae d0 3c
       -0.0016981261 0.011891373 -0.025942622 0.025473965
000270 9f 87 cc bc 27 89 72 3d 60 c8 19 3d 2b 6a 37 bc
       -0.024967013 0.05921283 0.037544608 -0.011194746
000280 35 08 3b 3c cb 53 0c 3d c4 51 42 3c 89 7a 92 bc
       0.011415531 0.0342596 0.011860315 -0.017880695
000290 ea 76 a2 3c 39 79 c5 39 e9 e0 ee 3a 3a d5 16 3d
       0.019832093 0.00037665086 0.0018224987 0.036824442
0002a0 ac 4d 28 bd 7a f6 3e 3c ec 7d 80 bd cd c3 28 bd
       -0.0410897 0.011655444 -0.06274018 -0.041202355
0002b0 d9 c4 5f bd fa b9 b9 bc 53 7e 9d 3c 35 ea 4c bd
       -0.054631088 -0.022671688 0.019225275 -0.050028045
0002c0 80 8c 0c bb f3 86 ab bc 28 bc 8a 3b c7 10 d3 bc
       -0.002144605 -0.020938372 0.0042338558 -0.025764836
0002d0 a3 2d 28 bd 58 d7 32 3d f9 ed 11 bd db 5b dd bc
       -0.041059148 0.0436624 -0.03562734 -0.02702134
0002e0 be 10 f3 3c 5c 54 43 3b ae 81 47 bd 1c 04 7f 3c
       0.02967107 0.002980492 -0.048707657 0.015564945
0002f0 77 66 9b 3c f5 78 36 bd 71 32 a7 bc 10 62 c9 3c
       0.018969757 -0.044548947 -0.020409795 0.024582893
000300 0d 09 93 bc 31 d6 3d 3b 7d e3 89 bc a2 43 93 3c
       -0.017948652 0.002896678 -0.016832108 0.017976586
000310 02 8b 35 bd c1 93 1f 3d e9 1a 59 bc d5 5e f6 3b
       -0.04432202 0.03895927 -0.013251045 0.007518629
000320 3c bf 17 3d 58 1d 0e 3c 3b 5d 13 bc 82 75 e9 bc
       0.03704761 0.008673988 -0.008994396 -0.028498415
000330 41 7b 01 bd 39 d4 0e 3a c9 60 ed 3c 83 9c e6 3c
       -0.031611685 0.0005448494 0.028976815 0.028150802
000340 53 f6 91 3c b9 b1 b1 3c 03 b7 35 bc 90 4a ce bb
       0.017817652 0.02169119 -0.011090997 -0.0062955096
000350 45 4d 42 3d b7 b2 b6 bc 39 cb f8 bc 94 be ed bb
       0.04743697 -0.022302015 -0.030370342 -0.0072553847
000360 7c ee 2e 3d ef d6 04 bc 43 d7 a1 3c 3c 72 4d bb
       0.042707905 -0.008107885 0.019755965 -0.0031348607
000370 eb 3e 1f bc e2 f8 0b 3d b4 75 d0 3c 24 f5 4c 3c
       -0.009719591 0.0341729 0.02544675 0.012509618
000380 e4 45 50 3c 0c 7c d3 bc f7 55 0f bd 00 dd d7 3c
       0.012711976 -0.025815986 -0.03499409 0.026350498
000390 2b 6b 8b 3c 39 66 1b bd 15 6b 0a 3d 13 8a 02 bd
       0.017018875 -0.037939284 0.033793528 -0.03186996
0003a0 94 29 5a 3c 33 42 2f 3d d5 ed ce bb 3d 1f bd 3c
       0.013315577 0.042787742 -0.006314973 0.023086185
0003b0 c7 5e 2c 3d 3d a3 56 3c f5 fc 4d bc f4 b7 e8 bc
       0.042082574 0.0131004425 -0.012572517 -0.028408028
0003c0 b4 61 24 bd 7d 32 4b bd 86 c4 25 bd 98 ec 34 bc
       -0.04013224 -0.049608696 -0.040470622 -0.0110427365
0003d0 2a 9a fd 3c 5b 84 52 bd 49 c2 4d 3c 4e 2a 15 bd
       0.0309573 -0.051395755 0.012558528 -0.036417298
0003e0 2d db 5b 3c 88 39 3c bd 42 da 29 3d 85 2c f7 3c
       0.013418955 -0.045953304 0.041467912 0.030172596
0003f0 80 bb c8 bc 3c 3c 11 bd b1 9d 28 3d a8 8d f0 3c
       -0.02450347 -0.035457835 0.04116601 0.029364422

encoder.fc1.bias f4 [64]
000000 eb 19 cf bd 72 1b 18 3b 9a 20 29 3d a0 d1 c0 3c
       -0.10112365 0.0023209718 0.041290857 0.023537457
000010 ba 12 59 bd 78 c2 42 3c f4 83 5d bc d0 e6 da 3c
       -0.052996375 0.011887185 -0.01352023 0.026721388
000020 1d fb 04 bd eb 34 e1 bb e7 42 d5 bb 97 f7 01 3d
       -0.032466043 -0.0068727634 -0.0065082195 0.03173026
000030 ec 72 0c 3d 91 19 5c 3d 57 46 8f 3d ff 5d 7a 3c
       0.034289286 0.05373532 0.06995838 0.0152811995
000040 2d c1 41 3d c5 62 2e 3d 85 74 83 3d ac ba 02 3c
       0.047303367 0.042574663 0.06418709 0.007979076
000050 ff c2 7f 3b fc 3d cb 3c 39 89 55 3d 36 10 7b 3d
       0.003902614 0.02480983 0.05213282 0.061294757
000060 07 b7 03 3d a7 80 a7 3c 8b ad 83 3c 09 7a af bb
       0.03215697 0.020447088 0.016073963 -0.005355124
000070 bf af 86 3c 08 7e 1a 3d dc 4d 72 3d cb b1 f9 3c
       0.016441224 0.03771785 0.059156284 0.030480286
000080 df 7d 07 bb d9 21 8f bc b9 17 ee 3c dd 83 43 3d
       -0.002067439 -0.017472195 0.029064046 0.047733176
000090 7a 3b 48 bd f9 0e de bd 63 75 2e bd 25 bf 3f bc
       -0.048884846 -0.108426996 -0.042592417 -0.011703287
0000a0 a7 b5 a3 3d 80 46 5a 3d 0b a1 9a bd ff 2b 5f 3d
       0.07993632 0.05328989 -0.07550248 0.054485317
0000b0 d7 79 21 ba bb f6 1c ba 20 82 d7 bb ea 9e af bb
       -0.0006159818 -0.00059876934 -0.0065767914 -0.00535952
0000c0 b2 a9 82 3d db 1f 4d 3d f5 8c 33 bd 35 ba ee bb
       0.06380023 0.050079208 -0.0438356 -0.007285381
0000d0 19 47 a0 bc 5b 6d 2d 3c 8a 26 1b bd e2 ff 19 bb
       -0.019565152 0.010585154 -0.03787855 -0.0023498465
0000e0 4d 30 93 3b 7b 05 b8 bb e0 8b 49 b9 d4 7f a9 bd
       0.004491842 -0.0056158877 -0.00019220961 -0.082763344
0000f0 3b 79 8c bd f3 3c a5 bd 4b 97 b4 bb 12 20 1c 3d
       -0.068590604 -0.08068266 -0.0055111996 0.038116522

encoder.fc2.weight f4 [16, 64]
000000 97 04 de 3c 12 04 30 bd f4 fc 32 3c 47 fc b7 bd
       0.027101798 -0.04297263 0.010924567 -0.08983665
000010 2b 6b 84 bc 1e 21 ac 3d ea 16 43 3d 75 53 6c 3d
       -0.016164383 0.08404754 0.047629274 0.05769678
000020 19 85 c8 bd 45 7f e6 bd 3e ae 49 3d 96 b2 8c 3d
       -0.09791011 -0.112547435 0.049238436 0.0687
000030 55 0d f4 3c de 73 e4 3d eb 7c e4 3d f0 20 d2 3d
       0.029791513 0.111549124 0.11156639 0.102601886
000040 3c f4 76 bc 56 f1 b8 3c 7e b1 7d 3d 12 f1 ed 3d
       -0.015072878 0.022576015 0.061936848 0.11618246
000050 9a 57 cb 3d 16 31 5b bd e3 ed 61 bd 66 98 b9 bd
       0.09928818 -0.05351361 -0.055158507 -0.09062271
000060 49 7d cc bd 2c c7 39 bd 90 10 3f 3d 3e f3 0c 3d
       -0.09984834 -0.04535596 0.046646655 0.03441166
000070 17 82 ff bd 90 0f a9 3d ab e4 d6 bc 51 33 35 bc
       -0.124759845 0.082549214 -0.026232084 -0.011059598
000080 9c 27 f6 bd 70 b9 d7 bd 07 88 52 bd 1d 26 30 bd
       -0.12019274 -0.10533416 -0.051399257 -0.043005098
000090 4a e5 97 3d bd 9d 4b 3a 2d c1 ec bc 50 04 05 3d
       0.0741678 0.000776734 -0.028900707 0.032474816
0000a0 c4 86 9c 3d 8f b4 a5 3d 79 c6 af 3a 97 5a f2 3d
       0.07642892 0.080910794 0.001341059 0.11833685
0000b0 c7 bc 52 bd 0e ba dd 3d bc 78 88 bd 7d bd 66 3d
       -0.051449563 0.10826503 -0.06663653 0.056333054
0000c0 a3 90 b1 3d cf af b2 3d 70 b0 bb bd ae 9e be 3d
       0.086701654 0.08724939 -0.09164512 0.093076095
0000d0 da 79 82 bc 14 fb f4 bc de 2e e2 3c 86 d5 0d 3d
       -0.015927244 -0.02990488 0.027610239 0.03462746
0000e0 4e ab e9 3d ee 0b b9 3d 65 f7 7c 3d 3a 33 aa 3d
       0.11409627 0.090354785 0.06175937 0.08310552
0000f0 da 9a c6 bd 28 3d 22 bd 86 4e c4 bd 6f c2 e6 3d
       -0.09697504 -0.039609104 -0.0958529 0.11267554
000100 30 2c 93 bd 3e d3 fb 3d 9c 26 aa 3d 4a 04 3b bd
       -0.071861625 0.122961506 0.083081454 -0.045658387
000110 1d 18 ed 3b 26 d5 6a 3d 31 bd ec bd 9b da 9b bd
       0.0072355405 0.05733218 -0.11559523 -0.07610055
000120 b4 e5 ff bd c1 95 00 be ba dc 40 3d a1 34 86 3d
       -0.12494984 -0.12557127 0.0470855 0.06553007
000130 c6 63 6a bd 35 9d 0e bd 33 c9 a9 3d 4e 4f 95 bb
       -0.057224058 -0.034817893 0.08290329 -0.004556573
000140 3b 01 7e 3d 1c ac 39 bd a6 e9 57 bd 95 76 10 bd
       0.062012892 -0.045330152 -0.05271306 -0.03526934
000150 45 f6 91 3d 91 48 a3 bd c4 a5 0e 3e 58 e6 b4 3d
       0.0712705 -0.07972825 0.13930422 0.08832997
000160 7d 17 c8 3d 01 39 81 bd 46 b3 ad bc 46 39 19 be
       0.09770105 -0.06309701 -0.021203648 -0.14963254
000170 49 1e c0 3d ff bb 87 3d 28 7b c4 3d cc ea 7d bd
       0.093807764 0.06627654 0.09593803 -0.061991498
000180 6d 26 ce 3d 51 ac 40 bd 0e dc bc 3c da 70 93 bd
       0.10065923 -0.047039334 0.023054149 -0.07199259
000190 ce 47 5b bd 48 06 8b 3a e6 cc cb bd 3b 04 aa 3d
       -0.053535275 0.001060673 -0.09951191 0.08301588
0001a0 ac a2 c0 3d be 06 86 3d b0 52 07 3e dd 8e 51 bd
       0.09406027 0.06544255 0.13215137 -0.051161636
0001b0 d3 00 12 be bd 55 a5 3d d2 14 0a be 7d 07 01 3b
       -0.14258127 0.08072994 -0.13484505 0.0019688301
0001c0 b8 47 4c 3d e0 58 5f 3d 70 ba 35 bc 51 fc 30 3d
       0.049873084 0.054528117 -0.011091813 0.043209378
0001d0 2f 69 a5 3d 12 bb fb 3d 6c ee b2 bc 56 44 a5 bd
       0.08076703 0.1229154 -0.021842204 -0.08069675
0001e0 cc 85 b4 bd ed ec 3c 3d 10 64 e3 3b 0c 72 e1 bb
       -0.08814582 0.046124388 0.0069394186 -0.0068800505
0001f0 32 f4 f0 bc c2 97 8a bd 0b bf 9f bc 75 0d d3 3d
       -0.029413316 -0.06767227 -0.019500276 0.10305301
000200 d5 45 ec bc be b7 1b 3d 8b ef cd 3d e8 c8 da 3d
       -0.028841892 0.038017027 0.10055455 0.10682851
000210 bd 8d 9d bd 9b c9 d6 bd 6e 5d c2 bb fa 31 73 b8
       -0.0769305 -0.10487672 -0.005931548 -5.798226e-05
000220 e7 d9 dd bd dc 1b 83 bd 45 63 bd 3c b3 dd 7a bd
       -0.10832577 -0.06401798 0.023118624 -0.061246585
000230 ef 27 c0 bc d6 95 b5 3c 24 6a 6f 3c 3e a4 a5 bd
       -0.023456542 0.022166174 0.014612708 -0.08087967
000240 27 a6 45 3d b0 18 ff 3d 2e 24 f5 bd e8 b0 d2 bd
       0.04825416 0.12455881 -0.11969791 -0.102876484
000250 b7 35 15 3d c8 64 cb 3d 02 65 f1 3c 20 c8 89 3c
       0.03642818 0.09931332 0.02946711 0.01681906
000260 e3 12 e5 3c 3b a4 34 bd e6 47 55 3d 5b 74 cc 3d
       0.027963107 -0.044101935 0.05207052 0.099831305
000270 0d 99 3d 3c c6 c9 c3 bd cb 55 a2 bd 65 81 a8 bd
       0.011572135 -0.095599696 -0.0792652 -0.08227805
000280 bf 80 f9 bc f9 3e ca bd 98 7b c4 3d a2 e7 b4 3c
       -0.030456899 -0.09875292 0.09593886 0.022083107
000290 c7 27 a2 3d eb 5f 7c 3d d7 4d 2e 3d 2b 08 ca 3d
       0.07917743 0.061614912 0.042554703 0.09864839
0002a0 fa 78 b8 3c d0 1e 40 3b 11 a8 b6 bb 43 46 d6 3c
       0.022518624 0.002931524 -0.0055742343 0.02615655
0002b0 73 4f dc bb b3 3c 10 3d bf e8 82 bc 39 08 f6 bd
       -0.0067233383 0.035214137 -0.015980123 -0.12013287
0002c0 93 ff f2 bc 5d 47 44 3d 4b a6 d1 bd 34 76 88 bd
       -0.029662883 0.04791962 -0.10236796 -0.066631705
0002d0 32 d4 02 bd a6 28 fa bd 35 68 1a 3d 74 0a 54 bd
       -0.031940646 -0.12214784 0.037697036 -0.05176778
0002e0 8c f1 8f bb ca 1f 11 bd be 3e d1 bd 7c d1 02 be
       -0.0043928083 -0.035430707 -0.10217045 -0.12775224
0002f0 4c 75 cb 3d 8f a9 be bd ae 5b a8 3d 91 09 d5 3c
       0.09934482 -0.093096845 0.082206115 0.026005538
000300 99 59 48 bd 66 10 aa bd 75 4a c2 3d 6a 97 cb 3d
       -0.048913572 -0.08303909 0.09486858 0.09940989
000310 aa 5d 39 bd f4 c9 48 ba 70 70 b6 bd 1e d9 90 bd
       -0.04525534 -0.0007659488 -0.089081645 -0.07072662
000320 a9 87 e5 3d 0e fb ce bd 98 20 ac 3d 80 76 05 3e
       0.11207516 -0.10106479 0.08404654 0.13033485
000330 65 46 ae bc c3 11 b7 bd 72 73 05 3e 35 54 01 3c
       -0.021273801 -0.08938935 0.1303232 0.007893612
000340 70 35 de 3d 6c 83 54 bd 74 62 01 3e fa 05 0f 3e
       0.10850036 -0.051883146 0.12635213 0.13967124
000350 e5 31 09 bd e0 be 20 bc 17 7d 88 3d b8 d7 02 3e
       -0.03349485 -0.009811133 0.06664484 0.12777603
000360 e8 f3 f8 3c 99 8e e0 3d 9e e3 11 3e 96 ed 29 3d
       0.030389741 0.10964698 0.14246985 0.041486345
000370 a9 47 f5 3d 0e 4c bc bd cf 16 a6 3d 3c 5b 01 3e
       0.11976559 -0.09194194 0.08109819 0.1263246
000380 ba 26 fc bd d5 91 88 bb 4a 68 f1 3d e1 34 03 3e
       -0.12312074 -0.004167775 0.1178747 0.1281314
000390 67 3d fd 3d f0 3b ed bc e0 a4 ba bd 1e 7d b4 bb
       0.12365227 -0.028959244 -0.09113479 -0.005508079
0003a0 e8 ec 64 3d b0 ff 9a 3d 6f 23 55 bd 72 41 ea 3d
       0.055889994 0.075683 -0.052035745 0.11438264
0003b0 c6 04 72 3d 59 eb 09 bb 87 dd b9 bd 33 55 41 bd
       0.059086584 -0.002104482 -0.09075456 -0.047200393
0003c0 f3 68 64 bd 74 4a e5 3c 56 7c 95 bd d0 fe 27 bc
       -0.05576415 0.027989604 -0.07299106 -0.010253623
0003d0 e8 b3 45 bd b0 f8 05 be 49 72 34 bd f3 87 dd bd
       -0.048267275 -0.13083148 -0.044054303 -0.10816946
0003e0 c1 a2 ad 3d ef 97 a3 3c 12 0b 04 3e 9a f4 db bd
       0.084783085 0.019969909 0.12894848 -0.107400134
0003f0 51 bd 5c 3d aa 6b c9 3d 2e 5c 27 3d 1e 63 90 bd
       0.053891484 0.098349884 0.040859394 -0.07050155

encoder.fc2.bias f4 [16]
000000 ee 6f 99 bd 50 20 05 3d 81 c4 8b 3c df 13 83 bc
       -0.07492052 0.03250152 0.017061474 -0.016000686
000010 ab 4f 08 be 82 26 bb bc b1 a8 15 3e 47 66 1b 3e
       -0.13311641 -0.02284551 0.14615132 0.15175734
000020 62 1a b3 bd ea f3 15 3e fe 03 01 3e a6 0d 34 bd
       -0.087452665 0.14643827 0.12599179 -0.04395833
000030 21 de 69 3d 99 5a 54 bd f0 df 2b 3d 75 8d f4 bc
       0.057096604 -0.051844213 0.04196161 -0.029852608

encoder.fc21.weight f4 [4, 16]
000000 56 a0 5c 3e 22 79 84 bd c2 ac 34 be fa 4c fd 3d
       0.21545538 -0.06468417 -0.17644027 0.12368198
000010 1d f6 24 3e 22 3e 20 3e c2 77 83 bd c7 5a 55 bd
       0.1610951 0.15648702 -0.06419326 -0.052088525
000020 4b 2b 18 3d b5 2d 13 be 1f de 46 be e6 2b be 3c
       0.037150662 -0.14372905 -0.1942067 0.023214292
000030 80 ba 3e 3e 5f 5e 75 bd 26 f6 bf 3d ae 31 37 3e
       0.18625832 -0.059904452 0.09373121 0.17890045
000040 e3 86 68 3e b8 45 67 be 0a b7 80 bd 7e 87 27 3d
       0.22707705 -0.2258519 -0.06284912 0.0409007
000050 92 6f ef bb 11 93 99 bd f9 cc 96 bd b2 cb dc bd
       -0.0073070014 -0.07498754 -0.07363314 -0.10781039
000060 bd dc fa 3c 7f c0 1f be fd 36 12 3e 3d 09 3f 3e
       0.030622834 -0.15600775 0.14278789 0.18655868
000070 2d 6d e2 bd 39 c2 30 3e fa 23 f9 bd 2f 83 21 be
       -0.1105598 0.1726159 -0.12165065 -0.15772699
000080 13 72 10 3d 57 b5 6b 3e 07 73 e8 3c 3b 97 72 bd
       0.03526504 0.23018394 0.028375162 -0.059226256
000090 fb 60 79 bd c0 5f 88 bc 48 95 5f 3d 3f f3 8f bc
       -0.060883503 -0.01664722 0.054585725 -0.017572043
0000a0 77 c8 34 3e c1 f5 48 3e 8d 84 bf bd b9 95 c2 3d
       0.17654596 0.19624998 -0.09351454 0.095012136
0000b0 9c 65 91 3c 9a 9b 1c 3e f4 44 9a bc f9 41 54 bd
       0.017748646 0.15293732 -0.018831708 -0.05182073
0000c0 ef 6b 5d be b7 be ab 3d 07 a6 2a be 36 a4 92 bc
       -0.21623205 0.08385985 -0.16664897 -0.017900568
0000d0 d9 58 fb 3d a0 31 55 be 81 85 80 3c d1 fd b5 bc
       0.12272806 -0.20819712 0.01568866 -0.022215756
0000e0 c8 37 30 3d 12 7f 23 be 00 b7 84 3e aa 7b 56 be
       0.043021947 -0.15966442 0.25920868 -0.20945612
0000f0 ad d5 84 3c 22 cb 02 3e 53 22 29 be 69 41 c8 3d
       0.01621517 0.12772802 -0.16517 0.09778101

encoder.fc21.bias f4 [4]
000000 3a 73 25 bd f2 f4 54 bd 8a 5b 08 3e 1c 96 e8 3b
       -0.04039309 -0.05199141 0.1331617 0.0070979726

encoder.fc22.weight f4 [4, 16]
000000 a3 d1 d3 3d 43 48 06 be 53 0e 2d 3e 30 4d 96 be
       0.103427194 -0.13113503 0.16899996 -0.29355764
000010 99 33 5b be 13 cc 95 3d 03 b0 6f be d5 4b 72 bd
       -0.21406402 0.07314315 -0.23406987 -0.05915435
000020 1d 97 c4 3d b6 17 7f be 52 b8 34 3d 4d 4d 8d bd
       0.09599135 -0.24911389 0.044121094 -0.068995096
000030 be 09 ac 3d 8e 49 74 be 2f 5c d6 bc 5d a6 f9 ba
       0.08400296 -0.23856184 -0.026167003 -0.0019046773
000040 fc 5b 93 be ef 87 57 be b8 a0 4b be a9 0f a8 3c
       -0.28781116 -0.21047948 -0.19885528 0.02051528
000050 ab 26 63 bc 5b bf 0c be 73 d2 92 3d 65 9e 80 be
       -0.0138642 -0.13744871 0.07169046 -0.25120845
000060 ed 23 9a be e2 fc e1 bd 5c 6f dc bd d8 72 7a bc
       -0.30105534 -0.11034562 -0.107634276 -0.01528617
000070 e6 6a 5d be 86 63 9b be 25 aa 23 3e 44 ad 98 bd
       -0.2162281 -0.30349368 0.15982874 -0.07454923
000080 e5 f3 04 3e 2d 14 93 bc 68 17 90 be 43 eb 85 be
       0.12983663 -0.017953956 -0.28142858 -0.26156053
000090 7f b3 81 3d aa 9e f8 bd ec 90 4f be 91 e9 36 bd
       0.06333064 -0.12139638 -0.20270127 -0.04465634
0000a0 41 ed 6b 3d ed aa c6 3d a6 db 56 be f2 56 5a be
       0.05759931 0.0970057 -0.20982227 -0.2132223
0000b0 8e 8a 7d 3c ec ae f6 bd 33 52 e7 3d dc 3d 91 be
       0.015474929 -0.120450824 0.11294975 -0.28367507
0000c0 43 f8 2b 3d 04 92 83 be 11 e5 a5 bd 5d ab a2 bd
       0.041984808 -0.2569734 -0.081003316 -0.07942841
0000d0 c2 fc 5f bd 6f 19 8f be 82 99 34 be 6d 3a 89 be
       -0.054684408 -0.27949092 -0.17636684 -0.26802388
0000e0 8f 6b 62 bd e7 9f ea bd b1 19 cb bd 91 4a 5e 3d
       -0.055278357 -0.1145628 -0.099170096 0.05427033
0000f0 ab 80 3b be ce 03 6f 3d e7 e4 15 3e c6 bd ef 3d
       -0.18310802 0.058353238 0.146381 0.11706118

encoder.fc22.bias f4 [4]
000000 1f b4 b8 be 65 5f 83 be 50 e4 69 be f3 7a 00 be
       -0.3607492 -0.25658718 -0.22841 -0.12546901

encoder.bn1.weight f4 [16]
000000 63 3e 7e 3f e0 8b 7d 3f 33 43 76 3f 35 e5 7f 3f
       0.99313945 0.9904156 0.9619629 0.9995912
000010 b0 58 7c 3f 00 00 80 3f 4c b6 77 3f d7 07 7e 3f
       0.98572826 1.0 0.9676254 0.9923071
000020 00 00 80 3f eb 09 7e 3f 00 00 80 3f ab b3 7e 3f
       1.0 0.99233884 1.0 0.994929
000030 6a 73 78 3f 00 00 80 3f 60 61 7f 3f 13 89 7b 3f
       0.9705111 1.0 0.9975796 0.98256034

encoder.bn1.bias f4 [16]
000000 5e 47 2a 3c 85 08 d4 3b e4 8b d0 3b 34 eb 7a bc
       0.010392992 0.006470742 0.0063643325 -0.015314866
000010 c4 dd 82 3b da 36 99 bc 98 d1 18 bc 83 78 9f 3b
       0.0039937217 -0.018702913 -0.009327315 0.004866661
000020 24 5f 61 bc 34 80 69 bb ba e3 97 3c f3 e3 de 3c
       -0.013755593 -0.0035629394 0.018541206 0.027208304
000030 8c 1c 84 3b d2 3d ee bb 8c 68 83 bc e8 bd 2b bc
       0.0040317234 -0.007270553 -0.016041063 -0.010482289

encoder.bn1.running_mean f4 [16]
000000 9b 31 9e 3d 06 71 22 3f f7 99 fd 3c 99 cb 2a 3f
       0.07724305 0.6345371 0.030957205 0.66716915
000010 be 55 f5 3d 00 00 00 00 8c 66 9a 3d b1 1f 30 3f
       0.11979245 0.0 0.075390905 0.6879836
000020 00 00 00 00 ee d5 b5 3b 00 00 00 00 1c d3 ed 3e
       0.0 0.005549184 0.0 0.46450126
000030 e1 e0 1a 3f 00 00 00 00 74 43 0e 3f 77 84 25 3e
       0.6049939 0.0 0.55571675 0.16163813

encoder.bn1.running_var f4 [16]
000000 d2 0e a8 3c 41 1d 66 3d 07 f5 e0 3a 70 95 1b 3e
       0.02051488 0.056180242 0.0017162868 0.15193725
000010 58 17 39 3d 88 c0 5e 2e b6 fa 9d 3c f5 bc 46 3d
       0.045188278 5.0647958e-11 0.019284587 0.048520047
000020 88 c0 5e 2e bd 1d db 38 88 c0 5e 2e 80 10 39 3d
       5.0647958e-11 0.00010448273 5.0647958e-11 0.04518175
000030 27 45 27 3d 88 c0 5e 2e ec c1 bc 3d 73 bc 75 3d
       0.040837433 5.0647958e-11 0.09216675 0.059994172

encoder.bn2.weight f4 [16]
000000 1f f1 71 3f bd 69 79 3f 79 f9 81 3f ab 46 79 3f
       0.94508547 0.9742697 1.0154258 0.97373456
000010 8d bc 7f 3f 27 eb 79 3f 95 93 80 3f 9b a6 7a 3f
       0.9989708 0.9762444 1.0045038 0.9791047
000020 9f db 7c 3f 25 98 7c 3f 15 17 7a 3f d3 3f 76 3f
       0.98772615 0.98669654 0.9769147 0.9619114
000030 3c cb 7f 3f d4 0b 79 3f 8a 61 74 3f 42 93 81 3f
       0.99919486 0.97283673 0.9546133 1.0123065

encoder.bn2.bias f4 [16]
000000 44 eb 29 3a 21 4f 50 3c 18 c8 44 bc d9 91 bf 3c
       0.00064818957 0.012714178 -0.012010597 0.023384975
000010 fd a9 95 bc 74 ae 8f 3c de b0 e1 3b 75 f7 4b 3c
       -0.018269533 0.01753924 0.0068875393 0.012449135
000020 dd b5 a5 bb 52 fd 1e bb 2f 94 1c bd 44 a3 7f 3c
       -0.00505708 -0.0024259877 -0.038227256 0.01560289
000030 cd b1 2a bb 1c 56 04 3c 91 5d e8 3b 58 7d 17 bc
       -0.002604592 0.008077171 0.007091232 -0.009246193

encoder.bn2.running_mean f4 [16]
000000 20 51 84 3e 4f d5 62 3e 87 61 a4 3e b0 53 69 3e
       0.25843143 0.22151683 0.32105657 0.2278583
000010 0f a1 86 3e d5 68 5d 3e e6 33 2f 3e c0 7b 1f 3e
       0.26294753 0.21622021 0.17109641 0.1557455
000020 fe 04 88 3e c8 8f 8b 3e 02 6d 74 3e 3d 0d 26 3e
       0.2656631 0.27258134 0.23869708 0.16215988
000030 f8 85 05 3e bc fb 0a 3e 09 90 7b 3e 61 2c b0 3e
       0.13039386 0.13572592 0.24566664 0.34408858

encoder.bn2.running_var f4 [16]
000000 bf 52 a5 3d 7b dc 40 3e 39 d4 57 3e ac 73 d0 3d
       0.08072423 0.18834107 0.2107705 0.10178313
000010 85 ca 1b 3e c8 dd c2 3d 3d 49 a2 3d da 63 9a 3d
       0.15213974 0.09514958 0.07924125 0.075385764
000020 d4 9a e1 3d 89 82 97 3d 61 5c c0 3d 5a 9e 43 3d
       0.11015859 0.073979445 0.0939262 0.047758438
000030 ef 83 2b 3d b1 e0 6e 3d aa fa d9 3d 71 fd e0 3d
       0.04187387 0.05831975 0.106435135 0.1098584

encoder.bn3.weight f4 [32]
000000 26 75 82 3f 83 92 76 3f 32 a3 79 3f c0 a9 7a 3f
       1.0192001 0.9631731 0.9751464 0.9791527
000010 73 f2 7b 3f 8e f9 7d 3f 9a 20 7d 3f 27 4e 7e 3f
       0.98416823 0.99208915 0.9887787 0.99338
000020 2c fc 7f 3f 1b 6d 7c 3f 2b 31 83 3f 8f 34 81 3f
       0.9999416 0.9860398 1.024938 1.0094165
000030 fd 92 7a 3f 42 f3 7b 3f b5 36 76 3f 76 ea 82 3f
       0.97880536 0.98418057 0.96177226 1.0227802
000040 d6 2e 77 3f 21 d9 7a 3f 6f 25 80 3f 46 52 7d 3f
       0.9655584 0.9798756 1.0011424 0.98953664
000050 e8 9f 83 3f 80 e5 77 3f 66 b9 7d 3f a4 6d 7a 3f
       1.0283175 0.96834564 0.9911102 0.9782355
000060 23 5d 7e 3f 50 a2 81 3f aa 6b 79 3f 9c aa 7b 3f
       0.99360865 1.0127659 0.9742991 0.98307204
000070 aa 7b 7c 3f 9b 16 77 3f 33 b8 81 3f 70 3a 86 3f
       0.98626196 0.9651887 1.0134338 1.0486584

encoder.bn3.bias f4 [32]
000000 1e 5e 58 3c 27 6a f5 bb 97 cf 31 bc 58 09 d1 3c
       0.013206033 -0.007489461 -0.010852716 0.02551715
000010 65 19 36 bc d5 e9 91 bd 22 46 8a 3b ee 37 a8 bc
       -0.011114453 -0.07124678 0.0042197863 -0.020534482
000020 48 6e c2 bb a1 31 4e 3d 7f b8 1a bd 46 5f 42 3a
       -0.0059335567 0.0503403 -0.037773605 0.00074147095
000030 19 93 48 bc da 39 51 3d 40 93 15 bd 28 3c 28 bd
       -0.012242102 0.051080562 -0.03651738 -0.041072994
000040 ae 9b 8c ba 39 18 a9 3b f1 13 0d bc 12 ab 4f 3d
       -0.0010727549 0.0051603583 -0.008610711 0.050700255
000050 ca 43 d1 bc 8d ee 05 bd 77 79 26 bd 97 ab b6 ba
       -0.02554502 -0.032698203 -0.04064318 -0.0013936636
000060 71 6b 15 bd 4f 9a ac bb a9 99 b8 bb 27 31 15 bd
       -0.036479417 -0.0052674185 -0.005633552 -0.03642383
000070 cf 87 78 bc 98 d9 aa 3c 22 4f dc bc 12 51 8d bc
       -0.015169098 0.02085571 -0.026893202 -0.017250571
