results/_qm_fptra_0.9_1000_VAE_model.pt (torch, 166416 bytes, 61 tensors)

encoder.conv1.weight f4 [16, 1, 2]
000000 14 c5 22 bf 1f 66 39 bd ec df 1d 3e 2f d8 64 be
       -0.6358197 -0.045263406 0.1541745 -0.22348092
000010 68 4e cd 3d a6 8e bf be c1 f4 16 bf a4 ea 2f 3f
       0.100247204 -0.3741352 -0.58967215 0.6871741
000020 50 72 cf 3d 18 cd 66 be 83 93 01 3f 77 80 73 be
       0.10129225 -0.22539175 0.5061571 -0.23779474
000030 8e ab 07 bf 45 91 95 3e ec 5d 0f bf 6b 72 e1 be
       -0.52996147 0.29212394 -0.5600269 -0.44032606
000040 de 3d ab 3e 8c 7d 65 3e a7 2d 32 bf a8 c9 ef bd
       0.33445638 0.22411174 -0.6960091 -0.11708385
000050 ba 75 c0 be 68 2b c8 be 65 b7 f2 3e 3b ba c2 be
       -0.37589818 -0.39095616 0.47405544 -0.38032708
000060 32 6b 97 3e cc 8f ca be ff 54 33 bf b6 0c e2 be
       0.2957397 -0.39562833 -0.7005157 -0.44150323
000070 72 7a 2f bf 94 e9 33 be 9a d0 c7 be 60 e8 c3 3c
       -0.6854621 -0.17569572 -0.39026338 0.023914516

encoder.conv1.bias f4 [16]
000000 0f 2d d8 3e 30 3c c5 3e 67 b1 24 bf 69 f0 2d 3f
       0.42221877 0.38522482 -0.64333194 0.6794496
000010 b9 cc c3 be af e2 a3 3e 9d 38 01 be 22 e4 0d 3d
       -0.38242128 0.32008883 -0.12619253 0.034641393
000020 5b 60 11 bf 3c 76 28 3f b2 03 30 3f 22 53 e6 be
       -0.5678765 0.6580541 0.6875564 -0.449853
000030 30 23 ab bd 28 ca 21 be 80 d0 31 be ef da a5 be
       -0.08356321 -0.15799773 -0.17364693 -0.32393596

encoder.conv2.weight f4 [16, 16, 2]
000000 10 d2 b0 3d cd ca 17 3e 36 e4 16 be d4 19 83 3c
       0.08633816 0.14823456 -0.14735493 0.016003527
000010 b2 71 e1 3d 21 b0 6f bd 5c e0 05 bd 75 b5 fe 3d
       0.11008014 -0.05851758 -0.03268467 0.12436954
000020 40 5f 39 3d b8 70 6b 3d 55 f9 fd bd bb f6 bf 3d
       0.045256853 0.057480544 -0.12401072 0.09373232
000030 09 44 3f bd 61 5c a1 3d 06 ee 32 3e a4 8a 0e 3e
       -0.046695743 0.07878948 0.17473611 0.13920075
000040 ca 2a 4a 3d de aa 24 3e 4e e7 dd bc b6 d5 89 3c
       0.049357213 0.16080806 -0.027087834 0.016825538
000050 d5 0a 18 3e 22 e5 7e 3d f0 57 ba bd 43 d7 cf bd
       0.14847882 0.062230237 -0.09098804 -0.1014848
000060 1c b0 be bd d2 8a 99 3d d2 c3 a4 bd 51 a6 a5 bc
       -0.09310934 0.07497181 -0.08045162 -0.020220907
000070 63 d4 13 be 21 de df 3b 29 35 88 bd e4 15 11 3e
       -0.14436488 0.0068318998 -0.066507645 0.14168507
000080 9c 39 1c 3e ca bb f5 bd fe 41 eb bd 26 b2 fa 3d
       0.15256351 -0.119987085 -0.114871964 0.1224101
000090 7c 6f c3 bc 1d cd 0e be e8 8c 1a 3e 54 51 ee bc
       -0.02385687 -0.13945432 0.15092814 -0.029091515
0000a0 7a 45 21 3e ef 78 59 3c ef 3a 3c 3c f2 23 5a bd
       0.1574916 0.013273462 0.01148866 -0.053256936
0000b0 19 b6 1d be 81 29 1e 3d 07 9e 0e 3e 0b 80 c0 3d
       -0.15401496 0.0386138 0.1392747 0.09399422
0000c0 97 ea 12 be 54 b0 89 3d 30 f6 9f 3d ab cb d7 bd
       -0.14347301 0.06723085 0.078106284 -0.105368935
0000d0 f9 0f 3d be b4 3c 10 be 78 04 ec bd 7b 26 2e 3c
       -0.18463124 -0.14085656 -0.1152429 0.010629292
0000e0 41 dc 0a be 6d 95 10 3e 39 58 17 bd 9b 2f 2e bc
       -0.13560583 0.14119501 -0.03694937 -0.010631467
0000f0 9d e9 d5 bd 86 7d 7c bd 66 b4 ef 3d e4 8f da bd
       -0.10444949 -0.061643146 0.1170433 -0.10671976
000100 60 48 0a 3e fc af b2 3c 2d 8e 09 be 21 48 ee 3d
       0.13504171 0.021812432 -0.13433142 0.11634851
000110 9c 11 17 be 29 d3 15 3e f5 31 2e 3e e3 04 ff 3d
       -0.14752811 0.14631332 0.17011245 0.12452104
000120 58 7a c9 3d 66 bd 16 be 5c 54 11 be 11 c0 02 bc
       0.09837788 -0.14720687 -0.14192337 -0.0079803625
000130 6a b5 08 3e cd 3f a3 3b 48 de 62 bd 64 f7 18 3e
       0.13350454 0.004981971 -0.055387765 0.14938122
000140 b7 3b 09 bc f2 b7 c7 3d 91 94 61 bd 75 d7 56 bc
       -0.008376054 0.09751882 -0.055073325 -0.013112892
000150 65 3b 29 3d 3d 5d e7 3d 5b d8 07 be f8 d2 c8 bd
       0.04131641 0.11297081 -0.13266127 -0.09805864
000160 62 ba a8 bc 25 e4 4d bc e6 19 52 bc 15 95 2e be
       -0.020596687 -0.012566601 -0.0128235575 -0.17049058
000170 ec 01 26 3e b8 e4 1f be d0 c0 0b 3e c8 ae 21 3e
       0.1621167 -0.15614593 0.13647771 0.1578933
000180 0b fd fd bd b3 02 1a 3e 21 84 1d 3e 40 08 25 bd
       -0.1240178 0.15040092 0.15382434 -0.04029107
000190 a0 b6 a1 3c d3 5c 1e be 90 28 60 bc 01 fe 42 3d
       0.019740403 -0.15465097 -0.013681546 0.04760552
0001a0 69 38 32 3e 98 c3 e7 bb ca 02 23 3e e7 8f ce 3c
       0.17404331 -0.007072877 0.15919033 0.025215102
0001b0 3f 7b 02 be da 1e 8b 3a ca eb 15 3d 60 c4 22 3e
       -0.12742327 0.0010614053 0.03660182 0.15895224
0001c0 46 a8 d0 3c bc 89 8d 3b 41 53 ae 3d f0 e5 43 3c
       0.025470864 0.0043193977 0.08511973 0.011956677
0001d0 62 41 34 3d 9f c8 97 3d 01 21 ea 3d 92 83 0e 3e
       0.044007666 0.07411312 0.11432076 0.13917378
0001e0 3a 6a 3a be 25 11 da bd 3f 3d 76 bd 79 2d f7 3d
       -0.18204585 -0.10647801 -0.060117003 0.1206922
0001f0 95 15 ba bd 61 cd 1b be 3a 6c 4a 3d 77 3c aa bd
       -0.09086148 -0.15215065 0.04941962 -0.08312314
000200 04 25 be bd 08 94 d9 3c e4 5e f5 bd f8 40 03 be
       -0.09284404 0.026559845 -0.119809896 -0.12817752
000210 de 72 a0 bd 90 ea 17 3e c2 a7 3b be e3 7d 18 3e
       -0.07834409 0.14835572 -0.18325713 0.14891772
000220 43 a1 2b be 5a 79 c4 3d bd 68 a1 3c 1d 52 a1 bc
       -0.16760735 0.095934585 0.019703263 -0.019692475
000230 2e 06 20 be e3 77 a5 bc 15 c5 72 3d b0 65 e3 bc
       -0.15627357 -0.020198768 0.059269983 -0.02775845
000240 3d c2 6f bc b6 ee a2 3d cc 0c 06 be 45 fe a8 bd
       -0.014633712 0.07955687 -0.13090819 -0.08251623
000250 c6 ff c1 3c 88 17 c1 3d 37 fc 2c 3e 31 7d d0 3d
       0.023681533 0.09428316 0.16893087 0.10180128
000260 a6 bc a2 bd e2 44 55 3d 24 28 51 bd 21 6d 2e 3d
       -0.07946138 0.052067645 -0.05106367 0.042584542
000270 41 9e f9 bd b6 02 07 3e 4d 7f 0e be 41 f4 97 3d
       -0.12188388 0.13184628 -0.13915749 0.074196346
000280 1c 14 ea bd 98 8c bd bd aa f4 35 3d 93 b6 2b be
       -0.11429617 -0.09255332 0.044422783 -0.16768865
000290 fe 59 16 3e 4f 6e 06 3d 07 a1 66 bd 76 2b 4d bd
       0.14682767 0.032820042 -0.05630591 -0.050090276
0002a0 8d 89 ff bd 9a d2 22 3e 7c 24 f4 3d 2d 47 28 3e
       -0.124774076 0.1590065 0.11921021 0.16433401
0002b0 61 45 83 3c 6f 8d 8f bd 23 09 ae 3d 52 93 04 3e
       0.016024293 -0.07009398 0.084978364 0.12946823
0002c0 aa 25 90 bd cf d3 31 bd 74 58 02 3e a4 35 f9 bd
       -0.07038434 -0.043414887 0.12729055 -0.12168434
0002d0 63 e5 07 bd fe 2f ee bd 51 c7 09 be 05 16 cf bd
       -0.033177745 -0.116302475 -0.1345494 -0.10111622
0002e0 7e a0 ff 3d ff 97 60 bb 5d 7d 60 bd 16 09 1c be
       0.12481783 -0.0034270284 -0.054807056 -0.15237841
0002f0 39 3b f6 3c 90 f9 29 3d 03 21 c1 bd f0 81 fc 3d
       0.030057536 0.041497767 -0.094301246 0.12329471
000300 3f 0b c5 3c e3 7e ae 3d 23 e3 f9 bd 60 94 36 3e
       0.024053214 0.085202955 -0.12201526 0.17830038
000310 29 5b 1c 3e 24 66 a2 3d 4c b6 ed 3d 0f b7 63 bd
       0.1526915 0.07929638 0.11607036 -0.0555945
000320 d9 c1 32 be 68 38 a9 bd 2d 38 85 3c b3 da 1c be
       -0.1745676 -0.08262712 0.016262138 -0.15317802
000330 a3 59 d6 3d f7 5d 36 be 16 88 05 be b0 4d 38 bd
       0.104663156 -0.17809282 -0.13040194 -0.044995964
000340 59 ed ac 3d 8e 1c 86 bb 3f a7 d8 bd 05 73 57 bd
       0.08443708 -0.0040927595 -0.10578775 -0.052599926
000350 48 ab c6 bd 6f 9c d5 3d c4 68 08 3c b1 f6 6c 3c
       -0.09700638 0.10430228 0.008325759 0.014463113
000360 e6 a3 1e be fb fd dd bd af 95 ac 3d 7d 68 b5 3d
       -0.1549221 -0.108394586 0.084269874 0.0885782
000370 08 9c 12 3e a6 0c 9b 3d 50 2f 28 be 55 3d db bd
       0.14317334 0.07570772 -0.16424298 -0.107050575
000380 e2 1a ed bd fc fa fc 3a cc 2a 2a 3e 60 8d 47 bc
       -0.11577393 0.0019300873 0.16617888 -0.0121797025
000390 d5 3e 09 3e 00 e5 35 3d 4f b7 37 bd f9 a8 d2 bd
       0.13402875 0.044407845 -0.04485255 -0.10286135
0003a0 cc 32 98 bc 7e 77 21 3d bc 20 f0 bd ff 3b de bc
       -0.01857891 0.039420597 -0.117249936 -0.027128218
0003b0 33 44 3d bb 5e 7e 18 be a8 21 23 be de 74 65 3d
       -0.0028879761 -0.14891955 -0.15930808 0.056019656
0003c0 55 21 c6 bd 5b dd 15 be e9 5c 4b bc 46 84 2d bc
       -0.09674326 -0.14635222 -0.012412288 -0.0105906185
0003d0 84 f3 f4 3c ed 59 b1 bc dc 95 f0 bd 3c 83 15 be
       0.029901274 -0.021649325 -0.117473334 -0.14600843
0003e0 37 ba 02 bd f4 38 30 3e 77 a9 15 3e e1 a0 08 bb
       -0.03191587 0.17209226 0.14615427 -0.0020847844
0003f0 2b c8 14 3e 1c 7d 90 3d fa 1e e3 bd c0 a0 13 bd
       0.14529483 0.07055113 -0.11089893 -0.036041975

encoder.conv2.bias f4 [16]
000000 8e 26 b8 bd 67 e3 13 3e 12 10 0b be d0 91 18 be
       -0.08991729 0.14442216 -0.13580349 -0.14899373
000010 54 0a d1 bd 2a 15 14 bd 74 d1 6c 3d bb a1 03 3e
       -0.10207048 -0.036152996 0.057816938 0.12854664
000020 9c 91 b3 bc 5a 46 64 bd de 5b 0e 3e fe e8 0b be
       -0.021920018 -0.055731155 0.13902232 -0.13663098
000030 99 ca 15 be 38 50 04 3e 5f 44 af 3d 07 fb c5 bd
       -0.14628066 0.12921226 0.085579626 -0.0966702

encoder.conv3.weight f4 [32, 16, 2]
000000 eb b4 fe 3d c1 1d c1 bc 83 1c 34 3e 22 c7 3a bd
       0.12436851 -0.023573758 0.17589001 -0.045600064
000010 bc 67 11 3a 3d de cb bd 1d 7d 4b 3d e3 42 93 bb
       0.00055467687 -0.09954498 0.049679864 -0.0044940575
000020 31 c2 01 3c 01 42 07 be 37 3e d7 bd 9a 70 fb 3d
       0.007919834 -0.13208772 -0.105099134 0.122773364
000030 89 c0 18 3d 56 17 c6 3b 97 c6 7b 3d b8 8a ad 3d
       0.03729299 0.0060452623 0.061468687 0.08473724
000040 d1 2f 8c bd 21 b0 cc 3d 0f 10 fd bd fc e5 f2 bc
       -0.06845058 0.099945314 -0.123565786 -0.02965068
000050 cd 03 a0 3c a7 d1 18 bd 1c e9 8d bd 2d 43 d3 bd
       0.019533062 -0.037309315 -0.06929228 -0.10315547
000060 1b 90 e8 bd d1 2c 1a be be 4f 0e 3e 39 c0 24 be
       -0.11355611 -0.15056159 0.13897607 -0.16088952
000070 f9 f7 16 3e 31 60 bc 3d ab 95 a8 3d ce 5b b1 3d
       0.14743032 0.091980346 0.08231672 0.086600885
000080 74 62 1f 3e d2 43 71 bd a0 47 e1 3c 61 36 ec bd
       0.155649 -0.05890257 0.027499974 -0.115338095
000090 5c 16 9f bd 6f 30 83 bc 91 69 cc 3c 0a 5b 4e bc
       -0.077679366 -0.016014306 0.024952682 -0.012594948
0000a0 50 a0 e0 bd ba 66 fa 3d a3 ef da bb a6 1a bd 3c
       -0.10968077 0.12226625 -0.006681399 0.023083996
0000b0 ac 0a 2a 3d 2a 65 e8 bd c8 b3 d5 3d 5b dd 7f 3d
       0.041514084 -0.113474205 0.10434681 0.06246696
0000c0 4c fb eb 3d 62 00 16 3c 60 06 0a 3e a0 c4 5f 3d
       0.115225405 0.009155365 0.13478994 0.054630876
0000d0 2f 55 88 bd 18 5f ff 3d 40 8d e1 3d 74 6d d1 ba
       -0.066568725 0.124693096 0.110132694 -0.0015978054
0000e0 58 14 2d 3e f4 19 9b 3d ac 65 1a 3e bb f5 2b be
       0.16902292 0.075733095 0.15077847 -0.16792957
0000f0 2e 95 11 3e c2 fb f5 bd 6d 98 ec 3c 46 23 a4 3d
       0.14217064 -0.120109096 0.028881276 0.080145404
000100 4e 25 96 bd d9 11 3b 3e ed 87 93 3d fd 8c 29 3e
       -0.07331334 0.18268527 0.0720366 0.16557689
000110 da 8c f8 bd 50 d9 c5 3d fc 36 03 bd 2a b0 ab 3c
       -0.1213624 0.0966059 -0.03203486 0.020958025
000120 8b 5a f4 3d 90 66 a6 3d 84 85 b3 3d 9f 8e 49 bd
       0.11931332 0.08125031 0.087657005 -0.04920828
000130 11 d8 17 bd 1a 7c d6 bc 63 c8 29 3e 3f 0e b3 bd
       -0.03707129 -0.026182223 0.16580348 -0.087429516
000140 b5 4d 3e be 9e 3b fa 3d 37 a6 20 3d 26 8a e7 3d
       -0.1858433 0.12218402 0.039221015 0.113056466
000150 64 6a d0 3d 0b 0c f9 bd 1a 4d b3 bc 86 f9 00 3e
       0.101765424 -0.121605 -0.02188735 0.12595186
000160 60 bb 27 3e 7f 22 10 be 4a 19 c1 3d 0a e5 30 be
       0.16380072 -0.14075659 0.09428652 -0.17274871
000170 14 e8 34 bd 7e 8e d0 bd 7b 46 0b 3e 5e c7 ac 3d
       -0.04416664 -0.10183428 0.13601105 0.08436464
000180 7a ee df bd 0a 39 af 3d 8f 1b 8f 3d 65 06 6e 3d
       -0.10934158 0.08555801 0.06987678 0.058111567
000190 d4 ea 03 be a0 b8 32 be 81 04 cd 3c 78 7d 30 3e
       -0.12882549 -0.17453241 0.025026562 0.17235363
0001a0 73 02 04 3e 52 85 cf bb 10 8d dc bc bb 0c 09 3e
       0.1289156 -0.0063330317 -0.026922733 0.13383763
0001b0 30 3b b5 bd 0e 7e f9 bd 1a f6 04 3e 0f 29 cf 3d
       -0.0884918 -0.12182246 0.12984505 0.10115253
0001c0 ed 28 d7 bd 33 0d df bd 24 b2 2f be 40 ed 9e 3d
       -0.10505853 -0.108911894 -0.17157799 0.077600956
0001d0 49 94 86 bd 51 e8 a1 bd ea ca 26 be 3e 10 5f 3d
       -0.06571252 -0.07905639 -0.16288343 0.05445885
0001e0 c0 39 58 3d c3 05 39 bc 42 60 7e 3a e9 15 40 3c
       0.05278945 -0.011292878 0.00097036746 0.011723974
0001f0 04 78 89 3c 7b 3d f7 bc 1c bc 0b 3e 96 3a 11 3e
       0.01678086 -0.030180683 0.13645977 0.14182505
000200 a1 58 06 3d 51 35 06 bd 6f e6 df bc f8 e0 0d be
       0.032799367 -0.03276569 -0.027331559 -0.1385535
000210 fc f1 9d bd c4 5c b6 3c 50 71 67 bc e5 b0 1e be
       -0.077121705 0.022261031 -0.014126137 -0.15497167
000220 87 1c 53 bd 62 d8 fe bd 4e 06 33 3e 3c 27 ed 3c
       -0.051540878 -0.124436155 0.17482874 0.028949372
000230 b1 79 11 3e f9 83 cc 3d 83 ac e9 3d e5 ed 1d be
       0.14206578 0.09986109 0.11409857 -0.15422781
000240 91 75 20 3e 17 3c a6 3d 80 ef 39 bd 42 43 e5 bd
       0.15669848 0.0811693 -0.04539442 -0.11194469
000250 e0 2b fd bd de 78 c1 bc 86 34 bf 3c 57 29 d8 3d
       -0.12361884 -0.023617204 0.023340475 0.1055476
000260 d7 8a 9d bd 48 af 98 3d 5b 1c ae bd e6 ef 4b bd
       -0.07692497 0.07455307 -0.08501502 -0.04978933
000270 6f 19 ce 3d d1 e7 74 bd fa f1 6c bd 80 20 2d be
       0.10063445 -0.05979139 -0.057847954 -0.16906929
000280 41 f1 10 be d4 4c bf bc f4 ff 39 3d c9 a1 13 3e
       -0.14154531 -0.023352064 0.04541011 0.14417185
000290 fa db b0 3c 4e c3 60 3d fe 04 3a 3d 19 87 9b 3d
       0.021589268 0.054873757 0.045414917 0.07594127
0002a0 c5 54 86 3d 72 14 30 bc 39 62 17 be 58 22 3f 3d
       0.06559137 -0.010747062 -0.14783563 0.046663612
0002b0 cf 17 e6 bb fa 5d 00 3e 85 5e ed bd 09 8b 34 3e
       -0.007021881 0.12535849 -0.11590294 0.17631163
0002c0 7d ef 7e bd 00 75 c4 bd f1 2b ae bd c1 f3 05 be
       -0.062240113 -0.095926285 -0.08504475 -0.13081266
0002d0 3a 8a c2 3d 5b 74 a1 3d 7d 0b ac 3d 14 2b 76 bd
       0.09499021 0.07883521 0.08400629 -0.060099676
0002e0 4f 1f ec 3d e0 1b d0 bd 48 ba 89 bd 3c 64 fa 3c
       0.11529409 -0.10161567 -0.067249835 0.030565374
0002f0 61 91 99 3d e7 18 1d 3e c8 63 27 3e 1c 39 1a 3e
       0.07498432 0.1534153 0.16346657 0.15060848
000300 21 e4 9d bd 7e ce 8a 3c d1 72 e4 bd a8 7c 18 3e
       -0.07709528 0.016944166 -0.11154712 0.14891303
000310 7c aa 18 be d7 a7 9f 3d 4a 3b 8f 3d f6 fb c0 bc
       -0.14908785 0.07795685 0.0699373 -0.023557644
000320 d1 12 ef 3d 6a 45 6a bd 68 a3 ea bd b9 26 02 be
       0.11673511 -0.057195105 -0.114569485 -0.12710084
000330 0f df 2c be 46 79 30 be b3 c2 1e 3e 68 c8 05 be
       -0.16881965 -0.17233762 0.1550396 -0.1306473
000340 cd c6 e1 bd 79 e2 6c 3d f1 44 22 3e c0 d0 08 3e
       -0.11024246 0.05783317 0.15846612 0.13360882
000350 16 54 9d 3d 8f a2 b5 3d d4 df c0 bd 52 f4 a8 bc
       0.07682054 0.08868896 -0.09417692 -0.020624314
000360 0c 09 04 3e 28 5f 14 3e ec 34 89 3d a9 f1 00 3d
       0.12894076 0.14489424 0.06699547 0.031480465
000370 92 d9 13 3e 3c 68 13 bd f3 da b6 bd ad a8 27 3e
       0.14438465 -0.035988078 -0.0892848 0.16372938
000380 f5 11 7d bb f9 35 a0 bd c8 c9 46 3d 7c 2e 07 3e
       -0.003861544 -0.078227945 0.048532277 0.13201326
000390 a0 4e c7 3b 61 47 23 be f1 0d e3 3d 9a f2 0c be
       0.006082371 -0.15945198 0.110866435 -0.1376442
0003a0 0e 79 fe 3c 80 ab 32 3e d3 ac 5f bc 62 3a 04 be
       0.031063583 0.17448235 -0.013652044 -0.12912896
0003b0 8f bf 1e 3e 80 4f a6 3c 34 84 26 3e 1f 8f 1f 3e
       0.15502761 0.02030158 0.16261369 0.1558194
0003c0 64 13 ed 3c ed 51 d9 3c f7 4c b8 3d 15 48 f2 bd
       0.02893991 0.026528323 0.08999055 -0.11830155
0003d0 c1 e1 03 3e 95 d0 0a be ed 37 45 bd c8 0c 63 3d
       0.12879087 -0.1355613 -0.048149038 0.05543211
0003e0 1b 69 03 bc 31 a3 d3 bd 08 3f 12 3e 1a 25 52 3d
       -0.008020665 -0.10333861 0.14281857 0.051304914
0003f0 f2 6f ce 3c 98 c2 90 bd d1 b6 1a be eb 36 8f 3d
       0.025199864 -0.07068366 -0.15108801 0.06992897

encoder.conv3.bias f4 [32]
000000 4a 3a 88 bc 4c 8f 30 bd be f5 8f bd 93 c4 68 3d
       -0.016629357 -0.04310541 -0.070292935 0.056828093
000010 c6 4b 01 3e e7 05 27 3e 02 fc 03 3c 96 69 9a 3d
       0.12626562 0.16310845 0.008055689 0.0753967
000020 2d a2 19 bd e1 8e 5e bd 27 9b 17 be 39 e6 18 3e
       -0.03750818 -0.05433548 -0.1480528 0.14931573
000030 31 19 4c bd 6b 5e aa bd c6 e0 f4 3d ab 39 14 be
       -0.049828712 -0.0831879 0.11956935 -0.14475124
000040 81 f1 3c bd ef 01 21 be b4 62 24 3b 9c 10 10 3d
       -0.046128754 -0.15723394 0.0025083246 0.03517209
000050 be 0b 16 3e 12 e3 04 3e 06 b6 13 3e cb 36 d6 bd
       0.14652917 0.12977245 0.14424905 -0.1045967
000060 c8 e7 37 3d 5d 90 9f bd 61 5d 60 3d 6c 01 04 3e
       0.04489878 -0.07791207 0.054776553 0.12891167
000070 83 c8 69 3d 6f 71 2c be f3 a9 65 bd 54 95 2a be
       0.05707599 -0.16840146 -0.05607028 -0.16658527

encoder.conv4.weight f4 [32, 32, 2]
000000 46 e0 ed 3b d0 6a 89 bd 57 1d 0c 3c 96 50 d4 bb
       0.0072594015 -0.06709826 0.008551917 -0.006479333
000010 f2 44 de bc d4 fb 9e bd fd 03 a8 3d fa 98 cf 3d
       -0.027132485 -0.07762876 0.08203886 0.101366
000020 75 ef 3c 3d 60 d4 d4 bb 98 c3 b1 3d 40 15 53 3d
       0.0461268 -0.0064950436 0.08679885 0.051533937
000030 c8 76 23 3d ba 51 4f 3d 7d 70 eb bd 26 60 c9 bd
       0.0399082 0.05061505 -0.11496065 -0.09832792
000040 df 1e d9 3d 68 e8 49 3c 63 eb 7d bd c8 d3 98 3b
       0.10601591 0.012323476 -0.06199206 0.004663918
000050 f5 fe 40 3d 90 6f cf bb 9c 97 99 3d 7b 8e 1f 3d
       0.047118146 -0.006330438 0.0749962 0.03895424
000060 f4 30 3d bd 64 c3 c5 3d de 63 aa bd 6b cb 90 3c
       -0.046189263 0.096564084 -0.083198294 0.017675122
000070 b3 f5 a0 3d 44 4b aa 3d ab a7 d0 3c 84 55 1b bd
       0.078593634 0.08315137 0.025470575 -0.03792335
000080 fc 57 b8 3d 3d b0 ce 3b 01 45 94 3d e7 29 b7 bd
       0.09001157 0.0063076303 0.07239724 -0.08943539
000090 b9 d2 8f bc b1 33 92 bb c0 ad a5 bd d6 b1 3d 3d
       -0.017556535 -0.0044617285 -0.08089781 0.046312176
0000a0 6e 86 87 3c 98 6d fe bc 63 4b 42 bb 7a ea 01 3e
       0.016543593 -0.031058118 -0.0029646985 0.12687102
0000b0 6e 9c ff 3d 63 de cc bd 7f 30 8d bd 73 71 ea bd
       0.124810085 -0.100033544 -0.068940155 -0.1144742
0000c0 02 50 d9 bc 13 13 cb 3d 2a 43 38 bd c2 5a d6 3d
       -0.026527409 0.099157475 -0.044985928 0.104665294
0000d0 c5 a3 3c bb d7 2c dd bd d0 1d 81 bc 16 02 b6 bd
       -0.0028784138 -0.10799568 -0.015761286 -0.088871166
0000e0 1a 43 d0 bd 8d 5d 8a bd 9d de dc bd dc 0c 00 bd
       -0.101690486 -0.06756125 -0.107846476 -0.031262264
0000f0 b9 2e 54 bd ff 40 a5 bd 76 bf 66 3d dd 7c 4d bd
       -0.05180237 -0.08069038 0.056334935 -0.050167907
000100 60 23 0b bc 1e 9b 56 3d 20 bb ac 3d 6f 93 00 3d
       -0.008492321 0.052394025 0.08434129 0.031390604
000110 84 fb 35 3c 50 05 85 3c 0e 66 d5 3c ec b9 46 3c
       0.011107329 0.016237885 0.02604964 0.012129288
000120 69 c7 ff bc 21 d2 ed bd af b0 8f 3c 72 3a b5 3d
       -0.031223016 -0.116123445 0.017540304 0.08849038
000130 dd ae bc 3d 2a 04 81 bd 43 27 43 3d 13 10 a2 bd
       0.0921304 -0.06299622 0.047644865 -0.07913222
000140 a3 a7 d5 bd 0c 41 77 3c 6b 47 d1 3c ab 69 68 bd
       -0.10432365 0.015091192 0.02554675 -0.056741398
000150 43 a5 c2 3d a2 81 b1 3d 66 1b da 3d de b4 e1 bd
       0.095041774 0.086673036 0.10649757 -0.11020826
000160 6f 35 91 bd 4f f6 70 bd 43 fe 8d 3d 7f 7a 18 bd
       -0.0709027 -0.05882865 0.06933262 -0.037226196
000170 24 88 fa 3d 3d 0b 1a 3d 1c 5d c9 bd ee 65 0d 3d
       0.12232998 0.037608374 -0.09832212 0.034521036
000180 75 2d a8 3d 1a 3b ee bd 00 af 2b 3c 94 ea b6 bd
       0.08211795 -0.116323665 0.010478735 -0.08931461
000190 95 28 6a bd c4 78 ba bc 5b 67 bb bd a3 68 26 3d
       -0.05716761 -0.022762664 -0.09150573 0.040627133
0001a0 d8 29 86 bd 4d 29 f9 bd e0 8d 65 bc ae 66 33 bd
       -0.0655095 -0.121660806 -0.014010876 -0.043799095
0001b0 3b 74 fb bd b9 9f 0f bd 58 66 91 bd 60 d7 90 bd
       -0.122780286 -0.035064433 -0.07099599 -0.070723295
0001c0 b3 bc 1d bd b2 2d 45 3c fd b1 9f bd 9a 06 02 3b
       -0.038510036 0.01203482 -0.077976204 0.001984036
0001d0 aa 60 b9 bd b1 a2 da bb ac aa de bd d5 70 c0 3c
       -0.0905164 -0.0066722264 -0.10872397 0.023491303
0001e0 f2 c9 69 3d b4 c1 b5 bd e7 2b 72 3d e5 9b 08 3d
       0.057077356 -0.088748366 0.0591239 0.033351798
0001f0 28 3b 14 3d 9b 94 b2 bc 18 e1 0b bd 1e 31 a0 bd
       0.03618923 -0.021799376 -0.034150213 -0.07821868
000200 99 8c 31 3c 39 70 1c 3d ff 02 7e 3a b6 56 6d 3c
       0.010836744 0.03819296 0.00096897775 0.0144860055
000210 da 10 b7 bd 23 a5 b8 bd be 77 dc bd 42 fb 9c 3d
       -0.08938761 -0.09015872 -0.107650265 0.07665111
000220 11 63 bf bc dd a4 04 be 03 27 27 bd 9a 65 bf 3d
       -0.023362668 -0.12953515 -0.04080869 0.09345551
000230 29 3e 36 3d b4 03 61 3d 0f 96 29 3c 82 58 70 3d
       0.044492874 0.054935172 0.010350718 0.058678158
000240 0f 14 2a 3d 7e bc d7 3c 3c 81 bf 3d e9 ad 7d 3d
       0.041523036 0.026334997 0.093508214 0.06193343
000250 ad 9a a7 bb eb 97 9c bd 29 80 10 3d 99 56 82 3d
       -0.0051148743 -0.076461636 0.035278473 0.063641734
000260 e6 f5 8e bb 5a 44 de 3d 3b 4d 32 3a 75 36 64 3c
       -0.0043628095 0.10852881 0.00068016694 0.013928999
000270 14 82 9a 3c bf bb ec 3d 39 ad dd 3d f0 97 d6 bd
       0.018860854 0.11559247 0.10824055 -0.104781985
000280 92 55 74 bd 60 39 b6 bd 21 29 ab 3c 67 59 9c bd
       -0.05965192 -0.08897662 0.020893635 -0.0763424
000290 fb 75 e9 bd 6c 91 9d bd dc 64 01 bd fe 9a a4 bd
       -0.11399456 -0.07693753 -0.031590328 -0.08037375
0002a0 b3 ee ca bc e8 66 ac 3d f1 cb a7 3c 15 e2 cd 3c
       -0.024772024 0.08418065 0.020482989 0.025132218
0002b0 3c 7b 0f bd 63 b3 df 3b 02 06 76 3d b3 4d a4 bd
       -0.035029635 0.0068268045 0.060064323 -0.080226324
0002c0 62 87 1e 3d c5 10 3d bd 2e ca 99 3d 74 c8 a0 bd
       0.03870333 -0.04615857 0.07509266 -0.078507334
0002d0 a0 41 0b bd e2 2a 9f 3d b5 a5 c6 bd ca 70 1d 3d
       -0.03399813 0.07771851 -0.09699575 0.038437642
0002e0 ff 21 dc 3c dd 46 04 bc 45 4f 30 3d 40 05 06 3d
       0.02687168 -0.008073536 0.043044347 0.03271985
0002f0 bc 29 8b 3d f8 30 d4 bd 94 a9 d3 3d a2 20 1c 3d
       0.067950696 -0.103609025 0.10335079 0.03811706
000300 49 8b 91 bd 3c ca 11 bd 39 23 2f bd 5f a9 9d bd
       -0.07106645 -0.035593256 -0.0427582 -0.076983206
000310 ce 91 d9 bb 4c 33 bf 3c 94 3f 98 3d ae e2 da 3d
       -0.0066396957 0.02333989 0.074340016 0.10687767
000320 41 49 e4 3d cc 7d 69 3d e7 b1 32 3d 0d e4 42 bd
       0.111467846 0.057004735 0.043626692 -0.047580767
000330 b2 c0 98 3d 6b d9 97 3d 6c e6 91 bd 03 21 11 bd
       0.07458629 0.07414516 -0.071240276 -0.035431873
000340 cb d5 1f 3d 8b 47 e6 3d e6 92 d2 bb a3 c8 31 bd
       0.03902225 0.112441145 -0.006426203 -0.043404233
000350 ec bf ad bd 1e f4 a0 3d 58 15 35 bd c7 05 c1 bd
       -0.08483872 0.07859062 -0.044209808 -0.0942493
000360 cd 93 4a 3d 28 dd b1 bc d2 44 db bd 2d 42 02 be
       0.04945736 -0.0217119 -0.10706486 -0.12720557
000370 37 ae 27 bd a8 fc bf 3c c4 93 b5 3d 48 f1 f0 3d
       -0.04093763 0.023435906 0.08866075 0.11764771
000380 9c d3 57 3a 3e 89 0a 3d 3d 15 92 bd 8b 77 01 3c
       0.00082331314 0.03382229 -0.07132957 0.007902036
000390 10 57 75 3d c2 05 56 bd 09 e1 d1 3d e7 0e 9a 3d
       0.059897482 -0.052251585 0.10248 0.07522374
0003a0 ec d0 86 3c 96 79 01 bd 67 23 80 bd 66 a1 4e 3d
       0.016457044 -0.031610094 -0.062567525 0.05044689
0003b0 a0 a3 cd 3d f7 07 aa bc bf 7a fb 3d 3d 92 bb 3d
       0.100409746 -0.020755751 0.12279271 0.09158752
0003c0 6d 5c ba 3d 2d 77 7c bd 4d 3a 80 bc c2 81 eb 3d
       0.0909966 -0.061637092 -0.0156528 0.11499359
0003d0 88 e2 db 3d 72 f8 25 3d eb af 48 bd 19 b5 85 3c
       0.10736567 0.04052014 -0.048995893 0.016321706
0003e0 1c c3 d6 bd 34 f8 c9 bd ff 56 fb 3d b7 73 49 bc
       -0.10486433 -0.09861794 0.122724526 -0.012295655
0003f0 36 69 8b 3d c7 3f 85 3d af c2 72 bd fb c0 ab 3d
       0.06807177 0.06506305 -0.059267696 0.083864175

encoder.conv4.bias f4 [32]
000000 81 48 98 bc 23 17 ee bc 3d d3 a3 3c 56 1b 1c 3d
       -0.01858926 -0.029063767 0.019998187 0.038112007
000010 79 0a 82 bd 65 53 a8 bb 28 5b 09 bc 7f a3 d0 3d
       -0.06349654 -0.0051368945 -0.00838355 0.101874344
000020 07 a3 2f b9 e7 d2 c1 bd c7 50 8e 3d 5f 8d 3c 3d
       -0.00016750033 -0.094640546 0.06949001 0.04603326
000030 b9 f3 d5 3c 8e f2 f1 3d 23 15 19 3d 9f 7e 7e bd
       0.026117193 0.11813842 0.037373673 -0.062132474
000040 aa 76 a4 bd ce 8f fc 3d e0 30 a1 3d ec 1b c2 3d
       -0.08030446 0.12332116 0.0787065 0.09477982
000050 48 0b 3c bd 51 53 ba 3d 61 55 ee 3d b9 5f 31 bd
       -0.045909196 0.090979226 0.116373785 -0.04330418
000060 cb 71 f7 3d 99 c7 58 3d 11 4c c9 bc e6 be 3b bd
       0.12082251 0.052924726 -0.024572404 -0.04583635
000070 6f a9 6b bd cb f1 9b bd f6 02 7f bd b5 3d 9f 3d
       -0.05753463 -0.07614478 -0.062258683 0.077754416

encoder.fc1.weight f4 [64, 384]
000000 d5 4f 99 bc d2 fc 0b 3d 63 02 48 bd 22 1b b1 3c
       -0.018714825 0.034176655 -0.0488304 0.021619383
000010 d1 64 08 bd 78 9f 5f 3c 3d c4 b2 bc f5 c1 f8 3c
       -0.03329927 0.01364886 -0.02182209 0.030365923
000020 16 a1 6b bc ec 7c 43 bd f0 67 ec 3b 3b 97 b4 bc
       -0.014381668 -0.047726557 0.0072145388 -0.022044769
000030 ea 1d 51 3c 72 79 5f 3c 7d 3e 00 3d f7 20 0a bc
       0.01276348 0.013639795 0.031309593 -0.008430711
000040 08 8d 11 bd cc 89 84 3c 2b bc e4 bb ac 6d a6 3b
       -0.03553489 0.016178988 -0.006980439 0.005078992
000050 64 c6 34 3c 95 41 f2 3c 96 a9 ab 3c 5f c8 c7 bc
       0.011033628 0.029572288 0.020954888 -0.024387537
000060 05 c2 3c 3d 70 04 26 3c 2b c3 08 3d 3d 21 85 3c
       0.04608347 0.010132894 0.03338925 0.0162512
000070 4e 9c e6 bc c9 ad 99 bc 2d dc a4 3c 89 ef bf 3b
       -0.028150704 -0.018759625 0.02012452 0.0058574122
000080 f5 b6 11 3c 6b 03 39 bd 2e fd 4b 3d 37 76 4c bb
       0.008893718 -0.045169275 0.049801998 -0.0031198391
000090 90 55 e6 3c 3f dc 3b bb 5d 8f a3 3c b0 e4 2e bc
       0.028116971 -0.0028665212 0.019965822 -0.010674641
0000a0 8c d4 df bb 8e 6d 8a bc 34 17 53 bc 86 f3 27 bd
       -0.0068307575 -0.016897943 -0.01288395 -0.041003726
0000b0 87 b9 dd 3c 4f 8b 0d bc 4f 32 48 bc fa 74 0d bc
       0.027066005 -0.008639171 -0.012219026 -0.008633846
0000c0 49 68 6a bc 47 c0 31 3d 24 28 1d bd 36 03 20 3b
       -0.01430709 0.04339626 -0.03836836 0.0024415976
0000d0 42 b6 8d 3c fb f5 da bc 5e bc 1f bd b6 95 d6 3c
       0.017298821 -0.02672862 -0.038998 0.026194435
0000e0 6d 55 c6 bc 85 ad 1f bc 21 78 e6 3c 01 2c c5 3c
       -0.024210656 -0.00974596 0.028133454 0.024068834
0000f0 d5 98 eb bb f8 ce a5 3c c7 43 1c 3d c8 4b f8 bb
       -0.00718985 0.020240292 0.038150575 -0.007577393
000100 d8 ac 46 3c 7c d8 57 bc 0f 46 f4 bc de 73 2c bd
       0.01212617 -0.0131741725 -0.029818563 -0.042102687
000110 43 06 cc 3c 7b 8f 96 bc b6 ea c7 3c 01 40 d2 3c
       0.02490533 -0.018378964 0.024403911 0.025665285
000120 c9 c7 9f 3c 00 58 23 bc e4 3d 39 3d 9c 68 35 3d
       0.019504445 -0.009969711 0.04522504 0.044289216
000130 ed 66 1c 3c 9d 4a 41 3d 19 3d 1d bc a5 99 ec 3c
       0.009546024 0.047190297 -0.009597086 0.028881857
000140 5f 98 1e 3d d7 e4 3f bd 9b d2 3f bd 43 60 0b 3d
       0.03871953 -0.046849098 -0.04683171 0.03402735
000150 40 79 9b bb aa e8 23 3d 84 83 17 bd a7 98 71 bc
       -0.0047446787 0.040016808 -0.036990657 -0.014745868
000160 dc 7a 7e bc 8f 90 4f 3d 38 db 24 3b 38 b7 00 3d
       -0.015532222 0.05067497 0.0025155079 0.03142473
000170 be 7b 71 ba 9e 49 f7 3c 45 6f d1 bb 70 37 aa bc
       -0.00092118594 0.03018647 -0.006391438 -0.020778388
000180 ac 3e 44 bc 34 c6 91 3c 62 0b 58 bd f8 4e b0 bb
       -0.011977833 0.017794706 -0.05274523 -0.0053805076
000190 27 50 0f bd bc 17 94 bc b5 a7 3e bd 23 c1 f5 bc
       -0.03498855 -0.018077724 -0.046546657 -0.029999321
0001a0 64 b0 18 3d 52 7c 28 bd 1d 72 d9 bc b2 d1 0c 3d
       0.037277594 -0.041134186 -0.026543671 0.03437967
0001b0 02 cf 03 bd ff 5f ab bc 61 ad 6f 3c 67 6b 16 3d
       -0.03217984 -0.020919798 0.014628739 0.03672352
0001c0 df 77 80 3c 98 90 d1 bc 86 f9 52 3d b7 48 2f 3d
       0.015682159 -0.025581643 0.051507495 0.042793956
0001d0 10 69 73 3b cc 9c 06 3d bd 96 7e 39 52 d8 6c 3c
       0.003714148 0.032864377 0.00024279482 0.014455872
0001e0 69 b5 25 bd cd d9 d9 3c 04 03 f4 3c 3b e5 57 bc
       -0.04045621 0.026593113 0.029786594 -0.013177211
0001f0 7c d1 05 bd 7a de d6 3c 05 67 df bc 01 76 e9 3c
       -0.032670483 0.026229132 -0.027270803 0.028498651
000200 ce 0a 32 3d d8 6d 4e bd 46 2a 06 bd 2b eb f9 3a
       0.043467335 -0.050397724 -0.03275516 0.0019067278
000210 e8 ae e1 3c eb bb d3 bb 78 bb 49 3c ed a4 ab bc
       0.027549222 -0.0064616106 0.012312762 -0.020952666
000220 fc 43 c1 3b 25 d4 1f 3d c1 1d 10 3d 3b ef 24 bd
       0.005897997 0.039020676 0.035184626 -0.04026721
000230 70 68 4c 3d 3c 96 10 3c 3a 44 ef 3b d7 54 04 bd
       0.049904287 0.008824881 0.0073018344 -0.032307472
000240 63 5e e2 bc e0 53 35 3c 23 3b 92 3c e5 0c 44 3d
       -0.027632898 0.011067361 0.017850464 0.04786386
000250 b4 ef bc 3c e5 e2 c1 3c 70 2d b1 bb 5a b9 47 3d
       0.023063518 0.023667762 -0.005407028 0.04876075
000260 aa ca 92 3c bf cf 4b bd bf 6b 7a 3b 5b 16 79 3c
       0.017918903 -0.04975867 0.0038211194 0.015203084
000270 e3 94 21 3d df b5 0e bd 0c dd 39 bd 86 35 14 3d
       0.03944863 -0.034841415 -0.045376822 0.036183856
000280 12 e5 e0 3c 4a 96 37 bd 4f b6 c8 bc 2e f9 03 3c
       0.02745298 -0.04482106 -0.024500994 0.008055015
000290 9b d2 5d 3a 2a 19 c0 3c e3 3d 04 3d d1 02 fe bb
       0.00084618636 0.0234495 0.032285582 -0.0077518006
0002a0 bf 51 24 3d 66 b1 49 bc 8b 93 fd 3c f8 bd 4e 3c
       0.04011702 -0.0123103615 0.030954143 0.012618534
0002b0 53 8f e4 3c a8 46 3b bd 08 c3 28 bd b9 f6 3f bd
       0.027900374 -0.04572168 -0.04120162 -0.046866152
0002c0 c8 09 27 bd a1 28 2e bb 52 c4 18 38 05 5a a8 bb
       -0.040780813 -0.002657451 3.642246e-05 -0.0051376843
0002d0 fe 1b 37 bd dc b7 58 3d a6 b3 1e 3d fd f7 3c 3c
       -0.04470443 0.052909717 0.038745545 0.011533734
0002e0 47 bf 8b 3c eb ba da 3c 19 b1 17 3d 14 c0 c1 3c
       0.017058982 0.026700458 0.037034128 0.02365116
0002f0 92 87 1c 3d d3 03 1c 3d 78 35 39 3c 0d 47 03 3d
       0.038215227 0.038089585 0.011304252 0.03205018
000300 54 07 9e 3c c4 30 4f 3d 99 fb 45 bb b6 3f a1 3c
       0.019290604 0.050583616 -0.0030209778 0.0196837
000310 90 ec 50 3d 15 32 21 bd 44 7d 6f bc 97 f4 c4 39
       0.051006854 -0.039354403 -0.014617268 0.00037566267
000320 a1 df ae bc e1 03 29 3d 50 0a 3a 3d 8d f7 de bc
       -0.021346869 0.041263465 0.04541999 -0.02721765
000330 15 53 ee bb d2 66 9f bc 7a 81 c0 bc be 98 31 bb
       -0.0072730877 -0.019458208 -0.02349924 -0.0027099098
000340 45 d1 0e 3d 54 5c 2a 3c d5 dc 36 bd 34 7d 80 3c
       0.034867544 0.010397989 -0.044644196 0.015684702
000350 8c 2e ff 3c 0f c5 93 3b 19 15 88 3b ba 87 88 bc
       0.031150125 0.004509575 0.0041529057 -0.016666282
000360 03 6b 2a 3d cb 87 51 bd f8 20 f5 3b bd d8 b4 3c
       0.04160596 -0.051154893 0.007480737 0.022076005
000370 6f e7 1a 3d e8 1d 31 3d ea f2 37 3d 15 f1 f7 3c
       0.03781837 0.04324141 0.044909395 0.030266324
000380 7d 0e 4d bd 78 be 86 bc c4 2d 51 bd f9 83 20 3d
       -0.050062645 -0.016448244 -0.051069036 0.03918836
000390 4f 7b db 3c 15 94 c9 3c 10 ed b0 3c 2a dc a6 bc
       0.026792197 0.024606744 0.021597415 -0.020368654
0003a0 48 78 c6 bb ac ef 01 3c 40 c4 5f bd ed 43 02 bd
       -0.006056819 0.007930677 -0.054630518 -0.03180306
0003b0 a3 03 01 3d d7 79 24 bd 84 88 45 3d 39 73 45 3d
       0.03149761 -0.040155258 0.048225895 0.048205588
0003c0 da a4 6a 3d bb 49 f6 3c ae 45 11 3d 30 6f cb bc
       0.05728612 0.030064454 0.035466842 -0.024833292
0003d0 23 ef 1a bd c3 67 fd 3c 34 3e a2 bb 21 f3 0e 3d
       -0.037825715 0.030933267 -0.004951263 0.034899835
0003e0 9c cf fd bc 69 2e 50 bd 28 36 22 3d dc 72 dd bc
       -0.030982785 -0.05082551 0.03960243 -0.027032308
0003f0 d1 b7 76 3b ca 90 9d 3b 5b 45 42 bc bf c0 72 bc
       0.0037646184 0.00480852 -0.011857356 -0.014816462

encoder.fc1.bias f4 [64]
000000 23 ed db bc ad 76 00 bc 34 97 c9 bb d7 c0 e4 bc
       -0.026846474 -0.0078407945 -0.006152058 -0.027923984
000010 ac e9 88 bd 2a fe 14 bd 1e 36 6b bc 99 07 f1 3a
       -0.066851944 -0.036375202 -0.014356164 0.0018389105
000020 0a 50 f2 bc 5d 5c d0 3c a1 1c 29 bd 0d a7 1e bd
       -0.029579181 0.025434667 -0.04128707 -0.03873353
000030 65 73 2b 3d 98 75 45 bc 85 7c d4 bc 4f ea 4e bd
       0.041858096 -0.012051962 -0.025938282 -0.050516423
000040 91 ff 6a bb dc 43 26 3d 5d 3f bb 3c 47 f1 52 3d
       -0.0035857896 0.04059206 0.022857362 0.05149963
000050 f4 1e 99 bc ca 07 ea bc bd 7b 5a 3d 5b 3d 54 3a
       -0.018691517 -0.028568167 0.053340662 0.0008096301
000060 42 3f 58 bd e6 67 8a bd 4a 54 c0 bb 7d 18 c4 3c
       -0.052794702 -0.06758098 -0.005869423 0.023937458
000070 d5 3a 15 bb 28 3b f4 bc 36 e9 d2 bc 68 b8 93 bc
       -0.0022770662 -0.029813364 -0.02574597 -0.018032268
000080 86 54 19 bd 5d 59 2e 3d 1d c7 a2 bc 7c 94 0a 3d
       -0.037434123 0.042565692 -0.019870335 0.033833012
000090 48 83 03 bd c5 e7 17 bd 60 9d 0d bd bd 36 93 bc
       -0.03210762 -0.037086267 -0.034573913 -0.017970437
0000a0 be 5a ff bc 68 39 5f 3c 99 a8 d8 bb ef b5 9b bc
       -0.031171199 0.013624527 -0.0066118953 -0.019007651
0000b0 de 11 62 3d 6d 13 92 bb b6 92 a3 bc e2 61 3f 3d
       0.05519282 -0.004457882 -0.019967418 0.046724208
0000c0 ca 21 15 bd c8 cb 83 bc 4a 76 99 3c 17 a9 8e bc
       -0.036409177 -0.016088381 0.018733162 -0.017414613
0000d0 73 59 1f 3d 5a 97 ee bc 40 01 05 bb d0 28 cb 3c
       0.038903665 -0.029124904 -0.0020294935 0.024799734
0000e0 83 a2 1f bd b9 58 d9 3c 0b dd 21 3c df 85 0b 3c
       -0.038973343 0.026531564 0.009879361 0.008515804
0000f0 da d1 07 bc ed 6c c8 bc 6f 08 4b bc 72 44 e9 bc
       -0.008289779 -0.024466002 -0.012392147 -0.02847502

encoder.fc2.weight f4 [16, 64]
000000 ad ab 47 3c a7 a7 ca 3d bd 3d 8b bd a8 78 59 bd
       0.012186927 0.098952584 -0.06798885 -0.053093582
000010 87 34 a6 bc 81 0e f2 3d 29 e7 60 bd e2 82 ad 3d
       -0.020288719 0.11819173 -0.05490795 0.084722295
000020 bf 18 30 bd 2d 79 b8 bc 2d c5 59 bd 6b f7 be 3c
       -0.04299235 -0.022518719 -0.053166557 0.023311337
000030 26 36 08 3d 67 1c 4f 3d 1d cc 36 bd cb 10 8f bc
       0.033254765 0.050564196 -0.04462825 -0.017464062
000040 cc 2d e8 bd ce 1c 8a 3d 2a 80 f7 3d 35 a2 79 bd
       -0.1133686 0.06743775 0.12084992 -0.06094571
000050 8b 42 d3 3c 2e 86 13 3b 9e bf c8 3d e8 6f 2b 3d
       0.025788566 0.0022510397 0.09802173 0.04185477
000060 af f4 bc 3d 92 f1 25 3d 0b 61 f6 bd 9d 42 da 3c
       0.09226357 0.040513583 -0.12030228 0.026643092
000070 09 f7 ee 3d e8 2a 18 bc d0 7d a0 bd 83 a7 cf bd
       0.11668212 -0.009287573 -0.07836497 -0.10139372
000080 8c 64 b0 3d 39 81 87 bd ce 65 af 3c f6 12 c2 3d
       0.08612928 -0.06616444 0.021410849 0.09476273
000090 db c6 ab 3d 57 a0 73 3d c2 69 d1 3c 03 66 10 3d
       0.08387538 0.059479084 0.025563125 0.035253536
0000a0 45 d8 01 bd c2 c9 60 3d ab da be 3d 68 27 27 bd
       -0.03170039 0.05487991 0.09319051 -0.040809065
0000b0 b8 7a 96 3b de 14 c2 3d ad f1 f2 3d 1d 09 df bd
       0.004592266 0.09476636 0.11862502 -0.1089041
0000c0 bb 68 a2 bd af c2 f7 bd bd 05 a4 3d 1d 94 04 3d
       -0.07930132 -0.1209768 0.08008907 0.032367814
0000d0 2d 9e f0 bd e6 db 86 bd 94 83 8a bd c5 4b 6b 3d
       -0.1174892 -0.06584911 -0.06763378 0.057445306
0000e0 1f ae b7 bd a7 89 5f bd 0e f4 e9 bd 47 a9 ba bb
       -0.08968758 -0.054574635 -0.11423503 -0.005696449
0000f0 5a 3b 20 3d 80 0f fb bd 74 6d 0d 3e 57 1c c4 3d
       0.039119102 -0.12258816 0.13811284 0.09575718
000100 bd 6e 2f 3d 18 88 3a bd e8 bc 1c 3d df cb b6 3d
       0.042830218 -0.045539945 0.038266093 0.08925604
000110 2a 8c b1 bd 88 b0 13 3d d4 b6 f6 3d ed a1 f3 3d
       -0.08669312 0.036057025 0.120465904 0.11896119
000120 82 c0 a3 3c a6 f0 a7 3c 02 05 12 bd 64 e9 e5 bd
       0.019989256 0.020500492 -0.035649307 -0.11226156
000130 07 2f da 3c f0 ea d4 3d 2c fd ec 3d ee c6 fd bd
       0.026633753 0.10396373 0.11571726 -0.123914585
000140 0c e1 01 be f9 00 c2 3c 46 f0 28 3d 63 09 af bd
       -0.12683505 0.023682104 0.041244768 -0.08546712
000150 39 8e 85 bc a9 09 9b bd f2 29 8e bd 5a 0a 61 3d
       -0.016303169 -0.07570202 -0.06941594 0.054941513
000160 47 83 f3 bc 20 2b 87 bb 31 3c d9 bb 30 45 e5 3c
       -0.029725684 -0.004125014 -0.00662949 0.027987093
000170 e1 8a 2e 3d ca bc 87 bd b8 86 e8 bc 9f fb 2f bc
       0.042612914 -0.066278055 -0.028384551 -0.0107411435
000180 a1 b9 0e 3d 67 4e d8 bd 42 aa 09 bd 40 29 ce bd
       0.034845 -0.10561829 -0.033609636 -0.100664616
000190 8a 94 9d 3d 51 4e b3 3c 48 5b a4 3d b2 60 f5 bd
       0.07694347 0.02188793 0.08025223 -0.11981334
0001a0 8a 69 3b bd 34 30 98 bd fb 90 58 3d 4b 68 f5 bc
       -0.045754947 -0.07431069 0.05287264 -0.029956957
0001b0 8a a4 d4 bd 34 0b 11 3d 7a d7 4c bd 30 22 f5 3c
       -0.10382946 0.035411075 -0.050010182 0.029923528
0001c0 45 78 d3 bd 71 0a 68 bd 74 b4 dc bd af 95 3b bd
       -0.10325674 -0.056650583 -0.10776606 -0.045797046
0001d0 74 41 ae bd 72 df 97 bd f6 ff b9 3d c4 b2 b5 ba
       -0.08508578 -0.07415666 0.09082024 -0.001386248
0001e0 28 b4 85 bd 09 1b f6 bd 8d 46 33 3d d2 b5 d4 3d
       -0.06528503 -0.12016875 0.043768454 0.10386242
0001f0 8a 12 2d 3d 59 17 81 bd b5 a1 5a bd 0e e7 1a bd
       0.04225401 -0.06303281 -0.053376872 -0.037818007
000200 83 40 2d bd 54 88 9c 3d 4c 68 5f bd 86 89 2c bd
       -0.04229785 0.0764319 -0.054542825 -0.04212334
000210 a9 cd 7e bd c8 47 67 bb c6 a8 4d 3c 11 53 95 3d
       -0.06220785 -0.0035290588 0.012552446 0.07291234
000220 c3 d1 c2 3d c2 99 db bb 8d e8 64 bb 35 76 85 bd
       0.09512665 -0.006701679 -0.003492865 -0.06516687
000230 65 aa 22 bd 4f a4 ba 3c ed 7f 8b 3d af 5b 9d 3d
       -0.039713282 0.022783427 0.06811509 0.07683503
000240 88 79 e4 3d 5e 4d 07 bc 5c 2a cf bd 27 4d 98 bd
       0.11155993 -0.008258192 -0.10115501 -0.07436591
000250 d7 e0 bf bd 70 b2 d0 3d 5f cf dc bd 89 00 ae 3d
       -0.09369057 0.10190284 -0.107817404 0.08496196
000260 68 77 6a bd 0d 5d 80 3d 3f c9 df 3d 41 f0 af bb
       -0.05724278 0.06267748 0.109270565 -0.0053692167
000270 3a e1 3c 3c 29 c1 d1 3d aa 11 aa bd 67 bc 00 3e
       0.011528308 0.102419205 -0.083041504 0.1257187
000280 c2 59 41 3d bd 29 c6 3d 68 51 89 bd 48 eb 68 3b
       0.04720474 0.0967593 -0.0670498 0.003554063
000290 0d 59 00 be 29 cd a8 3d 9a 47 dc bd e5 d0 8a 3d
       -0.1253397 0.08242256 -0.107558444 0.06778125
0002a0 01 64 e9 bd d5 2e d4 3d c1 ab b4 3d fd 69 55 3c
       -0.11396027 0.10360495 0.08821822 0.013025758
0002b0 ac 4f 7b bd d1 f3 0a bd f2 d1 72 bd 1c c8 c7 3c
       -0.061355278 -0.033923928 -0.05928225 0.024387412
0002c0 1c 5e 1a bd 82 b3 8f 3d 75 2c 33 3d d9 d4 07 3d
       -0.037687406 0.0701666 0.04374357 0.03316197
0002d0 7d 52 68 3d 30 63 c0 3d c1 27 e8 bd ab f3 73 bc
       0.056719292 0.093939185 -0.113357075 -0.014889638
0002e0 d1 29 ef 3c 9a 9a 86 bd 01 f6 66 3d dc 64 e8 bd
       0.029194744 -0.06572457 0.05638695 -0.113473624
0002f0 83 cb c2 3d f6 09 8a bd ea 45 cc 3d e0 94 ab 3d
       0.09511473 -0.06740181 0.099742725 0.08378005
000300 83 cc ba 3d cc be 4c 3c bc 95 e4 3a d4 27 b6 bb
       0.09121039 0.012496661 0.0017439644 -0.005558947
000310 08 b8 cd 3d 8f bd fa 3d 0c 6a 3d 3d f3 de a1 bd
       0.10044867 0.12243187 0.046243712 -0.07903852
000320 79 c3 cb 3c 91 cf 77 3d 83 39 b4 3b 5c 7c df 3b
       0.024873482 0.060500685 0.00550002 0.0068202447
000330 ca 0c 6e bd 74 ad 4b bb 89 2c 03 3d 87 4d c2 3c
       -0.058117665 -0.0031078728 0.032024894 0.023718609
000340 4a c3 e1 3d f2 2c 99 3d 99 ea 84 bd 8f 82 5d 3d
       0.110235766 0.07479276 -0.064900585 0.05407959
000350 59 f9 ce 3d 72 59 76 3d ee 18 b4 bd 65 c8 79 bd
       0.10106153 0.060143895 -0.087938175 -0.060982127
000360 94 ad b7 3d 5e 98 3d 3d ee a9 e6 3d 68 13 ee bd
       0.08968654 0.046287887 0.1126288 -0.11624795
000370 6d 90 ab 3b c3 73 5a bb ae 0a c2 bd c1 44 98 bd
       0.0052357228 -0.003333316 -0.09474693 -0.07434989
000380 f5 aa 53 3d 54 30 89 3b 1a 24 de bd 7d 76 bd bd
       0.05167671 0.0041866694 -0.108467296 -0.092511155
000390 ee e2 06 3d 81 64 c7 bd 07 62 f0 3d 59 b0 e3 3d
       0.03293126 -0.097359665 0.11737447 0.1111762
0003a0 ed 5c da 3d dd ba 4f 3d 2d 46 d4 3d b0 6c 64 bd
       0.106622554 0.050715316 0.103649475 -0.055767715
0003b0 66 19 96 bd e2 e2 19 bd a3 51 39 3d b3 76 da bd
       -0.07329063 -0.037569888 0.04524387 -0.10667171
0003c0 e3 4f c6 3d 6e ff 11 3c 15 72 fb 3d 8f 72 e4 bd
       0.09683206 0.008910997 0.12277619 -0.11154663
0003d0 b3 58 bb 3c 21 41 0e bd 1d b2 4c bd 78 a0 ef 3d
       0.022869444 -0.03473008 -0.04997455 0.11700529
0003e0 7c fa c2 3d 98 43 cc 3c 26 bc c7 bd d3 8e ea 3d
       0.09520432 0.024934575 -0.09752683 0.11453023
0003f0 83 59 8b 3d 10 a0 99 3d bf fd 42 3d 85 da 3b bd
       0.068041824 0.075012326 0.047605272 -0.045862693

encoder.fc2.bias f4 [16]
000000 b7 4c d3 3b c7 fa 99 bd 46 66 eb 3d a1 37 aa 3d
       0.006448354 -0.07518535 0.114941165 0.083113916
000010 d5 38 b7 bd 3e d7 a8 bd 73 5c 0e 3d 0b 04 ae 3d
       -0.08946387 -0.08244179 0.034756135 0.08496865
000020 7b 8e a5 bd 1b 1e e8 bd 38 2d ef bc 00 78 be bd
       -0.080838166 -0.11333867 -0.029196367 -0.09300232
000030 3f d7 cf 3d f1 ae a3 bd 2c 0f 19 3d 35 43 3e 3d
       0.10148477 -0.07992352 0.037367985 0.046450812

encoder.fc21.weight f4 [4, 16]
000000 41 f5 1b be 64 b8 41 be e8 85 48 be 72 8e 41 3e
       -0.15230276 -0.18917996 -0.19582331 0.18901995
000010 22 aa b6 3d ba 6c bf 3d 51 27 13 3e f4 86 50 3e
       0.08919169 0.0934691 0.14370467 0.2036398
000020 ca 40 b5 bc e5 da 88 3d fc 33 f0 3d 55 50 b2 bd
       -0.02212562 0.06682376 0.11728665 -0.08706728
000030 72 f0 55 be 1d 11 f0 bd 12 ae 67 bb 61 c7 34 3d
       -0.20892504 -0.11722014 -0.0035351557 0.044135455
000040 5e 57 8e 3d 2e 07 50 3d eb 6d 4d bd 55 ea 38 be
       0.06950258 0.050788097 -0.050153654 -0.1805814
000050 e2 04 1b 3e 96 a5 5c bd dc 41 5d be bf a2 6f be
       0.15138581 -0.053868853 -0.21607155 -0.23401926
000060 e5 fa 54 3e a7 42 87 3d ec 38 cb 3c 5f da 60 3e
       0.20798834 0.0660451 0.024807416 0.21958302
000070 b7 4c 96 3d c2 83 82 bd 33 c0 71 3d 7f 24 1b 3d
       0.07338851 -0.06372787 0.059021186 0.037876602
000080 6d 90 f9 bd 26 6d 14 3c 72 82 49 3e 86 c7 49 3e
       -0.1218575 0.009059226 0.19678667 0.19705018
000090 a6 e4 53 3e 47 f5 ca 3d ec a6 92 3d a1 88 df 3d
       0.20692691 0.09910064 0.07160744 0.10914732
0000a0 de 81 b8 bd 09 83 58 bd 3f 75 de bd 5c 6f 7e bc
       -0.09009145 -0.05285934 -0.10862207 -0.01552948
0000b0 8a 0a 2b 3d e1 a6 5c 3e d4 b9 43 be ad a6 35 be
       0.041758098 0.21548034 -0.19113857 -0.17739363
0000c0 4d 7d a3 3d 3f 4e 8b bc 96 e9 08 3d 2b aa 65 be
       0.079828836 -0.017005084 0.03342589 -0.22428195
0000d0 87 d0 6a bd 94 37 b3 bd 12 45 85 bd ad 3e 11 3e
       -0.057327773 -0.08750835 -0.06507315 0.14184065
0000e0 1e 08 da 3d 49 2d e1 3d 7b 26 02 3e 4c 16 fd 3d
       0.106460795 0.109949656 0.12709992 0.123577684
0000f0 e1 5a 28 3e cc 20 1b 3e 16 cc 34 be dd c8 1c 3e
       0.16440918 0.1514923 -0.17655978 0.15310998

encoder.fc21.bias f4 [4]
000000 f6 94 02 3d b7 4a 29 3e 37 f8 56 3e b3 06 48 bb
       0.03188034 0.16532408 0.20993124 -0.0030521571

encoder.fc22.weight f4 [4, 16]
000000 2f ea b1 bd ad bd 5e 3e ef 37 83 be 21 7a b3 bb
       -0.08687245 0.21752043 -0.2562861 -0.0054772054
000010 a6 c0 a4 3d a2 20 e5 bd f2 ce e2 bc 4d c1 65 be
       0.08044557 -0.11187865 -0.02768657 -0.2243702
000020 10 ff a3 bd 9c 4b 41 3e 86 d3 31 be a0 69 4b 3e
       -0.08007634 0.18876499 -0.17365846 0.19864511
000030 60 7f fd bc 86 0e 24 3e 8c 88 0a be 89 ea 1e be
       -0.030944526 0.16021165 -0.13528651 -0.15519156
000040 a6 54 36 be da 8c d5 bd e7 da f2 3c e0 80 6f 3d
       -0.17805728 -0.10427256 0.029645396 0.058472514
000050 e5 83 61 bb d1 55 c0 3d 20 6e 76 be c2 cf a9 3d
       -0.003441089 0.09391368 -0.24065447 0.0829158
000060 0b 95 43 3e 29 19 eb 3d 86 a1 01 3d 2e bd fe bd
       0.19099824 0.11479408 0.03164818 -0.12438427
000070 82 33 2a be e3 d8 44 3e 21 85 47 3e 92 ae 16 3d
       -0.16621211 0.1922336 0.19484378 0.036787577
000080 99 08 71 be 82 0b 82 bd 9d 39 8f be c9 60 8f be
       -0.23538436 -0.06349851 -0.27973643 -0.2800353
000090 99 2d 79 bd 39 86 75 be 8d 3e 6a 3d e3 f2 94 be
       -0.0608345 -0.23976983 0.05718856 -0.29091558
0000a0 38 b1 7e be df a1 73 be 21 3c 1d 3e 73 f7 30 bd
       -0.24872291 -0.23792218 0.15354969 -0.043204736
0000b0 43 a5 b3 3d 94 51 5c 3d aa 01 fe 3d 3b 44 1c be
       0.087717555 0.053788736 0.12402661 -0.15260403
0000c0 3d 72 3b 3e 2b 98 8c 3d a1 65 40 3e 04 87 04 be
       0.18305297 0.06864961 0.18788768 -0.1294213
0000d0 a6 56 1a be 93 b5 67 3d c0 7e 68 be de d0 33 3d
       -0.15072116 0.056569647 -0.22704601 0.043900363
0000e0 12 52 37 bc 55 d8 2c 3e 73 3e ee 3d e7 db 18 bc
       -0.011189001 0.16879399 0.11633005 -0.009329773
0000f0 48 ef 00 be 56 89 67 be db 6c 20 3e 05 64 7f be
       -0.12591279 -0.22610983 0.15666525 -0.24940498

encoder.fc22.bias f4 [4]
000000 92 d0 1e 3e 36 fd 9f 3d 23 d5 39 be e5 fa c1 bd
       0.15509251 0.07811968 -0.18147711 -0.094716825

encoder.bn1.weight f4 [16]
000000 ac 30 80 3f f2 72 80 3f 00 00 80 3f 1c f6 80 3f
       1.0014853 1.0035079 1.0 1.0075107
000010 00 00 80 3f 94 82 7e 3f 97 6e 80 3f cc be 80 3f
       1.0 0.99417996 1.0033749 1.0058227
000020 00 00 80 3f 60 36 81 3f b3 61 80 3f ec cb 7f 3f
       1.0 1.0094719 1.0029815 0.99920535
000030 99 e2 7c 3f 00 00 80 3f 00 00 80 3f 00 00 80 3f
       0.9878326 1.0 1.0 1.0

encoder.bn1.bias f4 [16]
000000 8b be 32 3b ce a4 8e bb 5d 89 80 bb 64 e8 cb bb
       0.0027274217 -0.0043531423 -0.003922625 -0.0062227715
000010 f4 b6 f9 b9 02 83 b3 3b d5 0a c4 3b 39 2b 2d 3b
       -0.00047629292 0.005478264 0.0059827366 0.0026423468
000020 ff c9 95 3b a5 34 55 bb 0f 3d f1 b9 88 96 1e bb
       0.004571199 -0.00325326 -0.00046012594 -0.002419861
000030 ae 08 f2 3a 7f 03 ac bb 2c 84 89 b9 f9 66 7d 3b
       0.0018465722 -0.00524944 -0.00026229152 0.0038666113

encoder.bn1.running_mean f4 [16]
000000 0a 86 57 3e f8 81 b7 3e 00 00 00 00 4f 9e 3b 3f
       0.21047226 0.35841346 0.0 0.73288435
000010 00 00 00 00 a0 1e e2 3e 96 f1 1d 3d 2c e6 f5 3b
       0.0 0.4416399 0.038560472 0.0075042453
000020 00 00 00 00 30 81 a2 3e 7b 21 b1 3e ef 6d c3 3b
       0.0 0.31739187 0.34595856 0.005964033
000030 5b c9 74 3d 00 00 00 00 00 00 00 00 00 00 00 00
       0.05976234 0.0 0.0 0.0

encoder.bn1.running_var f4 [16]
000000 91 9a 20 3d 2a b3 95 3c 88 c0 5e 2e f0 7e 52 3e
       0.039209906 0.018273909 5.0647958e-11 0.20556235
000010 88 c0 5e 2e f9 d8 a3 3d 2a 7e 8f 3b 2d 8b 18 39
       5.0647958e-11 0.080003686 0.0043790536 0.00014547697
000020 88 c0 5e 2e 9e cf b8 3d a2 c0 71 3d 67 f1 dd 38
       5.0647958e-11 0.09023975 0.0590216 0.00010583066
000030 eb 17 2e 3c 88 c0 5e 2e 88 c0 5e 2e 88 c0 5e 2e
       0.01062582 5.0647958e-11 5.0647958e-11 5.0647958e-11

encoder.bn2.weight f4 [16]
000000 dd 6f 81 3f eb a7 7f 3f 54 7d 80 3f 05 2d 7f 3f
       1.0112263 0.998656 1.0038247 0.9967807
000010 28 97 80 3f 30 90 7f 3f 85 de 80 3f 1b c5 7e 3f
       1.0046129 0.9982939 1.0067908 0.9951951
000020 f8 27 7f 3f 50 45 80 3f 9d e8 7f 3f 0f e4 7f 3f
       0.9967036 1.0021152 0.99964315 0.99957365
000030 dd 21 7e 3f 43 cc 7f 3f 28 bf 7e 3f b8 76 80 3f
       0.9927042 0.99921054 0.9951043 1.003623

encoder.bn2.bias f4 [16]
000000 30 e1 5a 3b 75 58 82 ba c2 64 2c 3c c5 46 be 3a
       0.0033398382 -0.0009944575 0.010522069 0.001451694
000010 c6 c9 d1 3b a7 71 af b9 18 cd 28 3b 86 42 81 b9
       0.006402227 -0.0003346328 0.002575701 -0.0002465436
000020 b7 37 85 3b 99 4f eb ba 54 4a a5 3b 13 bc b3 38
       0.0040654796 -0.0017952799 0.005044261 8.570417e-05
000030 44 a2 91 bb 24 ef 5c 3b f9 d5 01 bc a5 12 d6 3b
       -0.0044443924 0.0033711875 -0.00792455 0.0065329843

encoder.bn2.running_mean f4 [16]
000000 97 bf 79 3e 47 93 f5 3e 30 2c 51 3e 53 5d 7f 3e
       0.24389492 0.47963926 0.20427012 0.24937944
000010 a2 92 1d 3e fc 46 10 3e 4a 32 83 3e 06 72 77 3e
       0.15387967 0.14089578 0.25624305 0.2416459
000020 ed 79 2c 3e ab 0a 04 3e 8d 3e 7f 3e 61 a5 10 3e
       0.16843386 0.12894695 0.24926205 0.14125587
000030 25 67 bf 3d 29 7a 5b 3e 52 84 3d 3e ab 0a 72 3e
       0.09345845 0.21433319 0.18507507 0.23636882

encoder.bn2.running_var f4 [16]
000000 2a f9 27 3e 8f 71 76 3e c2 f5 b7 3d 41 54 03 3e
       0.16403642 0.24066757 0.089824215 0.12825109
000010 3b 49 86 3d 2b a2 47 3d 35 08 bc 3d ed 7a 92 3d
       0.06556936 0.04873864 0.09181253 0.071523525
000020 6f f4 49 3d 17 bb 0b 3d 71 f5 b7 3d 32 67 36 3d
       0.049305376 0.03411397 0.08982361 0.04453201
000030 62 02 0d 3d e4 20 71 3d f4 2d 35 3d e4 93 e7 3d
       0.0344261 0.058869258 0.044233277 0.11307505

encoder.bn3.weight f4 [32]
000000 06 1f 80 3f a7 9f 7f 3f 87 cd 7f 3f ee 03 80 3f
       1.0009468 0.99852985 0.99922985 1.0001199
000010 ff 86 7f 3f 92 29 7f 3f e7 59 7e 3f 70 fb 7e 3f
       0.9981536 0.99672806 0.9935593 0.99602413
000020 20 ca 7e 3f 7d 95 7f 3f 36 8f 7e 3f d1 b2 80 3f
       0.9952717 0.99837476 0.9943727 1.005457
000030 61 22 7f 3f 2d 5a 80 3f bf e3 7f 3f 39 d9 7f 3f
       0.99661833 1.002752 0.9995689 0.9994083
000040 da 8b 7f 3f 6d 28 7f 3f 9d 21 80 3f b0 cd 80 3f
       0.9982277 0.9967106 1.0010258 1.0062771
000050 8f 23 80 3f 34 2e 80 3f 12 13 81 3f d7 01 7f 3f
       1.0010852 1.00141 1.0083945 0.9961218
000060 f7 fa 7f 3f 51 16 80 3f 58 84 80 3f 13 96 80 3f
       0.99992317 1.000681 1.0040388 1.0045799
000070 63 48 80 3f 03 6b 80 3f ec 57 80 3f 7e f9 7f 3f
       1.0022091 1.0032657 1.0026832 0.9999007

encoder.bn3.bias f4 [32]
000000 e4 79 81 bb e7 96 0a bc f9 28 12 3c a6 1b 29 bc
       -0.003951298 -0.0084588295 0.008920901 -0.010321533
000010 fc 83 02 bc c1 ef 68 bb 88 6e 38 bb 07 68 4a bb
       -0.007966038 -0.0035543295 -0.0028142054 -0.003088476
000020 57 6a 48 3b f3 22 a4 3a 0d cd 33 3c e5 32 95 3b
       0.0030580962 0.0012522623 0.010974181 0.0045531862
000030 01 1e 3f 3c 4b 34 e8 3b bf 61 15 bb 01 b7 98 ba
       0.011664868 0.007086312 -0.0022793857 -0.0011651219
000040 db e6 c1 3b 18 5b 6e ba cf a1 a7 3c 41 61 5a 3c
       0.0059174127 -0.00090925535 0.020462899 0.013328851
000050 83 c6 9e bb 95 16 cf ba da 2f 6e 3b 26 2d 7f 3b
       -0.004845442 -0.0015799577 0.003634444 0.0038936823
000060 3a 99 b1 ba c6 c7 1b bb df 79 db b9 f0 20 a3 bb
       -0.0013549693 -0.0023770197 -0.00041861736 -0.0049782917
000070 45 54 04 bb cc b9 03 bb 55 bd 7b bb aa 48 12 bc
       -0.002019183 -0.0020099757 -0.0038412411 -0.008928457
