results/_qm_fptra_0.5_1000_VAE_model.pt (torch, 166416 bytes, 61 tensors)

encoder.conv1.weight f4 [16, 1, 2]
0.2337614 0.22827402 -0.60391873 0.29781348 -0.32736838 -0.08726764 -0.6490696 -0.49102986
-0.37693855 -0.06304687 -0.30688554 0.60255724 0.111875534 -0.15276688 -0.31015983 0.41252157
-0.61944497 -0.3364261 0.23991194 0.616369 0.56521344 -0.011494777 0.52219313 -0.45627213
0.4679861 0.03247153 0.5209693 0.2873565 0.4109036 0.44664842 -0.5937512 0.09513134
00000000: 265f 6f3e aac0 693e 6b9a 1abf 027b 983e
00000010: d49c a7be 60b9 b2bd 6d29 26bf 4468 fbbe
00000020: 17fe c0be b81e 81bd 1a20 9dbe 3141 1a3f
00000030: 001f e53d ec6e 1cbe 45cd 9ebe 0736 d33e
00000040: f293 1ebf 0b40 acbe 7aab 753e 5cca 1d3f
00000050: d4b1 103f 9754 3cbc 73ae 053f 809c e9be
00000060: e09b ef3e de00 053d 3e5e 053f 6420 933e
00000070: f561 d23e 1aaf e43e 1400 18bf 38d4 c23d

encoder.conv1.bias f4 [16]
-0.11698605 -0.4173808 0.025127692 0.5314888 -0.23482302 -0.10216837 -0.68656075 -0.19632758
0.45313278 0.5012751 0.55544835 0.6081208 -0.17046767 0.05656201 0.5374915 -0.6731274
00000000: 6296 efbd f0b2 d5be 97d8 cd3c a60f 083f
00000010: 7275 70be a63d d1bd 72c2 2fbf 190a 49be
00000020: 0501 e83e 9153 003f dd31 0e3f cead 1b3f
00000030: 148f 2ebe 91ad 673d 0b99 093f 1452 2cbf

encoder.conv2.weight f4 [16, 16, 2]
-0.105166696 0.12239021 -0.16898601 -0.06366726 0.12327583 0.080713905 0.09215089 -0.13623004
-0.036380984 0.1217227 -0.11310498 0.14883125 0.04869639 -0.16671889 0.09204654 -0.01079571
-0.030640304 0.12568168 -0.12660979 0.0978011 -0.06082975 0.08641997 -0.098814115 -0.20397381
-0.13847896 -0.15016456 0.04622564 -0.094408795 -0.11607521 -0.05610716 -0.11676222 -0.17663923
0.013663385 0.0068264105 -0.16156965 0.0995096 -0.09449326 0.04384609 -0.09499548 -0.11847673
-0.097465195 0.08883182 -0.022103084 0.028219976 0.0165564 0.049361136 -0.061346333 0.07317215
0.019620644 -0.06738574 0.052283514 -0.046212953 0.14885435 0.09714077 -0.14772135 0.00646084
-0.03354298 0.10462304 0.05234544 -0.054893 -0.11449914 -0.15163949 0.15970348 0.16153856
-0.09227818 -0.17770013 0.09417674 0.003761233 -0.13505143 0.15407121 0.0063490397 -0.0074278433
0.021580694 -0.027116897 0.06371212 -0.14150982 0.17215395 0.028387181 -0.03233271 -0.14373782
0.010868085 -0.08185292 -0.11274 -0.17978528 0.14708838 0.07859152 -0.10660487 0.12657088
0.053507987 -0.10386419 -0.06135877 0.036252763 0.15530364 -0.1185228 -0.04142059 -0.11438182
0.15100455 -0.08217535 -0.13645285 0.057062108 -0.09852448 0.10446445 0.10736701 -0.12880287
-0.15181601 -0.1594785 -0.034345765 -0.107063845 0.10618615 -0.07642331 0.06361659 -0.042162523
0.043562602 -0.059649315 0.18898237 -0.086618826 0.12541346 0.11756042 0.16992828 -0.11351602
-0.04863523 -0.11821079 -0.04253703 0.14747413 0.122385465 -0.16274612 0.17207548 -0.084025346
-0.108101904 -0.08263132 0.03571707 0.14583384 0.0041061076 0.0012985673 -0.10625695 -0.0871812
-0.14180651 -0.1717067 0.060724307 0.12584084 0.09812244 -0.13764885 0.12364129 -0.14724743
0.08038581 -0.058687326 -0.009023638 0.07170628 -0.07489871 0.12551709 -0.09893944 -0.1295757
0.06679774 0.12455059 -0.10609718 -0.006542099 0.04177366 -0.12171878 0.1254632 0.17581303
0.101694554 0.19751981 0.11865157 0.051584065 0.077618614 -0.099763446 -0.0647667 0.11402867
0.09486615 -0.024843302 -0.14921871 -0.05519041 0.0067991293 0.13063101 0.012911886 0.03407171
-0.09379684 -0.1414494 -0.12734567 -0.06601672 0.083038755 0.13643223 -0.12513226 0.0750285
-0.08797976 -0.08720839 0.06451601 0.046101328 -0.052303184 0.1847353 -0.08959497 -0.047397666
-0.13429032 -0.08477862 -0.085025884 -0.18106726 0.0054780194 0.18950807 0.11799126 0.027090466
-0.17820317 -0.12801875 0.0014459139 -0.007454593 -0.059377234 -0.08269987 -0.0002305821 0.056286994
0.11205005 -0.039724182 -0.076848395 -0.1834339 0.087753505 -0.046766482 0.12644966 -0.10009734
0.13871598 0.039618216 0.00989393 -0.0648357 -0.017122364 0.08744697 -0.071263425 0.017728755
-0.079297096 -0.09585878 -0.064976275 0.043165397 -0.05382914 0.06019973 0.06550991 -0.08943601
-0.11483251 0.175796 0.1588968 -0.14223334 -0.013200109 -0.077976964 0.006591498 0.03332001
-0.045351632 -0.013346662 -0.040669773 0.12187527 -0.14224632 -0.12703255 -0.036658064 -0.096857905
0.16138814 -0.08553768 -0.012136288 0.16844216 -0.05266012 -0.0511904 0.00631963 -0.06600695
00000000: a361 d7bd b8a7 fa3d ab0a 2dbe fb63 82bd
00000010: 0a78 fc3d 554d a53d 9bb9 bc3d e37f 0bbe
00000020: 3a04 15bd c049 f93d 95a3 e7bd 3867 183e
00000030: de75 473d 5bb8 2abe e582 bc3d 7de0 30bc
00000040: 6001 fbbc b3b2 003e ffa5 01be f14b c83d
00000050: 9e28 79bd f4fc b03d 0e5f cabd 83de 50be
00000060: 6ecd 0dbe bdc4 19be 1957 3d3d 6659 c1bd
00000070: d7b8 edbd 9fd0 65bd 0821 efbd eae0 34be
00000080: 64dc 5f3c 15b0 df3b 8472 25be b0cb cb3d
00000090: af85 c1bd f597 333d fd8c c2bd eea3 f2bd
000000a0: d59b c7bd 75ed b53d 8711 b5bc 942d e73c
000000b0: 4aa1 873c e72e 4a3d 4b46 7bbd 48db 953d
000000c0: 79bb a03c 8901 8abd 3d27 563d cb49 3dbd
000000d0: 466d 183e bdf1 c63d 4444 17be 74b5 d33b
000000e0: 5d64 09bd 9b44 d63d 2c68 563d 7bd7 60bd
000000f0: 867e eabd 6247 1bbe 4f89 233e 5d6a 253e
00000100: 58fc bcbd 06f7 35be bcdf c03d 057f 763b
00000110: ec4a 0abe d8c4 1d3e 9b0b d03b 4465 f3bb
00000120: ffc9 b03c 4124 debc 807b 823d f3e7 10be
00000130: 2049 303e 3c8c e83c 4e6f 04bd 0230 13be
00000140: 0d10 323c 81a2 a7bd 3be4 e6bd a219 38be
00000150: 569e 163e 97f4 a03d a753 dabd cc9b 013e
00000160: 312b 5b3d c0b6 d4bd 5553 7bbd c77d 143d
00000170: eb07 1f3e 15bc f2bd a3a8 29bd 0441 eabd
00000180: f0a0 1a3e 8d4b a8bd 4cba 0bbe f5b9 693d
00000190: 34c7 c9bd 75f1 d53d 3ce3 db3d e6e4 03be
000001a0: a875 1bbe 554e 23be 25ae 0cbd 4a44 dbbd
000001b0: 2078 d93d d383 9cbd 6a49 823d 9cb2 2cbd
000001c0: b36e 323d d752 74bd 9884 413e 3665 b1bd
000001d0: 636c 003e 84c3 f03d ae01 2e3e 167b e8bd
000001e0: bc35 47bd 8018 f2bd 4f3b 2ebd 7503 173e
000001f0: 3ba5 fa3d eba6 26be 8e34 303e 7b15 acbd
00000200: 8864 ddbd 9c3a a9bd 104c 123d 7755 153e
00000210: 878c 863b b034 aa3a 3e9d d9bd 0f8c b2bd
00000220: ba35 11be e2d3 2fbe 0dba 783d 6cdc 003e
00000230: 6bf4 c83d d2f3 0cbe a537 fd3d 08c8 16be
00000240: 51a1 a43d 1f62 70bd e2d7 13bc beda 923d
00000250: 7f64 99bd 8d87 003e c3a0 cabd 7eaf 04be
00000260: 41cd 883d 6114 ff3d 7a49 d9bd 1b5f d6bb
00000270: db1a 2b3d b247 f9bd 6d79 003e 5508 343e
00000280: 3c45 d03d a242 4a3e 98ff f23d d049 533d
00000290: 82f6 9e3d c750 ccbd 67a4 84bd dd87 e93d
000002a0: 2f49 c23d 2e84 cbbc cacc 18be 570f 62bd
000002b0: 3bcb de3b 23c4 053e 608c 533c c78e 0b3d
000002c0: 8f18 c0bd 1dd8 10be e766 02be c633 87bd
000002d0: 3910 aa3d e4b4 0b3e ac22 00be 8ba8 993d
000002e0: bb2e b4bd 509a b2bd f820 843d bfd4 3c3d
000002f0: dd3b 56bd 402b 3d3e 917d b7bd 0e24 42bd
00000300: 6783 09be 6aa0 adbd 0d22 aebd b269 39be
00000310: f580 b33b 670e 423e 67a5 f13d d3ec dd3c
00000320: e47a 36be 5917 03be d284 bd3a a945 f4bb
00000330: 8b35 73bd 8d5e a9bd 69c8 71b9 318d 663d
00000340: 7f7a e53d d3b5 22bd b162 9dbd 19d6 3bbe
00000350: 1cb8 b33d 368e 3fbd 057c 013e d6ff ccbd
00000360: 900b 0e3e b646 223d 261a 223c 94c8 84bd
00000370: 3344 8cbc 6617 b33d 8ff2 91bd e53b 913c
00000380: 8466 a2bd 9c51 c4bd 4812 85bd 33ce 303d
00000390: f27b 5cbd fe93 763d 0f2a 863d 3a2a b7bd
000003a0: 4f2d ebbd de03 343e d8b5 223e 9ea5 11be
000003b0: 4545 58bc 63b2 9fbd 7efd d73b 907a 083d
000003c0: a2c2 39bd f5ab 5abc 5995 26bd be99 f93d
000003d0: 05a9 11be d214 02be c426 16bd 705d c6bd
000003e0: ef42 253e 612e afbd 48d7 46bc 1a7c 2c3e
000003f0: 23b2 57bd 06ad 51bd e614 cf3b a72e 87bd

encoder.conv2.bias f4 [16]
0.16004223 -0.18060388 0.021587411 0.089054644 0.07963415 0.015177558 0.20018716 -0.114898786
0.02619303 0.10340475 0.14939184 0.09827823 0.02413676 0.12950563 0.13098569 0.09064733
00000000: 1ce2 233e 39f0 38be 15d8 b03c 4862 b63d
00000010: 3b17 a33d 4bab 783c ddfd 4c3e 0e50 ebbd
00000020: c492 d63c dfc5 d33d 2dfa 183e 1946 c93d
00000030: 74ba c53c 209d 043e 1d21 063e 4fa5 b93d

encoder.conv3.weight f4 [32, 16, 2]
-0.08087279 -0.03791289 -0.058544487 0.13294443 0.06267744 -0.004894947 0.058552116 -0.061117694
-0.13159905 -0.023111342 -0.101616435 0.09870893 0.09869996 0.096792944 -0.15623522 0.07485353
0.040533204 0.024389142 -0.054532483 0.064749286 0.0031879712 0.086927935 0.1756659 -0.04044147
-0.00012898225 -0.09997054 -0.04198883 -0.09959261 0.033427775 -0.015811538 0.15545738 0.066166446
0.10365451 0.007053051 -0.1270885 0.06681178 -0.15034243 0.080777735 0.13790405 -0.13819954
0.0387213 0.009494958 -0.050365753 0.08297187 0.09063861 -0.105327666 -0.11511496 0.13864012
-0.14389203 -0.004037236 -0.042629674 0.1122293 -0.10469147 -0.18738452 0.13517106 -0.11653576
0.114082456 -0.122013025 -0.16905692 0.07737021 -0.035577882 0.061175343 0.007191734 0.1378645
-0.19604035 -0.11577143 -0.028240018 -0.020857899 0.0027732006 -0.1428978 -0.052866075 -0.06565446
0.11876642 0.08137314 -0.1406399 -0.019461505 0.04154837 -0.10332691 0.023470115 -0.13396494
0.08496776 0.07398984 0.14684956 0.035939503 0.18034372 0.100210756 0.04029143 0.11669736
-0.13685016 -0.07209124 -0.21307692 0.15416954 0.07814724 -0.17218079 0.14010984 0.13527359
-0.14615609 -0.028532559 0.15221433 -0.13949166 -0.20748845 0.08136652 -0.13437983 -0.08483131
0.14340776 0.07401717 0.12810482 0.08193485 0.1556022 -0.104796804 -0.07699787 0.0970304
-0.107782334 -0.054213572 -0.001223886 0.10148853 0.08415397 -0.17553282 0.15374623 0.008628135
0.14209074 -0.043229092 -0.103727214 -0.0050230483 -0.047796655 0.04024488 0.15261535 0.14272122
0.06611095 0.09206993 -0.12231124 0.16107662 -0.0830648 -0.21400689 0.028961765 -0.12553371
-0.15393004 -0.12787242 0.08073659 -0.10043329 0.12815075 0.047728937 0.15226912 0.023214858
-0.049563996 -0.12083031 0.15705203 -0.06393531 0.035254966 0.09522269 -0.05283476 0.18735638
-0.1524601 -0.17004678 0.039175697 -0.04600287 -0.05003021 0.1119369 0.106347226 0.17239279
-0.16477886 -0.20262231 0.15340543 0.102958865 0.068755604 -0.07399828 -0.014900262 -0.004444811
0.086161554 -0.12437173 0.08790666 0.0146807 -0.1948202 0.060148966 0.033397824 0.10830884
-0.18884951 0.053221624 0.053856857 -0.047412094 -0.009758366 -0.095705435 -0.002881353 -0.14689402
0.013695945 0.0067406693 -0.06683335 -0.10699258 -0.1398811 -0.10468336 -0.042786032 0.022568638
-0.0661786 -0.14892586 0.15221396 0.04430117 0.11534995 0.12808746 -0.054661535 0.06643958
-0.04605214 -0.062397394 -0.09627276 0.037630167 -0.16321033 0.06498782 -0.17239937 -0.10556815
-0.09279008 0.10318247 -0.16230984 0.1450912 0.030172795 -0.069500715 -0.012265113 -0.13001685
-0.0009978632 0.0050796485 -0.015672369 0.03428568 -0.024410255 0.08050139 -0.03818195 -0.10716765
0.009614484 0.12545528 -0.10628567 -0.09132429 -0.066895105 -0.12028084 -0.115500785 -0.16537406
-0.035672918 -0.17108035 -0.10197993 -0.16428328 0.018561741 0.114657305 -0.037773058 0.015166826
-0.004530713 0.044241372 -0.17930216 -0.14074104 0.17019242 0.005930603 -0.1629559 0.09490332
-0.09132981 -0.0011673501 -0.061637357 0.10959836 0.09309915 -0.10253873 -0.16132171 -0.13944656
00000000: a2a0 a5bd 8c4a 1bbd 58cc 6fbd 9622 083e
00000010: 085d 803d cb65 a0bb 58d4 6f3d 8c56 7abd
00000020: e7c1 06be ff53 bdbc 471c d0bd e827 ca3d
00000030: 3423 ca3d 613b c63d 20fc 1fbe cf4c 993d
00000040: 2506 263d bdcb c73c 745d 5fbd 469b 843d
00000050: 48ed 503b 4607 b23d c3e1 333e f4a5 25bd
00000060: 693f 07b9 5bbd ccbd 7bfc 2bbd 36f7 cbbd
00000070: 90eb 083d 3387 81bc 3830 1f3e 4682 873d
00000080: d148 d43d 481d e73b 7d23 02be 9dd4 883d
00000090: 5ef3 19be cc6e a53d b836 0d3e 2e84 0dbe
000000a0: 3a9a 1e3d be90 1b3c 524c 4ebd 28ed a93d
000000b0: bca0 b93d 08b6 d7bd 64c1 ebbd adf7 0d3e
000000c0: 6f58 13be ca4a 84bb 749c 2ebd 7ad8 e53d
000000d0: 7b68 d6bd bae1 3fbe 486a 0a3e 4daa eebd
000000e0: 10a4 e93d f7e1 f9bd 421d 2dbe 4674 9e3d
000000f0: 1dba 11bd ff92 7a3d a3a8 eb3b 5a2c 0d3e
00000100: cdbe 48be 9219 edbd 9c57 e7bc 2fde aabc
00000110: 96be 353b cd53 12be 198a 58bd d875 86bd
00000120: cf3b f33d f6a6 a63d e803 10be bc6d 9fbc
00000130: a02e 2a3d 0f9d d3bd 6644 c03c 1b2e 09be
00000140: 9403 ae3d fc87 973d bb5f 163e 4d35 133d
00000150: 06ac 383e 4c3b cd3d a008 253d 07ff ee3d
00000160: 7322 0cbe 92a4 93bd d630 5abe 9fde 1d3e
00000170: a90b a03d 2950 30be f478 0f3e 2985 0a3e
00000180: f1a9 15be 1dbd e9bc 13de 1b3e e7d6 0ebe
00000190: da77 54be 7da3 a63d de9a 09be 0abc adbd
000001a0: 7cd9 123e 5096 973d e92d 033e 75cd a73d
000001b0: 2f56 1f3e b59f d6bd 0fb1 9dbd e0b7 c63d
000001c0: fcbc dcbd 0d0f 5ebd cd6a a0ba 38d9 cf3d
000001d0: eb58 ac3d e0be 33be a76f 1d3e 055d 0d3c
000001e0: 3c80 113e fd10 31bd ef6e d4bd 6298 a4bb
000001f0: 6dc6 43bd d1d7 243d 3347 1c3e 8325 123e
00000200: 2e65 873d 298f bc3d 517e fabd 45f1 243e
00000210: e11d aabd 9f24 5bbe 3941 ed3c e98b 00be
00000220: d69f 1dbe fdf0 02be 3a59 a53d f8af cdbd
00000230: f339 033e 6b7f 433d 70ec 1b3e 162d be3c
00000240: 9e03 4bbd e275 f7bd 3fd2 203e 84f0 82bd
00000250: 8367 103d 1d04 c33d 4369 58bd 5ada 3f3e
00000260: 801e 1cbe be20 2ebe b276 203d 816d 3cbd
00000270: 7aec 4cbd 2c3f e53d 93cc d93d bc87 303e
00000280: cabb 28be 397c 4fbe 5016 1d3e 19dc d23d
00000290: bdcf 8c3d 698c 97bd 3a20 74bc c7a5 91bb
000002a0: 7875 b03d 9bb6 febd 6808 b43d 5287 703c
000002b0: f27e 47be c35e 763d 28cc 083d 06d1 dd3d
000002c0: c461 41be ebfe 593d 0299 5c3d 2f33 42bd
000002d0: 8ee1 1fbc 3601 c4bd 15d5 3cbb 636b 16be
000002e0: f564 603c d5e0 dc3b ecdf 88bd ed1e dbbd
000002f0: fe3c 0fbe 3b64 d6bd 6840 2fbd dde1 b83c
00000300: a588 87bd 0580 18be fadd 1b3e 2575 353d
00000310: 983c ec3d 5c29 033e c6e4 5fbd 7911 883d
00000320: 2ba1 3cbd 6994 7fbd a72a c5bd 1722 1a3d
00000330: 9c20 27be 5618 853d 7689 30be 1d34 d8bd
00000340: ba08 bebd 5551 d33d 8d34 26be ca92 143e
00000350: f02c f73c 6456 8ebd 9df3 48bc 2323 05be
00000360: bcca 82ba 2e73 a63b 5763 80bc 246f 0c3d
00000370: 04f8 c7bc eadd a43d ad64 1cbd b67a dbbd
00000380: 1286 1d3c 5977 003e 4dac d9bd 3b08 bbbd
00000390: 4d00 89bd cd55 f6bd ad8b ecbd d157 29be
000003a0: c41d 12bd b02f 2fbe dbda d0bd e039 28be
000003b0: cb0e 983c 73d1 ea3d ecb7 1abd 477e 783c
000003c0: 6076 94bb 7136 353d fc9a 37be 6b1e 10be
000003d0: ec46 2e3e 8155 c23b e9dd 26be ac5c c23d
000003e0: 200b bbbd c501 99ba 7477 7cbd 1b75 e03d
000003f0: c4aa be3d d3ff d1bd 8531 25be 14cb 0ebe

encoder.conv3.bias f4 [32]
-0.1531778 -0.060368266 -0.064459406 0.05698493 0.13473506 0.005534662 0.16715705 0.0031292147
0.009634441 0.12750112 -4.8667443e-05 0.019862704 -0.14636527 -0.07854194 -0.10231082 -0.06870417
0.035570342 0.034482095 0.17408606 0.04333243 0.10981803 0.09925457 0.08899624 -0.014369414
0.036812395 -0.014547551 0.16268839 0.053649534 0.13693434 0.17382953 -0.024587674 -0.00049809116
00000000: a4da 1cbe b744 77bd 4b03 84bd 0869 693d
00000010: fdf7 093e 1c5c b53b 382b 2b3e 8313 4d3b
00000020: c6d9 1d3c a78f 023e 4520 4cb8 1cb7 a23c
00000030: c7e0 15be 99da a0bd 5688 d1bd c6b4 8cbd
00000040: 35b2 113d 193d 0d3d 9e43 323e 597d 313d
00000050: 46e8 e03d fb45 cb3d a943 b63d b16d 6bbc
00000060: 98c8 163d da58 6ebc c997 263e 9dbf 5b3d
00000070: 8438 0c3e 5e00 323e 176c c9bc 5592 02ba

encoder.conv4.weight f4 [32, 32, 2]
-0.012351332 0.087578796 0.024832748 -0.080633804 -0.0032058423 0.13435093 -0.12236261 0.0065704817
-0.04760248 0.028502924 0.07782427 -0.14470555 -0.0076403553 -0.07207349 0.074482754 0.04930226
0.040955786 0.06155889 -0.020110624 0.04782606 0.014103908 0.038187854 0.0010072304 0.09532374
-0.018840568 0.053771935 -0.011856545 0.1097539 -0.02778585 0.027906442 -0.082665235 -0.05984415
0.090228766 -0.004806961 -0.107613385 0.007047702 -0.0839491 0.08260974 0.03132662 0.03181775
0.049766112 -0.13829263 0.043092966 0.0081868665 0.048288275 -0.107288405 -0.12191585 0.1268789
-0.17391795 0.050429206 -0.10892398 0.12551165 -0.017750703 -0.11005056 -0.13715358 0.010478016
0.10894668 -0.11677008 -0.019386454 -0.039012894 -0.12661478 0.121951684 -0.0714948 0.013149027
0.0866499 -0.11632402 -0.021176694 0.05766967 -0.041173514 0.071319684 0.049556017 0.021104978
0.051903356 -0.12653778 -0.044042487 0.10678831 -0.05030088 -0.09254924 0.011354205 -0.06422624
0.08559028 -0.068175554 0.060671233 -0.066952266 0.058096778 0.01868577 0.0463601 -0.04699719
-0.05334101 -0.10933993 -0.055080306 0.10757914 -0.115937956 -0.033863485 -0.0065249354 -0.0067725247
0.09971463 -0.04792232 -0.09486337 -0.06860251 -0.06562808 0.092107624 0.009374336 0.017212797
-0.029498475 0.13350609 -0.11475539 -0.077742875 -0.01996286 -0.05839967 -0.06176661 0.022178471
-0.10171623 0.0108796125 -0.017444767 0.10022649 -0.06927136 0.08093041 0.084175915 0.037302073
0.016283993 0.0954853 -0.07776653 0.07121836 -0.028751142 -0.020463103 0.0699298 0.13404013
0.06535298 0.089881934 0.03882245 -0.112539545 0.10627421 -0.01201991 -0.100374736 0.06468579
0.022738196 0.11014719 0.076559745 0.12917526 -0.07336647 0.09235242 0.0437156 0.04399164
0.082609184 0.007039939 0.07494026 -0.029237837 -0.08593254 -0.02846797 -0.036839277 -0.021122558
-0.040606175 0.048167396 -0.085018374 -0.054314855 -0.10586272 -0.038997248 -0.08716936 -0.11030803
0.12341674 0.042962067 -0.097418636 -0.093820706 0.12381662 -0.017328061 -0.03174861 0.11179748
0.065847926 0.018349878 -0.07703004 0.0052666496 0.008246974 0.06191776 0.1303658 0.089807406
0.059654795 0.017645875 -0.13251734 -0.09295423 -0.050044652 0.032760363 -0.009810931 -0.064514674
-0.017407918 -0.02652802 0.08948819 0.0064199623 -0.094257124 -0.051854637 0.016417278 0.039158296
-0.028049652 0.09742362 -0.004748232 0.049359508 0.07254009 0.13294575 0.042995326 0.037733715
0.0582288 -0.116921715 -0.06941997 -0.10093545 -0.08344791 0.06252537 -0.1559119 -0.04830512
-0.09953332 0.047562093 -0.05567053 0.03961106 -0.024597248 -0.0054664575 -0.10743238 0.028491156
0.0049151 -0.09488407 -0.02151645 -0.040439714 -0.08704017 -0.0238186 -0.031746637 0.009488085
0.13213779 0.024364492 -0.12762707 -0.0567717 0.110551715 0.14558762 0.012694896 0.025573052
0.0210747 -0.12086991 0.031535853 -0.08657879 0.08578773 -0.11158213 0.09928475 0.041976243
0.030744538 0.12777308 0.07017028 0.1003673 -0.070709705 -0.098643705 -0.044201743 -0.13588627
0.101978384 0.07069839 0.0721471 0.11369915 -0.10342157 -0.009678184 -0.080116875 -0.075751
00000000: 3e5d 4abc 835c b33d 0c6e cb3c 5623 a5bd
00000010: 1c19 52bb 4a93 093e 4099 fabd 324d d73b
00000020: d1fa 42bd f77e e93c 5562 9f3d b12d 14be
00000030: f25b fabb 449b 93bd 6a8a 983d 2bf1 493d
00000040: 41c1 273d 2d25 7c3d 09bf a4bc 42e5 433d
00000050: 1414 673c de6a 1c3d 0b05 843a 1839 c33d
00000060: 8957 9abc f63f 5c3d f441 42bc a7c6 e03d
00000070: 279f e3bc 0d9c e43c 644c a9bd 241f 75bd
00000080: dcc9 b83d b683 9dbb 6864 dcbd 69f0 e63b
00000090: 81ed abbd 4c2f a93d 5850 003d 5453 023d
000000a0: 8dd7 4b3d 959c 0dbe 4082 303d 3522 063c
000000b0: edc9 453d 06ba dbbd 04af f9bd 8bec 013e
000000c0: 8c17 32be db8e 4e3d 8913 dfbd 2086 003e
000000d0: ec69 91bc 3062 e1bd fd71 0cbe fcab 2b3c
000000e0: 701f df3d 2725 efbd 57d0 9ebc fccb 1fbd
000000f0: 4ea7 01be cec1 f93d de6b 92bd 046f 573c
00000100: 8175 b13d 4a3b eebd bf7a adbc 0837 6c3d
00000110: 8fa5 28bd 0e10 923d 40fb 4a3d 59e4 ac3c
00000120: 9d98 543d 1f93 01be e565 34bd d4b3 da3d
00000130: 4c08 4ebd 758a bdbd fd06 3a3c 0c89 83bd
00000140: f549 af3d a09f 8bbd 6682 783d 451e 89bd
00000150: e3f6 6d3d e612 993c 17e4 3d3d 2080 40bd
00000160: 1a7c 5abd 9ded dfbd e39b 61bd 7452 dc3d
00000170: e170 edbd 70b4 0abd 20cf d5bb 0eec ddbb
00000180: 2f37 cc3d 324a 44bd ba47 c2bd 797f 8cbd
00000190: 0468 86bd eca2 bc3d d196 193c da01 8d3c
000001a0: c9a6 f1bc d2b5 083e e004 ebbd a837 9fbd
000001b0: 2789 a3bc 7e34 6fbd fcfe 7cbd a0af b53c
000001c0: 9950 d0bd 6740 323c 54e8 8ebc 8c43 cd3d
000001d0: 25de 8dbd d8be a53d 6c64 ac3d 0fca 183d
000001e0: 0266 853c cc8d c33d 0f44 9fbd eeda 913d
000001f0: 8487 ebbc 3da2 a7bc 5b37 8f3d d141 093e
00000200: c8d7 853d 0514 b83d 4a04 1f3d 227b e6bd
00000210: 4ba6 d93d 28ef 44bc 4591 cdbd fc79 843d
00000220: 7445 ba3c da94 e13d 5bcb 9c3d 8546 043e
00000230: 2941 96bd 4423 bd3d 210f 333d 9430 343d
00000240: 012f a93d 4aaf e63b 477a 993d 3084 efbc
00000250: 66fd afbd a935 e9bc c8e4 16bd 3709 adbc
00000260: a952 26bd 2d4b 453d 1d1e aebd 4179 5ebd
00000270: 8ece d8bd 94bb 1fbd d985 b2bd 2de9 e1bd
00000280: eac1 fc3d fef8 2f3d 6c83 c7bd 1225 c0bd
00000290: 9193 fd3d 94f3 8dbc d50a 02bd 14f6 e43d
000002a0: 47db 863d 7c52 963c edc1 9dbd dc93 ac3b
000002b0: 511e 073c 7a9d 7d3d 9d7e 053e f2ec b73d
000002c0: 9658 743d 158e 903c a0b2 07be ca5e bebd
000002d0: 9ffb 4cbd bb2f 063d 07be 20bc 4520 84bd
000002e0: 0d9b 8ebc 4a51 d9bc 9645 b73d 8c5e d23b
000002f0: e109 c1bd 8765 54bd 877d 863c 7364 203d
00000300: 62c8 e5bc 0986 c73d 0f97 9bbb 322d 4a3d
00000310: e68f 943d ee22 083e de1b 303d ab8e 1a3d
00000320: 5281 6e3d a774 efbd 0f2c 8ebd 3fb7 cebd
00000330: bde6 aabd 4d0d 803d 5ea7 1fbe 97db 45bd
00000340: 20d8 cbbd 78d0 423d c806 64bd 353f 223d
00000350: 2b80 c9bc f81f b3bb 8205 dcbd 4966 e93c
00000360: d90e a13b 9452 c2bd 4443 b0bc 1da4 25bd
00000370: 1e42 b2bd 3a1f c3bc c308 02bd ea73 1b3c
00000380: 214f 073e 0b98 c73c acb0 02be 7189 68bd
00000390: f068 e23d ec14 153e 41fe 4f3c 947e d13c
000003a0: d9a4 ac3c a58a f7bd bd2b 013d 3850 b1bd
000003b0: 7ab1 af3d 2c85 e4bd ce55 cb3d 48ef 2b3d
000003c0: f8db fb3c f2d6 023e 70b5 8f3d 5f8d cd3d
000003d0: 40d0 90bd b605 cabd e30c 35bd c525 0bbe
000003e0: 0bda d03d 51ca 903d dcc1 933d 1adb e83d
000003f0: b0ce d3bd 3f91 1ebc 5114 a4bd 5723 9bbd

encoder.conv4.bias f4 [32]
0.022131449 -0.067071445 -0.00069704733 -0.0030780493 -0.03263272 0.11391538 0.089325845 -0.00976276
0.19665305 -0.06060657 0.013471409 -0.09146198 -0.062251434 0.15026434 -0.024181467 0.109092705
0.0840848 -0.1510786 -0.00021351357 -0.124032095 0.01851475 -0.050408114 -0.0024253104 0.0936079
-0.06758647 0.019154312 0.02811903 -0.038090937 0.023873044 -0.063234724 -0.008975083 0.014303228
00000000: 034d b53c c15c 89bd 0eba 36ba 19b9 49bb
00000010: e3a9 05bd 774c e93d 78f0 b63d fcf3 1fbc
00000020: 6b5f 493e 983e 78bd 2fb7 5c3c 6b50 bbbd
00000030: 5cfb 7ebd e5de 193e 3618 c6bc ff6b df3d
00000040: a734 ac3d 59b4 1abe 9de2 5fb9 8a04 febd
00000050: 3fac 973c bd78 4ebd f5f1 1ebb 80b5 bf3d
00000060: c66a 8abd 81e9 9c3c e159 e63c 3e05 1cbd
00000070: 6791 c33c 3581 81bd 3a0c 13bc 1658 6a3c

encoder.fc1.weight f4 [64, 384]
-0.012783497 0.028509395 0.046609517 -0.0010573525 0.02483763 0.051027577 -0.021533541 -0.051848374
-0.0012937607 -0.03191759 0.010539161 -0.014446179 0.038618647 -0.002243548 -0.0017965266 0.02608085
-0.031744484 -0.020772992 0.011027381 0.041449465 -0.02945811 0.014631835 -0.07010464 -0.0038877805
-0.022100247 0.03887986 -0.009373574 -5.666247e-06 0.0025215799 -0.029068202 -0.006912861 -0.026483452
-0.00010928724 -0.0028901407 -0.050463926 0.019342404 0.017589893 0.018866437 0.01249422 -0.025249405
-0.027720764 -0.029965727 0.03208324 -0.044141643 -0.031248622 -0.026083458 -0.035956513 -0.03289467
0.019476194 0.014852774 0.01474643 -0.052249458 0.04188561 -0.027198924 0.048949283 -0.038871896
-0.023710057 -0.025937188 -0.015858842 -0.013119108 0.01767458 -0.021811506 -0.036633454 -0.031904653
0.029494902 -0.0066577797 0.006001344 -0.045174573 -0.020189006 0.033718336 0.013674066 0.008267958
-0.01472315 -0.0008700811 0.03724283 -0.0036311406 0.042327717 -0.008369504 -0.05738831 0.007911347
0.01323605 0.006271738 -0.017537404 0.030057473 -0.0015770576 0.033448376 -0.033249613 0.003163302
-0.030692996 0.0005591959 0.028145649 -0.015572093 0.0052792844 0.0082855 -0.00986851 -0.039725997
0.011673957 -0.05240218 0.032327656 -0.029697616 -0.012978745 0.024411779 0.010026292 0.018456746
0.02404689 0.026326317 -0.013916216 -0.0067087975 0.013973046 0.020713806 0.008770933 0.030555587
0.024522416 -0.022306122 -0.028276715 -0.013261466 -0.022542872 0.026327854 -0.04964221 -0.06033113
-0.011174315 -0.038693633 -0.020527894 0.01554526 -0.017743424 -0.05423453 -0.06929142 -0.021128483
0.018058836 0.04020033 0.008983299 -0.03771896 -0.033843543 -0.0056132185 0.0053285016 -0.026328424
0.027898937 0.036081657 0.057373755 -0.014936911 0.038423393 0.05027801 -0.03135734 -0.039633047
0.028425824 0.0469504 -0.04027091 0.013642391 -0.025104875 0.047300026 0.04673886 -0.012560782
0.01967328 0.031408887 0.0078463 -0.010989482 -0.017631873 -0.009320725 0.03428175 0.036766678
0.048959147 0.02384521 0.026668573 0.024151657 0.03423793 -0.04517249 0.025201166 -0.055625536
-0.015822021 0.056203105 0.054106385 0.021437204 0.011635967 0.022731181 0.002342133 -0.001978331
-0.014538535 0.044554595 0.045557085 -0.011188155 -0.022033071 -0.021437382 0.0036081134 0.017413933
-0.04186343 0.004136311 -0.029221794 0.022532979 0.011684573 0.024546739 0.038854763 0.017041197
-0.02059831 -0.047597814 0.029705966 -0.041931964 0.006316142 -0.039321408 0.017663507 0.056768376
0.0021253603 -0.048462532 -0.00403907 -0.048552975 -0.0053697694 0.009361899 0.04781647 -0.025063332
0.049531866 0.0016458556 0.030006642 -0.021945253 0.028789636 0.031577647 0.0011822875 0.0528702
0.026874598 0.007219919 -0.021456746 0.04395081 -0.015979135 -0.058626123 -0.0069161723 -0.048656225
-0.03425216 0.03569632 -0.023537973 0.0011398621 0.027056249 -0.04206666 0.036619026 -0.04590298
0.024704909 -0.0018704525 -0.013014583 0.03877204 0.0032730382 -0.043857355 0.04630659 -0.031026848
0.023509206 -0.04064749 0.016764287 0.035766553 -0.03748993 0.0026791922 0.014714671 0.026835598
-0.024057165 -0.02289337 -0.010225961 0.06595255 -0.0018076045 0.034610555 0.0003049594 -0.0063873436
00000000: df71 51bc 898c e93c 9fe9 3e3d dd96 8aba
00000010: 4978 cb3c 4b02 513d 1c67 b0bc f65e 54bd
00000020: 6893 a9ba 05bc 02bd 72ac 2c3c abaf 6cbc
00000030: 962e 1e3d 7d08 13bb 6e79 ebba 82a7 d53c
00000040: 8106 02bd 1f2c aabc 30ac 343c eac6 293d
00000050: 2252 f1bc 5dba 6f3c 0693 8fbd 22ca 7ebb
00000060: 940b b5bc 7d40 1f3d 9e93 19bc b120 beb6
00000070: 1741 253b 7020 eebc 4885 e2bb d3f3 d8bc
00000080: 2431 e5b8 8468 3dbb 43b3 4ebd f673 9e3c
00000090: ae18 903c c98d 9a3c 8fb4 4c3c d7d7 cebc
000000a0: a816 e3bc af7a f5bc b769 033d decd 34bd
000000b0: 1cfd ffbc faac d5bc 2347 13bd 90bc 06bd
000000c0: 8a8c 9f3c 0d59 733c 039b 713c 8703 56bd
000000d0: 3f90 2b3d 47d0 debc 0b7f 483d 2338 1fbd
000000e0: 983b c2bc 3a7a d4bc 67ea 81bc 87f1 56bc
000000f0: 48ca 903c 0bae b2bc f60c 16bd 74ae 02bd
00000100: 4b9f f13c 8129 dabb eca6 c43b f908 39bd
00000110: 6a63 a5bc 3d1c 0a3d 3109 603c 5476 073c
00000120: 5e39 71bc 2716 64ba f08b 183d 6ef8 6dbb
00000130: d45f 2d3d 3e20 09bc 0110 6bbd 989e 013c
00000140: 04dc 583c 2783 cd3b 9aaa 8fbc 173b f63c
00000150: 46b5 ceba 2a01 093d bf30 08bd 674f 4f3b
00000160: e16f fbbc 0097 123a b491 e63c 1822 7fbc
00000170: d9fd ac3b e8bf 073c 88af 21bc bab7 22bd
00000180: 2044 3f3c aba3 56bd 016a 043d 6a48 f3bc
00000190: cda4 54bc 36fb c73c 5145 243c 9a32 973c
000001a0: fcfd c43c 4aaa d73c d700 64bc 79d5 dbbb
000001b0: 34ef 643c 00b0 a93c f6b3 0f3c b64f fa3c
000001c0: 3ce3 c83c 54bb b6bc 92a4 e7bc 9f46 59bc
000001d0: d4ab b8bc 83ad d73c a155 4bbd c61d 77bd
000001e0: 7914 37bc 377d 1ebd 1d2a a8bc 8cb1 7e3c
000001f0: a85a 91bc 0725 5ebd a9e8 8dbd a415 adbc
00000200: 20f0 933c 1aa9 243d b02e 133c 327f 1abd
00000210: 879f 0abd 17ef b7bb b69a ae3b b5ae d7bc
00000220: 508c e43c 5cca 133d be00 6b3d f2b9 74bc
00000230: d961 1d3d 51f0 4d3d 8e70 00bd 4356 22bd
00000240: 46dd e83c 104f 403d 1cf3 24bd 5684 5f3c
00000250: bda8 cdbc acbd 413d 3f71 3f3d bdcb 4dbc
00000260: dc29 a13c 9ba6 003d c48d 003c 3a0d 34bc
00000270: b870 90bc f4b5 18bc 056b 0c3d a898 163d
00000280: 6389 483d 0857 c33c 0d78 da3c b2d9 c53c
00000290: 123d 0c3d ca06 39bd ad72 ce3c 9ad7 63bd
000002a0: 2f9d 81bc 3a35 663d a89e 5d3d 139d af3c
000002b0: c8a4 3e3c be36 ba3c 797e 193b e3a6 01bb
000002c0: 0933 6ebc e17e 363d 119a 3a3d 864e 37bc
000002d0: b37e b4bc 739d afbc 1976 6c3b aaa7 8e3c
000002e0: fd78 2bbd e489 873b 8b62 efbc 1597 b83c
000002f0: a770 3f3c 3e16 c93c 2c26 1f3d fb99 8b3c
00000300: c9bd a8bc edf5 42bd ed59 f33c dac0 2bbd
00000310: a4f7 ce3b 7c0f 21bd 0fb3 903c f585 683d
00000320: a149 0b3b a680 46bd 2d5a 84bb 7cdf 46bd
00000330: e4f4 afbb a762 193c 34db 433d 9e51 cdbc
00000340: ede1 4a3d c0b9 d73a 7dd0 f53c 88c6 b3bc
00000350: 3ed8 eb3c 9057 013d fcf6 9a3a 6c8e 583d
00000360: 1e28 dc3c 1295 ec3b 0fc6 afbc c405 343d
00000370: ade6 82bc f221 70bd 0fa1 e2bb c04b 47bd
00000380: fe4b 0cbd 4e36 123d b5d2 c0bc 6d67 953a
00000390: 11a5 dd3c 174e 2cbd d5fd 153d c304 3cbd
000003a0: f361 ca3c f929 f5ba 1e3b 55bc 6ecf 1e3d
000003b0: 7880 563b c5a3 33bd fbab 3d3d 042c febc
000003c0: 6196 c03c fc7d 26bd 4255 893c f37f 123d
000003d0: 0a8f 19bd 6395 2f3b ce15 713c 54d6 db3c
000003e0: 8813 c5bc e08a bbbc ca8a 27bc 2112 873d
000003f0: 24ed ecba ccc3 0d3d f5e2 9f39 ec4c d1bb

encoder.fc1.bias f4 [64]
-0.065470435 0.07138379 0.08743728 -0.009505928 0.005233166 -0.0028946828 -0.09516232 0.05059319
0.017315831 -0.014725601 0.032467633 -0.007582584 0.009647795 0.002818764 -0.025571574 0.08234459
-0.021677254 -0.012142646 0.01836987 0.08716447 0.0066885613 0.070802525 -0.054901786 0.017241495
0.0005371732 0.014269789 0.124146014 0.0100367265 -0.0002292098 -0.012805645 0.025782777 -0.044063706
0.027137494 0.05212421 -0.042260204 0.044355705 0.011960861 -0.022949822 -0.10517614 -0.01246001
0.010724959 -0.075787924 -0.008472864 -0.0028408794 0.03180756 0.060814362 -0.018211218 -0.030673767
0.074662395 0.022781571 -0.058641225 0.06877731 0.03797768 0.04859467 -0.0611547 -0.07070539
0.08095967 0.047201604 -0.016850183 0.026681878 -0.040825352 0.00041090645 -0.014659999 0.002499996
00000000: 5d15 86bd aa31 923d 5112 b33d c0be 1bbc
00000010: fa7a ab3b b8b4 3dbb 76e4 c2bd ce3a 4f3d
00000020: eed9 8d3c a643 71bc c8fc 043d 5377 f8bb
00000030: c911 1e3c 03bb 383b 7a7b d1bc 48a4 a83d
00000040: 7f94 b1bc f3f1 46bc 697c 963c 4983 b23d
00000050: b82b db3b ea00 913d b2e0 60bd 093e 8d3c
00000060: 15d1 0c3a d5cb 693c 4440 fe3d 1571 243c
00000070: 0a58 70b9 c5ce 51bc 6736 d33c 257c 34bd
00000080: 734f de3c 3280 553d 0919 2dbd 54ae 353d
00000090: 7df7 433c 4401 bcbc 9766 d7bd 1225 4cbc
000000a0: bdb7 2f3c b336 9bbd c4d1 0abc 0c2e 3abb
000000b0: a548 023d 7b18 793d b12f 95bc 8d47 fbbc
000000c0: 99e8 983d 6ba0 ba3c c831 70bd 1edb 8c3d
000000d0: 7c8e 1b3d 340b 473d 5a7d 7abd fdcd 90bd
000000e0: 2fce a53d 7856 413d 6509 8abc f493 da3c
000000f0: 7c38 27bd ee6e d739 7e30 70bc f9d6 233b

encoder.fc2.weight f4 [16, 64]
-0.08292133 -0.083941676 0.05670775 -0.057978336 -0.14181837 -0.105519176 -0.06933071 -0.05602418
0.043589603 0.022704864 0.09078261 -0.08800528 0.031446416 0.07452691 0.09211223 0.07106722
-0.019130442 -0.0027553556 0.07906802 -0.0940337 0.055815432 0.08477815 -0.109257355 0.08688669
0.07531931 0.1462535 0.13865192 0.04508234 0.08340549 -0.04894812 -0.008985699 -0.06118346
-0.083981015 -0.006302144 -0.06122167 0.03609908 0.040931653 -0.03572893 -0.13362072 0.012203985
-0.06312596 -0.09547118 -0.095371105 -0.07840579 0.111425936 0.012909424 0.11245621 -0.076976396
0.11761737 -0.026494788 0.023648791 0.1029075 -0.07246719 -0.09092767 0.09747383 -0.06909588
0.10839456 -0.025438912 0.045317285 0.074187204 -0.057443198 0.044135347 -0.022655906 0.021935204
-0.045637593 0.100009546 0.012525422 0.01801515 -0.00074700394 0.087351136 -0.08184 0.035885975
0.029116467 -0.13918391 -0.088241465 0.06527938 -0.06851113 -0.08678472 0.011144957 -0.11235006
-0.09312202 -0.14651963 -0.06886722 0.04617631 -0.10447572 -0.08688108 0.015397799 0.042622343
-0.06842544 -0.035422456 -0.096206225 0.0032834804 -0.08383294 -0.0928165 -0.0807805 -0.07530907
-0.124804065 -0.019620795 0.09003889 0.08146517 -0.0056396755 -0.06379365 -0.086023085 -0.09930943
0.09703878 -0.02346355 -0.0008477282 -0.072601564 0.006378894 -0.031643525 -0.010884175 0.042462297
0.026429031 0.022458538 0.01037222 -0.063242696 -0.03121044 0.08904128 -0.034420446 0.055816114
0.1003145 0.054335073 0.10807296 0.108020216 -0.0619963 0.022922518 -0.032006104 -0.03797054
0.0057482976 0.0912513 0.10309268 0.035452593 0.03763224 -0.035169113 0.09277952 -0.031831928
-0.00851166 0.089916974 -0.04023929 0.09306668 0.081898704 -0.06430298 -0.119857304 -0.042469718
0.08716542 0.049486354 0.014067702 0.03850588 0.06928388 0.05814929 -0.09479319 -0.012237293
-0.015300515 -0.11019664 -0.050768476 -0.014962496 -0.03765013 -0.0669403 0.103582956 -0.08900685
0.053649146 -0.061529774 0.036774192 0.035308186 -0.03751244 0.02007559 -0.04453137 -0.081384405
0.09982249 0.047562547 0.06679437 0.11167495 0.051725958 -0.0018062163 0.054953117 0.098845564
-0.06189508 -0.012683559 0.038054615 0.058598462 0.054100387 0.056941118 0.0022341318 0.10675
-0.0605024 -0.15111524 -0.10885473 -0.0497233 -0.037886493 -0.01647758 -0.036885016 0.007667544
-0.004103005 -0.062391624 0.09819055 0.012615033 -0.02445776 -0.14272216 0.06974052 0.056082547
-0.05234451 0.09959831 0.09267239 -0.1396473 -0.070582196 0.085248925 0.10546781 0.06492386
-0.03393696 0.058763232 0.049533818 0.00091098726 0.04078056 0.074271776 -0.06002148 0.0997313
0.10583023 -0.0049794074 0.09629816 -0.047028746 -0.03180076 0.017654322 -0.07914509 -0.08329739
-0.014857585 0.087663494 0.06886389 0.06354115 0.028972235 0.028300742 0.024031218 0.072185725
-0.060411375 -0.093692385 -0.10441705 0.0009365163 0.07019229 0.09069338 -0.04374052 -0.005095593
-0.0036165242 -0.0834727 -0.13512723 0.009042791 0.04564557 -0.10894845 0.01330531 -0.021742456
0.0045970706 0.08977386 -0.057908587 0.0011125988 -0.010078754 -0.039456252 -0.07646106 0.04748295
00000000: a9d2 a9bd 9de9 abbd 6346 683d b17a 6dbd
00000010: d638 11be 701a d8bd 42fd 8dbd 9c79 65bd
00000020: 038b 323d 8dff b93c 3cec b93d 1d3c b4bd
00000030: f5cd 003d 91a1 983d 56a5 bc3d b18b 913d
00000040: 72b7 9cbc 3293 34bb 6aee a13d be94 c0bd
00000050: b99e 643d 2ba0 ad3d 52c2 dfbd a6f1 b13d
00000060: 0341 9a3d 7ac3 153e c5fa 0d3e 42a8 383d
00000070: 7fd0 aa3d d37d 48bd c138 13bc 829b 7abd
00000080: 3dfe abbd 3782 cebb 93c3 7abd a1dc 133d
00000090: f3a7 273d 8058 12bd dfd3 08be 39f3 473c
000000a0: 2f48 81bd 6586 c3bd ed51 c3bd 3793 a0bd
000000b0: 4833 e43d 0c82 533c 714f e63d cda5 9dbd
000000c0: 60e1 f03d 990b d9bc 1cbb c13c 2bc1 d23d
000000d0: ae69 94bd 4938 babd 5ca0 c73d 2482 8dbd
000000e0: f8fd dd3d 4465 d0bc 9e9e 393d 76ef 973d
000000f0: 8f49 6bbd 44c7 343d e198 b9bc 75b1 b33c
00000100: 7cee 3abd ced1 cc3d 6d37 4d3c 8294 933c
00000110: 96d2 43ba 27e5 b23d bb9b a7bd 2cfd 123d
00000120: a885 ee3c 3a86 0ebe f1b7 b4bd 32b1 853d
00000130: 904f 8cbd 30bc b1bd 5699 363c ca17 e6bd
00000140: c2b6 bebd 3e09 16be 420a 8dbd 5f23 3d3d
00000150: 5ef7 d5bd b5ee b1bd 0d47 7c3c c494 2e3d
00000160: a322 8cbd 2317 11bd c507 c5bd a92f 573b
00000170: 9bb0 abbd 9416 bebd 3f70 a5bd a43b 9abd
00000180: 4699 ffbd cabb a0bc 4f66 b83d 36d7 a63d
00000190: 07cd b8bb 3fa6 82bd df2c b0bd be62 cbbd
000001a0: 45bc c63d a136 c0bc 143a 5eba 21b0 94bd
000001b0: 0b06 d13b a49c 01bd 8a53 32bc f2ec 2d3d
000001c0: b281 d83c f8fa b73c 3ef0 293c 6385 81bd
000001d0: 09ad ffbc 465b b63d 74fc 0cbd 709f 643d
000001e0: b071 cd3d 748e 5e3d 5b55 dd3d b439 dd3d
000001f0: d5ef 7dbd 01c8 bb3c d518 03bd ff86 1bbd
00000200: 375c bc3b f6e1 ba3d 4122 d33d bd36 113d
00000210: 4424 1a3d 7d0d 10bd 3003 be3d 3262 02bd
00000220: 7d74 0bbc 6426 b83d f4d1 24bd be99 be3d
00000230: 82ba a73d 48b1 83bd bf77 f5bd baf4 2dbd
00000240: c983 b23d 34b2 4a3d 387c 663c 57b8 1d3d
00000250: b5e4 8d3d f32d 6e3d ef22 c2bd ed7e 48bc
00000260: 03af 7abc c7ae e1bd 9bf2 4fbd 4225 75bc
00000270: 0637 1abd ff17 89bd 4d23 d43d 3949 b6bd
00000280: 35bf 5b3d a506 7cbd 89a0 163d 519f 103d
00000290: a5a6 19bd 9075 a43c 8766 36bd deac a6bd
000002a0: bc6f cc3d f2d0 423d 7dcb 883d d6b5 e43d
000002b0: 99de 533d 90be ecba 8516 613d 8b6f ca3d
000002c0: b285 7dbd b4ce 4fbc 28df 1b3d f104 703d
000002d0: 5e98 5d3d 173b 693d 836a 123b be9f da3d
000002e0: 5dd1 77bd f4bd 1abe 3bef debd a9aa 4bbd
000002f0: de2e 1bbd fdfb 86bc be14 17bd 0540 fb3b
00000300: 8072 86bb 5c8e 7fbd 2118 c93d 49af 4e3c
00000310: a45b c8bc c225 12be 1ed4 8e3d d0b6 653d
00000320: 3267 56bd 33fa cb3d 06cb bd3d b4ff 0ebe
00000330: 668d 90bd fd96 ae3d 82ff d73d cdf6 843d
00000340: 7b01 0bbd b7b1 703d f9e3 4a3d 52cf 6e3a
00000350: 8409 273d cd1b 983d 15d9 75bd ec3f cc3d
00000360: 85bd d83d 4c2a a3bb f837 c53d 37a1 40bd
00000370: 8441 02bd cc9f 903c d216 a2bd d297 aabd
00000380: 3a6d 73bc eb88 b33d 8308 8d3d dd21 823d
00000390: 2e57 ed3c f5d6 e73c 1edd c43c 1cd6 933d
000003a0: eb71 77bd cbe1 bfbd 9bd8 d5bd 8c80 753a
000003b0: fac0 8f3d 73bd b93d 4229 33bd eff8 a6bb
000003c0: 3503 6dbb bcf3 aabd cb5e 0abe 3728 143c
000003d0: d9f6 3a3d 5d20 dfbd 84fe 593c 3c1d b2bc
000003e0: 06a3 963b 5cdb b73d 8e31 6dbd 9fd4 913a
000003f0: 5c21 25bc e19c 21bd 9e97 9cbd 7b7d 423d

encoder.fc2.bias f4 [16]
-0.064749785 0.044348355 0.07270858 0.019215668 -0.08537709 -0.12140999 0.1441887 -0.06748396
0.12807292 0.0653066 -0.1071344 -0.060268983 0.08205972 -0.041513246 -0.05324627 -0.023112608
00000000: 899b 84bd 9fa6 353d 3ce8 943d 2d6a 9d3c
00000010: 2fda aebd cda5 f8bd 34a6 133e 0835 8abd
00000020: 8c25 033e 77bf 853d 4869 dbbd 9cdc 76bd
00000030: ed0e a83d cb09 2abd c318 5abd a756 bdbc

encoder.fc21.weight f4 [4, 16]
-0.107100904 -0.19037434 -0.12747385 -0.1731587 -0.006972421 0.0957001 0.236627 -0.09407445
-0.12676932 0.22545531 -0.14056234 -0.121689096 -0.08592544 -0.16962601 0.0052677616 0.14904526
0.07624555 -0.12825164 -0.04737424 -0.075373136 -0.0688216 0.10298502 -0.06956445 -0.2571655
-0.07599244 -0.18842414 0.18048552 0.22634314 0.2630983 -0.28318366 0.13321756 -0.25928482
0.017900301 -0.14575765 0.013387136 0.11966531 0.09167228 0.04426226 0.16611886 -0.029272716
-0.19917656 -0.05397441 0.1699858 0.08422142 -0.20488732 -0.15088779 -0.14011191 -0.072116144
0.2219194 0.18879998 0.25562316 -0.25371027 -0.14461774 -0.030290337 -0.16748008 0.0038181501
0.06425755 -0.03193938 0.06364581 0.016343698 -0.16140634 0.16671686 0.23898065 -0.10334715
00000000: b857 dbbd 7ef1 42be 8188 02be 8450 31be
00000010: e878 e4bb 6afe c33d 594e 723e 1baa c0bd
00000020: d1cf 01be c2dd 663e 93ef 0fbe 2238 f9bd
00000030: adf9 afbd 71b2 2dbe 309d ac3b 529f 183e
00000040: a026 9c3d 6654 03be 7e0b 42bd 3b5d 9abd
00000050: 57f2 8cbd cfe9 d23d ce77 8ebd 32ab 83be
00000060: eda1 9bbd 42f2 40be 32d1 383e 7fc6 673e
00000070: d2b4 863e 73fd 90be 2f6a 083e fbc0 84be
00000080: a7a3 923c 7e41 15be b855 5b3c 1613 f53d
00000090: adbe bb3d 584c 353d 101b 2a3e 56cd efbc
000000a0: f1f4 4bbe 4514 5dbd c210 2e3e 487c ac3d
000000b0: fbcd 51be 5482 1abe 7f79 0fbe a1b1 93bd
000000c0: d73e 633e c854 413e 0ae1 823e 50e6 81be
000000d0: ac16 14be 7123 f8bc e67f 2bbe ee39 7a3b
000000e0: 7699 833d ded2 02bd bc58 823d 38e3 853c
000000f0: b447 25be d3b7 2a3e 58b7 743e aca7 d3bd

encoder.fc21.bias f4 [4]
-0.18478115 -0.08581117 -0.21874219 -0.063742556
00000000: 4537 3dbe c4bd afbd f4fd 5fbe 758b 82bd

encoder.fc22.weight f4 [4, 16]
-0.0013416699 -0.14178874 0.1266495 -0.27698022 -0.03462442 0.11144167 -0.11116562 -0.08304914
-0.22649807 -0.22224073 0.06354409 -0.19052796 -0.027169855 -0.19531158 -0.08950801 0.11939472
-0.27340183 -0.22830768 -0.16678841 0.048607368 0.14528053 0.13627264 0.1299232 0.01948628
0.12900347 -0.33987087 -0.1209264 0.09261233 -0.09472897 0.08692283 0.009962938 0.18872723
-0.2506482 -0.29951185 0.06572498 0.16569862 -0.0768035 0.19380872 -0.06695087 -0.030273294
-0.25442696 -0.33849475 0.2071138 0.14244674 0.11671918 0.016108522 -0.07042697 -0.1328317
-0.17785515 0.025572758 -0.17609367 -0.01612992 -0.11997289 -0.25818875 -0.08194535 0.0783334
-0.2087755 -0.2050989 -0.09325166 -0.13552754 -0.19887178 0.12547027 -0.29060778 0.037020124
00000000: f9da afba 1131 11be 68b0 013e 5ad0 8dbe
00000010: 56d2 0dbd 883b e43d cdaa e3bd ab15 aabd
00000020: 1cef 67be 1393 63be 6723 823d c319 43be
00000030: 5193 debc c2ff 47be fa4f b7bd 3885 f43d
00000040: 53fb 8bbe 7dc9 69be 95ca 2abe 8518 473d
00000050: 6bc4 143e 0e8b 0b3e 960a 053e b1a1 9f3c
00000060: 7c19 043e 8e03 aebe 43a8 f7bd 89ab bd3d
00000070: 4301 c2bd 9904 b23d 973b 233c b641 413e
00000080: f654 80be 9e59 99be d19a 863d e6ac 293e
00000090: 274b 9dbd cb75 463e 8a1d 89bd b3ff f7bc
000000a0: 4044 82be 2f4f adbe a415 543e 8fdd 113e
000000b0: 770a ef3d 05f6 833c 043c 90bd 0805 08be
000000c0: a91f 36be f67d d13c e651 34be e522 84bc
000000d0: 59b4 f5bd 5131 84be f7d2 a7bd 436d a03d
000000e0: 3fc9 55be 7205 52be bafa bebd bbc7 0abe
000000f0: 0ba5 4bbe 477b 003e 8bca 94be 6aa2 173d

encoder.fc22.bias f4 [4]
0.10219432 -0.2574801 0.068108074 -0.24112676
00000000: 414b d13d 6fd4 83be 3f7c 8b3d efe9 76be

encoder.bn1.weight f4 [16]
1.0111269 1.0 0.9579524 0.9275301 1.0 1.0064015 1.0 0.98895925
0.9423275 0.98732716 0.9575672 0.9315661 0.9740448 0.97599375 0.9695454 1.0
00000000: 9b6c 813f 0000 803f 5e3c 753f 9d72 6d3f
00000010: 0000 803f c4d1 803f 0000 803f 6f2c 7d3f
00000020: 603c 713f 79c1 7c3f 2023 753f 1e7b 6e3f
00000030: 005b 793f bada 793f 2134 783f 0000 803f

encoder.bn1.bias f4 [16]
-0.03594112 -0.0041192905 0.035889097 0.01942431 -0.02147264 0.013893732 -0.0009596598 -0.029992463
0.048352253 -0.010715569 -0.010985007 0.003628994 0.0012804348 -0.015084753 -0.0067021446 -0.007717318
00000000: ff36 13bd 1dfb 86bb 7200 133d bb1f 9f3c
00000010: 64e7 afbc 89a2 633c ae91 7bba c1b2 f5bc
00000020: 030d 463d 5b90 2fbc 75fa 33bc 6bd4 6d3b
00000030: 43d4 a73a 0a26 77bc aa9d dbbb 8ee1 fcbb

encoder.bn1.running_mean f4 [16]
0.13581747 0.0 0.013999014 0.23744285 0.0 0.13496196 0.0 0.06385042
0.19485466 0.8258259 0.76864034 0.6142366 0.12122392 0.37050906 0.86221194 0.0
00000000: bc13 0b3e 0000 0000 1f5c 653c 3824 733e
00000010: 0000 0000 7833 0a3e 0000 0000 02c4 823d
00000020: fb87 473e 5469 533f 9dc5 443f 9c3e 1d3f
00000030: 3f44 f83d 5db3 bd3e ecb9 5c3f 0000 0000

encoder.bn1.running_var f4 [16]
0.019496916 5.0647958e-11 0.00027527014 0.07019455 5.0647958e-11 0.039703984 5.0647958e-11 0.013146874
0.041350808 0.10503133 0.082206056 0.13102661 0.027725551 0.08686872 0.09196867 5.0647958e-11
00000000: ffb7 9f3c 88c0 5e2e 2252 9039 29c2 8f3d
00000010: 88c0 5e2e a5a0 223d 88c0 5e2e fc65 573c
00000020: 775f 293d aa1a d73d a65b a83d d72b 063e
00000030: b220 e33c 3ae8 b13d 125a bc3d 88c0 5e2e

encoder.bn2.weight f4 [16]
0.9962789 0.9350502 1.007217 0.96915674 0.9687436 0.9474405 0.9935959 0.9310992
0.9945872 0.9879618 0.9891288 0.9822118 0.9675651 0.9760561 1.01072 0.95902205
00000000: 220c 7f3f 735f 6f3f 7dec 803f a81a 783f
00000010: 95ff 773f 768b 723f 4d5c 7e3f 845c 6e3f
00000020: 449d 7e3f 11eb 7c3f 8c37 7d3f 3c72 7b3f
00000030: 59b2 773f d0de 793f 465f 813f 7882 753f

encoder.bn2.bias f4 [16]
-0.0116446605 0.012733499 -0.023311278 0.0048914924 -0.0038786626 0.011392733 -0.008700264 0.0026313988
-0.014998616 -0.024728507 0.00138296 -0.028312355 -0.027619086 0.013044925 -0.027252397 -0.007905991
00000000: 3fc9 3ebc 2aa0 503c 4bf7 bebc d048 a03b
00000010: 2931 7ebb 96a8 3a3c 8d8b 0ebc 8c73 2c3b
00000020: c1bc 75bc 7093 cabc 7044 b53a 50ef e7bc
00000030: 6c41 e2bc 62ba 553c 6b40 dfbc 2188 01bc

encoder.bn2.running_mean f4 [16]
0.49689117 0.10890406 0.28174144 0.21860264 0.20444933 0.20463645 0.33925936 0.15364634
0.25645158 0.33390117 0.30891415 0.21206102 0.22127746 0.34847215 0.43318173 0.2021592
00000000: 8568 fe3e 1809 df3d 6a40 903e 5fd9 5f3e
00000010: 2a5b 513e 388c 513e 67b3 ad3e 7755 1d3e
00000020: 9f4d 833e 18f5 aa3e ff29 9e3e 8626 593e
00000030: 8f96 623e f16a b23e ffc9 dd3e d202 4f3e

encoder.bn2.running_var f4 [16]
0.34206575 0.040323734 0.10054347 0.08132322 0.079745665 0.07704444 0.116756655 0.05097094
0.113750696 0.17425875 0.19192368 0.063287474 0.089154944 0.13107596 0.26890945 0.061905794
00000000: 3e23 af3e 802a 253d bce9 cd3d ca8c a63d
00000010: b251 a33d 7ac9 9d3d 1d1e ef3d e8c6 503d
00000020: 20f6 e83d e370 323e a487 443e dd9c 813d
00000030: de96 b63d c738 063e 80ae 893e ee90 7d3d

encoder.bn3.weight f4 [32]
0.95264065 0.9656333 0.97490305 0.9777693 0.9795435 1.0091019 1.0050794 1.0353631
1.002136 0.9569335 0.95216 1.0239612 0.99831116 0.99948275 0.97336435 0.99567705
0.9880568 0.98328835 1.0070941 0.9850565 1.0210736 0.98402804 0.9781058 1.002228
1.0118767 0.98577094 1.0017114 0.9796662 0.9471442 0.9591963 0.97674567 0.98393166
00000000: 42e0 733f be33 773f 3f93 793f 174f 7a3f
00000010: 5dc3 7a3f 402a 813f 71a6 803f c786 843f
00000020: fe45 803f 98f9 743f c2c0 733f 2911 833f
00000030: 5291 7f3f 1ade 7f3f 682e 793f b1e4 7e3f
00000040: 4af1 7c3f c9b8 7b3f 76e8 803f aa2c 7c3f
00000050: 8ab2 823f 43e9 7b3f 2465 7a3f 0249 803f
00000060: 2d85 813f 7c5b 7c3f 1438 803f 67cb 7a3f
00000070: 0b78 723f e48d 753f 010c 7a3f f2e2 7b3f

encoder.bn3.bias f4 [32]
-0.031801675 0.016441682 0.06477655 -0.013462636 -0.009611604 0.0074564344 -0.013702442 -0.011286762
-0.06617677 0.00954807 0.045697562 -0.034114186 -0.030288624 -0.0058625913 -0.05286502 -0.038988497
0.013415838 -0.08174138 0.005311253 -0.019047651 0.0025936717 -0.025477508 -0.059730608 0.025855178
-0.025389014 -0.029561209 -0.028300792 -0.030750291 0.04126508 0.059783895 -0.034752045 0.004780836
00000000: 7942 02bd b5b0 863c 91a9 843d 6392 5cbc
00000010: fd79 1dbc 1b55 f43b 3580 60bc 1cec 38bc
00000020: b087 87bd 826f 1c3c 5e2d 3b3d 51bb 0bbd
00000030: d91f f8bc fb1a c0bb fe88 58bd 67b2 1fbd
00000040: 1ace 5b3c 0668 a7bd 050a ae3b d209 9cbc
00000050: 97fa 293b 35b6 d0bc 15a8 74bd 3dce d33c
00000060: 9ffc cfbc 592a f2bc 10d7 e7bc 09e8 fbbc
00000070: 9305 293d f5df 743d 2958 0ebd 8fa8 9c3b

encoder.bn3.running_mean f4 [32]
0.18030804 0.21738231 0.24848275 0.3620439 0.39603326 0.28115112 0.33453524 0.33980086
0.27622968 0.3052928 0.21935555 0.28003082 0.20980296 0.24126986 0.25087577 0.23255517
0.3098197 0.29045153 0.37169543 0.29731143 0.4104245 0.32622012 0.32648027 0.19648035
0.30154493 0.35992557 0.3237759 0.27672622 0.29581562 0.35943726 0.23913892 0.31605944
00000000: aca2 383e 7899 5e3e 4372 7e3e d15d b93e
00000010: dfc4 ca3e 0af3 8f3e 3448 ab3e 61fa ad3e
00000020: fa6d 8d3e 564f 9c3e be9e 603e 3360 8f3e
00000030: 96d6 563e 720f 773e ca72 803e f122 6e3e
00000040: b0a0 9e3e 10b6 943e dd4e be3e 3439 983e
00000050: 2923 d23e 5306 a73e 6c28 a73e 2532 493e
00000060: 1964 9a3e 2a48 b83e f4c5 a53e 0faf 8d3e
00000070: 2575 973e 2908 b83e d5e0 743e 8bd2 a13e

encoder.bn3.running_var f4 [32]
0.090484336 0.12128605 0.16545375 0.27774417 0.23941572 0.18402994 0.19035229 0.2017732
0.1389795 0.14524049 0.12532496 0.15464137 0.1254848 0.14990094 0.14146766 0.13137
0.20907487 0.14099614 0.23442972 0.15973678 0.3156182 0.17031004 0.19043562 0.09591651
0.17988518 0.26875988 0.16333413 0.14167996 0.13664192 0.22273742 0.12020125 0.19734372
00000000: da4f b93d d264 f83d b56c 293e 7c34 8e3e
00000010: 6529 753e 5872 3c3e b6eb 423e a29d 4e3e
00000020: a450 0e3e ecb9 143e 3055 003e 4f5a 1e3e
00000030: 167f 003e a27f 193e e6dc 103e db85 063e
00000040: b917 563e 4b61 103e 580e 703e 0a92 233e
00000050: b598 a13e c165 2e3e 8e01 433e e06f c43d
00000060: d233 383e e59a 893e 1041 273e 8d14 113e
00000070: dceb 0b3e 4715 643e 132c f63d 7914 4a3e

encoder.bn4.weight f4 [32]
1.0006431 0.968783 0.97928333 0.98681915 0.97132593 0.99627024 0.9951036 0.9712725
1.0390432 1.0183084 1.0176287 0.9758386 0.9616231 0.98326856 1.0242865 1.0256284
0.99569017 0.9579052 0.9900622 1.0065972 0.9904166 0.99126434 0.95726883 1.0076702
0.9985866 1.0061828 0.9926938 1.0024076 0.97952574 1.0074276 0.9811606 1.0038893
00000000: 1315 803f 2a02 783f 50b2 7a3f 2ea0 7c3f
00000010: d1a8 783f 910b 7f3f 1cbf 7e3f 51a5 783f
00000020: 5eff 843f ee57 823f a841 823f 8fd0 793f
00000030: ee2c 763f 7db7 7b3f d21b 833f cb47 833f
00000040: 8de5 7e3f 4639 753f b774 7d3f 2dd8 803f
00000050: f18b 7d3f 80c3 7d3f 920f 753f 56fb 803f
00000060: 5fa3 7f3f 99ca 803f 2e21 7e3f e44e 803f
00000070: 33c2 7a3f 63f3 803f 572d 7b3f 727f 803f

encoder.bn4.bias f4 [32]
0.04102637 0.03128522 0.021226741 0.06255008 -0.02618714 -0.03496627 -0.0065357867 0.057983674
0.047870852 -0.06812557 -0.02922451 -0.07452484 -0.026886486 0.038551062 -0.111301795 0.05239374
0.0041257865 -0.062456705 -0.014359545 -0.06037088 -0.030343937 -0.042196132 0.011884823 -0.047087613
-0.07281034 -0.06571527 -0.011083186 -0.016845627 0.025368001 -0.012338785 0.062189706 0.0052774935
00000000: 440b 283d ee24 003d b4e3 ad3c 421a 803d
00000010: 6a86 d6bc cb38 0fbd 272a d6bb 4a80 6d3d
00000020: 3a14 443d 6b85 8bbd 3d68 efbc 7ba0 98bd
00000030: 0c41 dcbc b8e7 1d3d 32f2 e3bd d19a 563d
00000040: 9b31 873b 9ad2 7fbd 4c44 6bbc 7547 77bd
00000050: d993 f8bc dad5 2cbd 90b8 423c f1de 40bd
00000060: 961d 95bd ba95 86bd 4096 35bc d7ff 89bc
00000070: 8ed0 cf3c 9e28 4abc a2ba 7e3d d3ee ac3b

encoder.bn4.running_mean f4 [32]
0.31930226 0.20780137 0.26265866 0.27172393 0.22819528 0.32327703 0.280661 0.24343438
0.3236965 0.2539667 0.3179424 0.26848462 0.2072588 0.38914108 0.30474746 0.2504793
0.33728516 0.21199293 0.26517507 0.23330887 0.29117137 0.30192697 0.22651578 0.34785175
0.25341627 0.26660818 0.26128173 0.24518758 0.24599008 0.2808688 0.245063 0.24210015
00000000: 967b a33e e2c9 543e 327b 863e 661f 8b3e
00000010: 06ac 693e 9184 a53e ccb2 8f3e dd46 793e
00000020: 8cbb a53e ec07 823e 59c9 a23e d176 893e
00000030: a73b 543e 803d c73e dc07 9c3e d33e 803e
00000040: a4b0 ac3e ad14 593e 07c5 873e 85e8 6e3e
00000050: 6a14 953e 2c96 9a3e c1f3 673e a019 b23e
00000060: c7bf 813e de80 883e b8c6 853e 7412 7b3e
00000070: d3e4 7b3e 09ce 8f3e ccf1 7a3e 1ae9 773e

encoder.bn4.running_var f4 [32]
0.23707473 0.12369163 0.17646654 0.18231377 0.12431481 0.20212083 0.12910059 0.15461868
0.18188676 0.16775031 0.2403487 0.1727486 0.09609249 0.34442127 0.15809621 0.11471911
0.21927132 0.1329019 0.15488996 0.15511051 0.16872838 0.2427985 0.11947024 0.19075711
0.14731719 0.13029487 0.14647935 0.14600374 0.13587122 0.21405877 0.15231726 0.14135844
00000000: b8c3 723e 0a52 fd3d a5b3 343e 76b0 3a3e
00000010: c398 fe3d c3f8 4e3e f232 043e 5c54 1e3e
00000020: 8640 3a3e bdc6 2b3e f81d 763e 02e5 303e
00000030: 24cc c43d fc57 b03e f9e3 213e daf1 ea3d
00000040: a988 603e 7017 083e 799b 1e3e 4ad5 1e3e
00000050: 22c7 2c3e 2ca0 783e d0ac f43d d555 433e
00000060: 51da 163e 056c 053e affe 153e 0182 153e
00000070: d321 0b3e 3932 5b3e 0ef9 1b3e 44c0 103e
