results/_race_fptra_0.5_1000_VAE_model.pt (torch, 201744 bytes, 61 tensors)

encoder.conv1.weight f4 [16, 1, 2]
00000000: 7fa8 f83e 7c4d ca3e c2e4 0b3e 3e75 39bd
00000010: 7d7f 89be 7baf bf3e 22b1 923e 0645 0cbf
00000020: daca 153f 4239 373e e515 f73e 270b 343f
00000030: 4a07 8a3e ed33 d0bc 3a1e 2cbf 69c0 0d3f
00000040: da5d 833e 573c ba3e 1227 81bd ad37 73bd
00000050: 98ba 913d 6aeb fcbe b3e9 26bf 2420 f8be
00000060: 72ee b6be c9fe 1d3f 53e3 fc3d f124 debe
00000070: e2a3 f23e 3515 9abd a73d dd3d 6808 22bd
0.48566052 0.3951224 0.13661483 -0.045277826 -0.26855078 0.37438568 0.28650767 -0.5479282
0.5851265 0.17892936 0.48258892 0.7032952 0.26958686 -0.025415385 -0.6723362 0.5537172
0.2565754 0.3637416 -0.0630628 -0.05937927 0.07115668 -0.49398357 -0.65200347 -0.4846202
-0.35728794 0.61716896 0.12348046 -0.4338756 0.47390658 -0.07523576 0.10802775 -0.039558798

encoder.conv1.bias f4 [16]
00000000: ad70 ecbe 01e2 783e 9309 8dbe 1af7 83be
00000010: 3451 e3be 80f7 a13e 7260 363f 73cb 0c3f
00000020: ed8e fe3e a71e da3e c93f bfbe b79a 873e
00000030: 9004 20bf f529 4bbd a399 c1be 24ae d0bc
-0.46179715 0.24304964 -0.27546367 -0.2577446 -0.4439789 0.3163414 0.71240914 0.5499794
0.4971842 0.4260151 -0.37353352 0.26485226 -0.6250696 -0.04960056 -0.37812528 -0.025473662

encoder.conv2.weight f4 [16, 16, 2]
00000000: 4ef2 a0bd 2094 30bd 41f4 e13d 3895 15be
00000010: 46f8 edbd bcb3 9e3b e184 96bd d4f5 cfbd
00000020: c4e0 4bbd ec4c 06be c97d f2bc 4f6c 8e3c
00000030: 608d 7b3c 4955 1cbe 01ff a9bd 7277 9dbd
00000040: ab2d c7bd dbfa d9ba 0709 493d 2d3a af3c
00000050: 7a99 88bc b75e fe3d e63f 963d 1d13 b3bd
00000060: cbc7 1c3d eb89 223e 472e c3bc c84c bdbd
00000070: 0c03 8bbd 7daf 24bc 490a a23d e9bc a4bd
00000080: 0a0e 2abd 7150 b43d 9508 b1bc 5d1a cc3d
00000090: 4689 043e cb6c 463e 141b afbc 29f3 933a
000000a0: bc02 c2bd 3d6d 3c3d 21b0 973d d1bd 9f3d
000000b0: f8f3 b8bc 4526 3abd 2dbb 173e 7cf6 1f3e
000000c0: d0f0 bbbd 2192 273e 4751 d83d 9f31 9bbc
000000d0: bbbe 3e3e acfa b3bc 6c81 a53d 907e e6bd
000000e0: 8460 823d 8827 573d 32a0 d9bc a190 28be
000000f0: abe9 cebd b58c a8bd 9da1 613d 3874 e9bd
00000100: feab fabd c64e 76bd b2c5 033e 2e99 91bd
00000110: 14d7 ecbb 4e85 333e 2c76 e6bb 4aa8 cdbd
00000120: 3438 f43d 0f2e 97bc 3a85 f2bd 1ae6 ce3d
00000130: 8381 963d 43a9 adbc 6b5d cb3d 8ba1 753e
00000140: 1e8d 863d 4b39 56bd 072a bbbd f8f4 2dbe
00000150: ac2c 483d fcc0 263c 031a c63c a9c7 943c
00000160: fe89 d93d 8d1d e4bd 67ea 273d 42fb a7bd
00000170: 3dba f4bd a366 793d 2d4c 73bd b50e 05be
00000180: 0b24 153e df62 d63c 3acc d5bb 5058 023e
00000190: de1a 04be 4075 89ba 8365 5a3c 85bf 8abd
000001a0: 32b7 773d faa0 81bc 1c20 073d 077b e03d
000001b0: 1123 a2bd 38fe 5a3d 552b f2bd bec2 a43d
000001c0: ee99 173e d916 aabc 72d9 5b3d 5252 f7bd
000001d0: 7dd2 d03d 1e7a a3bd 9861 d6bd 7236 55bd
000001e0: a8ee 62bd 9338 d23c fbec 213c 9d2b e83d
000001f0: 75ca 073e 6045 94bd 515d 063e a755 263e
00000200: ae2d 023e be81 4f3d b8dc 7dbd c7d7 d2bb
00000210: bb72 86bd d4b5 24bd b261 123e e3e4 1cbe
00000220: 0e87 e5bd 6ec8 123e af8e 8e3c 0ec6 343d
00000230: dd48 a03d 2c65 183d d00b 8c3c 32a4 423a
00000240: e08d 18bd 6de2 0f3d 082d febd 6d15 f6bd
00000250: 52b5 cbbd c421 063e 46b9 03be 5346 bd3d
00000260: b62d b4bd e6ac 8b3d c7f9 f5bd e34b 153c
00000270: 72e7 1fbd 40b3 963d ba32 a53d 2a53 0cbe
00000280: 3201 99bd 002f ccbc 4cb0 883d 70a1 b73b
00000290: 5517 373d 0331 cdbd 07c7 b4bd eafe 4b3e
000002a0: 6d0a 12bc eb4e 08be 7e95 6e3d 0083 93bd
000002b0: 6204 d23d d327 ac3d e065 51bc e627 3bbd
000002c0: dfe8 023e 45c4 5fbd b8a6 0cbe ef98 e93d
000002d0: b9ab 8b3d 73b7 24be b54f 92bd f36e 433c
000002e0: 19aa 3ebd 6f9e 0d3e 60cf 50bd 13e4 a33d
000002f0: 0199 24bd 245f 4e3e 25f9 96bd 2419 da3b
00000300: 489a e8bb 03c7 24bd b988 15bd 1add fc3d
00000310: 01c9 fdbc 478d a0bd 3ad2 11be 7457 6cbd
00000320: b3b9 eb3c a2ed a43d 7373 f7bc 5746 223e
00000330: 3606 e9bc ab62 83bb cb72 743d bcf6 5abd
00000340: 977c 233e 5c7d 903d 8e88 12be 70bc 083d
00000350: edf0 6ebd 4aa9 38bd 31b2 553b 014a 16be
00000360: fa8b a83d 8429 d4bc 8206 cd3d 0790 213d
00000370: 872a a7bd 6236 aebc cec7 ab3d a918 ec3c
00000380: c193 88bd af26 2c3d 1243 34be 75f7 073e
00000390: 4cd8 2abc 0669 2ebd 661d ff3d 5c0e 3b3d
000003a0: 3e0d 1fbe 4ecf c2bc e720 6d3c e73b fc3c
000003b0: 818b 16be 81fb 283d 442d ea3d 1603 99bd
000003c0: eb7b f5bd 1a2f be3d 562e 0e3c 9023 d6bd
000003d0: 81a0 8b3d 45fe fa3d 8ced b6bd d376 b8bd
000003e0: 94a4 4fbd 2159 473d 0419 fabc 021e 2cba
000003f0: dd00 e4bd e8d4 823b 57a2 d13d d6c1 d43d
-0.07858716 -0.043110013 0.11032916 -0.14607704 -0.1161962 0.0048432034 -0.073495634 -0.1015431
-0.0497749 -0.13115281 -0.029600995 0.01738563 0.015353531 -0.15266909 -0.08300591 -0.07688798
-0.09725507 -0.0016630547 0.049080875 0.021390045 -0.016674746 0.12420409 0.073364064 -0.0874388
0.038276475 0.15872924 -0.023825778 -0.092431605 -0.067876905 -0.010051605 0.07912118 -0.08043844
-0.041517295 0.088044055 -0.021610538 0.09965966 0.1294299 0.19377439 -0.021375217 0.0011287677
-0.09473178 0.046002615 0.07406641 0.077998765 -0.02257727 -0.045446653 0.14817496 0.1562137
-0.09176791 0.16364338 0.105623774 -0.01894456 0.18627445 -0.021970116 0.08081326 -0.11254609
0.06366065 0.052527934 -0.026565645 -0.16461422 -0.101031624 -0.08229963 0.055085767 -0.1139912
-0.12239836 -0.060133718 0.12868384 -0.07109295 -0.0072277877 0.1753132 -0.00703313 -0.10041864
0.119247824 -0.01845458 -0.11841817 0.10102482 0.07348921 -0.021198874 0.099299274 0.23987405
0.06569885 -0.052300733 -0.091388755 -0.1698798 0.048870727 0.010177847 0.024182325 0.018161612
0.10622023 -0.11138449 0.040995028 -0.082022205 -0.11949585 0.060888898 -0.05939882 -0.12993892
0.1456453 0.026170192 -0.00652459 0.12729001 -0.12900874 -0.0010487214 0.013329866 -0.06774811
0.060477443 -0.01582383 0.032989606 0.109609656 -0.07916845 0.0534651 -0.11824671 0.080449566
0.14804813 -0.020762848 0.05367417 -0.12076248 0.101963975 -0.079822764 -0.10467833 -0.052053876
-0.05540338 0.025661742 0.009883161 0.113364436 0.13260825 -0.07239795 0.13121535 0.16243611
0.12712738 0.05066084 -0.061978072 -0.006434414 -0.06564852 -0.040212467 0.1429508 -0.15321688
-0.112074 0.1433427 0.017402021 0.044134192 0.078263976 0.03720586 0.017095476 0.00074249797
-0.037244678 0.035128046 -0.12410933 -0.120158054 -0.099466935 0.13098818 -0.12863645 0.09241929
-0.08797781 0.06820087 -0.12010532 0.009112331 -0.039039083 0.07358408 0.08066316 -0.137036
-0.07470931 -0.024924755 0.06674251 0.0056039616 0.044699986 -0.10019114 -0.08827024 0.19921461
-0.0089136185 -0.13311355 0.058248036 -0.07202721 0.10254742 0.08406033 -0.012780637 -0.045692347
0.12784146 -0.054630537 -0.13735473 0.11406123 0.06819863 -0.16085605 -0.07144109 0.011928308
-0.046548937 0.13829969 -0.05097902 0.08002486 -0.04018498 0.20153481 -0.07371739 0.006655829
-0.00709847 -0.040228855 -0.036507342 0.12346859 -0.030979635 -0.078394465 -0.14240351 -0.05770059
0.028775072 0.08053137 -0.030206418 0.15847145 -0.028445344 -0.004009565 0.059679788 -0.05345796
0.15965496 0.070551604 -0.14309904 0.033382833 -0.058335233 -0.04508332 0.003260743 -0.14676668
0.082298234 -0.025898702 0.10011007 0.039443996 -0.08162408 -0.021266166 0.08387719 0.028820353
-0.06668807 0.04202908 -0.1760371 0.13277991 -0.010427546 -0.042580627 0.12456779 0.04566799
-0.15532395 -0.023780491 0.014473177 0.030790282 -0.14701654 0.041255478 0.11434415 -0.07471292
-0.11986526 0.09286328 0.00867804 -0.10456002 0.06817723 0.12255529 -0.08932027 -0.09007039
-0.050694063 0.048668984 -0.030529507 -0.0006565751 -0.11132977 0.0039926656 0.10236042 0.10388534

encoder.conv2.bias f4 [16]
00000000: fece 483e 5fb0 d1bd 03b3 cfba ea25 ad3d
00000010: 96ec f73a f231 063d 7509 2a3e d9f9 b93d
00000020: 39ff 723d 5157 24be a8b7 27bc 710f d0bd
00000030: 57b0 a5bd 5d32 223e afb5 e53d d376 98bd
0.19610211 -0.10238718 -0.0015846196 0.08454497 0.0018915113 0.032762475 0.1660517 0.09080858
0.05932543 -0.16048934 -0.010236658 -0.10159195 -0.08090275 0.15839525 0.11216294 -0.07444539

encoder.conv3.weight f4 [32, 16, 2]
00000000: f4e8 a03d 2a96 223e 76d9 00be 85a1 e83c
00000010: 61ec febd 530d 033e 729f 733d fd71 6a3c
00000020: a1ad 91bd 5a8d ffbd 928d e2bd 7b29 30be
00000030: cd14 07bc 1f6d ccbd d80e 0cbe a4d2 febd
00000040: db15 02bd 2aca bc3c b4c6 4dbd 07ab 613d
00000050: 34bb b3bd af53 8e3d 2919 c63d 6af8 e33c
00000060: aa08 bdbc f0b4 323e e865 3d3d c653 ed3d
00000070: d7a5 cb3d efcd 283d 1b4f 37bd 783e 2bbe
00000080: 084d c43d 6a99 ea3d 0341 06bd 095e 333e
00000090: 1cb0 61bd 2244 35bd dfa2 1fbe 6467 49be
000000a0: df6e 913d 2efe 4cbd 6c38 ee3c 1f71 6dbd
000000b0: b706 5cbd 3a66 89ba 10a1 b2bd f17c 09bd
000000c0: cfe2 a3bd 83d7 d53d abc3 16bd 1cdb 2dbe
000000d0: 60c0 9839 8ff2 0f3e e5b6 a6bd 57ba f23d
000000e0: fef7 eabd 716c da3d 9981 2cbd aa07 a5bd
000000f0: 1de0 03bc f7f1 873d db40 cb3c aa43 d9bd
00000100: 1d58 3f3d 5bf7 193e d42a 12ba 43ba fb3c
00000110: 7115 65bb 9c65 6cbd e641 e43d c5ba e03d
00000120: e294 29bd 932c b9bd 0160 9c3d 09f5 0cbe
00000130: 32e5 d33d 8de0 68bd ca0a 09be 3af7 febd
00000140: 147e 8fbd 200c 3a3d a45e 6f3d 674f c43d
00000150: 9f60 f7bd c47a 99bd 0990 adbd 620b dfbd
00000160: 012c 1ebe 1612 b5bd 0106 ae3d 4904 483d
00000170: 4aae 36be 39aa 253e 86ef 2e3d ceb4 bfbd
00000180: 643b 3abe 913a 47bc 797a fe3c cf9f 663d
00000190: 2192 9fbc 5b38 5dbc 50f3 fb3d 8464 a4ba
000001a0: e5aa 55bd 0230 c13d dc08 7dbd 3ac1 293d
000001b0: 7e74 203e cca2 ff3c 4fb9 80bd cf0d a9bc
000001c0: 0bdc c23d ec5f 4cbe 350c c9bd 5ca4 a03d
000001d0: b103 a3bd 4dad d93d d934 a23d a181 393d
000001e0: 7b7e 42be 78ab 38be c1ee 2ebe f2f8 a03d
000001f0: 3efa e33c 3c30 cf3d f458 d6bd e738 65bd
00000200: 2f01 ff3d 27c9 ba3d 4d3f 193d 2c0b f73c
00000210: e091 b03a 57b6 763d 03a7 21be 1650 a73d
00000220: 18f7 1abe 8742 dd3d d7eb 08be 49cf 973b
00000230: 95dc acbc dee6 8fbd 5e77 b5bb 6f45 c33d
00000240: e73b 42bd 537d eebd ae77 5a3d 6929 cabd
00000250: 487a 12be 57f0 da3d 5cc5 323e b039 323e
00000260: d445 1a3e cba2 283e bc0c 623d 73ec b9bb
00000270: 32d1 273d 14db 023e 2d01 c03b 95b9 093d
00000280: 7eea 11be 2850 b13d 16a0 e93d be89 24be
00000290: 1061 8a3d a7e4 0a3c 9f38 24be e2c4 093e
000002a0: c69a 963c 3c9d 4e3d 03fa ef3d a20e f63c
000002b0: a5bc 3d3d 60bb 11bd e640 3d3e db3d b43d
000002c0: fa9c fe3d 4fee ecbd 90d3 d8bc d43f ddbd
000002d0: c22b e23c 02c0 9a3d eeb9 453d 4cef 353d
000002e0: 4ad5 24be 5a59 60bd a2d1 14be 1ace 51bc
000002f0: 8fa0 04be 9c19 26bc c334 983d 1820 733b
00000300: 0682 08bd 1308 f33d 7674 e9bd 4c3a 963d
00000310: a821 f3bd 34b8 0d3e f288 5abd 3459 0cbe
00000320: 3b39 d4bc b70f 013c 5fc7 d93d 32db 05be
00000330: e9b8 0d3d 06e2 0abd 3065 1e3d 30f7 243d
00000340: 670e 8cbd 07cf 9f3d b21a a23d 124a 2e3d
00000350: 91c9 93bd d720 833e a6ca 0f3d 89ba 09be
00000360: 1885 cf3d d5df f73d 0353 8a3d 4402 a93d
00000370: 6318 3abd 637f c0bd f1b7 90bd 0dce 00be
00000380: beec 19be 4654 23be 6c23 67bd 3d4a bdbd
00000390: 50fe 08bd 97c1 25be a1d8 043e 0dd2 fb3d
000003a0: 465f 153e 328b 95bd 016d 16be 9ef4 f23d
000003b0: 7b2e 0fbe a519 aebd 3e2f 84bd 591d 5fbc
000003c0: 2741 243d d288 8bbd c304 16be 4ef1 4fbd
000003d0: a822 06be bbf3 85bc 07a8 11be 80a2 04be
000003e0: bfd1 54bd d5c1 d5bd 3e93 11be f2ea 6a3d
000003f0: 483c d73c 48fc 83bb ca1b 20bd 8c42 9b3d
0.07856932 0.15877596 -0.12582955 0.028397331 -0.124474294 0.12798052 0.05947823 0.0143094035
-0.07113195 -0.124781325 -0.11062159 -0.17203324 -0.008244705 -0.09981751 -0.13677537 -0.1244252
-0.031759124 0.023045618 -0.050238326 0.055094745 -0.087759405 0.06949555 0.09672768 0.027828414
-0.02307542 0.17451835 0.046239763 0.11588244 0.09943741 0.04121202 -0.044753175 -0.16723049
0.09585005 0.11455043 -0.032776844 0.1751634 -0.05509959 -0.04425443 -0.15589474 -0.19668347
0.07101225 -0.050047092 0.029079638 -0.05796921 -0.05371734 -0.0010482736 -0.087221265 -0.03356642
-0.08002245 0.10441496 -0.036807697 -0.16978115 0.0002913503 0.14057373 -0.08140353 0.11851948
-0.11473082 0.10665215 -0.04211578 -0.080581024 -0.008049038 0.06637948 0.024811199 -0.10608609
0.04671489 0.15035765 -0.000557584 0.030728465 -0.0034955407 -0.05771409 0.11145382 0.109731235
-0.04140175 -0.09041705 0.07635499 -0.13765348 0.1034645 -0.056854773 -0.13383022 -0.124494985
-0.07006469 0.04542172 0.058439866 0.09585457 -0.12078976 -0.07494119 -0.08474738 -0.10890843
-0.15446474 -0.0884134 0.08497239 0.04883221 -0.17839924 0.16178216 0.042708896 -0.09360658
-0.18186718 -0.012159959 0.031064259 0.05630475 -0.01947886 -0.013502206 0.123022676 -0.0012542163
-0.05216493 0.09432985 -0.061776027 0.04144404 0.15669438 0.031205557 -0.06285345 -0.020636467
0.09514626 -0.19958466 -0.098167814 0.07843849 -0.079596885 0.106287576 0.07920236 0.04528964
-0.18993561 -0.1803416 -0.17083265 0.078599826 0.027829286 0.10116622 -0.10466185 -0.05596247
0.12451398 0.09120398 0.037413884 0.030156694 0.0013471209 0.060232487 -0.15786366 0.08169572
-0.15133321 0.10803705 -0.13371216 0.0046328646 -0.021101275 -0.07026456 -0.0055379113 0.09534728
-0.04742041 -0.116449974 0.05333679 -0.098711796 -0.14304459 0.106903724 0.17458099 0.17404819
0.150657 0.1646835 0.055187926 -0.005673939 0.04097099 0.12778884 0.005859515 0.03362425
-0.14249608 0.08657867 0.11407487 -0.1606817 0.067567945 0.0084773665 -0.16037224 0.13454011
0.018384349 0.05044292 0.11717608 0.030036274 0.046322484 -0.035579085 0.18481788 0.088008605
0.12432285 -0.11568891 -0.026468068 -0.1080319 0.027608756 0.07556154 0.04827302 0.044417664
-0.16096988 -0.054772712 -0.14533094 -0.012805486 -0.12951873 -0.010137942 0.074319385 0.0037097987
-0.033327125 0.118667744 -0.11399166 0.07335338 -0.11871654 0.13839799 -0.053353257 -0.13705903
-0.025906196 0.007877282 0.1063373 -0.13071898 0.034600172 -0.03390696 0.03867072 0.0402748
-0.068386845 0.07803159 0.07915248 0.042551108 -0.0721618 0.25610992 0.03510537 -0.13450064
0.101328075 0.121032394 0.067541145 0.08252385 -0.045433413 -0.09399297 -0.07066334 -0.12578602
-0.15031716 -0.15950117 -0.056430265 -0.092426755 -0.033445656 -0.1618713 0.12973262 0.122959234
0.14587125 -0.0730194 -0.14690019 0.11863063 -0.13982575 -0.08500985 -0.06454323 -0.013617837
0.040101197 -0.06813206 -0.14650254 -0.050767235 -0.13099158 -0.016351571 -0.14224254 -0.12952614
-0.051957842 -0.10437361 -0.14216325 0.057352968 0.026273862 -0.004027877 -0.039089 0.07581052

encoder.conv3.bias f4 [32]
00000000: 890a 033d 0d59 fbbd 5294 993d 4a38 8cbc
00000010: 482e 9dbd 4505 2fbd f5ec 06be d485 f83c
00000020: 0de2 7abd ba2d 31be f158 c03d aaa6 8a3c
00000030: 089a d33d afdd 13be 2a3d bcbd 2263 5cbe
00000040: d90c a2bd a7ae 3c3e 0f20 13be 4743 6f3d
00000050: e302 0b3e 2034 e13c 6b66 65bd a3f7 ef3c
00000060: 10df fcbd 27b5 fdbd a7dd d73d b848 0f3e
00000070: 5ec8 1ebd 555d 0fbe 31d2 c43d 0b97 813d
0.03199247 -0.122728445 0.07498993 -0.017116684 -0.07674843 -0.042729635 -0.1317633 0.030337252
-0.061250735 -0.173026 0.09391964 0.016925175 0.103321135 -0.14440034 -0.091913536 -0.21522191
-0.07912607 0.18426 -0.14367698 0.05841377 0.1357532 0.027490675 -0.056005877 0.029292887
-0.12347233 -0.12388068 0.10540324 0.13992584 -0.038765304 -0.14000447 0.09610403 0.06327637

encoder.conv4.weight f4 [32, 32, 2]
00000000: 338c f43c 4410 103d d5cf 543c 1fb7 8e3d
00000010: f88a ae3c 2cc9 15bd 7cca e8bd 6ad2 10be
00000020: 0ee8 833d 6169 d5bc 8a30 723c 521c cbbd
00000030: 7b4a 36bb 69c2 8e3d 50cd 853d 809c 4f3c
00000040: 5efa 7ebd 8a3d 243d 2a36 b3bd 9c83 f73d
00000050: ea32 3bbd 3b94 153c df99 273b 94e9 0a3d
00000060: 979b bdbc 3133 113d 4f31 e03b efed 02bd
00000070: 44a5 ca3c 6ba0 bbbc 7f99 bc3c 5958 64bd
00000080: a141 863c 13b8 7d3d 5086 843c c176 2bbd
00000090: 5776 5fbd 1f78 5b3d 8038 20be 21c5 b4bc
000000a0: 0993 98bd 7c0f 05bd 89c9 2b3d 4f11 fcbc
000000b0: aa99 19be befb 09bc 28db 38bd d3f3 1ebe
000000c0: 5e4f 113c 54d2 39bd 85d6 7dbd 004e e4bb
000000d0: 76e5 28bd ba7a 24be fd14 a3bd 1199 ff3b
000000e0: 1477 5e3d 4ad1 21be 0a41 89bd 17ac 583c
000000f0: c8bb 05bd 1bb2 89bd a6ba 0bbe a619 d93d
00000100: b9ff d9bd 4290 a7bd 78b6 633d ab25 1cbe
00000110: cc46 5e3d 8d07 b1bd a052 8bbd da76 943d
00000120: 7bef c3bd f6c8 3bbd 675a b73c 55dd 83bc
00000130: 2c95 c43c 33c2 00bd 8e50 0abd bb65 de3d
00000140: b0e4 1abd b330 0dbe e9c2 833d 7099 06be
00000150: 3472 b2bd 00cc 02bd 623c cfbd 4519 d2bb
00000160: c8e7 993c 98e4 0c3d 37c8 5fbd 1233 ce3d
00000170: 17c5 023d 63c5 a53b fcee ce3d 82db 07be
00000180: 1415 bcbd 6511 e7bc 8eea 0f3b 672e 11bd
00000190: 6881 633d f214 31be aa90 803d 4399 a53b
000001a0: 1b00 8bbd 4924 493d aa9a a0bd 0749 b4bd
000001b0: 5823 8f3d c244 c73d d858 7cbd b414 333d
000001c0: c70b babc 27a2 ec3d d211 d9bc fdd8 86bd
000001d0: f54b a8bd 3cea 27bd f147 a73d 348f a13d
000001e0: 78ff 9e3c b1f0 e6bc f4d4 cd3c e2ee 70bc
000001f0: 1da7 533b 10c5 743d b29a 853c 028a 6abc
00000200: 5ede 7a39 c8f0 00bd 720a 30bd 8040 04bc
00000210: c0f7 9fbb 7403 fbbd ed0b 95bc 4cae 8b3d
00000220: 8769 333d e70a 6e3b 4230 00bc d259 6e3c
00000230: 1b17 12bb e3c5 cabd 7479 493d a265 ff3d
00000240: 2ff2 7bbd 3bcc dabd 9641 3bbd d2ad 5dbd
00000250: 9df9 623d b4b1 2a3d f437 04be f593 5c3d
00000260: 46c2 91bc 0a6d f13d c570 89bd 83d2 693d
00000270: 5008 4dbd c455 a03d ca55 543d a1be d43c
00000280: b057 9a3c 2907 6dbc da16 eabd 81cb 893d
00000290: 9288 85bb 7987 b9bb c0b8 a23c 44a0 723d
000002a0: 8947 b93d ea57 0d3d 1e8b ab3d 20ae 07be
000002b0: 0af1 2d3d 5ba9 a2bd e800 0abd 9661 84bd
000002c0: 17d3 773d faf5 b23d 85f4 a93d f126 593d
000002d0: 4caf afbd 9220 2f3d b7cc debc 98a6 3bbd
000002e0: d0b4 d1bd f612 35bd afb6 bcbd e7d0 6f3d
000002f0: 5659 c4bd 5a5e ddbb ba84 bf3c b041 8c3d
00000300: aefa 543d 2f7e 25be c7c8 abbd 2f0e 053d
00000310: 5db0 00be 7b2f 473c 1560 9fbd 33f2 42bb
00000320: 1107 e4bd e8e3 2b3d c31a cfbd 2d12 503d
00000330: 290d 17be 3f4c 37be 20f9 49bd 007b e23d
00000340: 4ec3 bc3c 11b6 563d c307 853d 85f8 11bb
00000350: dbe0 56bd 511e 73bc ef43 dcbb e6f3 b5bd
00000360: d46a 6ebc d096 1d3a 3353 633d d795 9ebd
00000370: 7944 22bb 9750 b7bd 1153 b83d ef5f d63b
00000380: cdc6 5ebb 2818 ffbc a7e2 993d 2f1c 62ba
00000390: c6c6 d4bc 6818 9d3c c5f2 b43d 4f86 a23d
000003a0: a49e a53d abee 943d 9faf bd3d 441f adbd
000003b0: 5796 953d 7e6a adbd fcef babd 5f30 513a
000003c0: 2903 53bd 7a4d 9a3c e9ff 873d f620 6d3d
000003d0: e29c 56bd 5242 ce3d ab77 b03d b54c 763d
000003e0: d445 2abd d146 59bd e2c5 0b3d 0ed4 3b3c
000003f0: 36dd 1fbb 4318 a2bc f8e5 0fbd 48db 433a
0.029852008 0.035171762 0.012989004 0.06968521 0.0213065 -0.036568806 -0.11366746 -0.14142767
0.06440745 -0.026051225 0.01478208 -0.09917511 -0.002781539 0.069706745 0.06533301 0.01267159
-0.062250488 0.04009775 -0.08750565 0.12085649 -0.045702852 0.009129579 0.0025573892 0.033914164
-0.02314548 0.03544921 0.0068418155 -0.031965192 0.024737008 -0.022903642 0.023022411 -0.055748317
0.016388716 0.061943125 0.016177326 -0.0418613 -0.054556217 0.053581353 -0.15646553 -0.022066655
-0.0744992 -0.03248547 0.041940246 -0.030769972 -0.15000024 -0.008421836 -0.04513088 -0.15522699
0.00886902 -0.0453666 -0.06197216 -0.006967306 -0.041234456 -0.16062441 -0.079629876 0.0078002294
0.05431278 -0.15802494 -0.06701858 0.013224623 -0.032649785 -0.06723424 -0.1364542 0.10600595
-0.10644478 -0.08181812 0.055593938 -0.15248744 0.054266736 -0.08644018 -0.06802869 0.07249232
-0.09567162 -0.04584595 0.022381974 -0.01609675 0.023996912 -0.031435203 -0.03376823 0.10859247
-0.03781575 -0.13788109 0.064336605 -0.1314447 -0.08713189 -0.03193283 -0.10118939 -0.006411704
0.01878728 0.03439769 -0.0546343 0.10068335 0.03192624 0.0050589307 0.101041764 -0.1326733
-0.09183708 -0.028206537 0.0021959874 -0.035444643 0.055543333 -0.17293146 0.062775925 0.0050536706
-0.067871295 0.04910687 -0.07842 -0.08802991 0.06989163 0.097299114 -0.061608166 0.043720916
-0.022710694 0.115543656 -0.026497755 -0.06584356 -0.08217613 -0.040994868 0.081680186 0.07888642
0.019408926 -0.028190942 0.025125958 -0.014705392 0.0032295652 0.059758246 0.016309116 -0.01431513
0.00023924696 -0.031479627 -0.04297871 -0.008072019 -0.004881829 -0.12256518 -0.018194163 0.06820354
0.04380181 0.0036322416 -0.007824006 0.014547782 -0.0022291604 -0.09901025 0.049188092 0.12470557
-0.06151026 -0.10683485 -0.045716844 -0.054120846 0.05541383 0.041673377 -0.1291197 0.05385204
-0.017792832 0.11788376 -0.06710962 0.057085525 -0.050056756 0.078288585 0.051839627 0.025969805
0.01884064 -0.014467039 -0.1143014 0.067282684 -0.0040751183 -0.0056619016 0.019863486 0.059234872
0.090468474 0.03450767 0.08376144 -0.13250017 0.0424662 -0.07942458 -0.03369227 -0.064639255
0.060504045 0.087383226 0.082985915 0.053015653 -0.08578357 0.04275567 -0.027197225 -0.045813173
-0.10239565 -0.044207536 -0.09214532 0.058548834 -0.09587352 -0.0067556323 0.023378719 0.068484664
0.05199688 -0.16161416 -0.083879046 0.03248423 -0.12567277 0.012157316 -0.07781998 -0.0029746413
-0.1113416 0.041965395 -0.10112526 0.050798584 -0.14751114 -0.1790018 -0.04930985 0.11058617
0.023042347 0.052419726 0.06495621 -0.0022273373 -0.052460533 -0.014838771 -0.0067219655 -0.088844106
-0.014551837 0.00060115475 0.055499267 -0.077434234 -0.0024760051 -0.08950918 0.09000219 0.006542198
-0.0033993006 -0.031139448 0.07513934 -0.00086254155 -0.025973689 0.019176677 0.08835367 0.079357736
0.08086899 0.07272085 0.09262013 -0.08453229 0.07304066 -0.084675774 -0.09127805 0.0007979925
-0.051516686 0.018835772 0.06640608 0.057892762 -0.05239571 0.10071243 0.08616575 0.060131747
-0.0415705 -0.05304605 0.034124263 0.011464132 -0.0024393327 -0.01978696 -0.035131425 0.0007471335

encoder.conv4.bias f4 [32]
00000000: 14c8 a1bd 4481 113e 5f8c 583c 2c01 8cbd
00000010: 2bda 923d 1956 92bd d3e9 593d fb0a 883c
00000020: 4709 613d 4bf2 44bd 1883 4cbd 4ea9 89bd
00000030: c0cb 113e 9340 6b3d 5263 ac3d e689 d13d
00000040: a9d0 163e 645c 363c 696d 9ebd 24e4 663d
00000050: f93f 183e 39c9 bc3b 8f88 fe3c fa06 683d
00000060: a80f 5e3d ad82 133e bd9e 003d 8ee9 a63d
00000070: d4f4 73bd 2a20 8cbd 1b16 013e 9a6d e3bc
-0.0789949 0.14209467 0.013217061 -0.06836161 0.071705185 -0.07145328 0.053201508 0.016606798
0.05494049 -0.04808263 -0.04992971 -0.067217454 0.1423788 0.05743463 0.08417381 0.1023138
0.14728035 0.011130426 -0.07735712 0.056369916 0.14868154 0.0057612923 0.031070976 0.05664728
0.05421415 0.14405318 0.031401385 0.08150016 -0.05955966 -0.06842072 0.12606089 -0.027762223

encoder.fc1.weight f4 [64, 512]
00000000: 9863 d33c 101b db3c a722 c7bc bdf2 a03c
00000010: d7a9 9e3c 0ccb c73b ccc2 bcbc 11f6 0bbd
00000020: 6889 76bb c651 1e3d eaa6 2d3d 8449 b9bb
00000030: 338d 18bb ede7 9c3c 167e 0dbc 5685 05bd
00000040: a123 1bbd 0ee3 69bc 48ac 39bd c2c6 8b3b
00000050: 236e f13c 0387 453c 9123 2a3d b22e 263d
00000060: b319 70bd 2648 063b 448b 5cbd 9b3c c4bc
00000070: 7dfc 403b c136 1ebd 3f89 ecbc a030 30bd
00000080: b3b0 303d 87a5 933d d2fa f73a b36c 4abb
00000090: 5c57 013d cc61 2f3a 8547 303d bb6a 283d
000000a0: 1f4f 333c 9db2 923c d11e ac3c f40f de3b
000000b0: 4458 973c 511c 4d3c 8a02 003d e7f8 92bc
000000c0: 34ff 333d 444e 0e3c 2e99 e53b 529c a1bc
000000d0: a5d0 833d 5f71 223d eb6d 35bb fdae 143d
000000e0: 8209 2a3d c98c f4bc a945 40bc 0539 1fbd
000000f0: 85db d53c c2ad 3cbd 509a 573c 71eb 11bd
00000100: b611 853d 6ac0 ee3b 5e95 f0bc 91e7 83bc
00000110: 406a 503d 9503 a03a ee77 073c 049a 7a3c
00000120: bdc2 3ebd 026d 0c3c 7851 ae3c 8918 e33c
00000130: 6e5b 773b ba69 943c 87d1 05bd 7e93 d2bc
00000140: c707 13bd ef6d a93c efff 2b3d 33f4 c03c
00000150: 641d 76bc 7cbd 3f3c 60a1 d43c e656 633c
00000160: fd90 5e3d 4216 b9bc fffd c43b 865f adbc
00000170: 6599 b13b d6d8 153d 3338 233c a397 033d
00000180: e779 953c ab34 6a3d 8581 3abb 0e2f 3d3d
00000190: c1de b8bc 4304 0a3d 1587 ab3c cfb1 2b3b
000001a0: b3f4 463d 5573 f7bb d1cb 5d3c 7acb 73bc
000001b0: aaaa 773c c157 133d 1fb9 25bc 8083 adbc
000001c0: de47 9bbc 497e 103d c135 f1bc cd1f d03c
000001d0: 6360 32ba f4a6 68bb a3d2 023d a3ce 0e3b
000001e0: 20e2 233d c252 e93c 767e 99bb 2465 00bc
000001f0: 503e a83b 4f8f 32bd 90c5 713d db4e 563d
00000200: 0c00 c7bc fede 00bd d0dd e03c b4b0 1ebd
00000210: bab0 89bc 0fc7 bd3c 08a1 633c 8abd 1e3d
00000220: 07d8 06bd 98bb 253b 2b6f 86bc 24ec e73a
00000230: e290 05bc 436c ba3b 57ba 8abc 6871 003d
00000240: 96f7 74bc 0fb0 79bc f26f b8ba 0a0b d5ba
00000250: 74dd 88bb db14 1b3a 979e 20bd 5540 b0bc
00000260: cd74 303d 66be 263a db0c 343d 2949 41bd
00000270: fbe7 ee3c 77f0 223d 5b82 9a3c 3922 2a3d
00000280: a8dd dc3c b244 48bd c9ee 713c efe6 a6bc
00000290: 908d e73c b109 0ebd 972d dcbc eb35 0ebd
000002a0: 7dbe ed3b 8efc 58bb 6990 87bd 9e0b 53bc
000002b0: 9aab cebb 4a8d 2e3c 40ba 60bc b5bb 19bd
000002c0: f073 3a3c 0ac9 553c 3569 22bc 0c90 8c3d
000002d0: 5ac7 4ebc 0f44 e13c 94d3 00b9 78ba 663c
000002e0: ed11 1d3d 39f6 c53c 5435 b93c c243 873c
000002f0: 3ce8 fc3b bdc8 923c a5b8 093d 6dd1 93bc
00000300: a020 98bc bdcc 93bc 3b7e 0bbd aa2a 743d
00000310: 25d2 b2bc 0fae e33c 8d7d 773d ed78 c8bc
00000320: a883 36bd 1fb1 90bc 65f0 c2bc a890 d8bc
00000330: f815 8a3c deb6 cebc 10aa b0bb d470 533d
00000340: c250 ae3b 633f 723c 8109 773d b4a6 3b3d
00000350: cd74 523c 3666 773d 897d 7d3c 7854 bebb
00000360: 09ea 123c ba4b 14bc 3c79 84bb 005c b73c
00000370: af80 913c 9702 7f3c 26c9 1e3d 39f9 ab3c
00000380: 7986 5c3a 1d3c f43c 1e10 3cbc 26be 623c
00000390: 628a 203d 1ca3 ef3c 7191 d5bc a4dd 373d
000003a0: f7db babc abc8 823c 8c88 e5bc e160 1abd
000003b0: 66d0 dabb 770d f23c 53d7 00bd 5dd4 b9bc
000003c0: cea9 803d 3aa6 1a3d 8674 6bbc 980d 823c
000003d0: 39c5 11bb 4e17 a8bc e360 10bd 466f 6d3c
000003e0: 45d0 f6bc 7654 433b df60 743c 69d3 893c
000003f0: 4f21 4b3d d28f eb3c e617 2b3c 6f27 0d3d
0.025804326 0.026746303 -0.024308516 0.019646997 0.019368095 0.006097203 -0.023042105 -0.034170214
-0.0037618522 0.038652204 0.04239551 -0.0056545157 -0.002327752 0.01915356 -0.008636018 -0.032597862
-0.037875775 -0.014275325 -0.045330316 0.004265637 0.029471463 0.012056115 0.041537825 0.040571876
-0.05861826 0.002048978 -0.05384375 -0.02395468 0.002944737 -0.038626436 -0.028874038 -0.043015122
0.043137264 0.07209306 0.0018919355 -0.0030887544 0.031577453 0.0006690293 0.043036956 0.04111741
0.010944157 0.017907435 0.021010788 0.006776804 0.018474706 0.012518958 0.03125242 -0.017940952
0.043944553 0.008685652 0.007006786 -0.01972786 0.0643628 0.0396589 -0.0027683924 0.036299694
0.041512974 -0.029852288 -0.011735358 -0.038872737 0.026105652 -0.046064146 0.01315935 -0.035624925
0.06497519 0.007286121 -0.029368099 -0.01610163 0.050882578 0.0012208099 0.00826834 0.015295509
-0.046572436 0.008570911 0.021279082 0.02772166 0.0037743705 0.01811682 -0.032670524 -0.025705095
-0.03589609 0.020682303 0.041992124 0.023553943 -0.015021656 0.011702891 0.025955856 0.013875699
0.05433749 -0.022593621 0.006011724 -0.021163713 0.0054198974 0.036583744 0.009962129 0.032127034
0.018246604 0.057179134 -0.0028458547 0.046187453 -0.022567155 0.03369547 0.020938436 0.0026198511
0.048573207 -0.0075515904 0.013537363 -0.014880056 0.015116373 0.03597236 -0.010114937 -0.021180868
-0.018955167 0.035276685 -0.029444577 0.025405789 -0.0006804524 -0.0035499902 0.03193916 0.0021790646
0.04001057 0.028481845 -0.004684265 -0.007836614 0.0051343814 -0.0435937 0.0590263 0.052321296
-0.024292015 -0.031462662 0.027449518 -0.038742736 -0.016807903 0.023166208 0.013893373 0.038754977
-0.032920863 0.0025288817 -0.01641043 0.0017694277 -0.008152219 0.0056891753 -0.016934557 0.031358153
-0.014951607 -0.01523973 -0.0014071448 -0.00162539 -0.00417679 0.00059158885 -0.039213743 -0.02151505
0.04308014 0.0006360769 0.043957572 -0.04718891 0.029163351 0.039780106 0.018860986 0.041536544
0.026961163 -0.048893638 0.0147664035 -0.02037379 0.028265744 -0.03467721 -0.026877208 -0.03471939
0.007255374 -0.0033109519 -0.06619341 -0.012881188 -0.0063070776 0.010653803 -0.01371628 -0.037532527
0.011380181 0.01304842 -0.009912779 0.06863412 -0.012620771 0.027498273 -0.0001228585 0.014082544
0.038347173 0.02416526 0.022608437 0.016511802 0.007718114 0.017917985 0.033623356 -0.018044198
-0.018570244 -0.018041963 -0.03405593 0.059611 -0.02182872 0.027792959 0.06042247 -0.024471724
-0.04455915 -0.017662583 -0.02379627 -0.026436165 0.016856179 -0.025233682 -0.005391367 0.051621273
0.0053196857 0.01478562 0.060311798 0.045813277 0.01284523 0.06040021 0.015471824 -0.0058084093
0.008966931 -0.009051258 -0.0040427726 0.022382736 0.017761556 0.015564582 0.03876605 0.020992862
0.0008412372 0.02981382 -0.011478452 0.01383928 0.039194472 0.029252581 -0.026070328 0.044889107
-0.022809966 0.015964827 -0.028019212 -0.037690047 -0.006677675 0.029547436 -0.03145535 -0.02268427
0.06282388 0.037756182 -0.014371043 0.015875623 -0.0022242798 -0.020518925 -0.03524865 0.014491862
-0.030128608 0.0029804981 0.014915674 0.016824441 0.049592312 0.028755102 0.01044271 0.034461435

encoder.fc1.bias f4 [64]
00000000: 272f 153e e8ea afbd da1c 423d f0f7 6f3d
00000010: 800a 8f3d 6b57 57bb 9c97 d13d 8d63 333c
00000020: b2fc f63c acec 2b3d 71ba f6bb ceb4 dc3c
00000030: 9f63 73bc ed9d 993d c2b8 22bd 5719 a7bd
00000040: 33e6 0e3c 9e43 81bd b395 f53c c741 8a3d
00000050: dd4d 74bd 1e39 8b3d 6645 693b 34a2 9c3c
00000060: 919f 183d 612b b6bb 2c8d 41bc 4c05 d93d
00000070: 30cb e23c ce97 133c 219d 8fbd 0c3f ffbc
00000080: a997 41bd 4777 a6bc 39f9 8abd 9c27 833c
00000090: 7b2c 633d c762 85bc 6a94 f93c 4b3a 0b3d
000000a0: 5169 91bd ca0f 2a3c 2748 893c 3ddd da3d
000000b0: a323 013c 88be a8bc 3c5d b43c 717d 12bd
000000c0: 7958 6fbc aceb 8e3d 7631 5abd 9232 28bc
000000d0: 5a80 5d3c 27d3 4d3d d3a1 213b 9aaf be38
000000e0: 85b4 0ebc 6efb 11bd eb63 5c3c 8a62 0fbc
000000f0: fae0 8bbd 4b6c 46bc 0840 013d d608 d3bd
0.14568768 -0.08589727 0.047390796 0.05858606 0.069844246 -0.0032858502 0.10233995 0.010949028
0.030149791 0.041973755 -0.0075295498 0.026941683 -0.0148552945 0.07500825 -0.03972698 -0.0815913
0.008721876 -0.06311725 0.029978609 0.06750827 -0.05964457 0.067980036 0.0035594343 0.019120313
0.03726155 -0.0055593704 -0.011813443 0.105967134 0.027684778 0.009008361 -0.07012392 -0.031157993
-0.047263775 -0.020320548 -0.06785817 0.016010098 0.05546234 -0.016282452 0.030466277 0.03399114
-0.07100166 0.010379741 0.016758038 0.10686729 0.007882032 -0.020598665 0.022017114 -0.03576416
-0.014608496 0.069785446 -0.053269826 -0.010265963 0.013519371 0.0502502 0.0024663105 9.092614e-05
-0.008710031 -0.035640173 0.013451557 -0.008751521 -0.0683002 -0.01211078 0.031555206 -0.1030442

encoder.fc2.weight f4 [16, 64]
00000000: 454d a7bd bea8 fdbc 0791 abbd 649f b73d
00000010: 77d1 91bd 5275 14bd d730 82bc d455 5d3d
00000020: dc05 00be fc77 b1bc 4cf9 73bd 5647 d03c
00000030: eeed 00be 4bb1 a4bd 47c9 0ebd b7c7 14be
00000040: 0938 fdbd de7e f7bd 00cc 5bbd 517d a3bd
00000050: 42c6 1fbc 1d7a 4e3d fc26 a73d 5ba7 bbbd
00000060: c3f0 ee3c 9e39 9dbd efc3 d3bc 7417 b83c
00000070: 349b 863d 1988 5d3d 1ae3 27be 5c9f c7bb
00000080: a55d e7bc da6c bbbc a978 893c c3ef b03c
00000090: 839b 54bd 362b 4e3d 1113 9e3d 832b 78bd
000000a0: a31d 803d 9ad8 f6bd 4273 88bd ce75 553d
000000b0: 3888 67bb 0838 67bc 3fcb 0b3d 4d3b e83d
000000c0: 5f6f 7abd c703 06be cb56 98bc 1234 19bd
000000d0: f85e 02be 8301 963d 6d37 a7bd 2ccb ffbc
000000e0: 92a4 e4bc 61ee cbbd a50b e2bd 2928 e03d
000000f0: f121 813a 0856 85bd f586 3f3c 0562 a8bd
00000100: 9a2b 98bd 60fb 333d 0a3a 9939 43b5 d63d
00000110: 3871 d53d f191 0b3d 4c49 85bc fb0b 4d3b
00000120: 8c1b ffbd 6532 03bd 7397 6fbd 4e37 c03d
00000130: b8ce 00be 83e6 7bbd bfaa 45bd a74c cabc
00000140: 3cde 9a3d f787 f03d fc35 92bd d1d2 ee3d
00000150: 7bf5 59bd 63e5 06be ca4b f5bb 4866 f4bb
00000160: b343 a03d 5651 2a3d 2f17 13bd e45e 0bbe
00000170: d34a dabd 05d4 c7bd 68e5 613d 165d a4bd
00000180: d9d2 f5bd e8f2 e5bd c4b7 c3bd 510f bd3d
00000190: fbfa 53bd 975e a1bd 4050 d1bd c70f ae3d
000001a0: e8ff c83c ff3c 19bd c909 85bd 573c 003e
000001b0: c3d5 95bd fd96 08be 60b4 08bc 183b 09be
000001c0: 21c9 b4bd 2a41 223d 9232 743d efa5 9dbd
000001d0: a013 d2bc 0b67 e43d 2b93 95bd 1d7f 2f3d
000001e0: d1b5 153e cc96 8ebd 5866 693d 566b e33d
000001f0: 6cf0 393d b019 4e3d ee77 efbd ab2f 91bd
00000200: 1ff9 22bc 1f0b 223c 51c2 963c ddb4 1f3d
00000210: 81a1 bc3d 5a64 313d 9530 0c3b dcad d83c
00000220: 7129 aebd 5770 853d 492b be3c af08 c3bc
00000230: 98c9 dc3d 6511 7dbd e624 b13d fe7b 9fbd
00000240: 751f 763c 01fa edbd e01c b93d 1fd7 883d
00000250: 4aea f93c 4cd5 5fbd c0a1 ab3d a6b8 f3bd
00000260: 8930 a83d 1e6b 4a3c 7dc1 a33d 6313 57bc
00000270: 0386 9dbd b110 fdb9 6b36 f2bd 50c7 d9bd
00000280: c4c9 acbd 2603 6e3d 0deb 3abd c98e b63b
00000290: 2c7c 3c3d 7cd2 bd3d c7e8 e13d c64a 323d
000002a0: 4f9e 12be 0b87 c03d 2cf6 1b3d f23d c23b
000002b0: 248c 4dbd 59da 02bd 6766 9c3c 8bd7 c2bd
000002c0: 7b16 b0bd 2219 913d a2ac 8c3d 6a17 0bbd
000002d0: ee3a 063c 6e3f 04be 2ac6 1c3c 1e63 c93d
000002e0: 4580 57bc 3323 ef3c 18d2 ea3d 0915 ca3d
000002f0: 64b4 6bbd 32bd c73d 2bb0 7bbd 9bf2 9abc
00000300: 44ac 863d 43e5 b8bd a3fc ae3c 29eb 36bc
00000310: 26dd 10bc 1da1 763c 9bfb aabd 0dca f2bd
00000320: 287a 0dbc 3b8b ab3c 1e90 633d 7fad 88bb
00000330: f960 aebd b17d e33d b759 dbbd 84ba 063c
00000340: adcd 743d 2218 ae3d e1a9 d5bb 6554 deba
00000350: 4090 c1bd 09f5 793d 3a74 21bd a6d6 463d
00000360: 41d9 09bd d3af c2bd 334c 233d 421c 013d
00000370: df76 063c 5f85 8dbd bb93 a6bd 0023 a23d
00000380: 5e3d be3d 58d3 f9bd 3539 0ebe 7715 6ebd
00000390: f2f5 c6bd d4b8 1bbd 969b 893d 8168 a33c
000003a0: 586d 9abd 8739 ab3d ffaf 6e3d 7abe 81bd
000003b0: 86ec c03d 141f d03c 0e85 9d3d f84f 873c
000003c0: 7349 f63c 38ae e23d 4e57 d13d 95d0 993d
000003d0: 89b3 1cbe e0f9 80bd 1bf7 113c 5109 cb3d
000003e0: 85ea 613d 0523 04bd 840e 833d e466 9a3d
000003f0: ef53 b9bc bdb2 13bb b8a5 573d c8cc a0bd
-0.08169035 -0.030964252 -0.08377271 0.08965948 -0.071200304 -0.036244698 -0.01589243 0.05403693
-0.12502235 -0.021663658 -0.05956392 0.02542464 -0.12590763 -0.080416285 -0.03485992 -0.1452931
-0.123642035 -0.12084745 -0.053661346 -0.079828866 -0.009751858 0.050409425 0.081617326 -0.0916278
0.029167539 -0.07677005 -0.025850264 0.02247212 0.065725714 0.05408487 -0.16395226 -0.006091995
-0.028242895 -0.022879053 0.016781168 0.021598702 -0.05190612 0.050334178 0.077184804 -0.06058837
0.06255653 -0.12053032 -0.06662609 0.0521143 -0.0035328995 -0.01411248 0.034129377 0.11339436
-0.061141368 -0.13087378 -0.018596074 -0.037403174 -0.1273154 0.07324507 -0.081648685 -0.03122481
-0.027910504 -0.099575765 -0.11037377 0.1094516 0.0009852034 -0.0651055 0.011689891 -0.08221821
-0.07430191 0.0439409 0.00029225677 0.10483792 0.104219854 0.034074727 -0.016270302 0.0031287658
-0.12456426 -0.03203048 -0.058494043 0.093855485 -0.12578857 -0.06149913 -0.04825854 -0.024694754
0.07561919 0.11744683 -0.07139203 0.11661304 -0.053212624 -0.13173442 -0.0074858414 -0.007458482
0.078254126 0.041581474 -0.03591078 -0.13610417 -0.10658803 -0.097572364 0.05515042 -0.08025567
-0.120031066 -0.11227971 -0.09556535 0.09231437 -0.051753026 -0.0787937 -0.102203846 0.08499103
0.024536088 -0.037411686 -0.06496007 0.12523018 -0.073161624 -0.13338847 -0.008343786 -0.13401449
-0.08827425 0.039612927 0.05961854 -0.07697665 -0.025644124 0.111524664 -0.07303461 0.042845834
0.14620139 -0.06962356 0.05698237 0.11104457 0.0453953 0.050317466 -0.11692797 -0.0708917
-0.00994709 0.009890347 0.018403204 0.038990844 0.09210492 0.043308593 0.0021391262 0.02645009
-0.08503998 0.06515568 0.023214 -0.023807852 0.107806385 -0.061784167 0.08649616 -0.077873215
0.015022148 -0.1161995 0.090387106 0.06681656 0.030507226 -0.054646775 0.08380461 -0.11900453
0.08212382 0.01235464 0.07995889 -0.013127181 -0.07691576 -0.00048268356 -0.11826786 -0.10633719
-0.08436921 0.05810847 -0.04563432 0.0055712205 0.046016857 0.09268662 0.11030727 0.04352834
-0.14318202 0.094007574 0.038076565 0.0059277946 -0.050182477 -0.031946514 0.019091798 -0.09513768
-0.08598038 0.07084872 0.068688646 -0.033957876 0.008192761 -0.12914822 0.00956873 0.09833358
-0.01315314 0.029191589 0.114658535 0.098672934 -0.05754508 0.09752883 -0.061447304 -0.018914511
0.06575826 -0.09028103 0.021360701 -0.011164465 -0.008841788 0.015053061 -0.08348771 -0.118549444
-0.008635081 0.020940414 0.055557363 -0.004171073 -0.0851459 0.11107958 -0.10710471 0.00822318
0.05976646 0.08500697 -0.0065204953 -0.0016962407 -0.09451342 0.0610247 -0.039417483 0.04854455
-0.033654455 -0.09506192 0.03986759 0.03152109 0.008207052 -0.06910204 -0.08133646 0.07916832
0.092890486 -0.12198514 -0.1388901 -0.05812594 -0.09714879 -0.038018063 0.06719129 0.019947292
-0.07540387 0.08360582 0.05827331 -0.06335159 0.09420113 0.025405444 0.07691394 0.016517624
0.03006432 0.11068386 0.1022173 0.07510487 -0.15302862 -0.0629766 0.008909012 0.09913886
0.055155296 -0.03225996 0.06399253 0.07539156 -0.02262303 -0.0022536956 0.052648276 -0.07851559

encoder.fc2.bias f4 [16]
00000000: 04a9 a0bc 901b ff3c 8eb0 7cbc 0760 103e
00000010: 22ba 95bc 741f 18bd 3caf 27bd cd89 ecbd
00000020: e038 1a3d 22e9 693b f6ca e5bd d982 2cbe
00000030: 9fd3 d33d 36fa 91bb f466 433e 622a 5dbc
-0.019611843 0.031141073 -0.015422953 0.14099132 -0.018277232 -0.03713937 -0.0409386 -0.11549721
0.037651896 0.0035691937 -0.11220352 -0.1684679 0.10343098 -0.0044548763 0.19082242 -0.013498874

encoder.fc21.weight f4 [4, 16]
00000000: c4c8 473e b475 503e 08ae 2fbe 0d4d df3d
00000010: 2c89 36be 7864 16be 05d7 853d fbd5 08be
00000020: aeb7 003d 2766 2bbd bd73 02bd 0859 523d
00000030: 5f15 d8bd 9ec2 1b3d 015c 3f3d f4ad 803c
00000040: ff8a 3b3c 5a60 60bd 4316 003e 0c58 b2bd
00000050: 59ab 36be cdd8 b93d 4b85 1a3e 51c4 db3c
00000060: 7a72 8cbd 6cc6 b33c 6ec6 f6bd a6e7 e33b
00000070: af59 1dbc acf4 21be 0931 3e3e 45e8 f0bd
00000080: 91cc fc3d 9ad5 e8bd e8bb ca3d ab44 623e
00000090: 41ab 1b3d d23e f0bd 46ce 0abe f691 563c
000000a0: ffdf 59be f0dc a23d 3612 c53c c20b bbbd
000000b0: 0390 e7bd 140a 433e 53d7 d0bd ab93 2cbe
000000c0: 16b7 4cbe 0cd5 ccbd 00d8 c8b9 d906 52be
000000d0: 1013 983d e322 1abe 880f 1bbe 8e22 2c3d
000000e0: 03d4 1ebe bacc acbd 6fff 743e b6fa bdbc
000000f0: 0f36 76bd 0764 6f3d 507d 9bbd 3ee3 a23d
0.1951018 0.203574 -0.17156231 0.10903368 -0.17825764 -0.14686763 0.06535152 -0.13362877
0.03142517 -0.041845467 -0.031848658 0.051354438 -0.10550951 0.0380274 0.0467186 0.015707947
0.0114467135 -0.054779388 0.12508492 -0.087082 -0.17838801 0.090745546 0.1508991 0.02682701
-0.06857772 0.0219452 -0.12049566 0.006955105 -0.009603902 -0.15815991 0.18573393 -0.11763052
0.123437054 -0.11368866 0.098991215 0.22096507 0.038005117 -0.11730732 -0.1355525 0.013096323
-0.21276854 0.07952297 0.024056535 -0.09133102 -0.11306765 0.19046813 -0.1019732 -0.16853206
-0.19991717 -0.10001573 -0.00038307905 -0.20510425 0.07425511 -0.1505237 -0.15142643 0.04202514
-0.15510564 -0.08437486 0.23925565 -0.023190837 -0.060110148 0.058445003 -0.07592261 0.07953499

encoder.fc21.bias f4 [4]
00000000: 9a2b 07be 17b9 66be b821 d8bd 8f41 4f3e
-0.13200226 -0.22531544 -0.10553306 0.20239852

encoder.fc22.weight f4 [4, 16]
00000000: c716 823d e3db eebd 93ff 88bc 5f4c 56be
00000010: bcfd b03c 5cdd afbe be36 8fbe 5a43 0a3e
00000020: 9b75 18be 6273 583e 0834 40be e3c3 093e
00000030: 9ffc 97be 594f 24be b6d4 2abd 3d0c 603d
00000040: eb05 ef3d edee 753d a179 9e3d a46b c13c
00000050: 0e90 66bd db33 21bd 0677 70be 7574 12be
00000060: a4cf 043e 3864 12bc b88e c8bc eb46 733e
00000070: f9a9 ee3d f538 cdbd 25cd 8fbe e175 1abe
00000080: 00d8 7a3c 2acf c03d bf92 52be 47ed 64be
00000090: 42cd 21be ec0e 52be eb44 053c b538 c03d
000000a0: 8972 b4bd 8a81 323e de8a 483c 100e ea3d
000000b0: 2893 2dbc b12d a9be 2a5e 9bbe 5a54 d4bd
000000c0: a8ca 083e b9bb af3c d6b4 12be f01a f4bc
000000d0: fcf7 79bc 5ab5 5fbd a987 11be 4e18 5d3d
000000e0: c4ff 10bb db3d 5cbd 2ae1 19be 5739 113e
000000f0: c9f0 c03d dc49 b1be a2e8 3fbe f61a af3d
0.06352001 -0.11663034 -0.01672343 -0.20927571 0.021605365 -0.3434857 -0.27971452 0.13502255
-0.14888613 0.21137765 -0.18769848 0.13453631 -0.29684922 -0.16045894 -0.041706763 0.05469917
0.11671051 0.06004231 0.077380426 0.023610897 -0.056289725 -0.039356094 -0.23482904 -0.14302237
0.12969834 -0.008935027 -0.024482116 0.23757522 0.116535135 -0.10020629 -0.280862 -0.1508403
0.0153102875 0.094145134 -0.20563792 -0.22356139 -0.15800956 -0.20513505 0.008134107 0.09385816
-0.08810908 0.17432228 0.01224014 0.114284635 -0.010594167 -0.33042672 -0.3034528 -0.10367651
0.13358557 0.021451818 -0.14326796 -0.029798001 -0.015256878 -0.05461631 -0.14211906 0.053978257
-0.0022125104 -0.053769927 -0.150273 0.1418203 0.09420926 -0.34626663 -0.18741086 0.08550064

encoder.fc22.bias f4 [4]
00000000: 617c abbe f04f 83be b4a5 babd f975 a7be
-0.3349333 -0.25646925 -0.091136366 -0.32707193

encoder.bn1.weight f4 [16]
00000000: 4fb6 6f3f 3423 683f b75a 7b3f 3ecd 763f
00000010: 1327 703f 358f 6d3f 4dbf 6c3f cbcd 703f
00000020: adf3 5e3f 8fd6 6a3f 0000 803f 18e4 653f
00000030: 0000 803f 0a77 6f3f d84d 6e3f 5a37 6f3f
0.93637556 0.90678716 0.98185295 0.96406925 0.9380962 0.9279664 0.924794 0.94064015
0.8709057 0.9173364 1.0 0.8980117 1.0 0.93541014 0.9308753 0.93443835

encoder.bn1.bias f4 [16]
00000000: a3bc 613c 01ec ed3c 852f 1fba 72c9 c83c
00000010: 87b5 4c3d f7b2 403c 99b7 323d e4a9 f8bc
00000020: 3a58 5f3c 58b3 8fbc 09dc 613c 06f2 8f3d
00000030: 66ef e23c b547 723d e2f6 d63c 39dd f63c
0.013777885 0.0290432 -0.00060724496 0.02451012 0.049977805 0.011761419 0.043632124 -0.030354448
0.013631875 -0.017541572 0.013785371 0.07028584 0.027702045 0.059150416 0.02624077 0.030134784

encoder.bn1.running_mean f4 [16]
00000000: 7793 a93d aaf2 843e 76ee f23c 9cc8 3c3c
00000010: 79fd ac3d 1050 3c3f 041e 463f 4413 193f
00000020: bd2d 3e3f 654b bf3e 0000 0000 9119 013e
00000030: 0000 0000 e01f a93c 98b6 423d 857d 113d
0.0828008 0.25966388 0.029654723 0.011522438 0.084467836 0.73559666 0.7738955 0.5979502
0.7428854 0.3736221 0.0 0.12607409 0.0 0.020645082 0.047537416 0.035520095

encoder.bn1.running_var f4 [16]
00000000: 2c94 d63c 8e1c 343c 9e24 423b 89e7 e939
00000010: 1fd3 893c 9e0d 353e 303c b33c e2ee 263e
00000020: 3887 7c3d c17f 8c3b 3791 0c2a e052 ac3c
00000030: 3791 0c2a dab8 bb3a 7d2a 9b3b bb59 2b3b
0.0261937 0.010993136 0.0029623876 0.0004461373 0.016824303 0.17680976 0.021879286 0.16302064
0.061652392 0.0042876904 1.248488e-13 0.021035612 1.248488e-13 0.0014322058 0.0047352896 0.0026146013

encoder.bn2.weight f4 [16]
00000000: 5eb3 753f a318 703f b695 5a3f d490 6b3f
00000010: 894b 683f ac7e 683f 15bb 6e3f bcce 6d3f
00000020: df9c 6b3f 9c50 673f 77aa 823f 8974 633f
00000030: 4e91 773f eedb 683f c4f3 603f c595 633f
0.9597682 0.9378759 0.8538469 0.92017865 0.9074026 0.90818286 0.93254215 0.92893577
0.9203624 0.90357375 1.0208272 0.88849694 0.9670609 0.90960586 0.87871957 0.88900405

encoder.bn2.bias f4 [16]
00000000: 7d5d 073c b9f6 6f3d 6197 a03c f26f aabb
00000010: 1f49 d43c 5524 bcbb 0a5c 6bbc d65c fc3c
00000020: a0c9 2c3d 5c92 70bb cbc7 cc3b 4ca1 de3a
00000030: a274 3e3d 17b0 9c3b 5187 0d3c 89a9 f33b
0.008262035 0.058584902 0.019603433 -0.005201333 0.025913773 -0.005741636 -0.014365206 0.030805986
0.042184472 -0.003670833 0.006249403 0.0016985326 0.04649795 0.0047817337 0.008638219 0.0074359816

encoder.bn2.running_mean f4 [16]
00000000: 5767 d43e 8d5d 8b3e 1c31 523e 97f9 8a3e
00000010: ed35 473e 77f9 863e ab1c a73e eb00 9f3e
00000020: 6359 953e b4a9 433e b18a 793e e474 463e
00000030: b892 da3e e300 873e 01c4 813e 5916 303e
0.41485092 0.2721981 0.20526546 0.27143547 0.19454165 0.26362202 0.3263906 0.31055388
0.2916976 0.19107705 0.24369313 0.19380528 0.42690063 0.26367864 0.25344852 0.17196025

encoder.bn2.running_var f4 [16]
00000000: 2d38 2b3e 31aa e63d 6f07 953d 7c87 1a3e
00000010: cb1d c63d 443c 033e 3096 353e 5b43 0f3e
00000020: 8084 093e d808 af3d 41e5 1a3e 1e17 8b3d
00000030: 6093 883e 353d df3d d430 d33d 6745 9b3d
0.16720648 0.1126293 0.072768085 0.15090746 0.09673651 0.12815958 0.17733073 0.13990538
0.13429451 0.08546609 0.15126516 0.06791519 0.26674938 0.10900346 0.103120476 0.07581597

encoder.bn3.weight f4 [32]
00000000: 5c4f 7d3f c53a 7a3f 0ba8 733f 1c11 743f
00000010: 2a8f 723f 6e90 733f 813e 813f 310c 7d3f
00000020: 3415 703f 9af9 6b3f e4ea 6b3f 57c3 803f
00000030: 89e2 793f 9710 763f 4562 723f d992 683f
00000040: 47d8 713f aa1f 7a3f 7786 813f ee29 753f
00000050: bccb 713f a8c6 753f ccb2 653f 7533 763f
00000060: db5d 783f b7a0 623f ad12 7c3f 01ac 7b3f
00000070: da9a 813f e9ae 6c3f e659 683f be3d 7d3f
0.9894922 0.97745925 0.9517829 0.95338607 0.947497 0.9514226 1.00972 0.9884673
0.93782353 0.92177737 0.9215529 1.0059613 0.9761129 0.96119064 0.946812 0.9084907
0.9447064 0.97704566 1.011916 0.95767105 0.944515 0.9600625 0.8972595 0.9617227
0.9701821 0.8852648 0.98465997 0.9830933 1.0125382 0.9245439 0.90762174 0.98922336

encoder.bn3.bias f4 [32]
00000000: f4bb 70bd 76d2 4dbd 550c 5abd 5a90 3cbd
00000010: 4470 8abc 015e ccbc 7bac 8fbd 8cdf 4cbc
00000020: e287 21bd 5799 afbc 6e0d 353d 4599 d3bc
00000030: 96ee 313c d75e 7bbb d96d aebb 5682 5abd
00000040: 59e6 3ebc 9789 05bd f67c aebd b904 b4bc
00000050: 5490 e1bc 2bde 7ebd 71c0 de3c e8f3 843c
00000060: b5b3 1bbd 0dd9 92bc 8e1a 5dbd b275 8fbc
00000070: 50c2 a0bd 5ff6 8cbc c19d 4dbd d7b9 b3bb
-0.058772996 -0.05024954 -0.053234417 -0.046036102 -0.016899236 -0.024947168 -0.0701532 -0.01250447
-0.03943623 -0.021435423 0.04420226 -0.02582992 0.010860106 -0.003835609 -0.0053231535 -0.053346954
-0.011651599 -0.03260192 -0.08519928 -0.021974908 -0.027534641 -0.062223595 0.027191373 0.016229585
-0.03801318 -0.017925764 -0.053980403 -0.017512176 -0.07849562 -0.017207323 -0.050199274 -0.0054848003

encoder.bn3.running_mean f4 [32]
00000000: 1647 953e a2ec 4e3e 2a0a be3e 78ec 7d3e
00000010: 4235 8f3e 0972 883e c88c 663e 6aed a83e
00000020: 4eed 5a3e c2c5 3a3e bd24 9b3e c61d a03e
00000030: 508d 9a3e ad0d 5a3e 8794 743e 9e5c 4a3e
00000040: ad00 733e 1e44 c63e 6508 813e 5217 ae3e
00000050: 3620 923e a73d 863e 83b4 463e 5576 7b3e
00000060: 43d3 4f3e 5e19 3d3e 1d56 973e 3df3 9c3e
00000070: 5df9 6d3e f53d 2c3e 0ef0 a53e 3d1f af3e
0.29155797 0.20207456 0.3711713 0.24797237 0.2797032 0.26649502 0.22514641 0.32993633
0.21379587 0.18239501 0.30301467 0.31272715 0.30185938 0.2129428 0.23884784 0.19761893
0.23730727 0.38723844 0.25201717 0.34002167 0.285402 0.26218912 0.19404797 0.24556859
0.20295434 0.18466708 0.29557887 0.30654326 0.23239656 0.1682051 0.3240971 0.3420352

encoder.bn3.running_var f4 [32]
00000000: eff9 253e 3ec2 d63d 9c43 563e d9bb 293e
00000010: d3fa 353e c13c 313e 3f55 093e 36d4 863e
00000020: b115 cd3d b639 ca3d b0fc 2e3e 0e68 303e
00000030: 5945 333e 3a57 173e 23a1 233e 9d2e e63d
00000040: 0c01 0c3e ceae 5e3e 4292 2c3e 9d2f 903e
00000050: 89a1 0e3e 2135 213e 3362 d53d 4138 0b3e
00000060: f3ca 053e d08d af3d b0e1 1e3e 8015 303e
00000070: 85d3 fa3d 72ea ad3d 482c 153e 3083 9b3e
0.16208623 0.104862675 0.20924228 0.16575564 0.17771463 0.17308332 0.13411425 0.2633378
0.10013903 0.09874289 0.1708858 0.17227194 0.17506923 0.14779368 0.15979438 0.112393595
0.13672274 0.2174637 0.16852668 0.28161326 0.13928808 0.15742923 0.10419121 0.13595678
0.130657 0.085719705 0.1551578 0.17195702 0.122473754 0.084919825 0.14567673 0.30373526

encoder.bn4.weight f4 [32]
00000000: b7db 773f ea35 793f 97c0 673f 473a 683f
00000010: badc 743f 2254 7b3f f1f4 7b3f f862 713f
00000020: 23fd 733f 5b4f 743f 2416 7b3f 3584 7b3f
00000030: 1d3c 773f f812 703f a56c 793f 718d 7a3f
00000040: 07fb 733f ec21 753f 9c42 7b3f 099e 843f
00000050: 3ea3 873f f77c 793f c524 793f 5413 7e3f
00000060: 91de 7c3f bf8f 823f 0730 783f 21a7 703f
00000070: 36a5 733f 635f 753f 827a 783f cee4 723f
0.96819633 0.9734789 0.90528244 0.90713924 0.956493 0.9817525 0.98420626 0.9429164
0.9530813 0.95433587 0.9808066 0.98248607 0.965761 0.93778944 0.97431403 0.9787207
0.9530491 0.95754886 0.9814851 1.0360729 1.0596693 0.97456306 0.9732173 0.9924824
0.9877711 1.0200118 0.96948284 0.9400502 0.95173967 0.95848674 0.9706193 0.9488038

encoder.bn4.bias f4 [32]
00000000: cf20 5dbd 4cdb f63c f6c5 223d 02af ab3c
00000010: fd22 8cbc a115 b2bc 3c8f 0d3c c690 e43c
00000020: 299a 5dbd 1b55 32bc 7d62 5fbd 6bf4 21bc
00000030: 9d3f 343c 50f9 843d 4fa9 053d d01c 923c
00000040: b03c a8bb 6568 7dbc 9de6 5ebd 31c1 efbc
00000050: bc68 86bc 4554 a53b 94e3 8ebd 34bf b5bc
00000060: 8a67 38bd 9817 133b ee38 bbbc 95a7 17bd
00000070: 84c9 9abc 1e4a 43bd 4d40 023d 139e b9bc
-0.053986367 0.030133866 0.03973957 0.020957474 -0.017106527 -0.02173883 0.008640107 0.027901065
-0.054102097 -0.010884549 -0.054537285 -0.009884934 0.011001495 0.06492865 0.03263217 0.017836004
-0.0051341876 -0.015466784 -0.05441915 -0.029266926 -0.016407363 0.005045446 -0.06977001 -0.0221859
-0.045020618 0.0022444483 -0.022854295 -0.037025053 -0.018894918 -0.047678106 0.031799603 -0.022658383

encoder.bn4.running_mean f4 [32]
00000000: 3183 533e 7e54 ab3e 08b0 833e e739 473e
00000010: 0a55 643e 9e43 763e 5dd6 943e 52b6 7f3e
00000020: 5110 933e 33c7 613e 745b 5d3e 6ad6 6e3e
00000030: cf8b 9f3e 9cd1 833e 80d1 873e 59bb 9a3e
00000040: 1e7d a53e 4c2d 6b3e abc6 5c3e 875a a23e
00000050: 0bc8 c83e 1191 913e 3ce7 983e e32d 863e
00000060: 31b3 ac3e 4c26 a63e e4de 833e ec4d 9e3e
00000070: c310 853e da98 4c3e 223c 913e 4f70 673e
0.20655514 0.334629 0.2572024 0.19455682 0.22298065 0.24049231 0.29069796 0.24971893
0.28723386 0.22048645 0.21616918 0.2332398 0.31161353 0.25745857 0.26527023 0.3022106
0.3232202 0.22966498 0.21560161 0.31709692 0.3921512 0.2843099 0.29863918 0.26206884
0.33730462 0.32451093 0.2575599 0.30918825 0.2598935 0.19980183 0.2836619 0.22601436

encoder.bn4.running_var f4 [32]
00000000: 6f3f f43d a5ea 7a3e 762c 283e 41f6 f33d
00000010: ee98 063e 3757 123e 5d14 243e dac5 f83d
00000020: 1c13 323e db00 093e c8a9 e43d 76f2 093e
00000030: 57fc 443e fe19 293e f3f4 1c3e f33b 543e
00000040: 5b3f 363e 5004 033e 5118 f23d befb 403e
00000050: 5de4 8b3e 6cb1 633e 7c55 4b3e e10c 2a3e
00000060: f2e9 923e d7d6 5e3e 0b15 323e 21b7 3f3e
00000070: 8cad 223e 565f eb3d 9e86 163e 88bd 063e
0.119261615 0.24503572 0.1642321 0.119122036 0.13144276 0.14291082 0.16023393 0.12147112
0.17390102 0.13379233 0.11165196 0.13471398 0.19236885 0.16513821 0.15327816 0.20725994
0.17797606 0.12794614 0.11821044 0.18846032 0.27322665 0.2223565 0.19856828 0.16606475
0.2869411 0.21761642 0.1739084 0.18722202 0.15886515 0.11492793 0.1469979 0.13158238
