results/_race_fptra_0.7_1000_VAE_model.pt (torch, 201744 bytes, 61 tensors)

encoder.conv1.weight f4 [16, 1, 2]
0	0xbec42727	-0.3831112
1	0xbe9bfe27	-0.3046734
2	0xbedcc34a	-0.43117744
3	0xbe9162c1	-0.28395656
4	0x3f272fe0	0.65307426
5	0xbe9437ee	-0.2894892
6	0x3ceda3d1	0.029008778
7	0x3f21ee01	0.6325379
8	0x3eb951a1	0.3619509
9	0x3ee09fb1	0.43871835
10	0xbef4940a	-0.47769195
11	0x3dd22950	0.10261786
12	0x3e85c23b	0.2612475
13	0x3f102c13	0.5631725
14	0x3ecb2d48	0.39682984
15	0x3eba0ca4	0.3633777
16	0xbd53e53a	-0.05173228
17	0xbe103da9	-0.14086021
18	0x3de488ba	0.11158891
19	0xbf068fd4	-0.52563214
20	0x3ef068aa	0.46954852
21	0x3e30e326	0.1727415
22	0x3f1840b6	0.5947374
23	0x3f22796a	0.63466513
24	0xbe763500	-0.24043655
25	0x3e202a55	0.15641148
26	0x3ef068ee	0.46955055
27	0xbdaa43e8	-0.08313733
28	0x3eeabca9	0.4584706
29	0xbe642b51	-0.22282149
30	0xbec8a7b4	-0.39190447
31	0xbf2e348e	-0.6804894

encoder.conv1.bias f4 [16]
0	0x3e2effb7	0.17089735
1	0xbed20a5b	-0.41023526
2	0xbe9ffc5b	-0.3124722
3	0xbe62d510	-0.2215159
4	0xbf32001b	-0.6953141
5	0xbeec0752	-0.46099335
6	0x3e5e38f7	0.21701418
7	0xbdf6753a	-0.12034078
8	0x3ea08404	0.3135072
9	0x3db58799	0.08863754
10	0xbec0a12d	-0.37622967
11	0xbda60be8	-0.0810774
12	0x3f0e1163	0.5549528
13	0xbf17fcfe	-0.5937041
14	0x3e00b3d1	0.12568595
15	0xbe255a74	-0.16147786

encoder.conv2.weight f4 [16, 16, 2]
0	0xbe1bd2a3	-0.1521707
1	0x3d4917b3	0.049094867
2	0x3dd8ad34	0.10579911
3	0x3dfe5f48	0.12420517
4	0x3bb51c72	0.0055270726
5	0x3dc28739	0.09498448
6	0xbda446e8	-0.08021337
7	0xbd0bcf09	-0.03413299
8	0x3e34db12	0.17661694
9	0x3d11b949	0.035577092
10	0x3d610c5d	0.05494343
11	0x3d0cb09c	0.034348115
12	0xbdae271c	-0.08503553
13	0xbd839d4f	-0.064264886
14	0x3e3c53b4	0.18391305
15	0xbd88fb2f	-0.066885345
16	0x3db42553	0.087961815
17	0xbd9feeb8	-0.07809204
18	0xbe206d04	-0.15666586
19	0xbd606cda	-0.05479131
20	0x3ddc2c72	0.10750665
21	0x3c7eee5d	0.01555976
22	0x3d9cfbf2	0.07665242
23	0x3dc5c518	0.09656733
24	0xbe0a469a	-0.13503495
25	0x3bd445d2	0.00647805
26	0x3e007175	0.1254328
27	0xbb9dac1a	-0.004811776
28	0x3ddc7786	0.10764985
29	0x3ddc2f5d	0.10751221
30	0xbd43cedb	-0.047804695
31	0xbdd1c368	-0.10242349
32	0xbd64324b	-0.055712026
33	0x3d790d0c	0.060803458
34	0x3d14ad76	0.036298238
35	0xbe09571a	-0.13412133
36	0xbdde8799	-0.10865707
37	0x3b677fc8	0.0035323966
38	0x3cf2e9f7	0.029652579
39	0xbd5ebeb0	-0.054381073
40	0x3c747a1f	0.014921694
41	0x3b4249bd	0.0029646002
42	0xbc9ebb9b	-0.019376567
43	0xbbe44acc	-0.0069669243
44	0xbc484bd3	-0.012225109
45	0xbc6aa840	-0.0143223405
46	0xbe08c2e6	-0.13355598
47	0xbbe9a7e3	-0.0071306094
48	0xbe171466	-0.14753875
49	0x3e302e9b	0.17205279
50	0x3db75feb	0.08953842
51	0x3e439792	0.19100788
52	0xbde25e8c	-0.1105319
53	0xbd47bc1c	-0.04876338
54	0x3c51d1e8	0.012806393
55	0xbdf2cf86	-0.11855988
56	0x3e1b1d65	0.15147932
57	0xbdd7daeb	-0.10539802
58	0xbc9a7f73	-0.0188596
59	0xbd8d7131	-0.06906355
60	0xbdf59430	-0.11991155
61	0xbae6fe56	-0.0017623405
62	0xbe258179	-0.16162671
63	0x3c90bf54	0.017669357
64	0x3e012257	0.12610756
65	0x3c177752	0.009244757
66	0x3cf2e7ef	0.02965161
67	0xbdd69890	-0.10478318
68	0x3db8d497	0.09024923
69	0x3ccc2dc9	0.024924176
70	0x3e2681ac	0.16260403
71	0x3dc37241	0.095432766
72	0x3e3c955e	0.18416354
73	0xbcf70898	-0.030155465
74	0x3c837f86	0.016052019
75	0xbe1a76aa	-0.15084329
76	0x3e53f42a	0.2069861
77	0xbc3879af	-0.01125948
78	0xbdbacf9c	-0.091216296
79	0x3d94f691	0.07273591
80	0x3d8975eb	0.06711944
81	0xbdedd4a7	-0.11612826
82	0x3db2ea84	0.087361366
83	0x3db7b057	0.08969181
84	0x3e5215a8	0.20516074
85	0x3dba6c2f	0.09102666
86	0x3e4526aa	0.1925303
87	0xbdc57640	-0.09641695
88	0xbc63cbc1	-0.013903559
89	0xbdf9bff9	-0.12194819
90	0x3c889070	0.016670436
91	0x3e24e790	0.16103959
92	0x3ddc97ec	0.10771164
93	0xbca86425	-0.020555565
94	0xbe24727d	-0.16059299
95	0xbe1c8fb0	-0.15289187
96	0xbe13af3d	-0.14422317
97	0x3b69d88b	0.0035682048
98	0x3da93b9c	0.08263323
99	0x3d768efe	0.06019496
100	0x3ded66c2	0.11591865
101	0xbdcb4a71	-0.09926308
102	0xbd264345	-0.040591497
103	0xbd7f8571	-0.06238312
104	0x3e03e064	0.12878567
105	0xbd8f1ff3	-0.06988516
106	0xbd55c510	-0.052189887
107	0x3e0bcd5f	0.13652562
108	0x3d460b54	0.048350647
109	0xbe2aa079	-0.16662778
110	0x3e38a97a	0.180334
111	0xbe291771	-0.16512848
112	0xbdcf0b72	-0.10109605
113	0x3d84cfa2	0.06484915
114	0x3de831a1	0.11337591
115	0xbe0d3b98	-0.13792264
116	0x3e06260e	0.13100454
117	0x3d9e3020	0.07724023
118	0xbdc70139	-0.0971703
119	0xbdca7335	-0.09885255
120	0x3cb8e164	0.022568412
121	0xbe07f69d	-0.13277669
122	0xbe127a8d	-0.14304562
123	0x3df4b57b	0.11948677
124	0xbc6a990b	-0.014318715
125	0x3decf8b6	0.11570875
126	0x3d35b4fc	0.044362053
127	0xbc306e14	-0.010768432
128	0xbd3d6fbd	-0.04624914
129	0xbd7bd94c	-0.061486527
130	0x3e0eb082	0.1393452
131	0xbd2b0724	-0.041754857
132	0xbdd1bb62	-0.102408186
133	0x3da96d47	0.08272796
134	0xbe0314e9	-0.12800945
135	0x3db00b8c	0.085959524
136	0x3d1ef09f	0.038803693
137	0xbc61bae6	-0.01377747
138	0xbd7c7f5a	-0.06164489
139	0x3c81ea6c	0.015858851
140	0xbe2de75c	-0.16982788
141	0xbe14f69a	-0.14547196
142	0xbdef0e75	-0.11672679
143	0xbdb7437a	-0.08948417
144	0x3dbc3e0a	0.091915205
145	0x3e03e30e	0.12879583
146	0x3e29eb21	0.16593601
147	0x3c60cd15	0.01372077
148	0xbe0f0c06	-0.1396943
149	0xbd46a86e	-0.04850047
150	0xbe2713fc	-0.16316217
151	0x3e170f66	0.14751968
152	0xba5aee9e	-0.0008351597
153	0x3e100cf9	0.14067449
154	0xbcaa8956	-0.02081744
155	0xbe2f3963	-0.17111735
156	0xbd83493d	-0.064104535
157	0xbd658243	-0.05603243
158	0xbd54cf11	-0.051955286
159	0x3b57243b	0.0032827992
160	0xbd126060	-0.03573644
161	0xbda97cd2	-0.08275761
162	0x3e2a72a2	0.16645291
163	0x3c06060e	0.0081801545
164	0xbd06896d	-0.032845903
165	0x3dcddfe3	0.10052469
166	0x3cd7016b	0.026245793
167	0x3c3245b5	0.010880877
168	0xbdc5c211	-0.09656156
169	0x3df8be07	0.1214562
170	0xbdf7137e	-0.12064265
171	0xbd6a8075	-0.057251412
172	0xbdbda0a1	-0.09259153
173	0x3d98509c	0.0743725
174	0xbdd88d16	-0.10573785
175	0xbe078bf2	-0.13236979
176	0xbe02e1e9	-0.1278149
177	0xbdfb6cbe	-0.122766
178	0xbdd13860	-0.10215831
179	0x3e253229	0.16132416
180	0x3da50df1	0.080593
181	0x3bac63cc	0.00526092
182	0x3e0eaa88	0.1393224
183	0x3cff355c	0.031153373
184	0x3e013abd	0.12620063
185	0xbd181a79	-0.03713462
186	0x3deb0c16	0.114769146
187	0xbe0bd240	-0.13654423
188	0x3dbd102c	0.092316
189	0xbc143647	-0.009046144
190	0xbd81ec9d	-0.063439585
191	0xbd842e3f	-0.06454133
192	0x3d2ef914	0.04271801
193	0x3c138685	0.00900424
194	0xbd928c65	-0.071556844
195	0xbd60f5b6	-0.05492183
196	0xbe122b52	-0.14274338
197	0x3e15aeac	0.14617413
198	0xbb028826	-0.0019917577
199	0x3d480f0d	0.04884248
200	0x3e1b8025	0.15185602
201	0xbd88767c	-0.06663224
202	0x3df914ab	0.12162145
203	0xbd90458a	-0.070445135
204	0xbc53c74f	-0.012925937
205	0xbd4087c8	-0.04700449
206	0xbd4bf59c	-0.04979478
207	0x3e3332f5	0.17499907
208	0xbd9618b8	-0.073289335
209	0xbd3d42cc	-0.04620628
210	0xbe14c5cc	-0.14528579
211	0xbd5f10af	-0.05445927
212	0xbdc0e986	-0.09419541
213	0x3e01fdc9	0.12694468
214	0x3df0461e	0.11732124
215	0x3dd61540	0.10453272
216	0x3dd31af6	0.10307877
217	0xbdf45bf3	-0.119316004
218	0x3d58eab6	0.052958213
219	0x3e28407a	0.16430846
220	0xbe2212f9	-0.1582755
221	0x3de0bd69	0.10973627
222	0x3cbe583e	0.023235437
223	0xbe2db115	-0.16962083
224	0x3ddf679a	0.10908432
225	0x3d0ddc92	0.03463418
226	0x3dfe5585	0.12418655
227	0xbd322891	-0.04349572
228	0xbe2ab05e	-0.16668841
229	0xbd149fe0	-0.03628528
230	0x3e2dfc2b	0.16990726
231	0x3d6a0148	0.05713013
232	0xbd470dc8	-0.048597127
233	0x3e04d91e	0.12973449
234	0x3d9bfee3	0.07616975
235	0x3c9b7cb2	0.018980358
236	0xbb195ead	-0.0023402378
237	0x3ddfacec	0.10921654
238	0xbd455895	-0.04818018
239	0xbd2db8d5	-0.042412598
240	0x3da44ac8	0.08022076
241	0x3d5e43f7	0.054264035
242	0x3d74b815	0.059745867
243	0xbdc53789	-0.09629733
244	0xbd404ffc	-0.04695128
245	0xbd0c797b	-0.03429554
246	0x3de21fc8	0.11041218
247	0xbe1e2523	-0.15443854
248	0xbdcad371	-0.099036105
249	0xbd80559d	-0.062663294
250	0x3e4abe1d	0.19799085
251	0x3dad55b8	0.08463615
252	0x3cd450ed	0.025917495
253	0x3e1a2f18	0.15057027
254	0x3e47b3fd	0.19502254
255	0x3e34c158	0.1765188

encoder.conv2.bias f4 [16]
0	0x3e03ddb3	0.1287754
1	0x3e121e25	0.14269312
2	0xbd2b0b32	-0.041758724
3	0xbc58dd5e	-0.013236372
4	0x3dd25f33	0.10272064
5	0xbdab3b9c	-0.08360979
6	0xbdd4d966	-0.10393028
7	0xbe1a6940	-0.15079212
8	0xbdf7a429	-0.12091858
9	0x3d6d2ef3	0.057906102
10	0xbda69b5e	-0.08135103
11	0x3d311082	0.043228634
12	0x3d0cc30c	0.0343657
13	0x3d815b41	0.063162334
14	0xbdaada9e	-0.08342479
15	0x3e55b3e2	0.20869401

encoder.conv3.weight f4 [32, 16, 2]
0	0xbdcaf81c	-0.09910604
1	0x3dff7c60	0.124748945
2	0xbde61685	-0.11234764
3	0xbe13d903	-0.14438252
4	0xbe053652	-0.13009003
5	0xbdae546a	-0.085121945
6	0x3d028558	0.031865448
7	0x3ab22870	0.0013592374
8	0xbd099c01	-0.033596043
9	0xbd34fd2d	-0.04418676
10	0x3e0f1e18	0.13976324
11	0xbc148a8b	-0.009066234
12	0x3e5b5429	0.21418823
13	0x3d7d1038	0.061783046
14	0x3c91347a	0.017725218
15	0xbdae2368	-0.08502847
16	0x3daecde5	0.08535365
17	0xbdb80137	-0.08984607
18	0x3d77f2d4	0.060534313
19	0xbc35d388	-0.011097796
20	0xbe61e86f	-0.22061323
21	0x3dde495c	0.10853836
22	0xbe41bd85	-0.18919952
23	0xbe01eb05	-0.12687309
24	0xbd8382be	-0.064214215
25	0xbd8de75f	-0.06928896
26	0xbe69760e	-0.2279894
27	0x3dafe72f	0.08589017
28	0xbe2561b6	-0.16150555
29	0xbd8fb6e7	-0.07017308
30	0xbe746de7	-0.2387005
31	0x3e1d216d	0.15344782
32	0x3d24cb3f	0.040232893
33	0x3de1311e	0.109956965
34	0x3df97eab	0.12182363
35	0xbe055789	-0.13021673
36	0x3d133135	0.0359356
37	0x3e05c9ad	0.13065214
38	0x3ce6d4e7	0.028177692
39	0xbe3a686f	-0.18203901
40	0xbdc9c3f0	-0.09851825
41	0x3e39f533	0.18159942
42	0xbc532df9	-0.012889379
43	0x3de6cb3c	0.11269233
44	0x3aa71333	0.0012746811
45	0xbdf168fa	-0.11787601
46	0x3c1594d5	0.009129723
47	0x3d75f6ab	0.060049694
48	0x3db83421	0.08994318
49	0x3e387504	0.18013388
50	0xbe1dce71	-0.15410782
51	0xbba397a8	-0.004992444
52	0xbcaa082e	-0.020755854
53	0x3d8baeed	0.06820474
54	0x3dfe09a5	0.12404183
55	0x3cba5a0b	0.022748014
56	0x3e16cd57	0.14726768
57	0xbe2eeb91	-0.17082049
58	0xbdf718f6	-0.12065308
59	0x3bb7ab47	0.0056051346
60	0x3df54d1f	0.119776
61	0xbd26d5f0	-0.04073137
62	0x3da678cc	0.08128509
63	0x3e14eee1	0.1454425
64	0x3d64fb34	0.05590363
65	0xbdb5396d	-0.08848844
66	0x3ded0220	0.11572671
67	0xbd88341d	-0.06650565
68	0xbe5769ae	-0.21036407
69	0xbe11a9a0	-0.14224863
70	0xbe3885b6	-0.18019757
71	0xbc1b51e6	-0.009479975
72	0x3d89a7b8	0.06721443
73	0x3d9cf6c1	0.07664252
74	0xbdca8413	-0.098884724
75	0xbde72760	-0.11286807
76	0xbd4bd0ba	-0.049759604
77	0x3c990393	0.018678462
78	0x3dfaf929	0.12254555
79	0xbdc3421b	-0.09534093
80	0x3e1227aa	0.14272943
81	0xbc329044	-0.010898653
82	0xbd9dc23f	-0.07703065
83	0x3cc0d365	0.0235383
84	0xbe0c1811	-0.13681056
85	0x3ceec820	0.029148161
86	0xbd28983e	-0.041160814
87	0x3e327457	0.17427193
88	0x3e2fc3e6	0.17164573
89	0xbdc20088	-0.094727576
90	0xbd541fb4	-0.051788047
91	0xbcb63858	-0.022243664
92	0xbd659367	-0.056048777
93	0x3e1af1b1	0.1513126
94	0x3e13e226	0.14441738
95	0x3e2123a3	0.1573625
96	0xbcf957ab	-0.030437311
97	0xbd557770	-0.052115858
98	0x3e3e23dc	0.18568367
99	0xbc5e57e8	-0.013570763
100	0xbe16fe52	-0.14745453
101	0xbde82a34	-0.113361746
102	0xbd8044ed	-0.062631465
103	0x3de2d883	0.110764526
104	0x3dd59d83	0.104304336
105	0x3e101021	0.14068653
106	0xbe21afad	-0.15789671
107	0xbe4a7dd9	-0.1977457
108	0xbde3ab57	-0.11116665
109	0x3c0c44a2	0.008561285
110	0xbd9d946d	-0.076943256
111	0xbda18d2b	-0.07888254
112	0xbcafddb2	-0.021468017
113	0xbd5751f6	-0.0525684
114	0xbcf84e4f	-0.030310778
115	0xbe10246c	-0.14076394
116	0x3d968aef	0.07350718
117	0x3e082809	0.13296522
118	0x3d2f07a5	0.0427319
119	0xbdb4d4a3	-0.0882962
120	0x3d773b35	0.0603592
121	0x3c434898	0.011919163
122	0xbd82ad40	-0.06380701
123	0x3e3badc9	0.18328013
124	0xbd9bd5d2	-0.07609142
125	0xbdf08a39	-0.11745114
126	0xbdecfc67	-0.115715794
127	0xbdc4dc2c	-0.09612307
128	0x3e19a2da	0.15003529
129	0x3b94e0a6	0.0045433817
130	0x3e074b7e	0.13212392
131	0xbe3b5efb	-0.18297951
132	0x3cc2e3b7	0.023790224
133	0xbe54127f	-0.2071018
134	0x3d6b5a13	0.05745895
135	0x3ae2c5ad	0.0017301344
136	0x3e22a172	0.15881899
137	0x3d3aecd0	0.045636
138	0xbd6b3bd3	-0.0574301
139	0xbd905aae	-0.07048546
140	0xbdf40639	-0.119152494
141	0xbe561727	-0.2090727
142	0xbd208dde	-0.039197795
143	0xbddd8e5a	-0.10818167
144	0xbddb741b	-0.10715505
145	0xbdaf0229	-0.08545334
146	0xbdf8f186	-0.12155442
147	0x3ded3096	0.11581533
148	0x3d4f528d	0.050615836
149	0xbdac310e	-0.08407794
150	0xbdb1f250	-0.086887956
151	0x3dad7127	0.08468848
152	0xbdd0b798	-0.10191268
153	0xbe1846b7	-0.14870726
154	0x3b6fb0a0	0.0036573783
155	0x3dbdbdb1	0.092646964
156	0x3da58a4e	0.0808302
157	0x3e0653e9	0.13117947
158	0xbd18249b	-0.037144285
159	0x3deb2486	0.11481576
160	0x3de5ce27	0.11220961
161	0x3df789b5	0.120868124
162	0xbcd816cc	-0.026378058
163	0xbcba9fe1	-0.022781314
164	0x3e3a4552	0.18190506
165	0xbc3dd009	-0.011585244
166	0x3c8881d7	0.016663475
167	0x3c81fa4d	0.015866423
168	0xbdb23c97	-0.08702963
169	0xbdc35e75	-0.095395006
170	0x3e02b0f6	0.12762818
171	0xbd442d6c	-0.04789488
172	0xbc5ef9f9	-0.013609403
173	0x3de35552	0.11100258
174	0xbd821d4a	-0.06353243
175	0xbd958871	-0.07301415
176	0x3dd9c506	0.10633282
177	0xbd466bde	-0.048442714
178	0x3d942ed1	0.07235492
179	0xbda0fc55	-0.078606285
180	0x3de7c57e	0.113169655
181	0x3e038eaa	0.12847391
182	0xbe25d4b4	-0.16194421
183	0xbcfbeea7	-0.030753447
184	0xbcc146e4	-0.023593374
185	0xbd82254c	-0.0635477
186	0xbd883b38	-0.0665192
187	0x3cb59eb4	0.022170402
188	0xbdfc42f7	-0.1231746
189	0xbe190d5c	-0.14946502
190	0x3d9d0fae	0.07669006
191	0xbd4c4e0b	-0.049879115
192	0x3d672825	0.05643477
193	0xbda50c6d	-0.08059011
194	0x3b375709	0.002797546
195	0xbd910681	-0.07081319
196	0xbda6f7d9	-0.08152742
197	0x3cb41240	0.021981359
198	0xbc0fc6d1	-0.008775429
199	0x3e1ba8aa	0.15201059
200	0xbe03fe57	-0.12889992
201	0xbc954567	-0.01822157
202	0x3e1d5fb8	0.15368545
203	0x3daf029e	0.08545421
204	0xbc52cddf	-0.012866466
205	0x3d15c121	0.036561135
206	0xbe02d3f4	-0.12776166
207	0xbbc3c195	-0.0059740045
208	0x3c9cd708	0.019145504
209	0xbda50375	-0.080573
210	0x3c8792b4	0.016549446
211	0xbdb7c6bd	-0.08973453
212	0xbdba1a22	-0.09087016
213	0xbd0920f1	-0.03347868
214	0xbe445d6d	-0.19176264
215	0xbda48180	-0.08032513
216	0xbdb4d45f	-0.08829569
217	0xbdf1dbd6	-0.118095085
218	0xbe35c443	-0.17750649
219	0x3e0ae70e	0.13564703
220	0xbe1992f9	-0.14997472
221	0xbe084eee	-0.1331136
222	0xbd4cba36	-0.049982272
223	0x3d094c05	0.033519763
224	0x3c08f028	0.008358039
225	0x3c65b7d4	0.014020879
226	0x3da69859	0.08134527
227	0xbdf33d76	-0.11876957
228	0x3cf5a77e	0.029987093
229	0x3da1dde9	0.07903654
230	0xbcc347f9	-0.02383803
231	0x3d00498a	0.031320132
232	0xbdc12ffa	-0.09432979
233	0xbd3abcce	-0.045590214
234	0xbdad1d73	-0.084528826
235	0xbd30ba48	-0.0431464
236	0xbe0f4e5a	-0.13994732
237	0x3d49c916	0.049264036
238	0xbdad8643	-0.08472874
239	0xbd32f27b	-0.04368828
240	0xbe2a45a0	-0.16628122
241	0x3bcb6e8b	0.006208246
242	0xbd3b4495	-0.0457197
243	0x3dee69ba	0.116412595
244	0xbd1caaa3	-0.03824867
245	0x3d2674e8	0.040638834
246	0xbe200750	-0.1562779
247	0xbb2af75b	-0.0026087377
248	0xbd1ff6ba	-0.039053656
249	0x3ddf5ad5	0.10905997
250	0xbe3455b7	-0.17610823
251	0x3e23d242	0.15998176
252	0xbe1553be	-0.14582726
253	0xbc7fe661	-0.015618891
254	0xbe3ddbc7	-0.1854087
255	0x3e067f59	0.13134517

encoder.conv3.bias f4 [32]
0	0x3e42c1bd	0.19019218
1	0xbcdea7d1	-0.02717963
2	0x3d9df846	0.0771337
3	0x3e2313c4	0.15925509
4	0xbde6b646	-0.11265235
5	0xbdd536b4	-0.104108244
6	0x3e2239b8	0.1584233
7	0xbd916386	-0.07099061
8	0xbdd33147	-0.10312133
9	0xbc32f216	-0.010921976
10	0xbdada381	-0.084784515
11	0xbd9c55be	-0.076335415
12	0x3d49b566	0.04924526
13	0xbe0d6fa0	-0.13812113
14	0xbc0b7715	-0.008512278
15	0x3bde201b	0.0067787296
16	0x3deec81a	0.1165926
17	0xbe082cd0	-0.13298345
18	0x3d2d5c72	0.04232449
19	0x3e0745c1	0.13210203
20	0x3e03c328	0.12867415
21	0x3d2564d9	0.04037938
22	0xbe0fbc02	-0.14036563
23	0xbc91ca49	-0.017796652
24	0xbb009e8d	-0.0019625754
25	0xbdf45726	-0.11930685
26	0xbe0e0d01	-0.13872148
27	0xbd9ea12e	-0.07745586
28	0x3c761aed	0.015021068
29	0x3d8c7bc4	0.06859544
30	0x3e3104bb	0.17286961
31	0x3d7dd340	0.06196904

encoder.conv4.weight f4 [32, 32, 2]
0	0xbe08ceb9	-0.13360108
1	0x3d1b33fd	0.037891377
2	0xbdc05eab	-0.093930565
3	0x3da3319b	0.07968446
4	0xbd292e37	-0.04130384
5	0xbc6178c9	-0.013761708
6	0xbd833cb9	-0.06408066
7	0x3df81513	0.121133946
8	0xbdf69d4e	-0.12041722
9	0xbdc0aea0	-0.09408307
10	0xbd095afd	-0.03353404
11	0xbcc9339d	-0.024560744
12	0xbbb4bc94	-0.0055156443
13	0xbde74f23	-0.11294391
14	0xbe06f349	-0.13178743
15	0x3dafb95e	0.08580278
16	0x3d8b7f01	0.068113334
17	0xbcc8e4dd	-0.024523193
18	0x3d1cb409	0.038257632
19	0xbd86df6e	-0.065855846
20	0x3d601f1d	0.054717172
21	0x3d4186b6	0.04724761
22	0x3dcec46c	0.10096058
23	0xbd8213b2	-0.06351413
24	0xbdc906cd	-0.0981575
25	0x3c9692d2	0.018380556
26	0x3cef13a5	0.029184172
27	0x3cd51742	0.026012067
28	0x3c88cf13	0.016700303
29	0xbd4f91f3	-0.050676297
30	0xbc64537c	-0.01393592
31	0xbd0c0fbc	-0.034194693
32	0xbd957e81	-0.07299519
33	0x3d9239e8	0.07139951
34	0x3c2b88b6	0.010469606
35	0xbcc7554f	-0.02433267
36	0xbce62d58	-0.028097793
37	0xbc59cf77	-0.013294092
38	0x3d580388	0.052737743
39	0x3cef2a3a	0.02919494
40	0x3ca87663	0.020564264
41	0x3cef0605	0.029177675
42	0x3dd0d461	0.10196758
43	0x3d9807f1	0.0742339
44	0x3da5d2d3	0.08096852
45	0xbcd818c7	-0.026379002
46	0x3dcebb52	0.10094322
47	0x3dbef47e	0.09323977
48	0xbdb3c5e6	-0.087779805
49	0x3bc4dafe	0.006007551
50	0x3df06bc7	0.11739307
51	0x3da1408c	0.078736395
52	0x3dab2e0a	0.08358391
53	0x3dd10015	0.10205094
54	0xbce3b5a1	-0.027796568
55	0xbd465a36	-0.048425876
56	0x3d8865fe	0.066600785
57	0x3da08a69	0.078389
58	0x3deec7b5	0.11659185
59	0x3d272e19	0.040815447
60	0x3d76885b	0.060188632
61	0xbd5e77ae	-0.054313354
62	0xbd99aa78	-0.075032175
63	0xbd7848db	-0.060616355
64	0xbd3e9a49	-0.046533857
65	0x3d163f75	0.03668161
66	0x3dd23b7f	0.10265254
67	0x3c625207	0.013813502
68	0x3d94747a	0.07248779
69	0x3c06fa66	0.008238411
70	0xbcde156a	-0.02710982
71	0xbe0bc787	-0.13650332
72	0xbcfd2920	-0.030903399
73	0xbd2302f7	-0.03979775
74	0xbdb77843	-0.08958485
75	0xbdb2cfc7	-0.08731037
76	0xbc621143	-0.013798061
77	0xbdad16a5	-0.08451585
78	0x3df57097	0.119843654
79	0x3cf79f7b	0.030227413
80	0xbb1cf00d	-0.0023946792
81	0xbdaed967	-0.0853756
82	0x3dcf9484	0.10135749
83	0xbd9ff3f2	-0.07810201
84	0xbca6cba3	-0.020360773
85	0xbd26f771	-0.040763322
86	0x3dc06eaf	0.09396111
87	0x3d8feb71	0.07027329
88	0xbde977da	-0.11399813
89	0x3d8f7a03	0.07005694
90	0xbd904c83	-0.070458435
91	0xbdaefd12	-0.08544363
92	0xbdb77e47	-0.08959632
93	0x3cd03661	0.025416555
94	0x3cbcf776	0.023067217
95	0x3d303d0b	0.043026965
96	0x3db48b94	0.08815685
97	0xbb4c06af	-0.0031131913
98	0xbd46a27c	-0.0484948
99	0x3dc69ea3	0.09698226
100	0x3e011ead	0.12609358
101	0xbdcb2f5f	-0.09921145
102	0xbcc43c79	-0.023954617
103	0xbcdf4dbc	-0.027258746
104	0xbe07d65c	-0.13265365
105	0xbccf290d	-0.02528813
106	0xbdc4d82f	-0.09611546
107	0xbd466fb4	-0.048446372
108	0xbd696432	-0.05698032
109	0x3db57bce	0.088615045
110	0x3c2ef010	0.010677353
111	0xbd2b571f	-0.041831132
112	0xbdd60cee	-0.10451685
113	0xbd406096	-0.04696711
114	0x3d6fb53f	0.05852246
115	0xbd8aeb13	-0.06783118
116	0x3ca617b0	0.020274967
117	0x3b17e196	0.0023175231
118	0xbde1fce7	-0.110345654
119	0xbdea0a3c	-0.11427733
120	0xbc9a553d	-0.018839473
121	0x3c0d2b1f	0.008616238
122	0xbde738cf	-0.11290132
123	0xbd53e733	-0.05173416
124	0x3dcd54b6	0.10025923
125	0x3de70c26	0.11281614
126	0x3d2ea7cf	0.042640503
127	0xbb25c9f4	-0.0025297375
128	0xbe2aa43b	-0.16664211
129	0x3dabc978	0.083880365
130	0xbdc15549	-0.09440095
131	0x3ad06cea	0.00159016
132	0x3c2fd467	0.010731793
133	0x3e04d49e	0.12971732
134	0xbbcea5b3	-0.006306374
135	0xbbf48f60	-0.0074633807
136	0xbd6d252a	-0.05789677
137	0x3d89cb56	0.067282364
138	0xbdbc9715	-0.09208504
139	0xbd01e9ef	-0.031717237
140	0xbe36520d	-0.17804737
141	0x3d579c49	0.05263928
142	0xbcc315fb	-0.023814192
143	0xbc1d1fa3	-0.009590062
144	0x3c90272e	0.017596807
145	0xbbaa49ce	-0.0051967865
146	0x3d2142ba	0.039370276
147	0xbdb04588	-0.08607012
148	0x3ccd0057	0.025024576
149	0xbd00eae4	-0.03147401
150	0x3cfb1b5d	0.030652696
151	0x3d7bf199	0.061509702
152	0x3dba8baf	0.09108674
153	0x3da0b78e	0.0784751
154	0xbdedf123	-0.11618259
155	0x3db5ddb2	0.08880176
156	0xbe1802a7	-0.14844762
157	0xbc414c05	-0.01179791
158	0xbdd9c75f	-0.1063373
159	0x3c0294a8	0.007970013
160	0xbd2eceb0	-0.04267758
161	0xbd9bac7e	-0.0760126
162	0xbcd8d1f4	-0.026467301
163	0x3d6766c6	0.056494497
164	0xbdae4e37	-0.08511012
165	0x3c23af39	0.009990507
166	0xbcfb4655	-0.030673185
167	0x3d1ee95d	0.03879677
168	0x3db78a90	0.089619756
169	0xbd8d6877	-0.06904691
170	0xbddac8f5	-0.10682861
171	0xbd63fba1	-0.055659894
172	0xbc147797	-0.009061716
173	0xbda49bb0	-0.080375075
174	0xbdb150a4	-0.08657959
175	0x3b76e164	0.0037670964
176	0xbcc97224	-0.02459056
177	0xbd3ecab1	-0.04658002
178	0x3d6d0c81	0.057873253
179	0xbb7e534f	-0.003880698
180	0xbd5eb417	-0.054370966
181	0x3dba809c	0.091065615
182	0xbca849ee	-0.020543065
183	0x3cfbabf3	0.03072164
184	0x3ca5076b	0.020145139
185	0x3ca76812	0.020435367
186	0xb9bf9455	-0.00036540875
187	0x3d9ea99b	0.077471934
188	0x3dbfea19	0.093708225
189	0xbe2cf062	-0.16888574
190	0xbcd15e2a	-0.025557596
191	0xbe03d43f	-0.12873934
192	0xbd35d6d8	-0.044394344
193	0xbd1eaddd	-0.038740028
194	0x3cef4585	0.029207954
195	0xbe2b5f5d	-0.16735597
196	0xbd885435	-0.06656686
197	0xbe0d5145	-0.13800533
198	0xb9730dfc	-0.00023179495
199	0xbdac77be	-0.084212765
200	0x3ba7ee21	0.0051248227
201	0xbdcca122	-0.09991671
202	0xbd0ee273	-0.034883928
203	0xbd9c8692	-0.07642855
204	0xbd48fde3	-0.04907025
205	0xbd47047a	-0.048588254
206	0xbd0e39b7	-0.03472301
207	0xbdf94bbf	-0.121726505
208	0x3dd35ec7	0.10320812
209	0xbd8f2be0	-0.0699079
210	0xbdcf93fc	-0.10135648
211	0xbdc82203	-0.09772112
212	0x3bae9ed4	0.0053289924
213	0xbe022a5a	-0.12711468
214	0x3d1f0bd7	0.03882965
215	0xbe1e1673	-0.15438251
216	0xbc0b151d	-0.0084889205
217	0xbd0ecfa0	-0.034865975
218	0x3d9fb5f3	0.07798376
219	0x3d54e214	0.051973417
220	0x3c7a622a	0.015282193
221	0xbdf9a480	-0.12189579
222	0x3b7bfffa	0.0038452134
223	0xbb4e88ed	-0.003151472
224	0x3b3ee1f1	0.002912637
225	0x3d0ca7af	0.034339603
226	0xbcf776f5	-0.03020809
227	0x3d88e5ca	0.06684454
228	0x3de844b2	0.113412276
229	0x3cbadb2a	0.022809584
230	0xba10136c	-0.0005496058
231	0xbe18116b	-0.14850394
232	0x3cd0fbe2	0.025510732
233	0x3adfd741	0.00170777
234	0x3bba6ac2	0.005688996
235	0x3d60d591	0.054891173
236	0xbc5980ed	-0.013275367
237	0x3ddc6d49	0.10763032
238	0x3d4c8ea4	0.04994072
239	0x3c115a3a	0.008871609
240	0xbe2708a9	-0.16311897
241	0x3cca684c	0.024707936
242	0x3c677dde	0.01412913
243	0x3cd42c81	0.025900127
244	0xbce2b47a	-0.027673949
245	0xbdc222d7	-0.094793014
246	0xbcd047da	-0.025424886
247	0xbdd193fa	-0.102333024
248	0xbb710987	-0.003677936
249	0x39223a28	0.00015471189
250	0x3d73f428	0.059559017
251	0xbc794e78	-0.015216462
252	0xbd2c734f	-0.042102154
253	0x3da7b445	0.081886806
254	0xbd93a52a	-0.07209237
255	0x3ccb32e4	0.02480454

encoder.conv4.bias f4 [32]
0	0xbda93cf1	-0.08263577
1	0xbd99a0b2	-0.07501353
2	0x3d267a66	0.040644072
3	0x3da62ded	0.081142284
4	0xbdce1daa	-0.10064252
5	0x3bccc3d3	0.00624893
6	0xbd4f68a1	-0.05063689
7	0xbc2072aa	-0.009792963
8	0x3de27d3d	0.110590436
9	0xbc2d8f5b	-0.010593261
10	0xbcde1efb	-0.027114382
11	0xbdc25369	-0.094885655
12	0x3e07ba45	0.1325465
13	0x3d6b93af	0.05751389
14	0xbde8843a	-0.11353345
15	0x3db1fb27	0.08690482
16	0x3da7f1e3	0.08200433
17	0xbc92a06e	-0.017898764
18	0x3de2b35a	0.11069365
19	0x3c830a88	0.015996233
20	0x3cffc85a	0.031223465
21	0x3d5532b0	0.052050292
22	0xbd2729af	-0.040811237
23	0x3df40e14	0.11916748
24	0x3df632eb	0.120214306
25	0x3da03a65	0.07823638
26	0x3d84f9cc	0.064929575
27	0x3dfaf874	0.1225442
28	0x3e0a07bc	0.13479513
29	0x3e104aa3	0.14090972
30	0xbd10c16f	-0.035340723
31	0xbd355af2	-0.044276185

encoder.fc1.weight f4 [64, 512]
0	0xbc89a691	-0.016803058
1	0x3c1f27af	0.009714051
2	0xbc0bf48e	-0.008542193
3	0x3c822d9a	0.015890885
4	0xbc6f072e	-0.014589114
5	0x3bf7256c	0.007542303
6	0xbb1042b1	-0.0022012407
7	0xbd93fc09	-0.07225806
8	0x3cb73506	0.02236415
9	0xbc8dcbfb	-0.01730918
10	0xbc81b9ae	-0.01583561
11	0x3cc31992	0.023815904
12	0x3bf1cbf8	0.0073790513
13	0x3d10c044	0.03533961
14	0xbd4188c9	-0.04724959
15	0xbd69db17	-0.057093706
16	0xbcfc5f6a	-0.030807216
17	0x3cc029e3	0.023457473
18	0x3c457b29	0.012053289
19	0x3d022ef8	0.031783074
20	0xbd01aa7e	-0.031656735
21	0x3d5da4ab	0.054112118
22	0xbcd246b2	-0.025668476
23	0x3c7d822b	0.015472929
24	0xbcce8c2e	-0.025213327
25	0x3ca0f50d	0.0196481
26	0x3c803098	0.015648171
27	0x3c72192c	0.014776509
28	0xbb53e308	-0.0032331366
29	0x3d3bf3a1	0.04588664
30	0xbc87a876	-0.01655982
31	0xb8b99e96	-8.851026e-05
32	0x3c902aff	0.017598627
33	0xbcd78218	-0.02630715
34	0xbcf3c2c8	-0.029755965
35	0xbc552856	-0.013010105
36	0xbb8bc1f3	-0.004265064
37	0xbcca8a2d	-0.02472409
38	0x3d1458cc	0.036217496
39	0xbd22c3c1	-0.039737467
40	0xbc459843	-0.012060228
41	0x3d073d1a	0.033017255
42	0x3d0ce6c5	0.034399766
43	0x3b7c421c	0.0038491553
44	0x3ca7e044	0.02049268
45	0xbc799d5c	-0.015235271
46	0x3c36284f	0.011118009
47	0xbda3a7e4	-0.07991007
48	0xbd2549cd	-0.040353585
49	0x3bb642f7	0.005562182
50	0x3d2feea2	0.042952187
51	0x3cb953d4	0.02262298
52	0xbc090639	-0.0083633
53	0xbc205b48	-0.009787388
54	0x3d0248dc	0.031807765
55	0xbd49e879	-0.04929397
56	0x3ce44359	0.027864145
57	0x3cf8c19f	0.030365763
58	0x3d2c21f7	0.04202458
59	0x3d11ab23	0.0355636
60	0x3c3157ba	0.010824138
61	0xbbddd388	-0.0067696013
62	0xbd2d84ab	-0.04236285
63	0x3d52fd2b	0.05151097
64	0x3d1aaa7d	0.037760247
65	0xbb285001	-0.0025682452
66	0xbbf63452	-0.0075135613
67	0x3d0eff34	0.03491135
68	0xbcdef9be	-0.027218696
69	0x3d03aa39	0.03214476
70	0xbbebe6d0	-0.007199146
71	0x3c81e2c4	0.0158552
72	0x3cb79049	0.022407668
73	0x3cb91c20	0.022596419
74	0x3ccc0726	0.024905752
75	0xbcdb48ac	-0.026768051
76	0xbd01620d	-0.03158765
77	0x3cd06310	0.025437862
78	0x3d0937ef	0.033500608
79	0x3cffbe8e	0.031218793
80	0xbd073904	-0.03301336
81	0xbbb8569d	-0.0056255595
82	0xbd40a930	-0.04703635
83	0x3d48365c	0.048879966
84	0x3d00a8b0	0.031410873
85	0xbd3f34c5	-0.046681184
86	0x3b1fb63c	0.0024370095
87	0xbbbac919	-0.0057002422
88	0xbd73d45d	-0.059528697
89	0xbd46e24e	-0.048555665
90	0xbaf769c4	-0.0018876125
91	0xbb70df63	-0.0036754243
92	0x3c64babd	0.0139605375
93	0x3d064f5d	0.03279053
94	0xbc7d8337	-0.015473179
95	0xba7f9560	-0.00097497366
96	0x3b5e23c5	0.0033895832
97	0x3d1db876	0.038505994
98	0x3d844aff	0.06459617
99	0x3c062061	0.008186431
100	0x3bfc1dfe	0.007694005
101	0x3d1a0396	0.037601076
102	0x3c1eb1ed	0.0096859755
103	0xbd3a2ba0	-0.04545176
104	0x3cfe2488	0.031023279
105	0x3d20726a	0.039171614
106	0x3be59fcf	0.007007576
107	0xbc8ffbe2	-0.017576162
108	0x3d1204ac	0.035648987
109	0x3c9d912a	0.019234259
110	0x3d281e72	0.04104466
111	0x3d65078e	0.055915408
112	0x3ba374d1	0.004988291
113	0x3c5c231a	0.013436103
114	0xb91e817a	-0.00015116288
115	0xbd0f2ae8	-0.034953028
116	0x3c9b22d2	0.018937502
117	0x3d127309	0.035754237
118	0xbb566348	-0.0032712985
119	0xbc57552a	-0.013142863
120	0x3d11e5c4	0.035619512
121	0x3c441714	0.011968393
122	0xbc80ffe2	-0.015747014
123	0x3c2475fb	0.010037894
124	0x3b5e93bd	0.003396257
125	0x3b51423e	0.0031930353
126	0x3c5fcd68	0.0136598125
127	0xbbdcc08c	-0.0067368206
128	0xbd371335	-0.04469605
129	0xbc255c46	-0.0100928005
130	0xbc584b52	-0.0132015515
131	0xbd14d454	-0.036335304
132	0xbd43e282	-0.047823437
133	0x3d22238a	0.039584674
134	0x3cf830ac	0.030296646
135	0xbd1b0e5d	-0.037855495
136	0x3d404db5	0.046949107
137	0xbbf99aac	-0.0076173153
138	0x3cd3ff36	0.02587853
139	0x3c0d4ad5	0.008623798
140	0xbcfa5d19	-0.03056197
141	0xbc5c5deb	-0.013450126
142	0xbce377c0	-0.027767062
143	0xbbca407c	-0.006172238
144	0xbc07f068	-0.008297063
145	0xbb87bcdb	-0.0041423864
146	0x3c8fa7b8	0.01753603
147	0xbc7243e9	-0.014786699
148	0x3d189088	0.03724721
149	0x3c9f5d99	0.01945381
150	0xbd3ff0b6	-0.04686042
151	0x3cd0b45e	0.02547663
152	0xbaa70e80	-0.001274541
153	0xbc75131c	-0.014958169
154	0xbd1bd569	-0.03804532
155	0xbc3ad85d	-0.011404124
156	0x3c6bb792	0.014387028
157	0x3b9194ff	0.0044428105
158	0x3b3ed236	0.0029116995
159	0xbd86917b	-0.06570717
160	0x3ce78571	0.028261872
161	0xbc17a18b	-0.009254823
162	0x3c2dc915	0.010607024
163	0x3ca27d23	0.01983506
164	0x3d42335c	0.04741226
165	0xbd7a65f0	-0.06113237
166	0xbc348d63	-0.011020037
167	0x3ba9b3f6	0.0051789237
168	0xbd015d47	-0.031583097
169	0x3b75d702	0.0037512188
170	0xbce39f4c	-0.02778592
171	0x3cc06fe0	0.023490846
172	0x3cbdf1eb	0.023186645
173	0x3cb2b08f	0.021812705
174	0xbd53d800	-0.051719666
175	0x3ca5de7d	0.020247692
176	0xbcab8e7f	-0.02094197
177	0xbb213221	-0.002459653
178	0xbcce0c95	-0.025152484
179	0x3b6010d9	0.003418973
180	0xbc95782f	-0.018245785
181	0xbd214ca6	-0.03937974
182	0xbd094eca	-0.033522405
183	0x3d6da985	0.058022995
184	0xbd035ce6	-0.032071017
185	0xbd4bdb43	-0.04976965
186	0x3c5c54df	0.013447969
187	0x3c48025d	0.012207595
188	0xbbc49ae5	-0.00599991
189	0x3a873978	0.001031681
190	0xbcb60fb1	-0.02222428
191	0xbbd13f71	-0.0063857366
192	0x3cb07edd	0.021544868
193	0xbc1615de	-0.009160487
194	0x3d103cd8	0.035214275
195	0x3d25a72e	0.040442638
196	0x3cbf94cc	0.023386382
197	0x3ca7a63c	0.020465009
198	0x3b8c712a	0.004285951
199	0x3c0fc30a	0.008774528
200	0x3b69ae45	0.0035656851
201	0x3d52b4f9	0.05144212
202	0x3c930199	0.017945098
203	0xbc9986db	-0.018741062
204	0x3c60c1db	0.013718094
205	0xbcd473d4	-0.025934137
206	0x3c363975	0.011122097
207	0xbcd586ec	-0.026065312
208	0xbd08b960	-0.033379912
209	0x3c8f7163	0.017510122
210	0xbc84ec53	-0.01622597
211	0xbc1d7a97	-0.009611747
212	0xbce92711	-0.028461011
213	0xbd048894	-0.032356814
214	0x3c9ae5af	0.01890835
215	0x3d23fbd5	0.040035088
216	0xbc3ac5a6	-0.011399662
217	0xbd625338	-0.055255145
218	0x3d4ac18e	0.049500994
219	0x3cb83974	0.022488333
220	0xbbfc3552	-0.007696786
221	0x3b3fdc86	0.002927573
222	0x3ce9c553	0.028536474
223	0x3c1ae100	0.009453058
224	0x3d05e163	0.03268565
225	0x3c857933	0.016293144
226	0x3ca363ab	0.019944986
227	0x3cbcd3cc	0.023050211
228	0x3c3d7422	0.011563333
229	0xbd429ef8	-0.047514886
230	0x3d17c5f2	0.03705401
231	0x3ca6e09d	0.020370776
232	0xbceb28c2	-0.028705958
233	0x3c98fcab	0.018675169
234	0x3c835952	0.016033802
235	0xbcaf4d94	-0.021399297
236	0xbc83dd20	-0.016096652
237	0xbd0107d5	-0.03150161
238	0x3c1f4f14	0.009723444
239	0x3bc2c943	0.0059444024
240	0x3c926f39	0.0178753
241	0x3c8b64ae	0.017015781
242	0x3c3cdd8e	0.011527432
243	0x3c1a5d1c	0.009421613
244	0xbd656649	-0.05600575
245	0x3c147ea7	0.009063399
246	0xbbba8ccb	-0.0056930534
247	0x3c01ce98	0.007922791
248	0xbd912a7a	-0.0708818
249	0x3c1ac6cf	0.009446814
250	0x3d008dbe	0.031385176
251	0xbbb62716	-0.0055588586
252	0x3d5204e2	0.051274188
253	0x3cdff58d	0.027338767
254	0x3d08ea2a	0.03342644
255	0x3d0cd9fd	0.034387577

encoder.fc1.bias f4 [64]
0	0xbd139952	-0.03603489
1	0x3d808e57	0.06277149
2	0xbdac1b60	-0.08403659
3	0x3d8b51d6	0.06802718
4	0xbd8879db	-0.06663867
5	0x3c82d05c	0.015968494
6	0x3d017f4c	0.03161554
7	0xbcc83333	-0.024438476
8	0x3c6e7448	0.014554091
9	0xbd489a13	-0.04897506
10	0xbd64f468	-0.055897146
11	0x3c028966	0.007967329
12	0xbdcdd76e	-0.100508556
13	0xbd4a3072	-0.049362607
14	0xbbc6b4a9	-0.006064017
15	0x3d9d9e5a	0.07696219
16	0xbc90502a	-0.01761635
17	0x3cf2e006	0.029647838
18	0xbd600c5d	-0.05469929
19	0x3b077055	0.002066632
20	0xbd17ba27	-0.037042763
21	0x3d862318	0.06549662
22	0xbcf36fa8	-0.029716328
23	0x3a9a1713	0.0011756144
24	0xbc580928	-0.013185777
25	0xbd02b695	-0.031912405
26	0x3d21c273	0.03949208
27	0xbd0353bd	-0.03206228
28	0xbb3d59f9	-0.002889274
29	0xbd0565be	-0.032567732
30	0xbd23d5d7	-0.039998855
31	0x3dba8034	0.09106484
32	0xbd5d6ee8	-0.054060847
33	0xbd03adc8	-0.032148153
34	0xbc8a9bd0	-0.01692
35	0x3b56c195	0.0032769192
36	0xbd4609ca	-0.04834918
37	0xba9d9e1c	-0.001202527
38	0x3dd368c3	0.10322716
39	0xbcecc67a	-0.028903235
40	0xbb4cf173	-0.0031271845
41	0x3ae8bfd0	0.001775736
42	0x3bafa9db	0.0053608245
43	0x3d17330e	0.036913924
44	0xbc8b4e08	-0.017004982
45	0xbbbacbcc	-0.005700564
46	0x3cea4cfc	0.028601162
47	0x3ce9a8f3	0.028522944
48	0x3d825eb2	0.06365718
49	0xbd376716	-0.044776045
50	0x3d657020	0.056015134
51	0x3c57898f	0.013155355
52	0x3ab77563	0.0013996776
53	0x3dd8010f	0.10547077
54	0x3de1f54c	0.11033115
55	0xbd223aa2	-0.039606698
56	0xbb8a56c9	-0.0042217714
57	0x3d6d76be	0.05797457
58	0x3b88f563	0.004179643
59	0xbd89ea54	-0.06734148
60	0xbca9ff4d	-0.02075162
61	0xbd79ed49	-0.06101731
62	0x3cb34fe9	0.02188869
63	0x3c1ed57c	0.009694453

encoder.fc2.weight f4 [16, 64]
0	0x3db2e88f	0.08735763
1	0x3c5de18c	0.013542544
2	0x3d24105b	0.04005466
3	0xbd42755f	-0.047475215
4	0xbd0e7324	-0.034777775
5	0x3d8f1f88	0.06988436
6	0x3d028bef	0.031871732
7	0x3d9d34ba	0.076760724
8	0x3db63c42	0.08898212
9	0x3dcd801d	0.10034201
10	0xbd8df2e2	-0.06931092
11	0x3db8dbf1	0.090263255
12	0xbdc2098b	-0.094744764
13	0xbdf4afe9	-0.11947615
14	0xbdbbfd45	-0.09179167
15	0xbc08a7fe	-0.008340834
16	0x3dcca2b4	0.09991971
17	0xbde76a8f	-0.11299621
18	0xbd92b099	-0.071625896
19	0x3d8822cb	0.06647261
20	0x3da320e7	0.0796526
21	0xbd206aee	-0.039164476
22	0xbd7ba9cc	-0.061441228
23	0x3de5fae7	0.112294964
24	0x3daa4c45	0.083153285
25	0xbd96bf97	-0.073607616
26	0x3dcf692b	0.10127481
27	0x3dc2cc08	0.09511572
28	0xbd89785d	-0.067124106
29	0xbd923a6c	-0.07140049
30	0x3d46c1ee	0.04852479
31	0xbb6e5093	-0.0036363944
32	0x3dd5996b	0.10429653
33	0x3d202d59	0.039105747
34	0xbc219165	-0.009861325
35	0xbdb234cd	-0.08701477
36	0xbdcc7df7	-0.099849634
37	0x3db3831b	0.08765241
38	0xbd0c45f2	-0.034246393
39	0x3c5c60c0	0.013450801
40	0xbdc64bbe	-0.096824154
41	0x3cedca73	0.0290272
42	0xbcc903b3	-0.024537897
43	0xbcc7a910	-0.024372607
44	0xbd725bdd	-0.05916964
45	0xbdf9fe68	-0.12206727
46	0x3d154fb2	0.036452956
47	0xbdb67e12	-0.08910765
48	0x3e06439c	0.13111728
49	0xbdc13bb2	-0.09435214
50	0x3d616eab	0.05503718
51	0xbd9168d3	-0.07100072
52	0xbcfa0584	-0.030520208
53	0xbdd268f6	-0.10273926
54	0x3db2d10e	0.0873128
55	0xbd334093	-0.043762755
56	0xbdd89491	-0.10575212
57	0x3dfd3872	0.12364282
58	0xbc9b7350	-0.018975884
59	0x3cc33295	0.02382783
60	0x3daf2e3e	0.08553742
61	0x3caee1fd	0.021347994
62	0xbcc79eb9	-0.024367677
63	0x3dcec556	0.100962326
64	0x3d15646e	0.03647273
65	0x3d90dd77	0.07073491
66	0xbdd607d8	-0.10450715
67	0xbd35d920	-0.04439652
68	0x3d662472	0.0561871
69	0x3d27c03e	0.04095482
70	0xbd95bf46	-0.07311873
71	0x3db8ee05	0.090297736
72	0x3caaeaee	0.020863976
73	0xbd260c35	-0.040538985
74	0xbdbd076d	-0.09229932
75	0xbdb36018	-0.08758563
76	0xbdd4da0f	-0.10393154
77	0xbd38aa0a	-0.045084037
78	0x3d1eb70d	0.03874879
79	0xbd8ded14	-0.06929985
80	0xbd8d23fc	-0.06891629
81	0xbcebb2bf	-0.028771756
82	0x3d0b640d	0.034030963
83	0xbd5259e9	-0.051355276
84	0xbdce15e0	-0.10062766
85	0x3d0a901e	0.033828847
86	0xbdc56b24	-0.09639576
87	0xbddcca73	-0.107808016
88	0xbccc07f1	-0.02490613
89	0x3df56364	0.11981848
90	0x3cb161fb	0.021653166
91	0xbe2c6e1c	-0.16838878
92	0x3dbbdf80	0.091734886
93	0xbde1a76c	-0.11018261
94	0xbe0963f2	-0.13417032
95	0x3cde3fe5	0.027130077
96	0x3c17c920	0.0092642605
97	0x3da48b11	0.08034337
98	0x3d3f06d2	0.046637364
99	0xbcaaa55f	-0.020830808
100	0x3cdaba54	0.026700176
101	0x3d4362d3	0.047701668
102	0xbd013226	-0.031541966
103	0x3d667499	0.05626354
104	0xbdc6e8d9	-0.09712381
105	0xbd28afef	-0.04118341
106	0x3d936ea7	0.0719884
107	0x3dc7c537	0.097544126
108	0xbcfb39e7	-0.030667258
109	0x3dc3c887	0.09559732
110	0xbd5db4fd	-0.054127682
111	0x3d68ad8a	0.056806125
112	0xbbb81034	-0.005617166
113	0xbe031866	-0.12802276
114	0x3b4497f6	0.0029997802
115	0xbd9ea2ea	-0.07745917
116	0x3ccd4997	0.025059504
117	0x3b86477f	0.0040978785
118	0x3ca65f83	0.020309215
119	0x3c35e1ce	0.011101199
120	0x3de1a0ca	0.11016996
121	0x3c267fcc	0.010162305
122	0x3c95e8e8	0.018299535
123	0xbca397ef	-0.019969909
124	0xbe08a25f	-0.1334319
125	0x3da67441	0.081276424
126	0xbc63ab51	-0.0138958255
127	0x3c10a5ee	0.008828623
128	0xbc1375e6	-0.009000277
129	0x3d5cd7f1	0.053916875
130	0x3de11216	0.10989778
131	0xbdb88ddb	-0.09011432
132	0xbdf81923	-0.121141694
133	0x3d332238	0.043733805
134	0x3d85eb82	0.0653906
135	0x3ddb32cc	0.10703048
136	0xbbbf0a21	-0.005830065
137	0xbdce1609	-0.100627966
138	0x3d85c600	0.06531906
139	0x3c9d0724	0.019168444
140	0xbd67403a	-0.056457736
141	0x3d4f8f63	0.050673854
142	0x3db8c11e	0.09021209
143	0x3dfda641	0.12385226
144	0xbdd843a8	-0.105597794
145	0x3d75a8e1	0.05997551
146	0x3dd4ce6b	0.103909336
147	0xbde69393	-0.11258616
148	0xbd32fe54	-0.043699577
149	0xbd7f1563	-0.062276255
150	0xbd479b43	-0.048732053
151	0x3cc10bc8	0.023565188
152	0xbc7600e3	-0.01501486
153	0x3db4e7c7	0.088332705
154	0xbd8fda68	-0.070240796
155	0xbc74daaa	-0.014944712
156	0x3d602b1e	0.05472862
157	0xbddb88c9	-0.10719449
158	0xbcbc9b97	-0.02302341
159	0xbd0b037e	-0.033938877
160	0xbd0a13f3	-0.03371043
161	0x3d1267d3	0.035743546
162	0x3df73d42	0.12072231
163	0x3d93320c	0.0718728
164	0xbbd8ca8c	-0.0066159423
165	0xbd72e154	-0.05929692
166	0xbdd0d49b	-0.10196801
167	0xbdbad0af	-0.091218345
168	0xbd1460a2	-0.03622497
169	0xbd88f227	-0.06686812
170	0x3d0ee029	0.034881745
171	0xbd916a24	-0.07100323
172	0x3defaf5e	0.117033705
173	0xbdb325fb	-0.087474786
174	0xbdcc5f4b	-0.09979113
175	0xbd649475	-0.055805642
176	0xbd7302a1	-0.05932868
177	0x3dba47fb	0.090957604
178	0x3e0bb8d4	0.13644725
179	0xbd7c20aa	-0.06155459
180	0x3e043e71	0.12914445
181	0x3dbc0a77	0.091816835
182	0xbd49b071	-0.049240533
183	0xbd5281d0	-0.05139333
184	0x3df8021a	0.12109776
185	0x3df790e3	0.12088182
186	0xbd3a4cca	-0.045483388
187	0x3dbea0d1	0.09308017
188	0x3d9e7ff7	0.07739251
189	0xbce49259	-0.027901815
190	0x3a10369b	0.0005501301
191	0x3c1031f5	0.008800973
192	0x3d5fed5b	0.05466972
193	0xbde15704	-0.11002925
194	0xbd0cbbaf	-0.034358677
195	0xbccb5617	-0.024821324
196	0xbd68f506	-0.056874298
197	0xbdc6039c	-0.09668657
198	0xbb8d5f34	-0.0043143276
199	0x3c327e09	0.010894307
200	0x3c2a8114	0.010406751
201	0x3dd21bff	0.10259246
202	0x3e08defd	0.13366313
203	0xbd96981f	-0.073532335
204	0xbdaf5b5f	-0.085623495
205	0xbd4f3b61	-0.050593738
206	0x3dfda58e	0.12385093
207	0xbdd95d58	-0.10613507
208	0x3e09e02f	0.13464426
209	0xbd677ea3	-0.056517255
210	0x3d221722	0.039572842
211	0xbdee5099	-0.116364665
212	0x3de84479	0.11341185
213	0xbdcc6991	-0.09981073
214	0xbdb55556	-0.08854167
215	0x3dccef65	0.100065984
216	0xbd127290	-0.035753787
217	0xbd1a863d	-0.037725676
218	0xbdc1c56f	-0.094614856
219	0x3ce70612	0.028201137
220	0xbdc463e9	-0.09589369
221	0x3ccbc2b5	0.024873117
222	0xbdcca296	-0.09991948
223	0xbd822212	-0.06354155
224	0xbc24c832	-0.010057496
225	0x3d608e92	0.054823466
226	0x3daf3d2b	0.08556589
227	0xbab97c84	-0.0014151488
228	0xbd486f11	-0.048934046
229	0xbdcd31d5	-0.1001927
230	0xbdf60222	-0.120121256
231	0x3d2b4d71	0.0418219
232	0xbccfe6b5	-0.025378564
233	0x3d9f3261	0.07773281
234	0xbd481ece	-0.048857503
235	0x3dc2b5cc	0.09507331
236	0xbd8e591c	-0.0695059
237	0xbd974abd	-0.07387302
238	0xbd88b9ad	-0.0667604
239	0x39f9a8c3	0.00047618718
240	0x3d49499c	0.049142465
241	0x3dcb8f2b	0.099394165
242	0x3cf29f46	0.029616963
243	0xbd7b2e91	-0.061323706
244	0xbc55b946	-0.013044661
245	0x3dc85beb	0.09783157
246	0xbbf65a8d	-0.0075181187
247	0x3e0a3ed8	0.13500535
248	0x3daa65a7	0.0832017
249	0x3d2af204	0.04173471
250	0x3d8cda6c	0.06877598
251	0xbd05c1eb	-0.032655638
252	0x3d45271b	0.048132997
253	0x3d118852	0.035530396
254	0x3db642d2	0.08899464
255	0x3d36a337	0.044589248

encoder.fc2.bias f4 [16]
0	0xbda00e69	-0.078152485
1	0x3e19be83	0.1501408
2	0xbbdf37ae	-0.0068120575
3	0xbd58ef79	-0.052962754
4	0x3ddac7e8	0.1068266
5	0x3d0110cc	0.03151016
6	0x3d3c5232	0.045976825
7	0x3d2e808e	0.042603068
8	0xbd34f554	-0.044179276
9	0xbd9a33a3	-0.0752938
10	0xbcc711a2	-0.0243004
11	0xbdfd26f0	-0.12360942
12	0x3e342771	0.1759317
13	0x3a4e677b	0.0007873696
14	0xbd5e012d	-0.05420034
15	0x3e3303d2	0.17481926

encoder.fc21.weight f4 [4, 16]
0	0x3e328b6c	0.17435998
1	0x3e46806c	0.19384927
2	0xbd9a01a1	-0.07519842
3	0x3d601fc0	0.05471778
4	0xbb71f7d0	-0.003692139
5	0xbe2124c8	-0.15736687
6	0xbe1f31fb	-0.1554641
7	0xbe292ac3	-0.16520219
8	0x3db47bec	0.08812699
9	0xbe751229	-0.23932709
10	0x3e4415db	0.19148962
11	0xbe45dbce	-0.1932213
12	0x3d66259b	0.056188207
13	0xbcdf928d	-0.02729156
14	0xbc5e87c4	-0.013582174
15	0x3e029e2b	0.12755649
16	0x3d0a4be8	0.033763796
17	0x3e353a93	0.17698126
18	0x3d759f09	0.05996612
19	0x3e008c09	0.12553419
20	0x3db13b2c	0.08653864
21	0xbd347d1a	-0.04406462
22	0x3d160df4	0.0366344
23	0x3e0b3489	0.1359426
24	0xbc68adfb	-0.014201636
25	0xbd415f2e	-0.04720991
26	0x3b96c97e	0.0046016565
27	0xbe538585	-0.20656402
28	0x3d6dab30	0.058024585
29	0x3d0c64a7	0.034275677
30	0xbe1ad4d3	-0.15120248
31	0xbe0e49e1	-0.1389537
32	0x3d3633b4	0.0444829
33	0xbe30e077	-0.17273127
34	0x3e3a1a13	0.18174009
35	0xbda10884	-0.07862952
36	0x3e2d8c96	0.1694816
37	0x3e1e8199	0.15479125
38	0x3dba5bab	0.090995155
39	0x3dee189d	0.11625788
40	0x3e638546	0.22218809
41	0xbe782f16	-0.24236712
42	0xbd3620ab	-0.04446475
43	0xbd6e4937	-0.058175292
44	0xbd719527	-0.058980133
45	0xbdaa0b70	-0.08302963
46	0x3dfc9b40	0.12334299
47	0xbe62a65c	-0.22133774
48	0xbde7c9ea	-0.11317809
49	0xbbf45d5b	-0.007457418
50	0xbe03dc42	-0.1287699
51	0x3dafc029	0.085815735
52	0x3e19179c	0.14950413
53	0xbdc0050f	-0.09375965
54	0x3e3f2789	0.18667425
55	0xbcaf8ee4	-0.02143044
56	0x3ddd3ff3	0.10803213
57	0xbdafb500	-0.08579445
58	0xbc976ff0	-0.018485993
59	0x3a19dbc0	0.0005869232
60	0xbcce3888	-0.02517344
61	0xbdadf01e	-0.08493064
62	0x3e1fc404	0.15602118
63	0xbe09b649	-0.13448443

encoder.fc21.bias f4 [4]
0	0x3df25170	0.11831939
1	0x3de571ef	0.11203372
2	0xbe49d1f1	-0.19708993
3	0xbe50539c	-0.20344394

encoder.fc22.weight f4 [4, 16]
0	0xbb0a69b0	-0.0021120124
1	0xbdd7ddf2	-0.105403796
2	0x3ccb517d	0.02481913
3	0xbe2e8dc6	-0.1704627
4	0x3bf51f28	0.0074805208
5	0x3ddb564a	0.10709818
6	0x3d5c9620	0.053854108
7	0xbb94ab89	-0.00453705
8	0xbe596f75	-0.21233924
9	0xbe926803	-0.2859498
10	0x3d76c50f	0.060246523
11	0xbe2112c1	-0.1572981
12	0xbe6cbaf4	-0.23118192
13	0xbd58dd26	-0.05294528
14	0x3b8f6250	0.0043757334
15	0xbdf1d887	-0.118088774
16	0x39f7fb9e	0.0004729898
17	0xbda7b314	-0.08188453
18	0xbe437c93	-0.1909049
19	0x3dfd35f8	0.12363809
20	0xbe08694c	-0.13321418
21	0x3d010c40	0.031505823
22	0xbd484682	-0.048895366
23	0xbdcd67aa	-0.10029538
24	0xbda5edc2	-0.08101989
25	0xbe0f6c16	-0.14006075
26	0x3da7f711	0.08201421
27	0x3df74aff	0.12074851
28	0xbea4e1a9	-0.32203415
29	0x3d855789	0.06510837
30	0xbe7bbcb8	-0.24583709
31	0xbe83584b	-0.256533
32	0xbe0e22d8	-0.1388048
33	0xbe2fa778	-0.17153728
34	0xbe06a6e5	-0.13149603
35	0xbdaff956	-0.08592479
36	0xbe7e25b4	-0.2481907
37	0xbcc387a1	-0.023868384
38	0xbe9c3e48	-0.30516267
39	0xbbc479d5	-0.005995969
40	0xbe496c61	-0.1967025
41	0xbc4282be	-0.011871992
42	0xbdba208d	-0.0908824
43	0xbdaff6b1	-0.085919745
44	0xbd2cfbcf	-0.04223233
45	0x3e0db18d	0.13837261
46	0x3df283c5	0.11841539
47	0xbdba8ca8	-0.09108859
48	0xbe20cbbd	-0.1570272
49	0xbd3083d2	-0.043094464
50	0xbe07de7d	-0.13268466
51	0xbdeacbfc	-0.11464688
52	0xbc1a25a1	-0.0094083855
53	0xbe1ab650	-0.15108609
54	0xbe62c9e7	-0.22147332
55	0xbe627caa	-0.22117868
56	0xbe17d3a3	-0.14826827
57	0x3a1e6635	0.0006042452
58	0xbe5dfb1c	-0.21677822
59	0xbd37de43	-0.0448897
60	0x3d4a5978	0.04940173
61	0x3ca71de0	0.020399988
62	0xbe183035	-0.1486214
63	0xbd9b2214	-0.07574859

encoder.fc22.bias f4 [4]
0	0xbe43123d	-0.19049926
1	0xbe168488	-0.14698994
2	0xbe329ad8	-0.1744188
3	0xbeb06da3	-0.34458646

encoder.bn1.weight f4 [16]
0	0x3f77107e	0.9650954
1	0x3f800000	1.0
2	0x3f70cb11	0.94059855
3	0x3f7d3451	0.98907954
4	0x3f7d2c6e	0.9889592
5	0x3f800000	1.0
6	0x3f75683b	0.9586217
7	0x3f718780	0.9434738
8	0x3f7d59be	0.9896506
9	0x3f7af51a	0.98030245
10	0x3f7ca9f6	0.9869684
11	0x3f720a09	0.9454656
12	0x3f773d9d	0.9657839
13	0x3f800000	1.0
14	0x3f6ee36e	0.9331578
15	0x3f800000	1.0

encoder.bn1.bias f4 [16]
0	0x3c37012a	0.011169711
1	0xba835fb9	-0.0010023034
2	0x3b051498	0.0020306464
3	0x3c836487	0.016039146
4	0xbc6a1309	-0.014286765
5	0xbca7ef05	-0.020499716
6	0xbb1b73d3	-0.002372016
7	0xba806e3d	-0.0009798479
8	0xbb8745f2	-0.004128211
9	0xbac63292	-0.0015121272
10	0xbbc10d75	-0.005891497
11	0x3c6c8af2	0.014437424
12	0xbc5f723c	-0.013638075
13	0xbce79436	-0.028268915
14	0xbb11c5a4	-0.0022243047
15	0xbc84c652	-0.016207848

encoder.bn1.running_mean f4 [16]
0	0x3d896edf	0.067106
1	0x00000000	0.0
2	0x3daae84d	0.08345089
3	0x3e2d5417	0.16926609
4	0x3cb5075a	0.022098232
5	0x00000000	0.0
6	0x3f12f75b	0.57408684
7	0x3e8c7512	0.27433068
8	0x3e7640f8	0.24048221
9	0x3db4a9d4	0.08821455
10	0x3daab6b6	0.083356306
11	0x3ef45954	0.47724402
12	0x3f007e88	0.5019307
13	0x00000000	0.0
14	0x3e8be593	0.2732359
15	0x00000000	0.0

encoder.bn1.running_var f4 [16]
0	0x3c0a2045	0.008430545
1	0x2a0c9137	1.248488e-13
2	0x3cb0d7e6	0.021587323
3	0x3d2b27c0	0.041785955
4	0x3b2840a8	0.0025673304
5	0x2a0c9137	1.248488e-13
6	0x3dcd93ce	0.10037957
7	0x3d796a9d	0.06089269
8	0x3bac4dcb	0.005258297
9	0x3c022d37	0.00794535
10	0x3c5ebb13	0.013594407
11	0x3e2df2b5	0.16987117
12	0x3cc60374	0.024171568
13	0x2a0c9137	1.248488e-13
14	0x3d7672ab	0.06016795
15	0x2a0c9137	1.248488e-13

encoder.bn2.weight f4 [16]
0	0x3f753615	0.9578565
1	0x3f800911	1.0002767
2	0x3f76d780	0.96422577
3	0x3f7c15f0	0.98470974
4	0x3f76c43d	0.96393186
5	0x3f6f2214	0.93411374
6	0x3f776215	0.96634036
7	0x3f60c6be	0.87803257
8	0x3f693a56	0.9110464
9	0x3f7ebbbe	0.9950522
10	0x3f7b41d9	0.9814735
11	0x3f8114b3	1.0084442
12	0x3f82c387	1.021592
13	0x3f7913db	0.9729592
14	0x3f7799dd	0.9671915
15	0x3f7f34bd	0.9968985

encoder.bn2.bias f4 [16]
0	0x3a9755a9	0.0011545914
1	0xbca32ae7	-0.019917918
2	0x3ce6078e	0.028079774
3	0x3bd37559	0.006453198
4	0x3c51e8d1	0.012811855
5	0xbc02c648	-0.007981844
6	0x3b7d5566	0.0038655638
7	0x3d62fb4c	0.055415437
8	0x3ce489f9	0.027897822
9	0xb9712ae4	-0.00022999529
10	0xbd2bab11	-0.04191119
11	0xbb85cbc5	-0.004083129
12	0xbd38885c	-0.045051917
13	0xbd4b12ae	-0.04957836
14	0x3c3deeca	0.011592576
15	0x3a97ef81	0.0011591763

encoder.bn2.running_mean f4 [16]
0	0x3e98da83	0.2985421
1	0x3ea67662	0.32512194
2	0x3e56f2bd	0.20991035
3	0x3e4d9932	0.2007797
4	0x3ec47fb9	0.38378695
5	0x3e1e6888	0.15469563
6	0x3eb18c17	0.34677193
7	0x3debf65a	0.11521597
8	0x3e3dd017	0.18536411
9	0x3e92b02f	0.28650042
10	0x3dca769a	0.09885903
11	0x3e8d5802	0.27606207
12	0x3ea983da	0.33108407
13	0x3e3be8d8	0.18350542
14	0x3e749744	0.23885828
15	0x3efbb34a	0.49160224

encoder.bn2.running_var f4 [16]
0	0x3e382ef2	0.17986658
1	0x3e15b310	0.14619088
2	0x3e0c31d4	0.13690883
3	0x3dc10c45	0.09426168
4	0x3e45d961	0.19321205
5	0x3d8d4b3f	0.06899118
6	0x3e668f3e	0.2251558
7	0x3d0d2d85	0.03446724
8	0x3d80269e	0.06257366
9	0x3e28c627	0.16481839
10	0x3cc8b560	0.024500549
11	0x3e1f7735	0.15572818
12	0x3e3eb62c	0.1862418
13	0x3d722e88	0.059126407
14	0x3e0be595	0.13661797
15	0x3e67117f	0.22565268

encoder.bn3.weight f4 [32]
0	0x3f850c13	1.039431
1	0x3f793909	0.97352654
2	0x3f7ed56e	0.9954442
3	0x3f7b8a13	0.9825756
4	0x3f81f974	1.0154252
5	0x3f746ea2	0.9548131
6	0x3f7da8bd	0.990856
7	0x3f80c4c5	1.0060049
8	0x3f80189f	1.0007514
9	0x3f77767b	0.9666516
10	0x3f736432	0.9507476
11	0x3f749c92	0.9555141
12	0x3f79990c	0.97499156
13	0x3f6d9d61	0.92818266
14	0x3f80363a	1.0016549
15	0x3f82bbb5	1.0213534
16	0x3f862c4d	1.048227
17	0x3f6e827e	0.93167865
18	0x3f758970	0.9591284
19	0x3f7796b6	0.9671434
20	0x3f7b3430	0.98126507
21	0x3f7dfa85	0.9921039
22	0x3f764f62	0.9621488
23	0x3f700f76	0.9377359
24	0x3f83f88c	1.0310225
25	0x3f7a3978	0.9774394
26	0x3f79288f	0.9732751
27	0x3f7a76d0	0.97837543
28	0x3f7ca675	0.98691493
29	0x3f74d93c	0.95643973
30	0x3f8285d6	1.0197093
31	0x3f830cd8	1.0238295

encoder.bn3.bias f4 [32]
0	0xbd1d65fe	-0.038427345
1	0xbcaac6f5	-0.020846823
2	0x3be37400	0.0069413185
3	0xbc1c894e	-0.00955422
4	0xbcaf256f	-0.021380154
5	0xbd257552	-0.04039509
6	0xbc61c326	-0.013779437
7	0xbd8b897c	-0.068133324
8	0xbcbf4a24	-0.023350783
9	0xbd640f18	-0.055678457
10	0xbc943c8d	-0.01809528
11	0x3d13c79e	0.03607904
12	0xbcba7cb7	-0.022764547
13	0x3dab805b	0.08374091
14	0xbd181435	-0.037128646
15	0xbbdc5e0a	-0.0067250775
16	0xbd93f382	-0.0722418
17	0x3cd5317c	0.026024573
18	0x3d33f2f6	0.043932877
19	0xbd0780db	-0.03308187
20	0xbd292bfe	-0.04130172
21	0x3b69aa7c	0.0035654595
22	0xbd2f0bdc	-0.04273592
23	0xbc6fec43	-0.0146437315
24	0xbbb0ec91	-0.0053992947
25	0xbc507867	-0.012724019
26	0xbc75931b	-0.014988686
27	0xbb2e737c	-0.0026619127
28	0x3b0d1066	0.0021524667
29	0xbd0df8ae	-0.034660988
30	0xbd0a53fe	-0.033771507
31	0xbd198525	-0.037480492

encoder.bn3.running_mean f4 [32]
0	0x3ed17690	0.40910769
1	0x3e8abf78	0.27099204
2	0x3eb9b091	0.36267522
3	0x3ed5cefb	0.41759476
4	0x3e5afa07	0.2138444
5	0x3e52b1f0	0.2057569
6	0x3eba367a	0.36369687
7	0x3e656520	0.22401857
8	0x3e4a0cbe	0.19731423
9	0x3e809cea	0.25119716
10	0x3e43d4d1	0.19124152
11	0x3e70c086	0.23510942
12	0x3e9b9993	0.30390605
13	0x3e3a0e85	0.18169601
14	0x3e6b59c7	0.22983466
15	0x3ebb5567	0.36588594
16	0x3ea65777	0.32488605
17	0x3e1eff12	0.15526989
18	0x3e77007c	0.24121279
19	0x3e9e26b1	0.30888894
20	0x3ecc15c0	0.39860344
21	0x3e8e2cb4	0.2776848
22	0x3e57b869	0.2106644
23	0x3e977975	0.29584852
24	0x3e6ff75b	0.23434202
25	0x3e58b372	0.21162203
26	0x3e156cc3	0.1459227
27	0x3e3dc4ac	0.18532056
28	0x3e8d5afa	0.27608472
29	0x3e8b93b3	0.27261123
30	0x3eb7736e	0.35830253
31	0x3e866f06	0.2625658

encoder.bn3.running_var f4 [32]
0	0x3e96000d	0.29296914
1	0x3e3dc0b5	0.18530543
2	0x3ea3aa29	0.3196576
3	0x3e6f354d	0.23360176
4	0x3e06f011	0.13177516
5	0x3dfde90b	0.12397965
6	0x3e49e84c	0.1971752
7	0x3e01f4dc	0.12691063
8	0x3e000f9f	0.12505959
9	0x3e17e8c2	0.14834884
10	0x3ddaca3b	0.10683104
11	0x3e173e0d	0.14769764
12	0x3e3ceed2	0.18450478
13	0x3dbcbb68	0.092154324
14	0x3e010b55	0.12601979
15	0x3ebb71a7	0.36610147
16	0x3e65c268	0.22437441
17	0x3d8d07dd	0.068862654
18	0x3e010da5	0.12602861
19	0x3e30a00f	0.17248558
20	0x3e802836	0.2503068
21	0x3e1f5c30	0.1556251
22	0x3dfafdf3	0.12255468
23	0x3e2fc6e3	0.17165713
24	0x3e0eae77	0.1393374
25	0x3de3b92a	0.111193016
26	0x3d8c299f	0.06843876
27	0x3dc51a88	0.09624201
28	0x3e12696d	0.14298029
29	0x3e029424	0.12751824
30	0x3e6aca3b	0.22928707
31	0x3df265c9	0.1183582

encoder.bn4.weight f4 [32]
0	0x3f6cb7c8	0.9246793
1	0x3f69ec23	0.9137594
2	0x3f81f0b7	1.0151585
3	0x3f852584	1.0402074
4	0x3f6e66dc	0.931257
5	0x3f788a06	0.9708561
6	0x3f7dd365	0.9915069
7	0x3f78a2a5	0.97123176
8	0x3f798241	0.97464377
9	0x3f7ccc94	0.9874966
10	0x3f78a610	0.9712839
11	0x3f7de5f0	0.9917898
12	0x3f7a15c7	0.9768948
13	0x3f802c58	1.0013533
14	0x3f6cda11	0.9252024
15	0x3f7a81b0	0.9785414
16	0x3f7d184f	0.98865217
17	0x3f7b23d9	0.98101574
18	0x3f81cf97	1.0141476
19	0x3f791460	0.97296715
20	0x3f816aae	1.0110681
21	0x3f795d6c	0.97408175
22	0x3f7beb30	0.9840574
23	0x3f83fd2b	1.0311636
24	0x3f805bdb	1.0028032
25	0x3f82109f	1.0161322
26	0x3f775f53	0.9662983
27	0x3f81540b	1.0103773
28	0x3f80e7ce	1.0070741
29	0x3f7faa9a	0.9986969
30	0x3f7545e3	0.95809764
31	0x3f6fa8cf	0.93616956
