results/_race_fptra_0.9_1000_VAE_model.pt (torch, 201744 bytes, 61 tensors)

encoder.conv1.weight f4 [16, 1, 2]
0	0xbeb56334	-0.35427248
1	0xbe44ec74	-0.19230825
2	0xbe9b84eb	-0.30374846
3	0x3efb61a5	0.49097934
4	0x3e0ec0e8	0.13940775
5	0xbe845e2b	-0.25853094
6	0x3e867980	0.26264572
7	0x3ed2f516	0.4120261
8	0x3d2d3bb8	0.04229328
9	0xbec087e5	-0.3760368
10	0xbe20ea13	-0.15714292
11	0x3f22fe35	0.6366914
12	0xbd15d36e	-0.03657859
13	0xbdd511a3	-0.104037546
14	0x3ecd52d8	0.40102267
15	0x3eb1d0d7	0.34729645
16	0x3f332a82	0.69986737
17	0xbf26881d	-0.6505144
18	0xbf2ce8a3	-0.67542475
19	0x3f1cd088	0.61255693
20	0xbefada33	-0.48994598
21	0x3e6d0cd0	0.23149419
22	0xbde23ad9	-0.110463805
23	0x3f353022	0.7077657
24	0xbedb03ab	-0.42776236
25	0xbe36c660	-0.17849112
26	0xbf2ba1a6	-0.6704353
27	0xbeb15dbf	-0.34641835
28	0x3f07996c	0.5296848
29	0x3ef9fe97	0.4882705
30	0x3eeb08cf	0.45905158
31	0x3eaa6833	0.33282623

encoder.conv1.bias f4 [16]
0	0xbeec2c3c	-0.46127498
1	0xbecbcf75	-0.39806715
2	0xbe2e5680	-0.17025185
3	0x3eea95dd	0.45817462
4	0x3e83f181	0.2577019
5	0x3e3e1b21	0.18565036
6	0x3eed97b1	0.46404794
7	0x3e9ae293	0.30250987
8	0xbf09fbbe	-0.53899753
9	0xbd1ef8e4	-0.03881158
10	0xbcc144c5	-0.023592362
11	0x3b5f3107	0.0034056322
12	0xbe5ddeb4	-0.21666986
13	0xbd40af50	-0.04704219
14	0xbf0389f1	-0.51382357
15	0x3f0ef02e	0.55835235

encoder.conv2.weight f4 [16, 16, 2]
0	0xbe2a1753	-0.1661046
1	0xbe29b6e9	-0.16573681
2	0x3d8249c9	0.0636173
3	0xbd7f4801	-0.062324528
4	0x3d816118	0.06317347
5	0xbdbf92ac	-0.09354147
6	0x3dae43a0	0.08508992
7	0xbd60b691	-0.05486161
8	0xbd77175c	-0.06032501
9	0x3d849d8a	0.06475361
10	0xbd946cba	-0.072473004
11	0x3ddc7248	0.10763985
12	0xbe12424c	-0.14283103
13	0xbc6b098d	-0.014345539
14	0x3d8839e2	0.06651665
15	0x3d32352a	0.043507732
16	0xbd15143c	-0.03639625
17	0x3e2bf964	0.16794354
18	0x3e0cec75	0.13762076
19	0xbcb85963	-0.02250356
20	0xbbd92b02	-0.0066274414
21	0x3dd6b167	0.104830556
22	0x3d941687	0.07230859
23	0xbe0a8d20	-0.13530397
24	0xbd861fd3	-0.06549039
25	0x3cb17def	0.021666495
26	0xbdd8aee8	-0.10580236
27	0xbd42654c	-0.047459885
28	0xbd015302	-0.031573303
29	0xbe138e1a	-0.14409676
30	0x3cc5376c	0.024074279
31	0x3e0560a1	0.13025142
32	0x3db2c5a9	0.08729107
33	0x3e08f84e	0.1337597
34	0xbc29f143	-0.010372463
35	0xbd64e893	-0.055885863
36	0x3db5f7c9	0.08885152
37	0x3e25dc81	0.16197397
38	0xbd538258	-0.051637977
39	0xbc25711b	-0.010097767
40	0xbe0ef336	-0.13959965
41	0x3dc74ece	0.09731828
42	0x3e26129b	0.16218035
43	0xbde02a2d	-0.109455444
44	0x3e3170bd	0.17328162
45	0x3dc70a76	0.09718792
46	0xbe03d575	-0.12874396
47	0x3d68257c	0.056676373
48	0xbe23272e	-0.15932915
49	0x3da29e7a	0.07940383
50	0x3d4b56a2	0.049643166
51	0x3e365434	0.17805558
52	0x3d593d18	0.05303678
53	0x3e07e72a	0.13271776
54	0xbb1d0937	-0.0023961791
55	0x3da34f6e	0.079741344
56	0x3e0db9d5	0.1384042
57	0xbb2b3e3e	-0.0026129629
58	0xbbafc25d	-0.005363746
59	0xbdc6271c	-0.09675428
60	0xbd38cf02	-0.045119293
61	0xbe1c01a9	-0.15235008
62	0x3be9e8ed	0.0071383626
63	0x3e0eab78	0.13932598
64	0x3c78b316	0.015179416
65	0xbcfdaac9	-0.030965226
66	0xbad82b14	-0.001649233
67	0xbd6b24bc	-0.05740808
68	0xbe028b50	-0.12748456
69	0x3daea4a5	0.08527497
70	0x3c18364f	0.009290292
71	0xbc661c44	-0.014044825
72	0x3d5ae00b	0.05343632
73	0xbdc7445b	-0.09729835
74	0xbdcced44	-0.10006192
75	0x3cd25773	0.025676465
76	0xbe0cad3f	-0.13737963
77	0xbd03593c	-0.032067522
78	0x3deed6bf	0.11662053
79	0xbd5c1c87	-0.053738143
80	0xbdb8c39e	-0.09021686
81	0x3e35152e	0.1768386
82	0x3cda6f2b	0.026664337
83	0x3e309c79	0.1724719
84	0x3de43f65	0.11144904
85	0x3e0922a3	0.13392119
86	0x3d888dc9	0.06667668
87	0x3e21c40d	0.15797444
88	0x3dec2907	0.11531263
89	0x3e27fa06	0.1640397
90	0x3e0b9ffa	0.13635245
91	0x3dc9314f	0.09823858
92	0x3ca2ca3e	0.019871827
93	0xbdc4e8a3	-0.096146844
94	0xbe0d33d3	-0.137893
95	0xbd3f2c8b	-0.04667334
96	0x3d5a8724	0.053351536
97	0x3d9983e7	0.074958615
98	0xbe34028d	-0.17579098
99	0xbdd9d54e	-0.10636388
100	0xbddf5b4e	-0.10906087
101	0x3d52e7d9	0.05149064
102	0xbd43088e	-0.04761558
103	0xbd9cc5cc	-0.07654914
104	0x3be6a685	0.0070388936
105	0x3b22119e	0.002472974
106	0xbd55a4d4	-0.052159145
107	0xbe27190f	-0.16318153
108	0x3d504fab	0.050857227
109	0x3d84c3a6	0.064826295
110	0x3e38f6ec	0.18062943
111	0x3dec1185	0.11526779
112	0xbe2208ee	-0.15823719
113	0x3deec02c	0.116577476
114	0xbe20907d	-0.15680118
115	0xbe1a7fb8	-0.15087783
116	0x3db2235b	0.0869815
117	0x3e2c4ae6	0.16825446
118	0xbe0f3c9d	-0.13987966
119	0xbd5075cc	-0.05089359
120	0xbe23c325	-0.1599241
121	0xbe20baa5	-0.15696199
122	0xbe16ad1d	-0.14714475
123	0x3d1fd71c	0.039023504
124	0x3e0501fa	0.12989035
125	0xbe012a3c	-0.12613767
126	0x3e2e155c	0.17000335
127	0xbcf0eecf	-0.029410748
128	0xbdc32425	-0.095283784
129	0x3dbe10fe	0.09280585
130	0xbe2df30e	-0.1698725
131	0x3de84c0f	0.11342632
132	0x3d6dcddd	0.058057655
133	0xbc9b2270	-0.01893732
134	0xbd97ed93	-0.074183606
135	0xbbb20fc3	-0.005434008
136	0xbdfb4c47	-0.12270408
137	0xbd111ae3	-0.03542603
138	0xbe0ea0d7	-0.13928543
139	0x3cbe29f4	0.023213364
140	0xbdacbed1	-0.08434833
141	0x3db098e3	0.08622911
142	0xbcee937d	-0.029123062
143	0x3e203e6c	0.15648812
144	0x3cc8e2b7	0.024522169
145	0xbbc1c583	-0.005913438
146	0x3da853bc	0.08219096
147	0xbccf1768	-0.025279716
148	0xbd831041	-0.063995846
149	0x3d9844a0	0.07434964
150	0xbda911a5	-0.082553186
151	0xbd8a804e	-0.067627534
152	0xbdf51acd	-0.119680025
153	0x3dc9a0c0	0.09845114
154	0xbe02f1aa	-0.127875
155	0x3d2ed0c1	0.042679552
156	0xbd70aaa5	-0.05875649
157	0xbd8a7498	-0.0676052
158	0xbde1ecdc	-0.110315055
159	0xbe212ca3	-0.15739684
160	0xbd2dc209	-0.042421374
161	0x3cb561b8	0.022141322
162	0x3d3c7d1c	0.04601775
163	0xbe283335	-0.16425784
164	0x3d4bd007	0.049758937
165	0x3d8b7988	0.068102896
166	0x3de8d9dd	0.11369679
167	0x3a83a670	0.0010044109
168	0x3db29b97	0.08721083
169	0x3e008db9	0.12554063
170	0x3d03293a	0.03202174
171	0x3dd2be0a	0.10290153
172	0xbd53d0b2	-0.0517127
173	0x3d0e3d63	0.03472651
174	0xbdc40a69	-0.09572298
175	0xbe20cfda	-0.15704289
176	0xbd567aeb	-0.052363317
177	0xbe2d5533	-0.16927032
178	0xbd33ce83	-0.043898117
179	0xbd9a08bf	-0.075211994
180	0xbdaabe46	-0.08337073
181	0x3d610718	0.054938406
182	0xbdb03b6d	-0.086050846
183	0x3d8cd5a4	0.06876686
184	0xbd9cbbdd	-0.076530196
185	0xbd813c84	-0.063103706
186	0xbe24b131	-0.16083218
187	0x3dd837b8	0.105575025
188	0xbd39432b	-0.045230072
189	0x3df107de	0.11769079
190	0x3df893f2	0.12137593
191	0x3caff0b2	0.021477077
192	0x3dfcb5e7	0.123393826
193	0xbc3d3eed	-0.011550647
194	0x3e1db362	0.1540046
195	0x3d2dfeb3	0.04247923
196	0xbdb48564	-0.08814505
197	0x3dab1e9d	0.083554484
198	0x3d57880b	0.052619975
199	0xbc5ef647	-0.013608522
200	0x3dbd88e0	0.092546225
201	0x3e2f5cc4	0.17125231
202	0xbe1d287a	-0.15347472
203	0x3e0710b5	0.13189967
204	0xbe10aa15	-0.14127381
205	0x3ca32493	0.0199149
206	0x3e225207	0.15851603
207	0x3dcae1f7	0.099063806
208	0x3db487e1	0.08814979
209	0xbd1bc4fd	-0.03802966
210	0xbd1a5309	-0.037676845
211	0xbe10a263	-0.14124446
212	0x3d04ce88	0.032423526
213	0xbe36bab7	-0.17844664
214	0xbdb888ba	-0.090104535
215	0x3dc9e72f	0.09858548
216	0xbe20cad1	-0.15702368
217	0x3d3f509a	0.046707727
218	0x3e2cef41	0.16888143
219	0x3e32e924	0.17471749
220	0xbdbb135c	-0.09134552
221	0x3dce7f02	0.100828186
222	0xbdfc5281	-0.12320424
223	0xbe204765	-0.15652235
224	0x3de069e3	0.10957696
225	0x3e293ac6	0.16526327
226	0xbd15b1d0	-0.03654653
227	0x3e18b0e2	0.14911225
228	0x3e2f5cbd	0.1712522
229	0x3e08ea94	0.13370734
230	0x3e1ce638	0.15322196
231	0x3d586d2a	0.052838482
232	0x3cf02ee7	0.02931924
233	0x3e2a3d2f	0.16624902
234	0x3d09da43	0.033655416
235	0x3e2548bd	0.16141029
236	0x3e1e9896	0.15487894
237	0x3dbadaed	0.09123788
238	0xbe050a6b	-0.12992255
239	0xbd60a4be	-0.05484461
240	0x3c1ab4ac	0.00944249
241	0x3dffa8af	0.12483346
242	0xbdcdc0ae	-0.10046516
243	0xbe1b1fa0	-0.15148783
244	0x3dc055f3	0.093913935
245	0x3cf0bd04	0.029387005
246	0x3d26fadf	0.040766593
247	0x3d15bc6e	0.036556654
248	0x3e0ca811	0.13735987
249	0xbd6b8e5b	-0.057508808
250	0x3de2b1bc	0.110690564
251	0x3d0805de	0.03320872
252	0xbd1ee2dc	-0.03879057
253	0x3d87cbd0	0.06630671
254	0xbdcdac09	-0.10042579
255	0x3c748447	0.0149241155

encoder.conv2.bias f4 [16]
0	0xbd75031d	-0.059817422
1	0xbe0c3b19	-0.13694419
2	0x3dc4a5c0	0.09601927
3	0x3d91747e	0.07102297
4	0xbdff2b32	-0.12459411
5	0x3d80db65	0.06291846
6	0xbc541dd0	-0.012946561
7	0x3bfbb79c	0.0076818
8	0xbe1c5e38	-0.15270317
9	0x3bed9493	0.0072503774
10	0xbe25054d	-0.16115303
11	0xbd11813e	-0.035523646
12	0x3e3e9d34	0.18614656
13	0x3d747ac6	0.0596874
14	0x3dcafcb5	0.09911481
15	0xbe0c6d0c	-0.13713473

encoder.conv3.weight f4 [32, 16, 2]
0	0xbddc87aa	-0.10768063
1	0xbd052057	-0.032501545
2	0x3e24fe2b	0.16112582
3	0x3d46cdea	0.04853622
4	0x3da93506	0.082620665
5	0xbad84ab9	-0.0016501761
6	0xbd725485	-0.059162635
7	0xbe04ff50	-0.12988019
8	0x3d1c5d3f	0.038174864
9	0xbe2fecb5	-0.1718014
10	0xbe2d0b21	-0.16898777
11	0xbc39c5e3	-0.011338684
12	0x3dd5cdb7	0.104396276
13	0xbe17c7ee	-0.14822361
14	0x3d87d371	0.06632126
15	0xbdb0855f	-0.086191885
16	0xbda64af8	-0.08119768
17	0x3e153127	0.14569531
18	0x3e363017	0.17791782
19	0x3dff0c49	0.12453515
20	0x3dcabe76	0.09899609
21	0xbdabccb2	-0.08388652
22	0x3dc97d3c	0.0983834
23	0x3db3cd38	0.08779377
24	0x3cde87be	0.027164336
25	0x3e29a48a	0.16566673
26	0x3d70272a	0.0586311
27	0xbe257dab	-0.1616122
28	0x3e2cc9bd	0.16873832
29	0x3e02c77f	0.12771414
30	0x3c000013	0.007812518
31	0xbda0bd77	-0.078486376
32	0x3e06ea67	0.13175355
33	0x3e1c43fe	0.15260312
34	0x3e17b428	0.14814818
35	0xbbbac409	-0.0056996387
36	0x3d4f6a84	0.05063869
37	0xbe220186	-0.15820894
38	0x3db64735	0.089003004
39	0x3e1488c8	0.14505303
40	0x3d86c0cb	0.06579741
41	0x3dfe8e57	0.12429493
42	0x3d58493b	0.052804213
43	0x3dc77b70	0.09740341
44	0x3e2df93d	0.16989608
45	0xbe042f9a	-0.12908784
46	0xbdb15697	-0.08659094
47	0xbd2a9fa7	-0.041656163
48	0xbd611acc	-0.054957196
49	0xbe2dfa6f	-0.16990064
50	0x3e22e62c	0.15908116
51	0xbe1ce1c5	-0.15320499
52	0xbe04b79a	-0.12960663
53	0xbc5f47e4	-0.01362798
54	0x3e0bae4b	0.13640706
55	0xbe1b62ca	-0.15174404
56	0x3c9be019	0.019027757
57	0xbc9cacae	-0.019125309
58	0x3d5b6cca	0.053570546
59	0xbd682611	-0.056676928
60	0xbd96e39a	-0.0736763
61	0x3d62b01d	0.055343736
62	0xbdb59cbd	-0.08867786
63	0x3d015418	0.03157434
64	0xbd696fc5	-0.056991357
65	0xbd6af834	-0.05736561
66	0x3e1f0ec4	0.15532976
67	0xbd7bb16e	-0.061448507
68	0xbde70fd7	-0.11282318
69	0xbd2e6293	-0.042574476
70	0x3dedfa5c	0.11620018
71	0xbdda2e93	-0.106534146
72	0x3de4f7b0	0.11180055
73	0xbd94397c	-0.07237527
74	0xbe270467	-0.16310273
75	0xbde4a85e	-0.11164926
76	0xbd9cdea0	-0.0765965
77	0xbe295228	-0.16535246
78	0xbd874cd3	-0.0660645
79	0x3dbdde73	0.092709444
80	0xbdafe4dc	-0.08588573
81	0x3e28e37e	0.16493031
82	0xbc4abb38	-0.012373738
83	0xbe3334d1	-0.17500617
84	0x3e0251f1	0.1272657
85	0x3e22bc3b	0.15892117
86	0x3e1fa9f9	0.15592183
87	0x3e19bd40	0.150136
88	0x3c852e04	0.016257294
89	0x3e3b08e7	0.18265115
90	0x3da7a1f1	0.08185185
91	0xbdd3bf9b	-0.1033928
92	0x3e15c883	0.1462727
93	0xbdb5bd93	-0.08874049
94	0xbdcb1267	-0.09915619
95	0x3ca26a1c	0.019825988
96	0x3dbbdd74	0.09173098
97	0xbd082abf	-0.03324389
98	0xbc7e5eae	-0.015525503
99	0x3e2794d4	0.16365367
100	0xbd96be27	-0.073604874
101	0xbe223261	-0.1583953
102	0xbe072337	-0.13197027
103	0x3cabca32	0.020970438
104	0x3e32cf46	0.17461881
105	0x3caf482a	0.021396715
106	0x3e1ff3fe	0.1562042
107	0xbe01e8a6	-0.12686405
108	0xbd4376de	-0.047720782
109	0x3e04bd85	0.12962921
110	0x3b038d39	0.002007319
111	0xbda39485	-0.07987312
112	0x3d470e9c	0.048597917
113	0x3dfa6ca7	0.12227755
114	0xbe2f4a9a	-0.17118302
115	0x3dcd8812	0.10035719
116	0xbe22f637	-0.15914236
117	0x3cc38dc7	0.023871316
118	0xbd8a5aa2	-0.06755568
119	0x3e00387e	0.1252155
120	0xbe3370b1	-0.17523457
121	0xbd53d890	-0.051720202
122	0x3df490a1	0.11941648
123	0xbca13780	-0.019679785
124	0xbdb0ace2	-0.08626725
125	0xbd532933	-0.051552963
126	0xbe1472e5	-0.14496954
127	0xbdf70e3d	-0.120632626
128	0xbe2eb1ba	-0.17059985
129	0x3ddf73de	0.10910772
130	0xbab3f32d	-0.0013729088
131	0x3e0794c9	0.13240351
132	0xbe0068c3	-0.12539963
133	0x3d219847	0.039451864
134	0x3bcdadfc	0.006276844
135	0xbe1838d5	-0.1486543
136	0xbdecacdd	-0.115564086
137	0xbe02192d	-0.12704916
138	0xbdea0c38	-0.11428112
139	0x3ddd70ef	0.10812556
140	0xbc95e945	-0.018299708
141	0x3db35ee7	0.087583356
142	0x3e1ae08b	0.15124719
143	0x3dc11414	0.09427658
144	0x3da989d2	0.0827824
145	0xbd2fc028	-0.042907864
146	0xbd3f1612	-0.046651907
147	0xbdba2f14	-0.09091011
148	0x3e21c8c7	0.15799247
149	0xbe072d29	-0.13200821
150	0x3d8c1cda	0.068414405
151	0xbd16a17d	-0.0367751
152	0xbdd3b2cf	-0.103368394
153	0x3e1c1122	0.1524091
154	0x3d807503	0.06272318
155	0xbc73fab7	-0.014891318
156	0x3dc5fd0d	0.09667406
157	0xbd99417c	-0.07483193
158	0x3e2bb49c	0.16768116
159	0x3dfef3b8	0.124488294
160	0x3e175421	0.14778186
161	0xbd202f34	-0.039107516
162	0xbdcae141	-0.09906245
163	0xbe2ee2a2	-0.17078641
164	0x3db91b8f	0.090384595
165	0x3bb0ad11	0.005391725
166	0x3dd172d2	0.10226978
167	0x3e232f0d	0.15935917
168	0xbe147710	-0.14498544
169	0x3ce9515a	0.028481174
170	0xbc87e2c6	-0.016587626
171	0x3bfa9464	0.007647084
172	0x3db4d54f	0.08829748
173	0xbd898c26	-0.06716184
174	0x3e125517	0.14290272
175	0x3e0f2c89	0.13981833
176	0x3d363a7b	0.044489365
177	0x3d486972	0.048928685
178	0x3e0d10b9	0.1377591
179	0xbcd2295b	-0.025654485
180	0xbc8bb889	-0.017055767
181	0xbdaffae6	-0.08592777
182	0xbda7d047	-0.081940226
183	0x3e094d33	0.13408355
184	0x3e019c9b	0.12657396
185	0xbe1beab0	-0.15226245
186	0x3c71e643	0.014764371
187	0x3da25aef	0.079275005
188	0xbd50b1d4	-0.05095084
189	0x3d1ef5c6	0.038808607
190	0x3e268f29	0.16265549
191	0xbe34b996	-0.1764892
192	0xbe2b5300	-0.1673088
193	0x3bd43949	0.0064765555
194	0xbe260b13	-0.16215162
195	0xbd0620cf	-0.032746132
196	0x3e02d401	0.12776186
197	0x3df91f4a	0.12164171
198	0xbd847107	-0.06466871
199	0x3dbc49fa	0.091937974
200	0x3d0db31c	0.03459464
201	0x3e0cced5	0.13750775
202	0xbbe8c9db	-0.007104141
203	0xbc92c47a	-0.017915953
204	0x3dc3a754	0.095534
205	0x3c16951c	0.009190824
206	0x3cfe1392	0.031015191
207	0x3d7a0e0c	0.061048552
208	0x3e2d7164	0.16937786
209	0x3da7aa8a	0.081868246
210	0xbe291fce	-0.16516039
211	0xbdf19d5f	-0.11797594
212	0x3e26f11f	0.16302918
213	0x3e330085	0.17480667
214	0xbda32b7e	-0.0796728
215	0xbe1b806e	-0.15185711
216	0xbe118ef3	-0.14214687
217	0x3d895158	0.06704968
218	0xbe11d154	-0.14240009
219	0x3d1935a8	0.037404686
220	0x3e311c03	0.17295842
221	0xbd8dddd6	-0.069270775
222	0x3e0d98c9	0.13827814
223	0xbdf3247d	-0.11872194
224	0xbe0fcab9	-0.14042176
225	0x3e190af4	0.14945585
226	0x3e1c6faa	0.15276971
227	0x3c022ecc	0.007945728
228	0x3dc52106	0.09625439
229	0x3c2a542a	0.010396043
230	0xbdd2b9a0	-0.102893114
231	0xbdc40d25	-0.095728196
232	0xbdc4fd87	-0.09618669
233	0x3d78bd28	0.06072727
234	0xbe08bc63	-0.13353114
235	0xbe0a551c	-0.13509029
236	0x3cc55496	0.024088185
237	0xbd3fefe9	-0.046859656
238	0xbd1f706e	-0.03892558
239	0x3e09b90d	0.13449498
240	0xbe03a721	-0.12856723
241	0x3d6dd12d	0.058060814
242	0x3d04547f	0.032307144
243	0x3d1bdf7d	0.038054932
244	0xbdf10722	-0.117689386
245	0xbe0f8d6b	-0.1401879
246	0x3e0bcd28	0.1365248
247	0x3daa6ce1	0.08321548
248	0x3c2d8fec	0.010593396
249	0x3ddf0cf0	0.108911395
250	0xbe15d9be	-0.14633843
251	0xbda3ffca	-0.08007772
252	0x3e3a5c5e	0.18199298
253	0x3e278c83	0.16362195
254	0xbd31468b	-0.043280166
255	0x3d8f29c3	0.06990387

encoder.conv3.bias f4 [32]
0	0xbe26ab3b	-0.16276257
1	0xbc66ce30	-0.014087245
2	0x3d98f359	0.0746829
3	0xbe167f30	-0.14696956
4	0x3d066778	0.03281352
5	0xbe05c674	-0.13063985
6	0xbad12385	-0.001595602
7	0xbd71b006	-0.05900576
8	0x3def0ccf	0.11672365
9	0x3dd13428	0.10215026
10	0xbe083bef	-0.13304113
11	0xbc8d431b	-0.017243912
12	0xbdae7282	-0.085179344
13	0x3dc7cf10	0.09756291
14	0x3dd5562c	0.104168266
15	0xbda46876	-0.08027737
16	0xbe1a6f70	-0.15081573
17	0x3e0df0b8	0.13861358
18	0xbdf7e9c4	-0.12105134
19	0xbdf5cd16	-0.12002008
20	0x3cc26eeb	0.02373453
21	0xbe0bef3f	-0.13665484
22	0x3e1294a5	0.14314516
23	0x3d5c30c1	0.053757433
24	0xbcf9e278	-0.030503497
25	0x3e091e81	0.13390543
26	0x3c91f1d7	0.017815514
27	0xbb0bdfd5	-0.002134313
28	0x3d741d58	0.059598297
29	0xbdb08dd5	-0.08620802
30	0x3dd5b6f0	0.10435283
31	0x3da41c46	0.08013205

encoder.conv4.weight f4 [32, 32, 2]
0	0x3c8348b5	0.01602588
1	0xbdbbcc7c	-0.09169862
2	0x3c820893	0.01587323
3	0x3d13be6c	0.036070272
4	0xbd471af9	-0.048609708
5	0x3d359934	0.04433556
6	0x3ca2f3a1	0.019891562
7	0xbd913804	-0.07090762
8	0x3d20e333	0.039279174
9	0x3d6cfd97	0.05785903
10	0x3ddcf929	0.10789711
11	0x3b01c936	0.001980377
12	0x3cb2514a	0.021767277
13	0xbde4e474	-0.111763865
14	0x3d09dffe	0.03366088
15	0xbdf69769	-0.12040598
16	0x3d77b76a	0.06047765
17	0xbcb8026a	-0.022462089
18	0x3c5e2e18	0.013560794
19	0xbde41470	-0.11136711
20	0xbd058bc8	-0.03260401
21	0xbcc48c61	-0.02399272
22	0xba8a8e08	-0.0010570893
23	0xbc9e16b7	-0.01929794
24	0xbdb351f1	-0.087558635
25	0x3c1d47c5	0.009599631
26	0x3cb39cff	0.021925448
27	0xbcd902c8	-0.026490584
28	0x3dc11a71	0.094288714
29	0xbc87b146	-0.016564023
30	0xbd18abda	-0.037273265
31	0x3b879e49	0.004138742
32	0x3db58605	0.08863453
33	0x3ddc6134	0.107607275
34	0xbd89243e	-0.06696366
35	0xbd351add	-0.044215072
36	0xbde73e57	-0.11291187
37	0x3ddd84bf	0.10816335
38	0xbde238ec	-0.11046013
39	0xbd2ff65a	-0.04295955
40	0x3d89d1ed	0.06729493
41	0xbd6425aa	-0.05569998
42	0x3df07f13	0.117429875
43	0xbdc6207c	-0.09674165
44	0xbd6028ab	-0.054726284
45	0xbda000d3	-0.07812657
46	0xbd889a97	-0.06670111
47	0x3d8a23c6	0.067451045
48	0xbdddbad8	-0.10826653
49	0xbcdd2e70	-0.026999682
50	0xbde57f9a	-0.11205979
51	0xbdc120a9	-0.094300576
52	0x3c7907c5	0.015199606
53	0xbd77f76e	-0.0605387
54	0x3d6b14c5	0.057392854
55	0x3ca4f6c8	0.020137206
56	0xbc959d8f	-0.018263606
57	0xbd44f17d	-0.048081864
58	0x3d8831f6	0.06650154
59	0xbc8ab88f	-0.016933708
60	0xbaf119e5	-0.0018394558
61	0x3c8a8e07	0.016913427
62	0x3d80f3ef	0.06296527
63	0x3d116bc7	0.035503175
64	0xbc419995	-0.011816402
65	0x3c57ed2c	0.013179105
66	0xbc91d90b	-0.01780369
67	0xbdda2f39	-0.10653538
68	0xbd12512d	-0.035721947
69	0xbd7b5018	-0.06135568
70	0xbdf2b107	-0.118501715
71	0x3da6fc8d	0.08153639
72	0xbd74e8f1	-0.059792463
73	0xbd51b34d	-0.051196385
74	0x3db40eab	0.0879186
75	0xbdf242d0	-0.1182915
76	0x3db9c3c6	0.09070544
77	0xbccea738	-0.02522622
78	0x3dc3552d	0.0953773
79	0xbdb80d05	-0.08986858
80	0xbdefba93	-0.11705508
81	0x3dd55085	0.104157485
82	0x3d3dc8d1	0.04633409
83	0x3dcba4f7	0.09943574
84	0xbdcff2ed	-0.10153756
85	0xbd88f49f	-0.06687283
86	0xbdc89ead	-0.0979589
87	0xbd97f56e	-0.07419859
88	0x3c42bca1	0.011885793
89	0xbddfdc58	-0.10930699
90	0xbde3fb03	-0.11131861
91	0x3dcc1489	0.09964854
92	0xbcde4230	-0.02713117
93	0x3d5a5275	0.053301293
94	0xbcdf5788	-0.027263418
95	0xbdfd6360	-0.1237247
96	0x3d1334f3	0.03593917
97	0xbdb2e52c	-0.08735117
98	0x3d2c5bc3	0.0420797
99	0x3da099ca	0.07841833
100	0x3be21433	0.0068993806
101	0xbcb40fab	-0.021980127
102	0x3d1e5c61	0.03866232
103	0xbe00a439	-0.12562646
104	0x3d158cb9	0.036511157
105	0x3d691f88	0.056914836
106	0x3da92a56	0.08260028
107	0x3de09d9e	0.10967563
108	0x3de88a3a	0.113544896
109	0x3db6c37c	0.089240044
110	0xbd0dc360	-0.034610152
111	0xbdc645ba	-0.09681268
112	0xbc207350	-0.009793118
113	0xbdbf45e9	-0.09339506
114	0x3b1ef92b	0.0024257402
115	0x3d3eb739	0.046561453
116	0xbdd3b1ab	-0.10336622
117	0xbc81794e	-0.015804913
118	0xbdf3b402	-0.11899568
119	0xbd8e9b47	-0.069632106
120	0xbdef8a96	-0.11696355
121	0xbca82384	-0.020524748
122	0xbded985a	-0.116013244
123	0x3c009f1c	0.007850435
124	0x3dac2efd	0.084074
125	0x3bc4b2f3	0.0060027777
126	0x3d2ae42a	0.0417215
127	0xbd93e974	-0.07222262
128	0x3dbf3a96	0.09337346
129	0xbdb2f504	-0.08738139
130	0x3d3d99ae	0.04628914
131	0xbdb60d08	-0.08889204
132	0xbde1a1c3	-0.11017182
133	0x3c09c67a	0.008409137
134	0xbdc3a8f8	-0.095537126
135	0xbe04f493	-0.12983923
136	0x3c86c519	0.016451405
137	0xbd72eb43	-0.059306394
138	0x3dbc4937	0.09193652
139	0x3c639fe7	0.013893104
140	0xbdf20cd3	-0.11818852
141	0xbc86ece1	-0.016470375
142	0xbd5d96a8	-0.054098755
143	0xbdf1b055	-0.11801211
144	0xbde003b8	-0.10938209
145	0x3d799714	0.060935095
146	0x3dda422b	0.10657152
147	0x3d2dcc65	0.042431254
148	0x3dbb0e80	0.09133625
149	0xbdcc58b9	-0.0997786
150	0xbda36961	-0.07979084
151	0x3d94e545	0.07270292
152	0x3de09486	0.109658286
153	0xbda9ec89	-0.082970686
154	0xbd9168f2	-0.07100095
155	0x3d3bd7f2	0.04586024
156	0x3c81befd	0.01583814
157	0xbbd31126	-0.0064412532
158	0x3c8012aa	0.0156339
159	0x3d8265a7	0.06367045
160	0x3d978a5d	0.073994376
161	0xbdbad0a3	-0.091218255
162	0xbd86094f	-0.06544744
163	0xbdd34512	-0.103159085
164	0xbd49dfd8	-0.04928574
165	0x3d2f5a31	0.042810623
166	0xbdb9eb5e	-0.09078096
167	0x3d2410f4	0.04005523
168	0x3bd90a88	0.00662357
169	0xbd1bf00d	-0.038070727
170	0x3d662d6f	0.056195673
171	0xbde87e61	-0.1135223
172	0xbdebfb72	-0.11522569
173	0x3de3fc6b	0.11132129
174	0x3d9fb324	0.0779784
175	0xbda73d47	-0.081659846
176	0x3c3feb72	0.011713849
177	0x3d9e0cd9	0.07717294
178	0x3d27c394	0.040958002
179	0xbd425b98	-0.04745063
180	0x3c7c6a6a	0.01540623
181	0x3c14bc20	0.009078056
182	0x3dbc618a	0.091982916
183	0xbde643e3	-0.11243417
184	0x3dbc25b0	0.09186876
185	0x3de4b097	0.11166494
186	0xbd979deb	-0.07403167
187	0x3c3116d1	0.0108086625
188	0xbdf64045	-0.12023977
189	0xbddc7119	-0.10763759
190	0xbc36486a	-0.011125663
191	0x3d7d1d40	0.061795473
192	0xbdc124c9	-0.09430844
193	0xbd8098b2	-0.06279124
194	0x3d898048	0.06713921
195	0xbd680795	-0.056647856
196	0x3d272d0c	0.040814444
197	0xbcedfde4	-0.029051729
198	0x3da4dd91	0.08050073
199	0x3d42a44a	0.04751996
200	0xbdf45e9b	-0.11932107
201	0xbc6ec9a9	-0.014574447
202	0xbdb0a34e	-0.08624898
203	0xbd770f49	-0.06031731
204	0x3c344d68	0.011004783
205	0x3df96bfc	0.121787995
206	0xbccd1c61	-0.025037946
207	0x3d403942	0.046929605
208	0xbd8301dc	-0.06396839
209	0xbdbd4d6d	-0.092432834
210	0xbc50c295	-0.0127417045
211	0x3d0240f7	0.031800237
212	0x3c883b5f	0.016629873
213	0xbdc19055	-0.09451357
214	0xbcfeb920	-0.031094134
215	0xbc553b5c	-0.013014641
216	0xbd045b11	-0.03231341
217	0xbdae8e0b	-0.08523186
218	0xbd42c4b7	-0.047550883
219	0xbde8e128	-0.1137107
220	0x3da3177c	0.07963464
221	0x3dcb5719	0.09928722
222	0x3dfc6436	0.12323801
223	0x3d13176c	0.03591101
224	0x3df794a3	0.12088897
225	0xbdbad1e0	-0.09122062
226	0x3d5bb16d	0.053636003
227	0x3d826ac7	0.063680224
228	0x3dd720c7	0.10504299
229	0xbdaaee38	-0.08346218
230	0x3d8e675f	0.0695331
231	0x3deed03d	0.11660812
232	0x3d108692	0.035284586
233	0x3d2c89ee	0.042123728
234	0x3dba3272	0.09091653
235	0xbc064000	-0.00819397
236	0x3de8af9b	0.11361619
237	0xbdfffe92	-0.12499727
238	0x3aeea54f	0.0018207225
239	0xbd22d32c	-0.03975217
240	0x3dc830c4	0.09774926
241	0xbc290a83	-0.010317448
242	0xbd178799	-0.03699455
243	0x3c433c20	0.01191619
244	0xbdeaf82e	-0.11473118
245	0x3e0030d7	0.12518631
246	0xbc30b5c4	-0.010785524
247	0xbcf6b1c6	-0.030114066
248	0xbb4d942d	-0.0031368837
249	0xbd9e545e	-0.077309355
250	0x3d55b9cd	0.052179147
251	0xbe06bd16	-0.13158068
252	0x3db414c6	0.08793025
253	0x3d8c0090	0.06836045
254	0xbd32dfe9	-0.04367057
255	0x3dc55044	0.0963445

encoder.conv4.bias f4 [32]
0	0xbe08be5c	-0.13353866
1	0xbb3a2a43	-0.0028406538
2	0x3d85a93d	0.0652642
3	0x3e0316c8	0.12801659
4	0xb9fd544a	-0.0004831872
5	0x3d2e51af	0.04255837
6	0xbd5e8372	-0.054324575
7	0x3e01d3a2	0.12678388
8	0x3df15cd3	0.11785283
9	0x3d5d9281	0.054094795
10	0xbd0bb4c9	-0.034107957
11	0x3cd78c6e	0.02631208
12	0x3bccd0ec	0.0062504914
13	0x3d2871f6	0.041124307
14	0xbb5b833b	-0.0033494968
15	0xbd10dd0d	-0.03536706
16	0x3d09cf11	0.03364474
17	0xbdcda059	-0.100403495
18	0xbd51c440	-0.05121255
19	0x3dd5b437	0.10434764
20	0x3dceea4a	0.10103281
21	0x3c67c763	0.014146659
22	0x3db13b2f	0.086538665
23	0x3d074b49	0.033030782
24	0x3c3309c2	0.010927619
25	0xbd88a93e	-0.066729054
26	0xbda40a77	-0.080098085
27	0xbcaaebd3	-0.020864403
28	0x3ce40350	0.02783361
29	0x3d98a65a	0.07453604
30	0x3dcf8280	0.10132313
31	0xbdbc9c79	-0.09209532

encoder.fc1.weight f4 [64, 512]
0	0x3cdb8db1	0.026800962
1	0xbcf4918d	-0.02985456
2	0x3cfe771b	0.031062653
3	0x3ab4da12	0.00137979
4	0x3c95cbf5	0.01828573
5	0x3c26ca15	0.010180016
6	0xbd027255	-0.031847317
7	0x3d1da2f0	0.038485467
8	0x3d22bad3	0.03972895
9	0xbcc69fd3	-0.024246132
10	0xb9eda805	-0.00045329347
11	0xbcabcd9b	-0.020972064
12	0x3c7a61fc	0.01528215
13	0xbceae361	-0.028672876
14	0xbd1d7849	-0.03844479
15	0xbbc0dece	-0.0058859354
16	0x3d0f934f	0.035052594
17	0x3d25ec16	0.040508352
18	0xbbf71644	-0.007540496
19	0xbd19e07b	-0.037567597
20	0xbca404c3	-0.020021802
21	0xbcc25abc	-0.023724906
22	0xbc82261c	-0.015887313
23	0x3c01cc4b	0.007922242
24	0xbc89d179	-0.016823517
25	0x3c78031b	0.015137459
26	0xbb750fe6	-0.003739351
27	0x3d0e8d24	0.03480257
28	0xbca8667a	-0.020556677
29	0x3d2cb3ff	0.042163845
30	0x3cd710a2	0.026253048
31	0x3c1fa2d6	0.009743413
32	0xbcf9aab4	-0.030476905
33	0xbd0e67a1	-0.034766797
34	0xb8e5ad5a	-0.0001095186
35	0xbc277a95	-0.010222097
36	0xbc8659e3	-0.016400283
37	0x3ccc38ab	0.024929365
38	0xbbe10ade	-0.0068677505
39	0x3c4bc5af	0.012437268
40	0xbd03a971	-0.032144014
41	0xbd216be1	-0.039409522
42	0x3a1cfc1c	0.0005988495
43	0x3d03f0c9	0.032212052
44	0xbcc43a23	-0.023953503
45	0xbc35f1f5	-0.01110505
46	0xbb70b2f9	-0.003672777
47	0x3cd6921d	0.02619272
48	0xbd0a4b44	-0.033763185
49	0x3d304738	0.04303667
50	0x3d0cd9ab	0.03438727
51	0x3d1e4b6e	0.038646154
52	0x3c606045	0.013694827
53	0xbbd3ee90	-0.006467648
54	0x3d2a1053	0.041519474
55	0xbc1e15a9	-0.009648719
56	0xbc4d9fd4	-0.012550313
57	0xbcca4d22	-0.024694983
58	0x3d1394d6	0.036030613
59	0xbc489098	-0.012241505
60	0xbcf67666	-0.030085754
61	0x3cd6bf83	0.026214367
62	0x3d544a9a	0.051828958
63	0x3be4641c	0.006969942
64	0x3aa40330	0.0012513157
65	0x3c9079f6	0.01763628
66	0xbd138e42	-0.03602434
67	0x3d071abc	0.03298448
68	0x3d1c26e3	0.038123023
69	0xbce43b4f	-0.027860312
70	0xbc177d9a	-0.009246254
71	0x3c829c20	0.015943587
72	0x3c494197	0.012283704
73	0xbce70730	-0.02820167
74	0xbd4a1037	-0.04933187
75	0x3b523249	0.003207343
76	0xbcc0d96c	-0.023541175
77	0xbd449547	-0.047993924
78	0xbd370133	-0.044678878
79	0xbd02cb70	-0.031932294
80	0x3ba0e58b	0.004910176
81	0x3c95b860	0.018276393
82	0xbcb970d6	-0.022636812
83	0x3bcb120c	0.0061972197
84	0x3d08f002	0.033432014
85	0xbca45605	-0.020060549
86	0x3d2e5a8e	0.04256683
87	0xbc516a02	-0.012781622
88	0x3c66b31c	0.014080789
89	0x3b76aa6a	0.0037638196
90	0x3b2bd4c4	0.0026219347
91	0x3c16a1de	0.009193866
92	0xbc3d31c7	-0.011547512
93	0x3d191dba	0.037381865
94	0x3bb6a168	0.0055734403
95	0xbc1639ce	-0.009169055
96	0xbc693b02	-0.01423526
97	0x3cb273be	0.021783706
98	0x3c5ebeff	0.013595342
99	0xbd4da41e	-0.050205342
100	0x3d0f9284	0.035051838
101	0x3cd10cf6	0.025518876
102	0xbd17de7f	-0.037077423
103	0xbd1dfff1	-0.038574163
104	0xbcd82db7	-0.026388986
105	0xbd0304f7	-0.031987157
106	0xbc88b9e1	-0.016690196
107	0x3ca19a91	0.019727023
108	0x3cdc8c14	0.026922263
109	0xbc38c96b	-0.011278491
110	0xbc3978a2	-0.011320265
111	0xbca5ff6a	-0.020263392
112	0x3d313718	0.043265432
113	0x3cb2398c	0.021755956
114	0x3d215dca	0.039396085
115	0x3c487927	0.012235916
116	0x3be895e7	0.007097948
117	0x3ca6ab48	0.020345345
118	0x3c966ad1	0.01836148
119	0x3d3f4506	0.046696685
120	0xbca93b4a	-0.020658154
121	0x3ca18918	0.019718692
122	0x3ce87a12	0.02837852
123	0x3d25308d	0.040329505
124	0x3c61e15e	0.013786642
125	0xbbdf8cdf	-0.006822213
126	0x3cf1f1ac	0.029534183
127	0x3bf57d28	0.0074917264
128	0x3d294c59	0.041332576
129	0xbc3b1061	-0.011417479
130	0x3caba845	0.02095426
131	0xbbeeb13b	-0.007284311
132	0x3d472a93	0.048624586
133	0xbc04df04	-0.008109812
134	0x3d279a6d	0.040918756
135	0x3d1d4ae0	0.038401484
136	0x3d049a72	0.032373853
137	0x3d0a3b91	0.033748213
138	0x3cf87e2b	0.0303336
139	0x3c2d6056	0.01058205
140	0x3d31f735	0.043448646
141	0x3c956f30	0.018241495
142	0x3c48cada	0.012255395
143	0xbcc20fe3	-0.023689216
144	0x3be675f5	0.0070331045
145	0xbb65f57c	-0.0035088947
146	0xbcacbac9	-0.02108516
147	0x3c85a5e7	0.01631446
148	0xbcb153c2	-0.021646384
149	0xbcf76064	-0.03019733
150	0x3cc948cc	0.024570845
151	0xba55ae2b	-0.0008151258
152	0x3ce2d7c2	0.027690772
153	0x3cafdc21	0.02146727
154	0xbce562ff	-0.028001307
155	0xbd2f2949	-0.042763982
156	0xbc3dadec	-0.011577111
157	0x3d1dd1f5	0.03853031
158	0xbc3c95f8	-0.011510365
159	0xbc836451	-0.016039046
160	0xbcca1d4a	-0.02467217
161	0xbbfca0e6	-0.0077096103
162	0xba9e7981	-0.0012090654
163	0xbbd5507c	-0.0065098386
164	0x3d2f6cd9	0.042828415
165	0x3bb6b563	0.005575822
166	0x3bfc13d8	0.0076927952
167	0x3cf78fb6	0.030219894
168	0x3c46efd0	0.012142137
169	0xbc274fb7	-0.010211877
170	0xbcdafd8b	-0.026732227
171	0xbd1a8474	-0.037723973
172	0xbc981bb0	-0.01856789
173	0x3c9cc9e6	0.019139241
174	0xbc21569b	-0.0098473085
175	0x3ca2ad20	0.019857943
176	0x3ba0b92c	0.0049048867
177	0x3cfc8d57	0.030829115
178	0xbbef5de5	-0.0073048943
179	0x3d18be2d	0.03729074
180	0x3b642106	0.0034809723
181	0xbc4d888e	-0.012544764
182	0x3d1ae12e	0.037812404
183	0x3c9666a7	0.018359495
184	0x3bc2aa8e	0.005940742
185	0xbd3b2e20	-0.045698285
186	0x3ca05555	0.01957194
187	0x3ccfdb0d	0.025373006
188	0xbd40cab4	-0.047068313
189	0x3cafeb2d	0.021474445
190	0x3ca0f552	0.019648228
191	0xbb8d50e2	-0.0043126205
192	0x3d02e3b9	0.031955454
193	0x3cc3e0aa	0.02391084
194	0xbcd3858e	-0.02582052
195	0x3d220663	0.039556872
196	0xbd2ce133	-0.042206954
197	0x3abb9a29	0.0014312911
198	0x3b28b893	0.002574478
199	0x3ca8c297	0.0206006
200	0xbc00ab44	-0.007853333
201	0x3cf6318c	0.030052923
202	0xbd147ea6	-0.036253594
203	0xbba2e7ca	-0.004971479
204	0xbc6dfd01	-0.014525653
205	0xbd05ad9d	-0.032636274
206	0x3c838f7e	0.016059633
207	0x3d043de3	0.032285582
208	0x3d36c69c	0.044623002
209	0xbd35120c	-0.044206664
210	0x3c320bb7	0.010867051
211	0xbd05664d	-0.032568265
212	0x3cd5985e	0.02607363
213	0xbd2007e4	-0.039070025
214	0x3d08da2a	0.033411182
215	0x3c2fab1c	0.010721948
216	0xbd0dbee6	-0.034605883
217	0x3c098463	0.00839338
218	0x3c9e5f9d	0.019332701
219	0x3d585c84	0.052822605
220	0x3a7f8186	0.00097467785
221	0x3d2b2b34	0.04178925
222	0xbd02c0c4	-0.031922117
223	0x3cbc9c49	0.023023741
224	0x3b396f0c	0.002829495
225	0x3d475a58	0.048670143
226	0x3cc5d7cb	0.02415075
227	0xbcafc940	-0.021458268
228	0xbd1664c4	-0.03671719
229	0x3cd1f40a	0.025629062
230	0x3beaaa86	0.0071614413
231	0x3d19b932	0.03753013
232	0xbbe4b746	-0.0069798557
233	0xbb0d02ff	-0.0021516678
234	0x3c974cba	0.018469203
235	0xbcb0ba20	-0.021573126
236	0x3c4bfcbd	0.012450394
237	0xbd134f63	-0.03596438
238	0xbc54a692	-0.012979167
239	0x3b432666	0.0029777526
240	0x3b3dbb14	0.0028950619
241	0x3d0235d2	0.03178961
242	0x3cb9244a	0.022600312
243	0xbc2a0083	-0.010376099
244	0x3c584443	0.013199869
245	0x3d383337	0.044970717
246	0xbc6f2318	-0.014595769
247	0xbca18d67	-0.019720746
248	0xbb510331	-0.0031892771
249	0xbba8a853	-0.005147019
250	0xbc9364aa	-0.017992336
251	0xbca47154	-0.02007357
252	0x3d0c5062	0.034256347
253	0x3d1ee4cb	0.038792413
254	0xbc858007	-0.0162964
255	0xbcf593da	-0.029977728

encoder.fc1.bias f4 [64]
0	0x3d675237	0.05647489
1	0xbd3754a8	-0.04475847
2	0xbd4e573b	-0.05037616
3	0xbb144609	-0.0022624752
4	0xbb94bb7e	-0.0045389524
5	0x3d405a5a	0.046961166
6	0x3ce9b893	0.028530395
7	0x3c48b426	0.012249982
8	0xbc819771	-0.015819283
9	0xbc6299b8	-0.013830595
10	0x3d0f2ef9	0.034956906
11	0x3d62ee25	0.055402894
12	0xbb919adb	-0.004443509
13	0xbd0ba993	-0.034097265
14	0x3c5bf94f	0.013426139
15	0x3b1504a0	0.0022738352
16	0x3d3b020d	0.045656253
17	0x3c97ff24	0.018554278
18	0xbc8be419	-0.017076539
19	0xbcac8cee	-0.021063294
20	0x3d61235c	0.054965362
21	0xbd10198b	-0.03518061
22	0xbc394a8d	-0.011309278
23	0x3d1e948f	0.038715895
24	0x3c19e1aa	0.009392181
25	0xbcb81d30	-0.022474855
26	0xbcace5d3	-0.021105682
27	0x3a277563	0.00063880364
28	0x3c5e150f	0.013554825
29	0x3b77b7fa	0.0037798868
30	0xbd1a997e	-0.037744038
31	0x3d0f66f8	0.035010308
32	0x3c9c4bdd	0.019079143
33	0xbd5755c1	-0.052572016
34	0xbcf9c7fc	-0.030490868
35	0x3cac491c	0.021030955
36	0x3d46540f	0.04842001
37	0xbd18f8a1	-0.037346486
38	0xbc4e362c	-0.012586158
39	0x3ca10029	0.019653397
40	0xbc13eaca	-0.009028146
41	0xbcef40f8	-0.029205784
42	0x3a6a38d2	0.00089348585
43	0x3ba1d2fb	0.004938481
44	0x3d456aec	0.04819767
45	0x3c085541	0.008321107
46	0x3c94018f	0.01806715
47	0x3ce5652a	0.02800234
48	0x3cf12a4c	0.029439114
49	0xbc608dea	-0.01370571
50	0xbbb74b02	-0.0055936584
51	0xbaea8b8a	-0.0017894369
52	0xbc1477e5	-0.009061788
53	0xbb04ee6e	-0.0020283717
54	0x3c681e98	0.01416745
55	0x3ce57c6d	0.028013432
56	0x3ca360a7	0.019943548
57	0xbc12dba0	-0.0089634955
58	0xbc871247	-0.016488208
59	0xbc6af40d	-0.014340413
60	0xbbc9b6ac	-0.0061558094
61	0x3d0be3db	0.034152847
62	0xbc1d6e35	-0.009608795
63	0xbcab94d2	-0.020944986

encoder.fc2.weight f4 [16, 64]
0	0x3d64de75	0.055876214
1	0xbdedc6fd	-0.1161022
2	0x3dacef3e	0.08444069
3	0xbcb7ad3d	-0.022421474
4	0x3df8e782	0.121535316
5	0x3cb9178d	0.022594238
6	0xbdcfdd22	-0.101495996
7	0xbdf82be9	-0.1211775
8	0x3bc650d3	0.0060521155
9	0xbddd652a	-0.10810311
10	0xbceea038	-0.029129133
11	0x3aa1731f	0.0012317634
12	0x3cfa2595	0.030535499
13	0xbcf897d3	-0.030345833
14	0x3d3cf6ea	0.046133913
15	0x3d76af68	0.060225874
16	0x3ca9bdf5	0.020720461
17	0x3ddfa884	0.10920814
18	0xbdf43584	-0.1192427
19	0xbdfe5ac8	-0.12419659
20	0x3d507943	0.050896894
21	0x3e0054ae	0.12532303
22	0x3dbaab29	0.091146775
23	0x3dc4b7cb	0.09605368
24	0xbdecebd2	-0.11568417
25	0xbac808e2	-0.0015261436
26	0xbdbedeac	-0.09319815
27	0x3e0128b8	0.12613189
28	0xbd1386f5	-0.036017377
29	0xbde8b986	-0.11363511
30	0x3d944443	0.072395824
31	0xbd46b6ec	-0.04851429
32	0x3d00d2a3	0.03145088
33	0xbd9119d4	-0.070850044
34	0xbc91de45	-0.017806182
35	0x3dc8a81b	0.097976886
36	0xbd9d6c17	-0.07686632
37	0x3d000f25	0.031264443
38	0xbddcfee6	-0.107908055
39	0xbdaf32b0	-0.0855459
40	0x3d1d75b6	0.038442336
41	0xbdfa4c47	-0.1222158
42	0x3d8f10e1	0.06985641
43	0x3e04b823	0.12960868
44	0x3d3b124d	0.04567175
45	0x3d60584b	0.054771703
46	0x3c820679	0.015872227
47	0x3dc887dd	0.09791539
48	0x3d867d00	0.065668106
49	0x3df89b9a	0.12139054
50	0xbdaa4907	-0.0831471
51	0xbbde7577	-0.0067889052
52	0x3dffe10e	0.12494098
53	0x3d8bb978	0.06822485
54	0xbdc49a2f	-0.09599721
55	0xbc653e4e	-0.013991905
56	0xbdc37789	-0.09544284
57	0x3d4b2bba	0.049602248
58	0x3ce402b6	0.027833324
59	0x3dbe3e88	0.09289271
60	0xbd6b64c8	-0.05746916
61	0x3dcf3e37	0.101192884
62	0xbdec91ce	-0.115512475
63	0xbc567a55	-0.01309069
64	0xbdaa34e7	-0.083108716
65	0x3d731a5e	0.059351318
66	0x3dbc4791	0.09193338
67	0x3d94cce5	0.07265643
68	0xbc8364b1	-0.016039224
69	0xbdff6303	-0.12470057
70	0xbde3c126	-0.111208245
71	0x3cddd88e	0.0270808
72	0xbc5bc519	-0.013413691
73	0xbdacbcfb	-0.08434483
74	0x3d1eb964	0.03875102
75	0x3df4ab5c	0.11946747
76	0x3d0672ae	0.03282421
77	0xbb7d8fa7	-0.003869036
78	0x3d6ab6db	0.05730329
79	0xbdf227bd	-0.11823986
80	0x3d9c45d2	0.07630505
81	0xbcc337a5	-0.023830244
82	0x3d880cf2	0.06643094
83	0x3ddada57	0.10686176
84	0x3d028166	0.031861685
85	0xbdbf033e	-0.0932679
86	0x3de49ed7	0.11163109
87	0x3dd178d4	0.10228124
88	0x3c63dac1	0.013907135
89	0xbd97f4bc	-0.07419726
90	0x3d5df040	0.0541842
91	0x3db94648	0.09046608
92	0xbd8c80f1	-0.06860531
93	0x3d5c45c9	0.05377749
94	0xbdcb797b	-0.0993528
95	0xbc6c5353	-0.014424163
96	0x3d41fe5d	0.04736172
97	0xbb4faeb3	-0.0031689822
98	0xbd6f77b0	-0.058463752
99	0x3db30276	0.08740704
100	0x3d580f0c	0.052748725
101	0xbd664be3	-0.056224715
102	0xbcc9bcd9	-0.024626182
103	0xbdd82d50	-0.10555518
104	0x3ddf6448	0.10907799
105	0xbd8ecbeb	-0.06972488
106	0x3d9ebf8e	0.0775138
107	0xbd828a6a	-0.06374057
108	0x3df62e01	0.12020493
109	0x3deaec92	0.114709035
110	0xbd9859c6	-0.07438998
111	0x3d83fa99	0.06444282
112	0x3d8440a1	0.064576395
113	0x3de65881	0.112473495
114	0x3d492ad3	0.049113106
115	0x3c8ccebe	0.017188426
116	0x3d598ef5	0.05311485
117	0xbd8a6cd3	-0.06759038
118	0x3d06b9d6	0.03289207
119	0x3da868f1	0.08223141
120	0x3de12e2d	0.109951355
121	0x3d9d5ec8	0.07684094
122	0x3cc9c873	0.024631714
123	0xbc971e03	-0.018446928
124	0xbd9027d6	-0.07038848
125	0xbaee7a4a	-0.0018194404
126	0xbd5100bb	-0.051026087
127	0x3d6e2e0c	0.058149382
128	0x3ded5daf	0.11590134
129	0xbdbc0600	-0.09180832
130	0xbd1e77c1	-0.038688425
131	0x3da148ae	0.07875191
132	0x3e1386b9	0.14406861
133	0xbd196948	-0.03745392
134	0xbca5328f	-0.02016571
135	0xbde7bbba	-0.11315103
136	0x3ceacb74	0.028661467
137	0x3cb54cd1	0.022131355
138	0x3d8b9d55	0.06817118
139	0x3d0951d0	0.033525288
140	0xbdc22fdf	-0.09481787
141	0x3d862690	0.06550324
142	0xbccd3bcb	-0.025052926
143	0x3d1c0699	0.03809223
144	0xbca0a2a9	-0.019608812
145	0xb9dc0a94	-0.0004196955
146	0xbcc2dcbd	-0.023786897
147	0x3dbe6c6a	0.09298022
148	0xbcb26d08	-0.021780506
149	0x3da5c624	0.08094433
150	0xbd7bb347	-0.06145027
151	0xbcde9da8	-0.027174786
152	0xbc5762b7	-0.013146094
153	0xbdae917a	-0.08523841
154	0x3c60e5bd	0.013726649
155	0x3db54282	0.08850576
156	0xbd89fdf1	-0.067378886
157	0xbdfa699a	-0.12227173
158	0x3d05960a	0.03261379
159	0xbda9ff6b	-0.0830067
160	0x3d7e9d84	0.062161937
161	0xbde63c71	-0.11241997
162	0xbca359a2	-0.019940201
163	0xbd9cb22a	-0.076511696
164	0x3e11b4ec	0.14229172
165	0xbc7a9ecc	-0.015296649
166	0x3dc32c8d	0.09529982
167	0x3e15c818	0.14627111
168	0xbca26bba	-0.019826759
169	0x3dd20ecb	0.10256728
170	0xbdb98f77	-0.09060567
171	0x3d87255f	0.06598925
172	0xbd0d2aed	-0.034464765
173	0x3dcd9d47	0.10039764
174	0x3dc32b83	0.095297836
175	0xbd3148df	-0.043282386
176	0x3e008f01	0.12554552
177	0x3e0cb007	0.13739024
178	0xbd8ada9d	-0.067799784
179	0xbcfc697b	-0.030812016
180	0xbd89d154	-0.06729379
181	0xbdca68b7	-0.09883254
182	0xbe093e8c	-0.13402766
183	0xbb126f57	-0.0022344196
184	0xbda7f40b	-0.082008444
185	0xbcdf859b	-0.027285388
186	0xbd70c62a	-0.058782734
187	0xbde4d196	-0.11172788
188	0x3e1494ff	0.14509962
189	0xbb67181e	-0.0035262178
190	0xbd1fbe2b	-0.038999718
191	0x3d91621d	0.07098792
192	0xbc32eb87	-0.010920412
193	0xbdb5284c	-0.08845577
194	0x3daf10e6	0.08548145
195	0xbdc2b41f	-0.095070116
196	0xbd9a5bc0	-0.07537031
197	0xbde5c3a3	-0.11218955
198	0xbdce321f	-0.100681536
199	0xbdb494c2	-0.08817436
200	0x3b58383c	0.0032992503
201	0xbdbcef07	-0.09225278
202	0xbdf39b6e	-0.1189488
203	0x3dabe285	0.083928145
204	0xbce1f9c5	-0.02758492
205	0xbd2a9080	-0.041641712
206	0xbbc7c4cc	-0.006096458
207	0x3c930d70	0.017950743
208	0xbb3cb0d7	-0.0028791928
209	0xbd88f1bb	-0.066867314
210	0xbd88404e	-0.0665289
211	0x3dc0ba46	0.09410529
212	0xbd8c65a2	-0.068553224
213	0x3d7bd835	0.061485488
214	0xbdd2fd45	-0.103022136
215	0x3d33d3ed	0.04390328
216	0xbdb54d04	-0.0885258
217	0x3d46a234	0.048494533
218	0x3d15c4a1	0.036564473
219	0x3c018a9f	0.007906585
220	0xbdf5cd7e	-0.12002085
221	0x3d075aa4	0.033045426
222	0xbd14299f	-0.036172505
223	0xbd27b7eb	-0.040946882
224	0xbdd5809a	-0.104249194
225	0x3ccc365b	0.024928262
226	0x3ca06828	0.019580916
227	0x3e03b4b8	0.12861907
228	0x3d52d003	0.051467907
229	0x3ce9048a	0.028444547
230	0xbc9cdc10	-0.019147903
231	0xbb0bbe6b	-0.0021323215
232	0x3dc1e614	0.09467712
233	0x3c02e006	0.007987982
234	0x3c9b67f4	0.018970467
235	0x3ca146d0	0.019687086
236	0x3d4a7f40	0.04943776
237	0xbcc2e051	-0.023788603
238	0x3d8c00a0	0.06836057
239	0xbc88f376	-0.016717654
240	0x3d88776f	0.06663405
241	0xbd1281bd	-0.03576826
242	0xbdb7901f	-0.08963036
243	0x3dca6de7	0.098842435
244	0xbd00d03a	-0.03144858
245	0x3d29afbc	0.04142736
246	0xbdc502a3	-0.096196435
247	0xbd92425a	-0.07141562
248	0x3dcff4f7	0.10154145
249	0xbdc59a4d	-0.09648571
250	0xbdfdb0da	-0.123872474
251	0xbccd6fd8	-0.025077745
252	0xbd7b2f9b	-0.061324697
253	0xbd97c819	-0.074112125
254	0xbb33ee04	-0.00274551
255	0xbdb9f955	-0.090807594

encoder.fc2.bias f4 [16]
0	0x3cd25292	0.025674138
1	0xbd26f498	-0.040760607
2	0x3dc0389c	0.093857974
3	0xbdbd1748	-0.09232956
4	0x3d84aaf4	0.06477919
5	0x3e0534cb	0.1300842
6	0xbd821aa7	-0.0635274
7	0x3d4eb7a4	0.050468102
8	0x3da7f25d	0.08200524
9	0xbdb2f41c	-0.087379664
10	0x3d3d328b	0.04619078
11	0x3d4d172a	0.05007092
12	0xbda37479	-0.079812
13	0x3da641dc	0.081180304
14	0xbd1da316	-0.03848561
15	0x3dab26cf	0.083570115

encoder.fc21.weight f4 [4, 16]
0	0x3e02beac	0.12768048
1	0x3d02cf3d	0.03193592
2	0xbde9cce2	-0.114160314
3	0x3d97559d	0.07389376
4	0x3e6a6c35	0.2289284
5	0xbcfae283	-0.030625587
6	0x3c53f437	0.012936643
7	0x3d33b835	0.043876845
8	0x3d2afe94	0.04174669
9	0x3d25be26	0.040464543
10	0x3e12deed	0.14342852
11	0x3dd9b949	0.106310435
12	0x3df64cd2	0.12026371
13	0x3e338154	0.17529804
14	0xbb5f9ff8	-0.0034122448
15	0xbdf64de3	-0.120265745
16	0x3e54708a	0.20746055
17	0xbc811813	-0.01575855
18	0x3dc46ab4	0.095906645
19	0xbdcdd99f	-0.100512736
20	0xbe69a221	-0.22815754
21	0xbc283a40	-0.010267794
22	0xbe6685f9	-0.22512044
23	0xbe2175b8	-0.15767562
24	0xbe009012	-0.12554958
25	0x3e0cecd4	0.13762218
26	0xbde0b965	-0.10972861
27	0x3e2ec5af	0.17067598
28	0x3e254859	0.1614088
29	0xbcd68a9d	-0.026189143
30	0xbcf543a1	-0.029939475
31	0x3d46d4e3	0.04854287
32	0xbc39830e	-0.01132275
33	0xbe5180e9	-0.20459332
34	0xbc090229	-0.008362331
35	0x3e4540ed	0.19263048
36	0x3e1eebc9	0.15519632
37	0x3c088fb1	0.00833504
38	0xbd3bd003	-0.045852672
39	0x3e6e24ea	0.23256269
40	0xbd7b8559	-0.061406467
41	0xbe42f8a1	-0.19040157
42	0x3e5bd0d5	0.21466382
43	0x3d7c16cf	0.06154519
44	0x3e61787b	0.22018616
45	0xbdefa00b	-0.11700448
46	0x3e0f8f85	0.14019592
47	0x3cd247be	0.025668975
48	0x3e6ae80f	0.22940086
49	0x3e7acd03	0.24492268
50	0x3e1e178d	0.15438671
51	0xbdda400c	-0.10656747
52	0xbd621488	-0.05519536
53	0x3c518a70	0.012789354
54	0x3d32b5cb	0.043630403
55	0x3e3ee49c	0.18641895
56	0x3c9973c3	0.018731957
57	0x3e467fca	0.19384685
58	0xbe3e0362	-0.18555978
59	0x3e84d1f9	0.25941446
60	0x3e64713d	0.22308822
61	0x3c26f975	0.010191311
62	0x3e0365e6	0.1283184
63	0xbcb3f543	-0.021967536

encoder.fc21.bias f4 [4]
0	0xbe1c5c0f	-0.15269493
1	0x3d8db489	0.069192
2	0xbe2ce71d	-0.16885038
3	0xbaf7cf58	-0.0018906398

encoder.fc22.weight f4 [4, 16]
0	0xbe24a1a9	-0.16077293
1	0xbe17f90c	-0.14841098
2	0xbe3dd1f3	-0.1853712
3	0xbe88b749	-0.26702335
4	0xbe87ed57	-0.26548263
5	0xbe37f8b4	-0.17965966
6	0xbe6945ae	-0.22780487
7	0x3e3df2e6	0.1854969
8	0x3d83049b	0.06397363
9	0x3d7c28a9	0.061562214
10	0x3e24229c	0.16028827
11	0x3e19be01	0.15013887
12	0xbe3da1e3	-0.18518786
13	0xbe512b77	-0.20426737
14	0xbd940fcb	-0.07229575
15	0xbdce5efa	-0.10076709
16	0xbe65cf7d	-0.22442432
17	0xbe8162ec	-0.25270784
18	0xbe998b09	-0.29988888
19	0xbd9a3ce2	-0.07531144
20	0x3e2cdaa1	0.16880275
21	0xbe865b66	-0.26241606
22	0x3db53462	0.08847882
23	0xbda98421	-0.08277155
24	0x3d630fda	0.05543504
25	0xbe0be32e	-0.13660881
26	0xbdf5e6ce	-0.12006913
27	0x3e09a442	0.13441566
28	0x3e3e0ae4	0.18558842
29	0xbcd4974b	-0.025951048
30	0xbcaf525e	-0.02140158
31	0x3ced5d91	0.02897528
32	0xbc8eb681	-0.017421009
33	0x3e36a6b2	0.17837027
34	0xbe7c0ff9	-0.24615468
35	0x3daa612d	0.08319316
36	0x3dbe4f03	0.09292414
37	0x3e0fa07f	0.14026068
38	0xbdc4eee6	-0.09615879
39	0xbc44c994	-0.012010951
40	0x3d964b1d	0.073385455
41	0x3dcfa7ea	0.10139449
42	0x3e2dd243	0.1697474
43	0xbe5c62ab	-0.21522014
44	0x3e6bcfd9	0.23028506
45	0x3c9d795e	0.019222911
46	0x3ccbbd66	0.024870586
47	0xbe71d9e0	-0.23618269
48	0xbe21de47	-0.15807448
49	0x3e03e8ca	0.1288177
50	0xbe387a6e	-0.18015453
51	0xbd7400dc	-0.059571132
52	0xbd896047	-0.067078166
53	0xbc9a0090	-0.018799096
54	0xbe333e10	-0.17504144
55	0x3e20f06a	0.1571671
56	0x3d622b94	0.05521734
57	0xbda72e2b	-0.08163103
58	0xbac920a4	-0.0015344811
59	0x3e60e553	0.2196248
60	0x3e5f5627	0.21810208
61	0x3de09201	0.10965348
62	0xbe7a27d0	-0.2442925
63	0xbd614815	-0.055000383

encoder.fc22.bias f4 [4]
0	0xbe41845e	-0.1889815
1	0x3d960b88	0.07326418
2	0xbe8d8126	-0.27637595
3	0xbde73290	-0.11288941

encoder.bn1.weight f4 [16]
0	0x3f800000	1.0
1	0x3f803e87	1.0019082
2	0x3f800000	1.0
3	0x3f8071a1	1.0034677
4	0x3f7d9973	0.9906227
5	0x3f7f8171	0.99806887
6	0x3f826264	1.0186276
7	0x3f8187bb	1.0119547
8	0x3f806ebb	1.0033792
9	0x3f813aec	1.0096107
10	0x3f7ffebb	0.9999806
11	0x3f813fc5	1.0097586
12	0x3f800000	1.0
13	0x3f800000	1.0
14	0x3f80d1b8	1.0064001
15	0x3f81f2a9	1.0152179

encoder.bn1.bias f4 [16]
0	0xbc0f790b	-0.008756886
1	0xbc8ea5f0	-0.01741311
2	0x399c01e6	0.00029756053
3	0xbb7dd662	-0.0038732518
4	0x39615343	0.0002148869
5	0x3ad80346	0.0016480468
6	0x3b4bd913	0.0031104728
7	0xbc042dd7	-0.00806757
8	0x3bcf3ae0	0.006324157
9	0x3c35b4b1	0.0110904435
10	0x3a12086b	0.00055707124
11	0xbbcafa25	-0.0061943703
12	0xbb952cb7	-0.0045524496
13	0xb9f4579b	-0.00046604578
14	0xb8e26a90	-0.000107963686
15	0x3c2633da	0.010144198

encoder.bn1.running_mean f4 [16]
0	0x00000000	0.0
1	0x3ccf16e8	0.025279477
2	0x00000000	0.0
3	0x3f49e104	0.7885897
4	0x3e185d50	0.14879346
5	0x3ed38f2b	0.41320166
6	0x3ecdd223	0.40199384
7	0x3f2a4daa	0.66524756
8	0x3d119a2c	0.03554742
9	0x3e0739be	0.1320562
10	0x3d4dd5c2	0.050252683
11	0x3ea069ab	0.31330618
12	0x00000000	0.0
13	0x00000000	0.0
14	0x3df313c9	0.11869008
15	0x3f69954f	0.9124345

encoder.bn1.running_var f4 [16]
0	0x2a0c9137	1.248488e-13
1	0x3b013c1a	0.0019719661
2	0x2a0c9137	1.248488e-13
3	0x3d79dac1	0.060999636
4	0x3ca73a6c	0.0204136
5	0x3ddb6736	0.10713045
6	0x3b141905	0.002259792
7	0x3d8ebaf7	0.069692545
8	0x3b819fb4	0.0039558057
9	0x3d5c69d9	0.05381188
10	0x3bff5961	0.007792637
11	0x3dda6252	0.10663284
12	0x2a0c9137	1.248488e-13
13	0x2a0c9137	1.248488e-13
14	0x3d2dc760	0.042426467
15	0x3d99ccae	0.07509743

encoder.bn2.weight f4 [16]
0	0x3f80fea2	1.0077708
1	0x3f8088ad	1.004171
2	0x3f81da33	1.0144714
3	0x3f8127d2	1.0090277
4	0x3f814ca2	1.0101511
5	0x3f8089c7	1.0042046
6	0x3f800e57	1.0004376
7	0x3f802543	1.0011371
8	0x3f816ca0	1.0111275
9	0x3f80b1db	1.0054277
10	0x3f813b12	1.0096152
11	0x3f8159ef	1.010557
12	0x3f8233bd	1.0172039
13	0x3f80b131	1.0054075
14	0x3f815a4f	1.0105685
15	0x3f811e04	1.0087285

encoder.bn2.bias f4 [16]
0	0x3b4d5087	0.0031328516
1	0x3bf14d0b	0.0073639206
2	0xbc6de2b1	-0.0145193795
3	0xbb9c5876	-0.0047712876
4	0xbcc18f1a	-0.023627806
5	0xbbee07c8	-0.007264111
6	0x3b21bd9a	0.0024679662
7	0x3a1ae565	0.0005908816
8	0xbbb81704	-0.005617978
9	0xbbf4be61	-0.007468984
10	0x3b1111f3	0.0022135943
11	0xbb85fbd6	-0.004088859
12	0x3c7ebd87	0.0155481165
13	0xbcad92fe	-0.021188255
14	0x3c9465a7	0.018114878
15	0x3c4f4c97	0.012652538

encoder.bn2.running_mean f4 [16]
0	0x3e5d2c06	0.21598825
1	0x3e3cb2d4	0.18427593
2	0x3e83507c	0.25647342
3	0x3eafb031	0.3431411
4	0x3e5fa5bf	0.21840571
5	0x3e5e6553	0.2171834
6	0x3e303949	0.17209353
7	0x3e1d8e94	0.1538642
8	0x3e360e4d	0.17778893
9	0x3e576653	0.21035127
10	0x3e73b93b	0.23801129
11	0x3e751d68	0.23936999
12	0x3e9871f9	0.29774454
13	0x3e8092bf	0.25111958
14	0x3e75b3a6	0.23994312
15	0x3dcb3cdd	0.09923718

encoder.bn2.running_var f4 [16]
0	0x3e030774	0.12795812
1	0x3dba0ae4	0.090841085
2	0x3dead3e2	0.11466195
3	0x3e5f1175	0.21784003
4	0x3dadb52a	0.0848182
5	0x3d9fc294	0.07800785
6	0x3d8782cf	0.06616747
7	0x3d4af8bd	0.04955362
8	0x3da1d1fa	0.07901378
9	0x3dbd8b74	0.09255114
10	0x3dcf0c40	0.101097584
11	0x3dd61f67	0.10455208
12	0x3e0d65af	0.1380832
13	0x3ddf3ce8	0.10900289
14	0x3d9fa2f1	0.077947505
15	0x3cfffdb6	0.031248908

encoder.bn3.weight f4 [32]
0	0x3f7fef65	0.9997466
1	0x3f80d9cc	1.0066466
2	0x3f816f2c	1.0112052
3	0x3f7fa210	0.9985666
4	0x3f810698	1.0080137
5	0x3f80ed84	1.0072484
6	0x3f80317d	1.0015103
7	0x3f80fcce	1.007715
8	0x3f8102f6	1.0079029
9	0x3f80f4f9	1.007476
10	0x3f7e410a	0.9931799
11	0x3f81d7cf	1.0143985
12	0x3f80a71f	1.0051001
13	0x3f80053f	1.0001601
14	0x3f80cecf	1.0063113
15	0x3f806ce4	1.0033231
16	0x3f7f9012	0.9982921
17	0x3f80a1cb	1.0049375
18	0x3f804b72	1.0023024
19	0x3f808180	1.003952
20	0x3f80ff66	1.0077941
21	0x3f810572	1.0079787
22	0x3f80e664	1.007031
23	0x3f7f990c	0.99842906
24	0x3f808e1c	1.0043368
25	0x3f809e38	1.0048285
26	0x3f805ba0	1.0027962
27	0x3f805bf4	1.0028062
28	0x3f80125f	1.0005606
29	0x3f8098dc	1.0046649
30	0x3f7ff6d0	0.9998598
31	0x3f7e3952	0.99306214

encoder.bn3.bias f4 [32]
0	0xbc2399a6	-0.009985363
1	0x3b6ae982	0.0035844748
2	0x3c44e2df	0.012016981
3	0x3c17a5d9	0.00925585
4	0x3d2700f6	0.0407724
5	0xbc8614bd	-0.01636731
6	0x3cbcc65d	0.023043806
7	0x3cfd89af	0.030949442
8	0x3ac6ad7a	0.0015157901
9	0x3c7d45b9	0.015458518
10	0x3c96d810	0.018413574
11	0x3c231b57	0.009955249
12	0x3bbe2b99	0.005803537
13	0xbb0f1b7a	-0.0021836446
14	0x3cd30936	0.025761228
15	0xbbe35238	-0.0069372915
16	0x3bd4c555	0.0064932504
17	0x3be3a1ef	0.006946794
18	0xbb7d696f	-0.003866758
19	0xbc8ed4b5	-0.017435411
20	0x3c891305	0.016732702
21	0x3c79c6e4	0.015245173
22	0xbb3332cb	-0.0027343507
23	0xbcb1a269	-0.021683889
24	0x3cae42aa	0.021272022
25	0x3c29c4cd	0.010361862
26	0xbc0c0c75	-0.008547892
27	0x3c0d3284	0.008618001
28	0x3ca7da2f	0.02048978
29	0x3914834d	0.00014163293
30	0xbcb59f20	-0.022170603
31	0xbb3b4dc1	-0.002858028

encoder.bn3.running_mean f4 [32]
0	0x3e7df56e	0.24800655
1	0x3e8b5d7e	0.27219766
2	0x3e9bcc92	0.30429512
3	0x3e56a719	0.2096218
4	0x3e82472f	0.25444934
5	0x3e377cc9	0.17918696
6	0x3ea8db3d	0.32979766
7	0x3e4424b1	0.19154622
8	0x3ee42bf8	0.44564795
9	0x3ec0a8cb	0.3762878
10	0x3e0a9035	0.13531573
11	0x3ea2d68c	0.3180431
12	0x3e59fefe	0.21288678
13	0x3e800619	0.25004652
14	0x3ea0844b	0.31350932
15	0x3e79a005	0.24377449
16	0x3e81b42e	0.2533278
17	0x3eb959e9	0.36201409
18	0x3e6ec84d	0.23318596
19	0x3e8475d6	0.25871152
20	0x3e761a6d	0.24033518
21	0x3e2ed5c5	0.17073734
22	0x3ed404bf	0.4140987
23	0x3e9e2716	0.30889195
24	0x3e8ad456	0.27115124
25	0x3ebcaaa0	0.36848927
26	0x3eaa211c	0.33228385
27	0x3e6ba88c	0.23013514
28	0x3ea28b23	0.31746778
29	0x3e89fdc1	0.2695141
30	0x3eaa5b3a	0.33272725
31	0x3ea240e5	0.31690136

encoder.bn3.running_var f4 [32]
0	0x3e355b67	0.17710648
1	0x3e32b2f3	0.17451076
2	0x3e41037b	0.18848984
3	0x3e18920f	0.14899467
4	0x3e152749	0.14565767
5	0x3dba4c80	0.090966225
6	0x3e8dce49	0.27696446
7	0x3dccbb6f	0.099966876
8	0x3eaf3522	0.34220225
9	0x3e4b0ca2	0.19829038
10	0x3d71ff5c	0.05908142
11	0x3e4cab63	0.19987254
12	0x3df2ac3e	0.11849259
13	0x3dd6ad33	0.10482254
14	0x3e64f406	0.22358713
15	0x3e1cac56	0.15300116
16	0x3e297e99	0.165522
17	0x3e46216e	0.1934869
18	0x3e27d16f	0.16388486
19	0x3e3883e5	0.18019064
20	0x3e05ef43	0.13079552
21	0x3dc5684b	0.09639033
22	0x3e9f2e39	0.31089953
23	0x3e491ca1	0.19639827
24	0x3e12f29c	0.1435036
25	0x3e600ce4	0.21879917
26	0x3e5b2e7a	0.21404448
27	0x3df553bd	0.119788624
28	0x3e2f2785	0.17104919
29	0x3e306970	0.17227721
30	0x3e323faa	0.17407098
31	0x3e54e71e	0.20791289

encoder.bn4.weight f4 [32]
0	0x3f7f5012	0.9973155
1	0x3f8099db	1.0046953
2	0x3f80198e	1.0007799
3	0x3f80b3f0	1.0054913
4	0x3f804f9e	1.0024297
5	0x3f7fad18	0.99873495
6	0x3f7e4305	0.99321014
7	0x3f7efa0e	0.99600303
8	0x3f800309	1.0000926
9	0x3f8055cc	1.0026183
10	0x3f80685e	1.003185
11	0x3f7fd7af	0.9993848
12	0x3f7ebe04	0.9950869
13	0x3f7e8c3a	0.9943272
14	0x3f7facd2	0.9987308
15	0x3f7ed63c	0.99545646
16	0x3f7f10a1	0.9963475
17	0x3f804133	1.0019897
18	0x3f7fd172	0.99928963
19	0x3f814b11	1.0101033
20	0x3f7ee3d5	0.99566394
21	0x3f81219d	1.0088383
22	0x3f7d8293	0.99027365
23	0x3f7f77c2	0.9979211
24	0x3f8015cb	1.0006651
25	0x3f80371a	1.0016816
26	0x3f7ef180	0.9958725
27	0x3f7f4350	0.99712086
28	0x3f80088b	1.0002607
29	0x3f7fb120	0.99879646
30	0x3f7ccda8	0.98751307
31	0x3f81026b	1.0078863
