results/_race_fptra_0.3_1000_VAE_model.pt (torch, 201744 bytes, 61 tensors)

encoder.conv1.weight f4 [16, 1, 2]
00000000: e04c 05bf 5137 e73e 3fe7 d93e 0b39 c2be
00000010: 44d7 d63d 0c90 08bf 30c0 373e e896 8cbd
00000020: 72f9 5b3e 095a 2f3e 546e 24be beef 20bf
00000030: 80ae 1e3d 3e02 d7be a369 873e fa8e bfbd
00000040: d018 133f 728a 98be 22a3 febe 0057 593e
00000050: a4e8 12bf 7a97 e1be be9f 92be 1c7c 6f3e
00000060: 0e27 023e 599c 113f c1d9 17bf 66e8 1abf
00000070: 2803 c3bd 105b 32bf 71c9 67bd 3d99 fa3e
-0.52070427 0.4515939 0.4255924 -0.37934145 0.104902774 -0.533448 0.17944407 -0.068647206
0.21481875 0.1712419 -0.16057712 -0.6286582 0.038740635 -0.41993898 0.26447782 -0.093534425
0.57459736 -0.29793125 -0.49733835 0.21224594 -0.5738623 -0.4406088 -0.286375 0.23387188
0.1271021 0.5687919 -0.5931664 -0.6051086 -0.095220864 -0.696702 -0.056588594 0.48945037

encoder.conv1.bias f4 [16]
00000000: 29c1 2ebe fbd5 38be 322b 75bd 4821 28bf
00000010: a6b1 e03e 0c5b 5ebe 7837 06bf f36f 10be
00000020: 7493 00bf c722 e2be e154 3f3e 0352 043f
00000030: 653e d63d 5296 953e 5838 8dbd 27a4 d0be
-0.17065872 -0.18050377 -0.059855647 -0.65675783 0.43885535 -0.21714419 -0.5242839 -0.14105205
-0.50224996 -0.44167158 0.18684722 0.5168764 0.104611196 0.29216248 -0.06895512 -0.40750238

encoder.conv2.weight f4 [16, 16, 2]
00000000: 995d 653d f7bd 033e 2436 37be 6ac6 0ebb
00000010: 9954 cfbd 37cb 4bbc e2d1 253d de2f d6bc
00000020: 9117 96bd da74 43bc 71f3 2cbd 2f99 d83d
00000030: f9ec 23be 4842 223c ad02 9abc 04ef 08be
00000040: 2f26 6cbd 36cf a3bd 1830 02be 0c86 013e
00000050: 0ed7 003e da77 9c3d c870 91bc e2cb 32bc
00000060: a9ba d1bd 96e9 7f3d d9ae 733d 1d37 c83d
00000070: db7a ccbd 39a2 2cbe e094 3ebd e1c6 803d
00000080: 8118 653d cd25 36bd 1bc3 01bd fdc4 d2bd
00000090: 29f3 d8bd 2746 b63d 4104 36bc 5268 003d
000000a0: 2790 cabd fbd2 063e 0d64 0c3e b1e6 6c3d
000000b0: 7ee2 143d 2100 e6bd 5c5e 03be 2b3f 4bbd
000000c0: c54d b93d 5402 6abc a22b 473e 35ee 2c3d
000000d0: 2192 fc3c 6b1e cabd 4861 ae3d 82e6 18be
000000e0: de7b d73d bc6c aa3c 0c9c 05be 04c5 d43d
000000f0: 95d7 2f3e d258 353e a5f5 2d3e 9e3c 6bbc
00000100: 608c aebd c880 9cbc a33e fb3b 0f40 babd
00000110: e808 b43d 7d2e 03be 059b 29be 2cac e4bc
00000120: 17d3 bcbd 563a 043d 11f0 2f3e 07e3 1f3e
00000130: 7a54 0e3e 657a a03d 908a 0dbe 3a3a aebd
00000140: 3726 c7bd 5f93 733d c74e 00bd fc8e a93d
00000150: e6c9 f6bc 7ebf 7abd f89a 3b3d 945b 713d
00000160: fcd8 0c3c c715 84bd af51 0d3d dc92 87bd
00000170: b357 ac3a 2dbe 28bd 0d05 233d 7976 213e
00000180: ffbb 1c3e c57a 51be 5e24 09bd ebe5 c5bd
00000190: 7d47 7abc f0aa 343d 3846 b2bd 310b b3bd
000001a0: d7a9 d6bb a2be d53d 6fa2 bb3d 0044 3f3e
000001b0: faab 0a3e 93e0 f4bd d0cf 393c 271f 5fbd
000001c0: 3d15 98bd 374e 1a3d 7f2b 4dbd 198d f7bc
000001d0: 8189 07be 2ac0 d73d fc6a 0b3e eddc 1dbe
000001e0: 4ca6 173e 4368 e03d 0ca5 093d cfc4 1cbe
000001f0: db47 a6bd fe47 17be 9ef1 fa3d a490 903d
00000200: 4abb 9bbc a739 9b3d cce6 cdbc 4a98 243d
00000210: 4ac6 df3d d03b ac3d a6e8 25be cf95 eabd
00000220: d2db 0dbc a038 ecbd eed9 3b3d 1455 c2bd
00000230: 6a43 31bc 23b8 3b3d 2316 9a3d 0ad9 cbbd
00000240: 1886 123e 9bb6 51bd 57e8 943d 7f1d cdbd
00000250: d32d f5bd c561 08bc 268b 93bd f18b cbbd
00000260: d685 f2bd 65fa 5b3c 72ee 1a3c 7cb4 92bc
00000270: 03ca 043e 63ff 0f3e b163 e8bd e9ea 39bd
00000280: 21b5 cbbd 21bb 903d 92a6 b03c d25b 083d
00000290: d605 d03d e9a0 0abd cbd7 f73d 5f9d 273c
000002a0: e0fc 27be d77d 4fbc a5c6 15be fde2 263e
000002b0: d443 00bd 57a9 07be 86cf 953d 3488 703d
000002c0: b3d4 a63d 66e3 2d3c 1257 1a3d 57dc 263d
000002d0: f470 103e 67ac 46be 41c4 013d 8a4c 2f3e
000002e0: 39a9 2ebe 793e 053e 5830 9bbd 409a 03be
000002f0: 8045 12be 0b84 233e 6d62 bfbd 85e7 5c3e
00000300: affc 743c 169f 163e fd47 bbbd 24e5 dfbd
00000310: 762e e5bd 1c2f debd 5f65 23be 0bed 26be
00000320: a52a 9abc 982f 103d 1360 08bd b979 f23c
00000330: 475f f83d eda7 4fbd eeac 8b3d f32b 05be
00000340: f60c 5fbd 13de 28be 8e0d b23d f482 e73d
00000350: a5c7 8cbb 8966 183a 7bd3 dd3d 5694 bd3c
00000360: cfbe e73d 75fc ff3d 30b3 a5bd 72e1 cebb
00000370: 2de8 d1bd ffc5 233e ce58 fc3d ad97 d43d
00000380: 5a52 1e3d 66d7 873d 4430 f63c 714a a1bd
00000390: 039e d3bd 62d7 353d 5342 fd3d 6974 323e
000003a0: a091 883d 358d f53d f29d b2bd 2cbe edbd
000003b0: bc16 20bd ec00 33be 87f5 76bd 6757 b7bc
000003c0: f8ae ea3d 81cf 0ebe 54dd 18be 2bf0 193e
000003d0: 339a 143d 1125 aebd 4d5a d6bd 1587 023e
000003e0: 681c 13be 726f d9bc 6964 413c 5057 03be
000003f0: 7598 7ebc a9df 44bd f53f 943d c547 3a3e
0.055997465 0.12865435 -0.17891747 -0.0021785744 -0.101235576 -0.012438587 0.040483363 -0.026145872
-0.07328714 -0.011929715 -0.04222435 0.105760925 -0.16008367 0.009903498 -0.018800104 -0.13372427
-0.057653602 -0.07998507 -0.12713659 0.12648791 0.12582037 0.07640047 -0.017753974 -0.010912867
-0.10240681 0.062478624 0.05949292 0.09776137 -0.0998437 -0.16858758 -0.046528697 0.06287933
0.055931572 -0.044469643 -0.031680208 -0.10291479 -0.10593254 0.08900099 -0.011109413 0.031349488
-0.09890776 0.1316642 0.13710041 0.057837192 0.036348812 -0.11230493 -0.12828964 -0.04962079
0.090480365 -0.014282782 0.19450238 0.04221936 0.030831398 -0.09869083 0.08514649 -0.14931682
0.10521673 0.020803802 -0.13047808 0.1038914 0.17172082 0.17709664 0.16988237 -0.014357714
-0.08522868 -0.019104376 0.007667379 -0.090942495 0.08790761 -0.12810703 -0.16563042 -0.02791413
-0.0921995 0.032282196 0.17181422 0.15613948 0.13899413 0.07835845 -0.13822389 -0.085071996
-0.09724086 0.059466716 -0.031325128 0.08279225 -0.03012557 -0.061217777 0.045802087 0.058925226
0.008596655 -0.06449466 0.034501728 -0.06619808 0.0013148695 -0.04119699 0.03979974 0.1576785
0.1530609 -0.20456989 -0.033481948 -0.09662994 -0.015275833 0.04410833 -0.087047994 -0.08742369
-0.006551008 0.10436751 0.09161841 0.18678284 0.13542166 -0.11956897 0.01134105 -0.05447307
-0.07425926 0.037672248 -0.05009031 -0.030218648 -0.13236047 0.10534699 0.1361503 -0.15416308
0.14809531 0.10957386 0.033604667 -0.15309452 -0.08119174 -0.14773557 0.12253116 0.07058838
-0.019010205 0.07579356 -0.025134467 0.040184297 0.109264925 0.08409846 -0.1620203 -0.11454355
-0.008658366 -0.11534238 0.04586213 -0.094888836 -0.010819295 0.045829903 0.075237535 -0.09953506
0.14308965 -0.051199537 0.07270878 -0.100153916 -0.11971631 -0.008324091 -0.07204275 -0.09938801
-0.118419334 0.013426398 0.009456264 -0.017908327 0.12967686 0.14062266 -0.113471396 -0.045390043
-0.09946657 0.07066942 0.021563802 0.03329069 0.10157363 -0.033844862 0.12101706 0.010230391
-0.16405058 -0.01266428 -0.14626558 0.16297527 -0.031314686 -0.13248192 0.073149726 0.058723643
0.08146038 0.010613298 0.037680693 0.040737476 0.14105588 -0.19401704 0.031681303 0.17119041
-0.17056741 0.13012113 -0.0757758 -0.1285181 -0.14284325 0.15968339 -0.09344945 0.21572693
0.014952823 0.14709124 -0.0914459 -0.10932377 -0.11190502 -0.10848829 -0.15956639 -0.16301362
-0.018819163 0.03520164 -0.03329475 0.029599058 0.12127548 -0.050697256 0.06820093 -0.13005047
-0.05445572 -0.16490965 0.086939916 0.11304274 -0.0042962604 0.0005813619 0.10831352 0.023142021
0.11315691 0.12499324 -0.08090818 -0.0063134963 -0.10249362 0.15993498 0.12321626 0.10380492
0.038652755 0.06632881 0.030052312 -0.07875527 -0.10332873 0.04439486 0.12366166 0.1742722
0.06668401 0.11989824 -0.08721532 -0.11608538 -0.03908418 -0.1748082 -0.060292747 -0.022380544
0.11459154 -0.13946344 -0.1492818 0.15033023 0.03627987 -0.085031636 -0.10466442 0.12746842
-0.14366305 -0.0265424 0.011803725 -0.12826276 -0.015539278 -0.04806486 0.07238761 0.1819144

encoder.conv2.bias f4 [16]
00000000: 82bd 223d 496e 083d 5236 b6bd 58ab e63d
00000010: 6d0c c23d 2efe 09bd 29b7 973c 0041 c13c
00000020: 8031 c53c c56f b9bc 5721 233e f3dd c9bd
00000030: 9489 173e 0bea 34bd 549c 1d3e 2271 153c
0.03973151 0.0333083 -0.088970795 0.1126315 0.09475026 -0.03368967 0.018519955 0.023590565
0.024071455 -0.022636304 0.15930687 -0.098567866 0.14798576 -0.044168513 0.15391666 0.009121211

encoder.conv3.weight f4 [32, 16, 2]
00000000: 18a1 3ebe 7c03 28be 7093 923d db0d 79bd
00000010: f73b 213d d6ed 2bbe 0738 763d 3f88 a0bd
00000020: 37e0 d2bc c0dd f03c 9340 89bd e4a7 e9bb
00000030: 03ff a23d 5c98 203e 9821 77bd 06a6 1f3d
00000040: 4f8e 19be 0422 a8bd d260 b53d fd6c e13d
00000050: d686 97bd 5fb2 8bbd fa58 cd3c 48ad 1a3e
00000060: 15b7 b43d c4bd 643c 1a9b ce3c 4c67 dcbd
00000070: 9e91 123e 414e 753d 315e f8bd c36b 6bbd
00000080: 7b10 1d3e 6c1f 62bc e668 af3c 61e3 863d
00000090: 00b8 cfbc 523e 1abe d6c8 18be 8b42 013d
000000a0: aa84 c33d a10f 67bd 076c b8bd a1dd d0bd
000000b0: 0841 85bd e66e 973a 2c16 cd3d 3a4a d6bd
000000c0: c8e7 be3d bc0f 91bd 101e 153e 8a15 083c
000000d0: 8718 b73b 538c ddbd b300 043c ea90 3d3e
000000e0: 4571 063e e2cf c53d 621a bb3d 2253 2b3c
000000f0: d5f7 b83d 5357 b63d e56a 713d befd 84bc
00000100: 9077 0f3d cc73 c8bc 8cac 83bd 118b 34bd
00000110: 57a6 f23d 09e9 e23d ff38 34be 7867 45bd
00000120: 615a c13d 6018 f43c 87d3 713d 211c 023e
00000130: c24b 36bd 0862 523e 5e98 e23d 219d ae3d
00000140: 8eed 163e b768 1cbc 6372 81bd e920 003e
00000150: 13e9 c3bd c11b dbbd 2641 21be 2b33 c6bc
00000160: f355 dfbd 2c49 aabc 43b0 173e 013b 133e
00000170: 8075 2fbe 41fa 3e3d 9928 27bc aad8 babd
00000180: cf60 3f3d 7831 1bbe cf1e 913d 1cd3 35be
00000190: 6e79 623d e6b6 26bc d394 8f3c 574b fabd
000001a0: 5fcd 15be 84c8 043d b65e f23c c160 ca3d
000001b0: 3276 e2bd 6ff3 9cbd 902d 25bd c0b1 bd3c
000001c0: 75a4 babc e3d9 b3bd b3e0 f9bd 0017 d43d
000001d0: b7d4 3ebd 7e38 39be 5e7f a83d d144 18be
000001e0: 9aec c53d 2f69 e4bd c2ae f5bd 0f19 f33d
000001f0: e279 9f3d 8080 6cbe 63e2 8dbd fd3c f73d
00000200: 0b5d 753d 2bd0 ebbd 4d37 673d f7dd 09be
00000210: 782d 0d3e aff1 303d 8aed c03d bd8e 753d
00000220: ff2f 943d 6e9c e83c 5b2d 183e 8529 9ebd
00000230: 1b79 103d 79c1 7d3d da82 31bd 23af a03d
00000240: c083 78bd f433 80bb 3f93 123e ece1 0abe
00000250: 14ac 583d 32f1 9cbd 17c5 11be 4b3e 933d
00000260: b331 8f3d abcb febd b83e 113e d4f4 d7bd
00000270: 1c55 4c3d 8613 e83c 8977 e4bd 9d0c bfbd
00000280: 3e86 9a3d 6595 94bd 8a8b 203d d306 b83b
00000290: 7249 aabd e81a 82bd 3623 7fbd 92a7 51be
000002a0: 31c6 fe3d 25ad 1e3d 23ff 93bc da23 e23d
000002b0: d14b 42bd 6442 c33c 7aa3 22be 5303 693d
000002c0: d4f1 b0bb 3cf0 083e 6076 1c3d 06e3 37bd
000002d0: e290 f33d 4731 b4bd 28ec b2bc c8ce 71be
000002e0: fc5d 3e3d ea43 6abd cfda a1bd 8148 1dbd
000002f0: 2e10 e53c 2d29 3e3c bed4 b93d c66f 1b3e
00000300: 456c 7f3d 82cc 603e f3ee 593c f472 31be
00000310: fab3 8f3d efab 0f3e 1a38 26bd 7daa 11be
00000320: 7276 0c3e 3f7e 98bc 591b cfbd 9699 86bd
00000330: 2f01 19bd c128 13bc 52d3 26be b3fe 5cbd
00000340: 6af7 153e dcc0 43be 8e38 59bd eecb a83d
00000350: e09b 63be 9548 16be a355 bb3c 9132 75bc
00000360: 6321 3bbe 052f 40be 2a7b 45be 0f5f 83bd
00000370: 705b 1bbe 42ce 70be 5cd2 383b f446 8bbd
00000380: 8327 21bb 49bc 483e fcc8 a1bd 851f 33be
00000390: 17ff 55bd acf0 1d3e 3413 0ebe 3637 f93c
000003a0: 1381 303d a208 1ebd 5b27 b8bd 2b62 62bd
000003b0: b9a9 26be e549 41bd a288 21be b77e 653d
000003c0: 69dc 1a3d 9f2e b9bd 81b8 12be c972 0b3b
000003d0: 79b5 8bbd 7e8a 2ebe 0f4e 1ebe ae82 33bd
000003e0: 495a a1bd ae4a 39be 985c a3bd 1e2f 4bbd
000003f0: 560a edbd 5eef 1d3b 3668 afbd 7738 06be
-0.1861614 -0.16407579 0.07157028 -0.06080423 0.039363828 -0.16789946 0.060112026 -0.07838487
-0.02574168 0.029402614 -0.0670177 -0.00713061 0.07958796 0.1568312 -0.060334772 0.03897669
-0.14995693 -0.08209613 0.08856358 0.11007116 -0.07398765 -0.06821131 0.025066841 0.15105164
0.088239826 0.013961259 0.025220443 -0.1076189 0.14313361 0.059889082 -0.121273406 -0.057475816
0.15338318 -0.013801437 0.021412324 0.06586338 -0.025356293 -0.15062836 -0.14920363 0.0315576
0.09546788 -0.05641139 -0.090049796 -0.10198522 -0.06506544 0.0011553436 0.100139946 -0.10463376
0.093215525 -0.07083079 0.14562249 0.008305917 0.0055876407 -0.1081778 0.008056807 0.18512312
0.13129146 0.09658791 0.091358915 0.010456832 0.09031645 0.089033745 0.058939833 -0.016234275
0.035026133 -0.024469279 -0.06429395 -0.044077937 0.11848133 0.11079604 -0.17599867 -0.04819438
0.094410665 0.02979678 0.05903962 0.12706043 -0.044505842 0.20545208 0.11064218 0.08526064
0.14739057 -0.00954645 -0.06320646 0.12512554 -0.0956594 -0.10698653 -0.15747508 -0.02419432
-0.109050654 -0.020786844 0.14813332 0.14377977 -0.17134666 0.04662538 -0.01020255 -0.09123357
0.046723183 -0.1515559 0.070859544 -0.17756313 0.055291586 -0.010175442 0.01752702 -0.12221401
-0.14629124 0.03241779 0.029586177 0.098817356 -0.110577 -0.07663619 -0.040326655 0.023156047
-0.022783497 -0.08781793 -0.12201061 0.103559494 -0.04658958 -0.18087956 0.08227418 -0.14870001
0.09664269 -0.11152875 -0.11996223 0.11870014 0.07786919 -0.23095894 -0.069279455 0.120721795
0.059903186 -0.11514314 0.056449223 -0.13463579 0.13786876 0.043199237 0.09420307 0.05995058
0.07235717 0.028394904 0.14861052 -0.07722763 0.035271745 0.061952088 -0.04333768 0.07845905
-0.06067252 -0.0039124433 0.14313982 -0.13562745 0.05289848 -0.07663192 -0.1423534 0.07189616
0.06991901 -0.1244119 0.14184082 -0.10544744 0.049885854 0.028329622 -0.11155612 -0.09328578
0.07545136 -0.07255057 0.039195575 0.005616048 -0.0831479 -0.06352788 -0.06228944 -0.20474079
0.12440146 0.038739342 -0.018065995 0.110419944 -0.047435585 0.023835368 -0.15882674 0.056887936
-0.005399922 0.13372892 0.03819883 -0.04489424 0.118928686 -0.087984614 -0.021841124 -0.23614037
0.04647635 -0.057193674 -0.079030626 -0.038399223 0.027961817 0.011606497 0.090737805 0.15179357
0.062359113 0.21953014 0.013301599 -0.17329007 0.0701675 0.14030431 -0.040580846 -0.14225192
0.13717058 -0.018614886 -0.10112638 -0.06572263 -0.037354644 -0.008981884 -0.1629155 -0.053953838
0.14645162 -0.19116539 -0.05303245 0.082420215 -0.2222743 -0.14676125 0.022867983 -0.014965669
-0.18274455 -0.18767937 -0.19285265 -0.06414615 -0.151716 -0.23516181 0.0028201556 -0.068006426
-0.0024590201 0.19603075 -0.07899663 -0.17492492 -0.052245226 0.1542384 -0.13874513 0.030421834
0.043091845 -0.03858245 -0.089918815 -0.0552694 -0.16275682 -0.047189612 -0.15774778 0.056029048
0.037807856 -0.090420954 -0.14328195 0.0021278134 -0.068217225 -0.17045018 -0.15459464 -0.043825798
-0.07878549 -0.18094894 -0.07976645 -0.04960548 -0.11574237 0.0024098973 -0.085647985 -0.13107477

encoder.conv3.bias f4 [32]
00000000: e555 06be a328 f2bd e6b8 233d 57f6 173d
00000010: bff6 053e 684e b1bc 307a f93d b9cb 9b3d
00000020: 4e33 123e a182 6c3d 5fc8 073e 6a48 2c3e
00000030: a5f9 7e3d b063 fd3c d06f 36be 645b 68bd
00000040: 102a b6bd 8be7 d33c 9909 16be faf1 09be
00000050: 978d ca3d c5bf c53d 2e4e 41bc ba19 1ebe
00000060: 9400 f53d e7b8 22bd 9545 283e 7d6e 183d
00000070: 2142 d2bd 80e6 26bd 1e6e 3b3e e0fe 15bd
-0.13118704 -0.11824157 0.039971255 0.037100162 0.13082407 -0.021643832 0.121815085 0.076072164
0.14277384 0.057741765 0.1326003 0.16824499 0.0622498 0.030931324 -0.1781609 -0.056727782
-0.088947415 0.025867244 -0.14652099 -0.13471213 0.09890287 0.09655718 -0.011798425 -0.15439501
0.11963001 -0.039727118 0.16432793 0.037214745 -0.10266519 -0.040747166 0.18303725 -0.03662002

encoder.conv4.weight f4 [32, 32, 2]
00000000: 4463 343d 864c c0bd 73df bcbd 7337 83bc
00000010: cd44 b23d c6e1 07be e5aa a33c c311 303d
00000020: d2ca d3bd 53a4 b93d 85bf 873d 1ced df3d
00000030: 48ca 53bd d942 aabd 56a6 bcbb 227b 88bd
00000040: 7cda bf3c 5560 e2bd 5fe2 d33d a942 cebd
00000050: 3441 d0bc 459b 0abd c149 76bd 3e65 6e3a
00000060: dd68 9a3d f628 3cbd 7d54 433d 92ab f73d
00000070: e211 dcbd 8b05 82bd 1935 ccbd 09a2 1ebd
00000080: dba0 c1bb e7ef 27bd 1a81 bdbd ba4a bbbb
00000090: 95a9 d0bd 87ce af3d e3d3 8e3d c430 073d
000000a0: 755c 91bd 1c9a 1fbe 5f35 9e3d 04be fdbc
000000b0: 9ac2 b7bd 914b 2a3d beee c43d e03a 6fbd
000000c0: 5275 063c a361 85bd 8f8e 8cbd 4344 443d
000000d0: d93f df3b 6055 013c 3fd1 9d3d 96e4 f83d
000000e0: 55c0 2c3d 90c1 0b3d 9d9c 92bd f168 b6bd
000000f0: 5ab4 273d 572c 18be 3ea1 893d 97c4 e4bd
00000100: 40b0 7b3c 7e45 8bbb b964 873d ede4 853d
00000110: 88b1 99bd 2d74 a1bd a916 4ebd 2307 f2bc
00000120: 08a0 833c 459a 15bd 50c2 03bd 0051 d1bc
00000130: b14c bbbd 8f79 e5bd b88a 91bd 3ef7 b3bd
00000140: 6a84 e63c 2b16 8a3d 02d3 bfbd 41da 11be
00000150: 3d3e 6b3d 1756 26bd c489 bcbd bc16 1fbe
00000160: b681 50bd 543e 50bd f906 a2bd 7ef2 313b
00000170: 666a 2fbc 697a 62bd 798b 8d3d 8868 943d
00000180: 5582 debd 8a4c b93d 9fc1 00be fc96 e0bd
00000190: c058 a5bd a07a cb3c d119 213b d103 82bd
000001a0: 65ab a3bd 2a3d f53b 6436 49bd 33a3 87ba
000001b0: 4fe6 0abe f6e4 873d ebd0 0ebd 49dd a83c
000001c0: 57fc 703d c9e4 83bd 7f48 33bd f719 38bc
000001d0: b170 bb3c 247b 313d 419e 563d d0af db3d
000001e0: 199e 67bd d2d5 9f3d 15d1 a93d 9503 b7bd
000001f0: d808 ee3c 83f0 56bd 8633 adbc 7696 04be
00000200: 3790 273d 7f59 bebd c3df c23b a7d2 b33d
00000210: 22bf b9bc a2d8 24bd 7c32 c43d 940b d4bd
00000220: 69c4 a33d da20 f8bd ba3c 533d c255 b3bd
00000230: 7615 2abe d473 bb3d ceb4 25be 6101 8a3d
00000240: 77e5 9c3c 042c da3c 1845 05bc fafd 88b8
00000250: 4981 333d 9273 b13c f7db bebd 25f1 0fbd
00000260: 070c 413d 9650 44be 1d26 15be d258 b63d
00000270: 59c4 603d e866 c4ba 7b95 9fbc 21e2 0dbe
00000280: 9f9d 9abd 7859 013b d34f 16be 90a4 973d
00000290: 3f4f b23d f6b0 77bd 8fbc 9fbc 4377 ecbc
000002a0: b20d 7ebd d7ce f3ba c166 7fbd 891d db3c
000002b0: 3b24 f83a dd17 cabd 6adb c83a 7a7e 2ebd
000002c0: 1ac7 633d da6e 9c3d a22c bb3b 6ac0 bf3d
000002d0: de96 883d 7583 6c3d 34b7 833d 18c4 9dbd
000002e0: 02f1 abbb d868 0abe 99fe 0f3d 0fb5 2a3d
000002f0: 6f09 f23b 4db1 593d 3d2e 10bd d049 e4bd
00000300: b92b 38be f477 5c3c c4d9 38bd 057e 803d
00000310: 5528 c33d 9bcc dcbc 3cb7 a0bd afac 01be
00000320: 69f2 89bd 60f3 babc d07a 26bd 34bb 0ebd
00000330: 6a7c 92bc ba79 ee3c fc60 aa3d fc91 e6bd
00000340: e9ff 6b3d 0b29 1b3d b8fb 263d fac2 e5bd
00000350: ab85 cbbd 9b3e a43d bcdb f3bc 87b4 953d
00000360: 783a 62bd ec97 593c 5f01 a4bd 4e38 b7bd
00000370: 42cb a73a 3675 a83d aba4 593d cc3b 3bbd
00000380: ca99 cfbc 0b4a e83d 65d0 c43d 2b02 7dbd
00000390: fb7e dc3c e297 4ebd 46d8 11bd 0b3b 1ebd
000003a0: 1e31 7ebd 1879 e1bb 4ca3 1abd f698 923d
000003b0: f691 b9bd dfe8 cb3d e3a9 25bc 5cb1 03be
000003c0: 69e2 03be 8ba2 38bd 5223 c33d de7e 233d
000003d0: 6fc3 1cbd e9d7 c03c f174 283d 25c8 12bd
000003e0: 6c2b b8bc 068f 963d 8836 ccbd 63ac 5cbc
000003f0: 4381 a93d fc74 ffbc c598 033d 2f2c 1abe
0.04403998 -0.09389596 -0.09222307 -0.016017651 0.08704529 -0.1326972 0.01997895 0.04298569
-0.10341419 0.090645455 0.06628326 0.10933897 -0.051706582 -0.083135314 -0.0057571335 -0.06664111
0.023419611 -0.1105353 0.10345911 -0.10071308 -0.025421716 -0.033839483 -0.06012893 0.0009094066
0.07539532 -0.0459375 0.047687996 0.12093271 -0.107455984 -0.063487135 -0.09971065 -0.038728748
-0.005909068 -0.041000273 -0.0925314 -0.005715695 -0.10188595 0.08584314 0.06974008 0.03300549
-0.07097713 -0.15586132 0.077250235 -0.030974396 -0.08972664 0.041575972 0.09615849 -0.058405757
0.008206682 -0.06512763 -0.068631284 0.047916662 0.006813031 0.00789389 0.07705926 0.12152974
0.04217561 0.034120142 -0.07158778 -0.08906735 0.04094348 -0.14860664 0.06720208 -0.11170309
0.0153618455 -0.0042502275 0.06611008 0.06537805 -0.075045645 -0.07883487 -0.05031458 -0.029544419
0.01606752 -0.036524076 -0.032167733 -0.02555132 -0.09145487 -0.11204826 -0.071065366 -0.08787392
0.028139312 0.067425095 -0.093664184 -0.14243414 0.057432402 -0.040609445 -0.09205964 -0.15536016
-0.050904952 -0.05084069 -0.07911486 0.0027152593 -0.01070652 -0.05529252 0.06911368 0.072465
-0.108647026 0.09047802 -0.1257386 -0.10966298 -0.08073568 0.024838746 0.0024582038 -0.06348384
-0.07991675 0.007484098 -0.049124137 -0.001034832 -0.13564418 0.06635468 -0.03486721 0.02061333
0.0588344 -0.06440122 -0.04377031 -0.011236659 0.022880884 0.043330327 0.052397016 0.10726893
-0.056547258 0.07804455 0.08291832 -0.0893623 0.029056951 -0.052475464 -0.021142732 -0.12948021
0.04090902 -0.09294414 0.0059470846 0.08780413 -0.022674147 -0.04024566 0.09579942 -0.10353771
0.07996447 -0.12115641 0.051571585 -0.087565914 -0.16609749 0.09152952 -0.16182253 0.06738544
0.019152386 0.026632316 -0.008134149 -6.532292e-05 0.043824468 0.021661554 -0.09319299 -0.035142083
0.04713061 -0.19171366 -0.1456532 0.0890366 0.05487475 -0.0014984282 -0.019480458 -0.13855793
-0.07549595 0.0019737165 -0.14678888 0.07404435 0.08706521 -0.060471497 -0.019499091 -0.028865462
-0.06202478 -0.0018601072 -0.062353853 0.026747482 0.0018931696 -0.09867833 0.001532418 -0.042601086
0.0556098 0.07638331 0.0057121078 0.09362872 0.06669401 0.057742555 0.064314276 -0.077034175
-0.005247236 -0.13516557 0.035154913 0.041676577 0.0073863785 0.053147603 -0.035200346 -0.11146891
-0.17985429 0.013456333 -0.045129552 0.06274036 0.09529177 -0.026953032 -0.07847449 -0.1266353
-0.06735689 -0.022821128 -0.040644467 -0.0348465 -0.01788159 0.029110778 0.083192796 -0.11258313
0.0576171 0.03788094 0.0407674 -0.112188295 -0.099376045 0.080197535 -0.029767863 0.073098235
-0.05523154 0.01328085 -0.08008074 -0.08946286 0.0012801664 0.08225481 0.053135555 -0.045711324
-0.025341887 0.113422476 0.096100606 -0.061769646 0.026916018 -0.050437815 -0.035606645 -0.038630527
-0.06205856 -0.0068808906 -0.03775339 0.07158081 -0.09061043 0.09956526 -0.010111305 -0.12860626
-0.12879337 -0.045076888 0.09528221 0.03991591 -0.038272317 0.023540454 0.04112715 -0.035835404
-0.022481643 0.07351498 -0.099713385 -0.013468835 0.08276608 -0.031183712 0.032128114 -0.15055917

encoder.conv4.bias f4 [32]
00000000: 1a83 babd eee0 af3d 53b2 e9bc 1bd1 0b3c
00000010: e05d 133e c3ab 46bd df08 b3bd 08f0 44bc
00000020: a381 093e 0e72 9cbd cb41 fbbc d3b5 97bd
00000030: 2c34 cd3d 3753 41bb 6f43 c7bc ded2 a93d
00000040: 4aad c93d 72ad 64bd e0ef 7b3d 7694 65bd
00000050: 0555 a03c 0302 e03d 10fd f63c fb3d 62bd
00000060: 3550 653e 124a 94bd 1908 8b3d da8f d93d
00000070: fc80 13bd 7489 87bd 6417 083e 1382 b0bc
-0.09107037 0.08587824 -0.028527414 0.008533741 0.14391279 -0.04850365 -0.087419264 -0.012020119
0.13428359 -0.07638942 -0.030671021 -0.07407727 0.100197166 -0.0029499063 -0.024324147 0.08292173
0.098475054 -0.055829473 0.06150806 -0.056049787 0.01957179 0.10937884 0.030149966 -0.05523489
0.22393878 -0.0724069 0.06788654 0.10623141 -0.03601168 -0.06618014 0.13290173 -0.0215464

encoder.fc1.weight f4 [64, 512]
00000000: 285e f5bc 45cc 10bd 7271 b83c 0f4f 063a
00000010: dd2b 42bc a278 aebb 4564 6ebc a0f7 6bbc
00000020: 0473 ffbc ecd6 993c 628e 5f3c 8aa5 62bd
00000030: 2d10 203d a1e6 7abb 002b b9bc 77df 0d3d
00000040: 0fc3 c6bc 45a3 253d 4d4d a0bb 9a68 c33c
00000050: 26dd 2dbd f688 bc3a c1f8 2fbd 1801 193d
00000060: 19bc 2d3d 36ba 413d 573e b9bc a515 fd3a
00000070: b5e2 6fbd 3f96 b6bc 7987 973c 8b4c 43bd
00000080: e22e e4bb 01ed 893c dd30 943c 4243 62bd
00000090: 5b49 a9b9 fbdc 46bd 4142 113d a383 7b3d
000000a0: aa23 823c 3ae3 b2bc aa76 ee3c 8764 fbbb
000000b0: fc0d d23c 4743 c3bc 3bee ac3b 03db 5f3b
000000c0: efb4 9e3c 8641 2cbd 1aa9 9fbc 873c c4bc
000000d0: 00e7 bf3b c408 383d 4858 c0bc a004 35bc
000000e0: 7868 b5bc 4e35 87bd b7ab 943c 42f0 ae3c
000000f0: e3e6 9a3c 9149 2f3b 3a71 b3bc 9f6e d43c
00000100: 69d1 0d3d 4f2f 903c 60f8 34bc 4db0 7a3c
00000110: 03af 44bd edc8 0e3d f2e1 593c e158 23bd
00000120: da7a 073c 196f a33c 6d3a 373b 6a8b 2c3c
00000130: 9070 edbc c071 29bd ef22 f63c 2f9e eebb
00000140: 83e0 fc3c 6c81 17b8 c4f1 a63c 5ed0 77bd
00000150: 4c23 c3bc 338b 16bb 5a3f 873c c4f2 00bd
00000160: 6389 04bd eabc 083c 7d12 bfbc 6c75 d0bc
00000170: 3061 b5bc bb56 d7bc d77c 4ebd 906a f83a
00000180: 094c c9bc 1255 9cbc 42ae 09bd d0af 9a36
00000190: d56c c3bd 90d4 b3bc 6bef b3bc ef3d 14bd
000001a0: 9851 d3bc 59c5 98bc 0164 49bd 2f52 0c3c
000001b0: 68fa a2bc 7943 2dbd 1a24 893c 7bbe 143d
000001c0: 57b1 113c 0936 8d3d 15c6 92bd f64d 6dbb
000001d0: d32e a33c 33bd 983c 0a98 01bc 81fe ebbc
000001e0: cc2b 09bd 3837 9fbc 5345 183d b881 aaba
000001f0: d6ed 2abc 219d 76bc b259 49bd cea0 253b
00000200: 0f07 773c 4f3a 5e3c 04ff 5d3c 02ac 553d
00000210: e0bb fdbc f520 35bd 6a73 3e3d 61a7 cf3d
00000220: 6ec6 1a3d ef4f a63d 31ed bcbc d0c0 b0bd
00000230: 7a26 c6bc ef79 153d a734 d43c dea3 b23c
00000240: e813 8fbd ace2 383d 3e72 993b af74 02bd
00000250: f72f c4bc 6cd2 4ebc 0876 6bbb 9270 813d
00000260: 1469 333d c0dd ed3b 4779 45bd 347a e1bb
00000270: 1d0e 02bc 83ef 24bc 5c5f adbc a9cd 033d
00000280: a2f6 97bc aefd d2bb bd7e 16bd d89a d93c
00000290: 2904 893d b37e 373d 6687 003d b928 023d
000002a0: 06ba b13c 28c7 4a3d c768 bd3c ba5c db3b
000002b0: 4e03 6c3d 9a54 a63d 0c7f 25bc 0cb8 1f3c
000002c0: 2005 a5bc 24d2 f43c 6c08 6fbc 7014 4ebd
000002d0: 1743 643d c7c8 23bb 3741 783b 2306 b53c
000002e0: ee2b d0bb eba1 37bb 2c6b 02bd d322 42bc
000002f0: 3045 c9bc 710f 1abd 3703 86bb 2637 033d
00000300: 1f3b bebb 54ca 31bd 9dfb 11bd 454b 5c3c
00000310: 4846 40bc 2d10 32bc 1b44 65bc 4c13 dcbc
00000320: 394e 33bc ea8c 9abc 68cb 81bc ddfb a5bc
00000330: efc7 68bb 6611 21bd 0201 923b 1926 19bd
00000340: 9148 86bb 1ff1 7b3c be8c 8e3b 7706 ccbc
00000350: e6d5 aebc 571c 9abc a76c 42ba 5164 713c
00000360: 68e8 a7bb 3476 f1bc fbac 003d cfed 97bd
00000370: 7a2f 78bc a555 41bc 848e 29bc b0f3 873b
00000380: 64fb a5bb 3069 50bc 0ade d33c b50e 88bc
00000390: c5c5 1cbd 4416 7a3c 5cb8 26bc b49e 57bc
000003a0: e480 9d3c 2644 88bd 371f 0b3d 36ab 37bd
000003b0: 82da 943b 5cbf c63c 174d b03c 19b0 27bc
000003c0: f6f9 64bb ba15 593d ea7c 183d 79c8 d8bc
000003d0: 952d c73c ec40 0e3c 201d eb3c 3460 be3c
000003e0: 91c2 273d f446 c03c 4cd3 0d3d 2c85 dcbc
000003f0: 466b 293d 74a6 763d 87d5 113d 01c8 d4bc
-0.029952124 -0.035351057 0.022515032 0.0005123475 -0.011851278 -0.005324439 -0.014550273 -0.0144023
-0.031182773 0.01877924 0.013644787 -0.05533365 0.039077926 -0.0038284438 -0.022603512 0.03463694
-0.024262933 0.04043891 -0.0048920275 0.023853589 -0.04244723 0.0014384079 -0.04296184 0.03735456
0.042415712 0.047296725 -0.022612734 0.0019308819 -0.058565814 -0.02228844 0.018497216 -0.04768042
-0.0069635967 0.016836645 0.018089706 -0.055239923 -0.00032288846 -0.048550587 0.035463575 0.061404835
0.015886147 -0.021836866 0.029109318 -0.007671896 0.025641434 -0.023835791 0.0052774227 0.003415764
0.019373385 -0.042054676 -0.019489814 -0.023954643 0.005856395 0.044930235 -0.023479596 -0.011048466
-0.022144541 -0.06601964 0.018148286 0.021354798 0.018908923 0.002674673 -0.021904577 0.025931654
0.034623537 0.017600683 -0.011045545 0.015300822 -0.048018467 0.034859587 0.0132984985 -0.039879683
0.008269036 0.019950436 0.0027958408 0.010531286 -0.028984338 -0.041368246 0.030045955 -0.0072820405
0.030868774 -3.612174e-05 0.020378955 -0.06050145 -0.023820542 -0.0022971153 0.0165097 -0.03148152
-0.032357585 0.008345822 -0.023324246 -0.025446616 -0.02214107 -0.026286473 -0.050412025 0.0018952657
-0.02457239 -0.019083533 -0.03361345 4.610025e-06 -0.095422424 -0.021951944 -0.02196475 -0.036191877
-0.025795743 -0.01864879 -0.049167637 0.008564516 -0.019894794 -0.042300675 0.016740847 0.03631447
0.008892379 0.06895072 -0.071666874 -0.0036209798 0.019919788 0.018644905 -0.007909784 -0.02880788
-0.033489034 -0.01943551 0.037175488 -0.001300863 -0.010432681 -0.015052111 -0.049157806 0.002527285
0.0150773665 0.013563707 0.01354957 0.052165993 -0.030973375 -0.044220883 0.046496786 0.10139347
0.037786894 0.08120715 -0.02306232 -0.08630526 -0.024188269 0.036493238 0.025904013 0.021806654
-0.06986219 0.045138046 0.004682808 -0.03184956 -0.023948653 -0.012623411 -0.0035928506 0.06320299
0.043801382 0.0072591007 -0.048211362 -0.006881023 -0.007937935 -0.01006687 -0.021163635 0.032178555
-0.01855022 -0.0064389324 -0.03674196 0.026563093 0.066902466 0.044798564 0.031379126 0.031777117
0.021695148 0.049506336 0.02312125 0.0066944035 0.05762034 0.08121605 -0.010101091 0.00974847
-0.020144045 0.02988536 -0.01458941 -0.05031246 0.055728044 -0.0024991499 0.0037880668 0.022097653
-0.006352893 -0.0028020095 -0.03184049 -0.011849123 -0.024569124 -0.037612382 -0.0040897387 0.032035016
-0.0058053876 -0.043405846 -0.035640348 0.01344568 -0.011735506 -0.010868114 -0.013993288 -0.02686467
-0.010943943 -0.018866021 -0.015844062 -0.0202617 -0.003551956 -0.039323233 0.0044556865 -0.03738985
-0.004098006 0.015377312 0.004350274 -0.024905426 -0.02134223 -0.018812342 -0.0007416703 0.01473339
-0.0051241405 -0.029475309 0.031414967 -0.07418405 -0.015148038 -0.011800204 -0.01034892 0.004148923
-0.0050653685 -0.012720391 0.025862712 -0.016608575 -0.038274545 0.015264098 -0.010175791 -0.013160396
0.019226499 -0.06653623 0.033965316 -0.044841014 0.0045426497 0.02426117 0.021521134 -0.010234856
-0.0034939027 0.052999236 0.037228502 -0.02646278 0.024313727 0.008682471 0.028700411 0.023239233
0.040957037 0.023471333 0.034625337 -0.02691897 0.04136207 0.060217336 0.035604026 -0.025974276

encoder.fc1.bias f4 [64]
00000000: c213 933d d732 813d 48ac 973c 67bf 293b
00000010: 24cc e03c d8a7 ba3b 43ce 75bd 2ddc 6d3c
00000020: 807d cabb b2e1 2dbd 9352 96bc 031b 203d
00000030: 8594 8d3d 1daf 84ba c885 08bd 667a fcbc
00000040: 4ddb ed3c de78 a13d fc4d 73bd 053f 653d
00000050: ce7c d5bc 9d4a 7e3b 9995 a4bc ccf7 213d
00000060: e89d ce3d c36a 81bb 6e35 1bbb 9015 62bd
00000070: 6c6a 5b3c 458c d0bc b44f d63a 2b90 4cbd
00000080: aa1b 2c3c 7d47 b03c 4ac7 b3bc c933 43bd
00000090: 8969 ef3b d7e8 9fbc 18a7 3ebd 8669 d7bc
000000a0: 55ff 993d 0935 3ebd ac66 1c3e 1421 2f3d
000000b0: c35d 2bbd d7d9 44bd 9b6e da3c 574c 383d
000000c0: 6007 6dbd 9b3b ad3d c13b b3bc 1be0 a53d
000000d0: beda a23d 000b efbb 6a78 0e3d 87c9 093e
000000e0: a594 9f3d ab0c a23d a06d b83d 729b 24bd
000000f0: a8d7 b2bc 8554 ce3d 33e5 6e3d 60b1 98bc
0.07181503 0.06308525 0.018514767 0.0025901438 0.027441092 0.005696278 -0.06001116 0.014517826
-0.0061795115 -0.042451568 -0.018349921 0.03908826 0.069130935 -0.0010122989 -0.03333071 -0.030820083
0.029035235 0.07884382 -0.059400544 0.055968303 -0.026060488 0.0038801797 -0.020090865 0.03954296
0.10088712 -0.0039494946 -0.002368297 -0.055196345 0.013392072 -0.02545751 0.0016350658 -0.049942177
0.0105046425 0.021518463 -0.021945614 -0.047656808 0.007306282 -0.019520206 -0.04654607 -0.026295435
0.07519404 -0.046437297 0.15273541 0.042756155 -0.041837465 -0.04805931 0.026664069 0.04499468
-0.05786836 0.084586345 -0.021879079 0.08099385 0.07951878 -0.0072950125 0.034782805 0.13455783
0.077920236 0.079125725 0.09005284 -0.040187307 -0.021831349 0.100747146 0.05832405 -0.018639266

encoder.fc2.weight f4 [16, 64]
00000000: c1ea bd3d 10f9 11bd 91c2 87bd 8294 123d
00000010: f69c 2f3c 0c69 e4bc 6321 eb3c 5879 03bb
00000020: 9ff2 13be e3cf 143d da24 a63d 4d3e 373d
00000030: 3dc8 4fbd 5d6e eebd dbe6 86bc e1d9 17bd
00000040: e664 513c 8eb3 693d 27ce 37bc a055 193c
00000050: 592e 06be 6f2f a03d 68a2 e7b9 a33b aabd
00000060: 8c86 ee3d 0173 e1bc 9e01 9b3d 7537 9f3d
00000070: 7116 893b 4509 e0bb 4f36 b13d 8298 44bd
00000080: 3970 b1bd 1f04 963c 30c7 9c3d 88b9 803d
00000090: 2353 1d3c cffb a6bd 462e c7bd 39f0 da3d
000000a0: 06b7 b1bd 11d1 91bd 1fd3 e33d 938e e6bd
000000b0: 957c e2bd ae88 b6bd e07d 5bbd 769e 99bd
000000c0: b2c4 983d 52b8 3e3d 9926 aabd bb30 7f3d
000000d0: 5446 19be d4b5 bd3d 3cac 3cbd 4008 553d
000000e0: 8c6a d83d efea 723c 6e2e 053d da2d 39bd
000000f0: 568e 133d b725 bcbd 5ee6 883d d1b0 353d
00000100: 509f 12bd 5543 42ba 5f7b 3a3d b0d6 d53d
00000110: 027e 66bd 26de 0abd 3e74 96bd 748f 913d
00000120: 55fb 1d3c 4a8f cfbd 2f27 00be f815 d9bc
00000130: 6920 993d 83bc e03b 417c e6bd a736 93bc
00000140: 69ae 853d 298c ba3c 7488 493d f443 233d
00000150: 50c2 d13d bd5e 10bd 41cd 8ebd 4b21 53bc
00000160: 8dfb 5f3d 62a4 cdbd 11f5 ec3c b902 dd3d
00000170: fc4b d9bd 9efe 293d a1f7 0a3c da42 a4bc
00000180: 2372 2ebc 7940 01be 3c29 d13d 74c1 583d
00000190: 554e 81bc 2309 203d 2e27 ae3d 9791 c73b
000001a0: 1866 9bbd aa67 4c3d 9be4 a9bc 2ca7 d63d
000001b0: fedc cf3d 0e1b c83d 8e48 ecbd 0d6c f13c
000001c0: 7a8c 02bd e196 453d 50f3 533d 5e44 a03d
000001d0: 993f 073c 3f02 8f3d ccaf d83d fbb4 c43d
000001e0: e27e 863d d48f 183d 158a b2bc 333f 023d
000001f0: c4fe 8a3d c680 123d b73b bcbc 1e78 f0bd
00000200: 7797 b83b ee4e 75bc 21e6 4b3d 63cc e1bd
00000210: 2392 e6bd 3319 f5bd 061e 8ebd 9f6f ad3d
00000220: 694a a0bd dbfa bbbd 076f 933d 5e18 b4ba
00000230: 4876 26bd 2e34 e63b 95bb e9bd cdb1 cbbd
00000240: 597e c93c 60dd da3d 9874 9b3d c4e7 b83b
00000250: 395c 61bd 71eb a03c 4e9f 8bbd 23c4 193d
00000260: d563 f93c 34af 05be 2adc 6ebd 0ad0 643d
00000270: 49b6 96bd 3955 ccbc fd1e 573d dc3a a93c
00000280: 6c47 8bbd 1bdd ffbc 51d6 47bd a294 87bc
00000290: c6aa 92bd eb58 dd3c 2fab 89bd c1b4 223d
000002a0: cad0 883d da60 c0bd 4e00 433d efa4 303d
000002b0: 68b6 823d 9adb 263d 0fd1 88bd cfaa 79bd
000002c0: cf4c d0bd b7f2 a03d ed8b 343d 165d 71bd
000002d0: 4335 fabd ff77 1ebe 3d11 343d 0b0e 7bbd
000002e0: ec32 553c c88f 133d 1335 9d3d 7995 84bd
000002f0: 245a a63c 44f0 b8bd 37ed 36bd 655c c1bd
00000300: 32e9 333a 3078 97bd 0c9f a4bd f4f0 d7bc
00000310: 919f 3bbe 2094 cabd 8e5f b93b e22f ecbd
00000320: d42c 55bd 6ef7 49bc a6c3 8a3c 366c bbbd
00000330: 96de 833d 897b df3d 99ea a9bd 9f86 a1bd
00000340: 01cb 6fbc fcd3 db3c 87a6 d63d 4c19 463c
00000350: cf68 863d 8866 2bbd 20e1 9b3d 8458 02be
00000360: 06d6 8fbd a9bb afbd e74e 1ebd 12e3 3cbd
00000370: 5c58 43bd e628 943d e36c f1bd d2b1 16be
00000380: 4c27 aa3d a5e7 d0bd 63ca d73c 3ce2 7fbd
00000390: 450d 7b3d e271 08bd 2084 943d a035 07bc
000003a0: 76dc c23d b64b cabd 5218 3bbd ba61 413d
000003b0: e4af c93d 96c0 e43c 1c16 aa3c 28ae 0c3d
000003c0: e370 efbd 2e48 46bd 8d00 373d 7bf8 813d
000003d0: 4962 a5bd 73b4 7ebc 6690 35bc b3ce b63d
000003e0: d5dc 01be 02b9 933c 9b78 b73d 7fc0 c1bd
000003f0: 1b36 39bd 844f 93bd 4aae cebd 6297 a83d
0.092732914 -0.035637915 -0.066289075 0.03578616 0.010718575 -0.027882122 0.028702443 -0.002006134
-0.14448021 0.03633107 0.08112498 0.04473715 -0.05072807 -0.11642144 -0.016467502 -0.03707302
0.012780404 0.057056002 -0.011218584 0.0093587935 -0.13103618 0.07821547 -0.00044180756 -0.08312156
0.116467565 -0.027520658 0.07568668 0.077742495 0.0041835834 -0.0068370425 0.08652937 -0.047997005
-0.08663983 0.018312512 0.076551795 0.06285387 0.009602341 -0.081534974 -0.09725623 0.1069035
-0.08677487 -0.071199544 0.111242525 -0.112576626 -0.110589184 -0.08912788 -0.05358684 -0.07500927
0.07459392 0.0465625 -0.08308143 0.062302332 -0.14968234 0.092631966 -0.046062693 0.05200982
0.10567197 0.01482652 0.032514982 -0.045209743 0.036024414 -0.09186881 0.06684564 0.04435808
-0.035796463 -0.0007410546 0.045527812 0.10441339 -0.056272514 -0.033903264 -0.0734639 0.0710744
0.009642442 -0.10134752 -0.12514947 -0.026499733 0.07476885 0.00685841 -0.11254168 -0.017970396
0.06527407 0.022771912 0.049202397 0.039859727 0.1024214 -0.0352466 -0.06972743 -0.012886356
0.054683257 -0.10041119 0.02892545 0.10791535 -0.10610196 0.041502587 0.008481891 -0.020051409
-0.0106473295 -0.1262225 0.10212943 0.052918866 -0.015784422 0.039071213 0.08503567 0.0060903537
-0.07587832 0.04990355 -0.02073889 0.10481104 0.10149573 0.09770785 -0.11537276 0.029470468
-0.03187225 0.048239592 0.051745713 0.0782554 0.008254909 0.0698285 0.105804056 0.09604832
0.0656717 0.03724654 -0.021794358 0.031798553 0.06786874 0.03576734 -0.022977693 -0.117416605
0.0056332904 -0.014972432 0.049780015 -0.11025312 -0.11258342 -0.11967697 -0.0693932 0.08468556
-0.078266926 -0.09178706 0.07198911 -0.0013740172 -0.040640146 0.0070252633 -0.114127316 -0.09946022
0.02459638 0.10686755 0.07590598 0.005642863 -0.05501959 0.019643517 -0.06817494 0.037540566
0.030443111 -0.13055116 -0.058315434 0.055862464 -0.07358987 -0.024942981 0.052519787 0.02065795
-0.06800732 -0.031233361 -0.048788372 -0.016550366 -0.07161479 0.027019938 -0.06722104 0.03972316
0.06680448 -0.09393473 0.047607712 0.043126043 0.063824475 0.040736772 -0.066805 -0.06095391
-0.101709 0.07858794 0.044078756 -0.058926664 -0.1221719 -0.15475462 0.043961752 -0.06129269
0.013012629 0.036025792 0.07676139 -0.06473822 0.020306654 -0.09030202 -0.04465982 -0.09441451
0.0006863057 -0.07395971 -0.08038148 -0.026360013 -0.18322589 -0.09891534 0.005657143 -0.115325704
-0.052044705 -0.012327058 0.016938996 -0.09151499 0.06438939 0.10912234 -0.08296699 -0.07887005
-0.014635802 0.02683448 0.10480981 0.012090992 0.065629594 -0.04184583 0.076112986 -0.12729079
-0.070232436 -0.08580715 -0.038649466 -0.04611499 -0.047691688 0.07234363 -0.117883466 -0.1471627
0.083082765 -0.10200433 0.026341623 -0.062471613 0.06129195 -0.033311732 0.07251763 -0.008252531
0.09514706 -0.09877722 -0.04567749 0.04721234 0.098480016 0.027923863 0.020762496 0.034345776
-0.11691453 -0.04840868 0.04467826 0.06346222 -0.08075387 -0.015545952 -0.011081791 0.089261435
-0.12681897 0.018032555 0.089585505 -0.09460544 -0.045217615 -0.07192901 -0.10091837 0.08231999

encoder.fc2.bias f4 [16]
00000000: df38 083e b60f 93bd f098 a23d d591 87bd
00000010: 0d3d 7c3d b27c 9f3b 0f71 0f3e fd02 cd3d
00000020: 57ad 1d3e d8ee f5bc 22f9 8abc 1b12 793b
00000030: d6c9 b63d b170 303d 75ff 4c3c 8f3c bfbd
0.13302945 -0.07180731 0.07939327 -0.06619612 0.06158166 0.0048671598 0.14007972 0.100103356
0.15398155 -0.030021116 -0.016964499 0.0038005176 0.08925216 0.04307622 0.012512078 -0.093377225

encoder.fc21.weight f4 [4, 16]
00000000: ec26 9d3d fecd f63d b4f8 093e bd16 c9bd
00000010: abaa 5f3e aa72 c9bd 26b8 afbc bdca df3c
00000020: c583 c03d 6192 2abe 2abc 3d3e 8c97 74be
00000030: d80f 51be b6a0 d6bd a0f0 ae3d 3055 053e
00000040: 9163 643e eddb 013e 6c68 bfbc e4a9 2d3e
00000050: ab7b 4abe 85bd d53b 7324 943d 0a5c 4fbe
00000060: 978e 573e 9be1 063e a5b1 f1bd 7210 36be
00000070: 3d77 dbbd 6e86 05be 7c6c 69bd a83a 103e
00000080: 8214 1b3e b163 bbbd 8e8b 16be 50ca ba3d
00000090: 8f68 a33d 401f 343e 6ac8 663e 6b86 0abd
000000a0: 97d4 6dbd de5f 0bbe 41bd 0a3e 96e8 cf3d
000000b0: 29b5 e53d da31 17be f3a6 773d 4abb 59be
000000c0: 017c 383e 9f95 18be aeec 003e dbe5 1dbe
000000d0: e5e9 2abe c7cb 41be a5d9 7dbd 6064 d53d
000000e0: 1253 87bd ddc5 593e 513b 4d3e 0279 023e
000000f0: 4cf3 1f3e eb55 a3bc a766 1d3e bb48 23be
0.076734394 0.12051009 0.13473779 -0.0981879 0.21842448 -0.098363236 -0.021450114 0.027318353
0.09400133 -0.16657402 0.1852881 -0.23885936 -0.204162 -0.10479872 0.08541989 0.13020778
0.22303607 0.12681551 -0.023365222 0.1695934 -0.19773738 0.0065228366 0.07233515 -0.20249954
0.21050487 0.13171999 -0.11801461 -0.17779711 -0.10716102 -0.13039562 -0.056988224 0.14084876
0.15144542 -0.09149874 -0.14701673 0.09120619 0.07978927 0.17590046 0.2253739 -0.033819597
-0.05806407 -0.13610789 0.13548757 0.10151784 0.11216194 -0.1476511 0.06046195 -0.21262851
0.18016054 -0.14900826 0.12590286 -0.15419714 -0.16690786 -0.18925391 -0.06197514 0.10419536
-0.06607641 0.21266885 0.20042159 0.12741473 0.15620154 -0.01993843 0.1537119 -0.15945713

encoder.fc21.bias f4 [4]
00000000: 46a6 0bbe 587c 93bc 18b8 40be 1b85 37be
-0.13637647 -0.018003628 -0.18820226 -0.1792187

encoder.fc22.weight f4 [4, 16]
00000000: a353 65be 2109 56bd e3a3 3fbd 1ded 453d
00000010: a941 31be f3be 15be df2c 5e3d 3074 a6be
00000020: 3a79 e83a 3280 3fbd 7984 9abd 2a0e fb3d
00000030: d3ef c1be baf6 64bc e214 0dbe d980 3a3e
00000040: e1c0 893d 1d09 983b 4426 7e3e bf35 19be
00000050: 5527 73bd 00ab 68bd 2783 59bd b9a1 1abd
00000060: 7772 ecbd 42bf ddbc 0c97 403d fe1e b63d
00000070: 2700 a7be e93a 90be 74db f93b 8c4c a63d
00000080: 8051 59be a866 06be a943 03be 2cfb 0dbe
00000090: bd43 d23d 06cc 1bbe fece c13d 36ff 9a3d
000000a0: 6d2e 2ebe c047 113e c2f7 8e3d b13d c8bd
000000b0: c830 1bbd 1f83 52be 8a5a 49be a192 a53c
000000c0: af8e 61be ae09 2f3c 21e1 c33d b6e6 1e3d
000000d0: 409f db3d 6981 0abd 8e26 04be 55bb edbd
000000e0: fead 37be 7cdd f5bd 78d6 eabd 6861 053e
000000f0: f127 8bbe 0852 0cbe 14c5 38be 0a53 63be
-0.22395186 -0.0522548 -0.046787154 0.048321832 -0.17310204 -0.14623623 0.05424201 -0.3251052
0.0017736324 -0.046753116 -0.075447984 0.12258561 -0.37878284 -0.01397484 -0.13777497 0.18213214
0.06726242 0.0046397583 0.24819285 -0.14961909 -0.05936368 -0.056803703 -0.053103592 -0.037751887
-0.1154527 -0.027068738 0.04701905 0.0889263 -0.32617304 -0.28169945 0.007625038 0.08120069
-0.21222496 -0.13125098 -0.12818779 -0.13865346 0.10266826 -0.15214548 0.09463309 0.07568209
-0.17009898 0.14187527 0.0698085 -0.09777392 -0.03788832 -0.20557831 -0.19663444 0.02021152
-0.22027086 0.01068346 0.09564424 0.03879424 0.10723734 -0.03381482 -0.12905332 -0.116079964
-0.17937467 -0.120051354 -0.11466688 0.13025439 -0.2717891 -0.13703167 -0.1804393 -0.22199646

encoder.fc22.bias f4 [4]
00000000: f3e7 ed3b 29f7 95be e989 bebe a836 4cbd
0.0072603165 -0.2929013 -0.37214592 -0.04985681

encoder.bn1.weight f4 [16]
00000000: 94d1 693f e370 723f b42e 6d3f 0000 803f
00000010: e1dc 6a3f 0000 803f 0000 803f c48b 713f
00000020: af39 743f 0000 803f 6406 613f 1a6a 6a3f
00000030: 797b 673f 0c96 623f 0000 803f 8402 7c3f
0.91335416 0.947035 0.9264939 1.0 0.91743284 1.0 1.0 0.9435389
0.9540052 1.0 0.87900376 0.9156815 0.9042278 0.88510203 1.0 0.9844134

encoder.bn1.bias f4 [16]
00000000: 0a00 ac3c 1c8a d73c 9714 a23d 4421 c33c
00000010: 2f6c c8bb 1cc0 19bd b530 83bb 1a80 473d
00000020: 1a35 ab3c ab7d 5bbd aa3e 383d ccd4 81bc
00000030: ca65 08bd 3a04 b73d d396 e2bb 6105 6bbd
0.020996112 0.026310973 0.079140835 0.023819573 -0.006116412 -0.037536725 -0.004003609 0.04870615
0.020899344 -0.053586643 0.044981636 -0.01584854 -0.0333002 0.08936353 -0.0069149523 -0.057378177

encoder.bn1.running_mean f4 [16]
00000000: 5682 be3d 1ebb 893d 4e77 833c 0000 0000
00000010: 2607 173f 0000 0000 0000 0000 a3d6 293d
00000020: ed26 c13c 0000 0000 c024 e63d 88e2 023f
00000030: eb0c c83e 7357 1d3e 0000 0000 dc82 143d
0.09302203 0.06725143 0.0160481 0.0 0.5899528 0.0 0.0 0.04146446
0.023578132 0.0 0.11237478 0.5112691 0.39072356 0.1536539 0.0 0.03625761

encoder.bn1.running_var f4 [16]
00000000: 4538 f63c d9c8 863c 4a9b 753a 3791 0c2a
00000010: e87d bd3c 3791 0c2a 3791 0c2a 970b 943b
00000020: 8d8a 043b 3791 0c2a 965a 5e3c f1e5 293d
00000030: ef6a c23d 7ddb cf3c 3791 0c2a 99f6 573b
0.030056128 0.016453194 0.0009369148 1.248488e-13 0.023131326 1.248488e-13 1.248488e-13 0.004517983
0.0020224184 1.248488e-13 0.013571402 0.041479055 0.09493052 0.025373215 1.248488e-13 0.003295338

encoder.bn2.weight f4 [16]
00000000: c253 773f 3eb6 5e3f 0bdd 5c3f b6a6 6b3f
00000010: 33de 5d3f e1b0 823f 03a9 713f 1a2f 663f
00000020: 5d54 603f f23c 603f 7e40 703f b9f8 733f
00000030: 5250 7a3f 1c37 5f3f b37a 763f 5974 5e3f
0.9661218 0.8699683 0.86274785 0.92051256 0.86667174 1.0210229 0.94398516 0.8991562
0.8762873 0.87592995 0.9384841 0.95301396 0.9777881 0.87193465 0.96280974 0.8689628

encoder.bn2.bias f4 [16]
00000000: c220 f2bc 1e77 313d 5bdf 983b b766 59bb
00000010: 7257 1a3d dda6 c9bc bc45 59ba 3c41 8c3c
00000020: 45a9 c13c 6612 733a b321 553d 2a46 253d
00000030: 11e4 cf3c 24a3 203d d3e7 383d 4443 353d
-0.029556636 0.04332649 0.004665298 -0.0033172795 0.03768105 -0.0246157 -0.00082882843 0.01712095
0.023640284 0.0009272456 0.05203409 0.040350117 0.025377305 0.039218083 0.04514296 0.044253603

encoder.bn2.running_mean f4 [16]
00000000: 2c03 883e edc6 603e 6608 003e c4e3 9d3e
00000010: fc43 923e 69ee 603e c79c 273e 36df 4d3e
00000020: f112 313e 5a9b 2c3e c833 893e 960b 663e
00000030: 841c b03e 3af1 543e bc45 bb3e 4ca5 163e
0.2656492 0.21950884 0.12503204 0.30837834 0.28567493 0.21965946 0.163684 0.2010468
0.17292382 0.16856137 0.26797318 0.22465357 0.34396756 0.20795146 0.3657664 0.14711493

encoder.bn2.running_var f4 [16]
00000000: 4f28 bd3d d90e a03d d490 003d f686 7c3e
00000010: f48d e83d f781 0b3e e009 723d 8ca0 be3d
00000020: cb19 543d b443 3a3d 598e f33d 0715 353e
00000030: a5d3 743e 4e94 db3d cc86 5a3e f61b 5d3d
0.09236204 0.07815332 0.03138812 0.24660859 0.113552004 0.13623796 0.05909145 0.09307966
0.05178241 0.045474723 0.11892385 0.17683803 0.23908861 0.10721646 0.21340483 0.053981744

encoder.bn3.weight f4 [32]
00000000: 548e 723f 7c65 623f 1bb1 823f d4cd 7f3f
00000010: 01e1 613f 0393 703f b67a 843f 787a 7f3f
00000020: e234 6b3f 643d 7c3f 1eb1 763f f50a 743f
00000030: 28d3 7c3f 58ee 713f 0745 743f 65d0 7b3f
00000040: dd57 613f 7a30 733f 3b53 6d3f 519e 6d3f
00000050: 2cce 6c3f 0ed3 723f 7ecd 5f3f 7a43 7a3f
00000060: 2d6f 713f e02d 633f c30d 653f 1673 613f
00000070: 5891 6e3f d10b 6e3f 0e8f 783f 741b 7f3f
0.94748425 0.884361 1.0210298 0.99923444 0.88233954 0.9397432 1.0349948 0.9979625
0.9187757 0.98531175 0.9636401 0.9532922 0.987597 0.9450431 0.9541783 0.9836486
0.88024694 0.94995844 0.92705125 0.92819697 0.92502093 0.94853294 0.8742293 0.9775921
0.94310266 0.88741875 0.89474124 0.8806623 0.93190527 0.9298678 0.97093284 0.99651265

encoder.bn3.bias f4 [32]
00000000: 42ff ac3a 82e0 573c ddc0 5cbd 2c9e 8dbb
00000010: f666 ca3b e5f4 6fbd 77a8 b63c 793b 183c
00000020: e028 d03a f3dd adbc 647c 563b b556 20bc
00000030: 54ce 1cbd 4d0a 2fbd f168 31bd a1ee 25bd
00000040: fc0f 863c d397 703c 4ac7 8c3b ab2b 8ebd
00000050: 534c 16bd 8d5f 42bc 2285 4d3d 031f 63bd
00000060: bbf8 e3bc 4813 283d 43fc 913d 8e0c d93c
00000070: 03ad 25bd ff35 83ba 1179 b0bc 0e55 6fbc
0.0013198631 0.013176085 -0.053894866 -0.004321834 0.0061768247 -0.05858316 0.022297127 0.009291523
0.0015881322 -0.021223998 0.0032727951 -0.009786298 -0.038282707 -0.042734433 -0.04331297 -0.040510777
0.016365044 0.014684635 0.004296218 -0.06941923 -0.036693882 -0.011863601 0.050175793 -0.055449497
-0.027828565 0.041034013 0.07128193 0.026495244 -0.0404482 -0.0010010599 -0.021542104 -0.014607681

encoder.bn3.running_mean f4 [32]
00000000: 4f75 7c3e 613a 3a3e 48ca af3e 74f7 9b3e
00000010: 10e2 ad3e e42a 463e 098d db3e 3ed8 a93e
00000020: 37af 9a3e 2e1d a03e 36bf 8b3e dc3a a83e
00000030: 0eed 893e 7981 8a3e 88f0 153e d4c0 623e
00000040: 1cec 6a3e 0110 973e 7a2d 393e 4d10 413e
00000050: 5954 a13e 8a73 a93e 552c 693e d4ef 733e
00000060: 61e7 963e cd4d 5e3e 0140 b03e 4966 833e
00000070: 55ee 4e3e 2562 5c3e 3ed3 cd3e da33 af3e
0.24654125 0.18186332 0.34334016 0.3046223 0.33961535 0.19352299 0.4288104 0.33172792
0.30211803 0.31272262 0.2729432 0.32857406 0.2693867 0.27051905 0.14642537 0.2214387
0.22941631 0.29504398 0.18083754 0.18853875 0.31509665 0.33095962 0.22770818 0.23821956
0.29473403 0.21709366 0.3442383 0.25663975 0.20208104 0.21521814 0.40200227 0.34219247

encoder.bn3.running_var f4 [32]
00000000: e21c 453e 907b f43d d0d3 4c3e a57e 603e
00000010: 641e 4b3e e3f0 be3d 7b8e 973e 4a0e 343e
00000020: 09d2 433e 25a8 163e c85f 1e3e e70e 0c3e
00000030: b9c2 1d3e 4cea 213e 2c2b a83d 977c ef3d
00000040: eb92 0a3e b6cd 123e 11a8 053e 34a5 c63d
00000050: 68e2 f63d bec5 403e 87e5 fb3d 4cc7 183e
00000060: 756d 273e da71 d53d e511 3d3e 9894 193e
00000070: cc6f c93d 4be9 e53d e10f 9b3e 3e7d 543e
0.19249299 0.1193763 0.20002675 0.21923311 0.19835812 0.09323289 0.2960089 0.17583576
0.19123091 0.1471258 0.15466225 0.1367756 0.15406312 0.15812033 0.082113594 0.116936855
0.13532607 0.14336285 0.13052393 0.09699479 0.12054902 0.18825433 0.12299638 0.14919776
0.16350348 0.10422106 0.18463857 0.1499809 0.09835777 0.11226138 0.30285552 0.20750901

encoder.bn4.weight f4 [32]
00000000: f17e 6b3f 1881 813f 7faf 723f 0bfc 713f
00000010: 56ad 7d3f facf 763f 5dff 7c3f 8c5f 813f
00000020: 5942 803f 38a0 823f dc32 6e3f 314d 793f
00000030: 859f 743f 04e1 7c3f b115 7b3f 3194 7d3f
00000040: 19a9 7f3f a34c 6f3f 4271 773f 5fd9 693f
00000050: 7400 773f 73dc 7a3f c4e3 7d3f d858 7f3f
00000060: 7890 753f 7930 743f 4cac 723f c471 733f
00000070: e09a 813f f1fa 763f 51d5 683f e5ae 793f
0.9199057 1.0117521 0.94799036 0.9452521 0.99092615 0.964111 0.98827153 1.0107284
1.0020248 1.0205145 0.93046355 0.9738341 0.9555591 0.98780847 0.98079973 0.9905425
0.998674 0.93476313 0.9665719 0.91347307 0.96485066 0.9799263 0.9917567 0.9974494
0.95923567 0.95386463 0.94794154 0.9509547 1.0125389 0.96476656 0.90950495 0.9753249

encoder.bn4.bias f4 [32]
00000000: 9c9a a5bc 45b5 84bd 6be2 0b3d 0886 8a3c
00000010: d7c8 12bd 498f febc 11c9 12bd 663f 1ebd
00000020: 3923 ec3c a3ac debd 90c7 efba b227 edbb
00000030: d958 403c 50e4 9cbd c6e4 dabd eab1 51bd
00000040: 7ac9 8fbc bc85 b1bd 4d8f febc 4bf2 03bd
00000050: 85a4 62bd 8a26 1bbd 6343 b2bd 559b 62bd
00000060: 22d0 cebc 9a61 7bbd 20d5 70bd 29a1 6d3d
00000070: b246 51bd 4cd5 9abd 280d 623c 1660 afbc
-0.020215325 -0.06479887 0.034151476 0.016909614 -0.035836067 -0.031074183 -0.035836283 -0.03863468
0.02882539 -0.108727716 -0.0018293727 -0.007237398 0.011739933 -0.07660735 -0.10688166 -0.051195063
-0.017552126 -0.08668086 -0.03107419 -0.03221349 -0.05533268 -0.03787855 -0.08704259 -0.055323917
-0.02524573 -0.061372377 -0.058797 0.058015022 -0.05109281 -0.075602144 0.013797082 -0.021408122

encoder.bn4.running_mean f4 [32]
00000000: dc77 5d3e 0719 8a3e 3877 7a3e 0ae7 813e
00000010: 5331 b43e 71bd 693e 4fef 503e 5162 7e3e
00000020: 5b17 8f3e 80f0 443e 8912 5d3e 430e 5e3e
00000030: e883 9b3e 605f 993e ebbe 803e 875a 893e
00000040: d740 8f3e 55f1 7e3e bd58 863e 0191 793e
00000050: 7e89 4e3e 49fa a63e a162 7a3e b1f2 773e
00000060: 931a b53e 4a17 873e 430d a13e 2c82 873e
00000070: ef1d 823e a166 833e b143 983e 624c 493e
0.21627754 0.2697222 0.24459541 0.2537158 0.3519388 0.22826172 0.20403789 0.24842192
0.27947506 0.19232368 0.21589102 0.21685128 0.30374074 0.29955578 0.2514566 0.2682688
0.27979156 0.24896748 0.26239577 0.24371721 0.20169637 0.32612827 0.24451686 0.24213673
0.35371837 0.26384956 0.3145543 0.264665 0.25413463 0.25664237 0.29739144 0.19658044

encoder.bn4.running_var f4 [32]
00000000: 73aa 103e 9475 303e 4358 333e 88dc 103e
00000010: c7a2 613e 85c1 153e 4433 f53d bed4 443e
00000020: 1be9 153e f447 f53d 702e 023e 203a 123e
00000030: 07ee 6f3e 3dd5 363e 71dc 1e3e d1f8 113e
00000040: a62d 203e eaf9 303e 28f9 3a3e 08ac 003e
00000050: a60d d13d f236 603e 11e9 f93d 1555 223e
00000060: 403b 693e a088 233e 8f78 4c3e 3a30 353e
00000070: 1bce 2b3e 2c9c 0d3e 0e7c 4a3e 100c c33d
0.14127521 0.17232352 0.17514138 0.14146626 0.22034751 0.14624603 0.11972669 0.1922178
0.14639704 0.119766146 0.12713027 0.14279985 0.23430644 0.17854781 0.15513779 0.14255072
0.15642413 0.17282835 0.18259108 0.12565625 0.10207681 0.2189596 0.12202657 0.15852769
0.22776508 0.15970087 0.19967864 0.17694178 0.16777842 0.13829106 0.19773886 0.09523785
